ai-layer/model/results/50000_v2/dnn_oud_risk_model.pth (torch, 65493 bytes, 25 tensors)

network.0.weight f4 [128, 11]
00000000: 3b98 98be 2796 9abe 9e45 403e f1df 1a3e
00000010: 9397 6abe 0502 8e3b 6495 abbd 8bca dc3d
00000020: fbb4 123e 1dd7 b53d 287e 173e 8cb5 c9bd
00000030: 35e1 053e c92c 55be 5ccb 8ebe f85e 43bd
00000040: 5897 813e 493b 96bd 4126 d5bd 4009 373c
00000050: 0ca4 033e 060c c1bd ac71 233e 8813 bcbe
00000060: 2b47 153e 4fbf 34be 4735 613e 4686 35be
00000070: a752 8e3e dbae d8bd 71ad 6dbe 6372 94bd
00000080: 5750 a43e 5757 963d 723f 48be 58b3 84be
00000090: 43e0 85bd 4dfd f4bd 1ca2 88bd 476c 3f3e
000000a0: bff6 16be f13a 1a3e 2abf 743e 603c 8f3e
000000b0: f3cd e43c 40e7 833e 0e6d 21bc db6e 8b3d
000000c0: bdeb 343e c298 f3bd 06b8 b8bd e309 88be
000000d0: 6991 923e c5e3 4a3b db19 67be 107a 92be
000000e0: bd44 453e f110 1cbc 8aba 453e 6e86 3fbe
000000f0: 4255 32bd d76e 5d3e 4521 97bd 2332 123e
00000100: 2a23 4ebe aff7 f4bc 2ee9 853e d16b 21be
00000110: 5cdf 153c 69e9 213e 9a5b 52bd 152d 0fbe
00000120: 1a0d 1d3e 5e36 01be d231 e43d d12f 31bb
00000130: d7d8 6bbe 7744 62be 0d11 15be f44e 03be
00000140: 99b8 53be cae6 52be 5f5c 97be 150f 913d
00000150: 7512 e3bc f793 6fbe ce82 9bbc c071 6f3b
00000160: edae 1e3e 9724 793e 7fd0 08be a112 53bd
00000170: 6e06 d4bc 8c1c 6abe c81b 51be 49bf 493e
00000180: 4579 72be dbc0 5b3e 5903 7ebe 19fb 97be
00000190: d72f 19be 9cc2 9c3e 0224 8d3c 607f 76bd
000001a0: 95c1 c83d 6b1c f43d 0056 37be 1856 b43c
000001b0: d5b6 80bb 3067 933d bd16 043e 7c24 7a3e
000001c0: 4abe 093e b892 913d e348 0fbe cc30 94bd
000001d0: b403 a93d 078a 733e 09b9 43bc 8108 8fbd
000001e0: 0cd6 e63d 2dd0 62be 1d8d 293e 5fab a33d
000001f0: c68f 37be 0836 1b3e 9578 003e e699 7ebd
00000200: 1e11 cabc 81be ec3d 6510 bc3d 5e8c 17bd
00000210: e5bc cc3d 5c18 1f3e abc3 e63d 21d7 823d
00000220: ae01 af3c 0c67 96be a200 f5bc e1e0 42be
00000230: 25f8 06be 731a 31bd 24af 57be 5353 593e
00000240: ef80 6cbe f6f7 29be 4a80 bb3d 9941 a13e
00000250: 62dc a33e a3f5 73be 80d1 653e 4fe5 023d
00000260: a2ef 9e3e e768 1e3e e636 97bc 9538 473e
00000270: d99a 90be 43f0 1dbe b7eb afbc d4e1 85be
00000280: 9881 533e 6fe9 ca3d 68ef 42bd b93c 603e
00000290: d864 e03c 0834 1fbe 4ea1 003d 5447 983d
000002a0: f2b5 513e a507 a83d fd58 60be b231 9fbe
000002b0: c880 b63b 8c77 2ebe 23a1 87be 7f47 76bd
000002c0: f9ec 3abe 8185 b03d f96a 32be 1902 88be
000002d0: 8231 3fbe 1771 8fbe 25c0 823e 0f8b 523e
000002e0: 7804 06be e745 12bc f5b3 333d 3ed1 873d
000002f0: a99c 1b3e abd4 723c ecc6 21bc 913a 04be
00000300: 7320 8bbe c649 84be 221f 87bc 5745 053e
00000310: 62b8 8d3d b674 38bc 8152 91be e42f 333e
00000320: 483d 283e 8353 37be 43bc b93c 7b94 43bd
00000330: 046e 043d faf6 203d d62f a3bc 6a31 efbd
00000340: 05dd 9f39 301d 0b3e 3ee7 90be 0fd9 153d
00000350: 9e86 463e cad8 3b3e 02fa ecbd 5dec 003e
00000360: 264f 89be b0e4 253d 1352 58be 5157 e53d
00000370: a719 0cbe 42f4 3139 add5 653e 95a1 123e
00000380: 02e9 923e 000c 693e 4351 023c c926 2d3e
00000390: 8764 0d3e 918e 9ebe 391d 013d 75fc 24bd
000003a0: 91f2 213c a898 2c3e 947d 953d 8dcb ca3d
000003b0: 6124 773e d99e 863e 8f1a dd3b 4aec 33be
000003c0: 78ff ed3c df47 1fbe cab3 a23c fbd3 68bd
000003d0: 65af 473c 88e2 793e 3a76 b6be 9a08 693c
000003e0: e55e 0d3e e603 08be 6e5b 643d 35fa 953e
000003f0: fc66 62be b64b 8e3d 7692 7ebe 4a40 6dbe
-0.29803643 -0.30192682 0.18776557 0.1512449 -0.22909383 0.004333737 -0.083781034 0.107808195
0.14326851 0.0887892 0.14794219 -0.098490804 0.13074191 -0.20817865 -0.27889526 -0.04769799
0.2531078 -0.073355265 -0.10407687 0.011171639 0.12855548 -0.094261214 0.15961331 -0.3673365
0.1457793 -0.17651103 0.2199298 -0.17727003 0.27797434 -0.10580226 -0.23210694 -0.0724838
0.32092544 0.073408775 -0.19555452 -0.25918078 -0.06536915 -0.11962376 -0.06671545 0.18693648
-0.14742564 0.15061547 0.23901048 0.2797575 0.027930235 0.25762367 -0.009852661 0.068082534
0.17668052 -0.118943706 -0.09019475 -0.26570043 0.28626564 0.0030958515 -0.22568457 -0.2860875
0.19264503 -0.0095255235 0.1930944 -0.18703625 -0.04353834 0.21624313 -0.073793925 0.14276938
-0.20130602 -0.029903261 0.26154464 -0.15763785 0.009147491 0.15811695 -0.05135689 -0.13982041
0.15337029 -0.12618396 0.11142315 -0.0027036557 -0.23031937 -0.2209643 -0.14557286 -0.12823087
-0.20675887 -0.20595852 -0.2956266 0.07082955 -0.027718762 -0.23396288 -0.018983271 0.0036536306
0.15496416 0.24330364 -0.13360785 -0.051531438 -0.025881972 -0.22862452 -0.20420754 0.19701876
-0.23679073 0.21460287 -0.24805965 -0.2968376 -0.14959656 0.30617225 0.017229084 -0.060180068
0.09802548 0.11919483 -0.179039 0.022013709 -0.0039280453 0.07197416 0.12899299 0.2442798
0.13451496 0.071080625 -0.13992648 -0.0723587 0.082526594 0.23783122 -0.011945971 -0.06984044
0.11271295 -0.22149725 0.16557737 0.07991671 -0.17925939 0.1515733 0.12545998 -0.062158488
-0.024666365 0.11559773 0.091828145 -0.0369991 0.09996966 0.15536636 0.112677895 0.06388689
0.021363106 -0.29375494 -0.029907528 -0.19031097 -0.13180597 -0.043238115 -0.21062905 0.21223192
-0.2309606 -0.16598496 0.091553286 0.3149536 0.32004076 -0.23824172 0.22443199 0.031956967
0.310422 0.15469705 -0.018458795 0.19455178 -0.2824314 -0.15423684 -0.021474702 -0.26148856
0.20654905 0.09907805 -0.047591597 0.21898164 0.027391836 -0.15547192 0.031403832 0.0743548
0.20479563 0.08204583 -0.21908946 -0.31092602 0.005569551 -0.17037791 -0.26490125 -0.060126778
-0.1825446 0.08619214 -0.1742362 -0.265641 -0.1867123 -0.28015968 0.2553722 0.20560859
-0.13087642 -0.008927799 0.043872792 0.06631707 0.1519648 0.014821212 -0.009874087 -0.12912966
-0.27173194 -0.25837535 -0.016494337 0.13014732 0.06919934 -0.011258295 -0.28383258 0.17498738
0.16429627 -0.17902951 0.022672778 -0.047749024 0.03233148 0.039298035 -0.01992027 -0.11679347
0.00030491516 0.13585353 -0.28301424 0.036583956 0.1938729 0.18344417 -0.11571123 0.12590165
-0.26818198 0.040501297 -0.21125059 0.11198295 -0.1368166 0.00016971029 0.22444792 0.14319451
0.28693396 0.22758484 0.007953945 0.16909327 0.1380788 -0.30968145 0.03152201 -0.040279824
0.0098844925 0.16855109 0.07299343 0.099021055 0.24134971 0.26293066 0.006747551 -0.17570606
0.029052481 -0.1555476 0.01986112 -0.056842785 0.012187813 0.24402821 -0.35637075 0.014223242
0.1380573 -0.13282737 0.055751257 0.29292455 -0.22109598 0.069480345 -0.24860558 -0.23169056

network.0.bias f4 [128]
00000000: 6c9d 07be 7b69 1c3d 3c2d 893e 651a 9bbb
00000010: a180 053e 9e3b 6cbd 4990 d43d 908c 68be
00000020: 6c10 6fbd 1086 753e c9b0 7dbe 47a9 823e
00000030: db3b 0bbe e16a 4a3e 18f5 c83d 125b 7e3e
00000040: 53f1 91bd a07b d9bd dc37 05be 0c64 8abd
00000050: e786 2a3e 6eb8 6cbe ea56 00be 89e5 3fbe
00000060: 5c04 9e3d ee00 ed3c 3418 25be dceb 423e
00000070: 648c 063d 8409 14be 0daa 3f3e 384e 93be
00000080: 8c2f a93d 31c6 7abd cc25 bc3c 66c5 9fbd
00000090: 5100 d83c 5eb9 f8bd aa00 063e e6f7 aebd
000000a0: a582 1cbe d9e8 353e b5a1 383e 9bc9 803e
000000b0: 0e93 343e 4731 21be a2ea 053e aadc 99be
000000c0: 0f0f 983b dc4e 8bbe 2ec7 8b3e fcbb c93d
000000d0: 0240 483e 8139 62be bc91 d03d 17bf 5ebe
000000e0: 9990 133e 29bc d13c 8697 79bd c5c7 a43d
000000f0: 133f 913e 4234 90be 04cf d1bd 6eb7 82be
00000100: 3659 d3bd 591f a83c 3f72 8f3e b37e 81bd
00000110: e7f3 83bd 8534 863e dc6d af3d 717a 103e
00000120: 4622 0bbe 214c c0bd 7c95 8fbe 62b4 cabd
00000130: e943 9a3e 1297 cdbd 1cb8 533e 3c0d 653e
00000140: 1340 95bd 2040 34be 96cb 373e 0656 c5bd
00000150: 276d b5bc 1470 87be 295c 5bbd f58c bf3d
00000160: 4d58 243d 9fb2 71be 5ed8 693e ebf8 883e
00000170: 4771 243d e5e5 2b3d 22df 79be ac47 45be
00000180: 8041 523c e497 98be bb58 803e 7ed9 e73c
00000190: 967d 043b eac3 bd3d 11c2 0dbe c2ce 20be
000001a0: a6b1 8f3d 7b84 7f3e 0cb6 8f3e 531c 6abe
000001b0: 9f1b f1bd 7c53 fabd 0961 97bd 032b 93be
000001c0: 378f 423e 9799 1bbe 888e 72be 8f34 553e
000001d0: 1a71 643e 4475 703e 8f9f 7dbe 9ee9 cf3d
000001e0: cb38 15be 45d6 36be c9b0 153e 77b1 c2bd
000001f0: 5129 8abe eded 683e b5c7 443e d9d6 43be
-0.13243645 0.03818653 0.26792324 -0.004733371 0.1303735 -0.057674043 0.10379083 -0.2270987
-0.05836527 0.23976922 -0.2477447 0.25519773 -0.13597052 0.19767334 0.09812373 0.24839428
-0.07126107 -0.10619283 -0.1300959 -0.06757364 0.16653024 -0.2311723 -0.12533155 -0.18739904
0.07715675 0.028931107 -0.16122514 0.19035286 0.03284873 -0.14456755 0.18717213 -0.28770614
0.08261022 -0.061224166 0.022967242 -0.07801323 0.026367338 -0.12144731 0.13086191 -0.085433766
-0.15284212 0.17764606 0.18030436 0.25153813 0.17634222 -0.15741454 0.13077787 -0.30051166
0.004640467 -0.27208602 0.273004 0.09850308 0.19555667 -0.22092248 0.101840466 -0.21752582
0.14410628 0.025602417 -0.06093552 0.080459155 0.28368434 -0.2816487 -0.10244563 -0.2553057
-0.1031975 0.02052276 0.2801685 -0.06322994 -0.06443005 0.26211944 0.08565876 0.14109208
-0.13587293 -0.093895204 -0.28043735 -0.098976865 0.30129936 -0.1003858 0.20675701 0.2236833
-0.07287612 -0.17602587 0.17948756 -0.09635548 -0.022146774 -0.26452696 -0.053554688 0.09353057
0.040123273 -0.23603295 0.22836444 0.2675241 0.040147092 0.04196729 -0.24401525 -0.19265622
0.012832999 -0.29803383 0.25067696 0.02830195 0.0020216457 0.09265883 -0.13843562 -0.15703872
0.070163056 0.24952881 0.28068578 -0.22862367 -0.117728464 -0.12222955 -0.07391555 -0.28743753
0.18999945 -0.15195309 -0.23687184 0.20820831 0.2230877 0.23482233 -0.24767898 0.10151981
-0.14572446 -0.17855175 0.1461822 -0.09506505 -0.26984647 0.22747011 0.19216807 -0.19124927

network.1.weight f4 [128]
00000000: f82f 833f 1536 7b3f f2f7 7b3f e6da 813f
00000010: d951 773f d95f 783f df8a 6e3f ad4a 853f
00000020: 6951 813f 20c4 8a3f 14da 773f 90f8 893f
00000030: 6ded 7a3f b1c6 753f 8285 803f 25c8 833f
00000040: 85c2 7a3f 53c4 823f e326 843f eac1 723f
00000050: 5933 733f 57e7 7b3f 7742 6a3f 8bda 803f
00000060: e49b 783f 1ea7 813f b181 873f dd18 773f
00000070: e8aa 783f 7e75 7e3f 2dd8 813f 496b 683f
00000080: d09a 873f 8771 7c3f 725b 803f e21b 793f
00000090: 4eef 873f 18c9 733f ac2c 8d3f 8755 783f
000000a0: c20e 803f 873d 7a3f 7efd 7c3f d6d1 753f
000000b0: 6f1c 823f 534c 7b3f 0737 793f 2187 863f
000000c0: 9d56 7d3f 1c19 723f fffc 683f 9911 763f
000000d0: 5b84 833f 53ef 753f f078 793f 50d4 823f
000000e0: aca8 6f3f 00e4 883f 6378 7a3f 288b 823f
000000f0: 9809 803f c113 7d3f 1842 7e3f 715b 813f
00000100: cfcf 733f 5ab1 6f3f 01cb 8b3f 8a1a 793f
00000110: 7977 733f 9f12 803f 5d9d 813f c43e 803f
00000120: 95e6 933f bcf4 753f 3eac 783f 9d3f 803f
00000130: ee0b 743f 6b8d 7a3f 9942 713f 58d3 7f3f
00000140: 926c 873f 227e 7d3f 3a37 873f 1c8d 843f
00000150: 6a3c 753f 31fa 843f dcac 853f 20d5 853f
00000160: 8f8f 7c3f c4c2 823f e54d 6f3f ca6b 743f
00000170: d60f 863f 3a19 733f b79d 853f 9922 803f
00000180: acae 723f b6de 833f dcfd 813f 57c1 823f
00000190: 3b64 823f 710e 813f 86c3 813f cce2 803f
000001a0: 9a54 823f ab59 703f 3ad7 7c3f 4239 7e3f
000001b0: d4d1 773f 9095 843f 2caf 823f 3bdf 743f
000001c0: 52d1 703f 330c 713f 5f48 743f 815d 683f
000001d0: e07d 813f 29ce 883f 8cea 813f 071e 6c3f
000001e0: 7d32 833f 7704 8b3f 46db 6e3f 3014 793f
000001f0: 3d40 803f 9d7e 853f 2da3 7f3f 9a54 813f
1.0249014 0.981294 0.9842521 1.0144928 0.96609265 0.9702125 0.9318065 1.0413414
1.010297 1.0841103 0.96817136 1.077898 0.98018533 0.96006304 1.0040743 1.0295454
0.97953063 1.0216163 1.0324367 0.9482714 0.95000225 0.9839987 0.9150767 1.0066694
0.9711287 1.0129125 1.0586454 0.96522313 0.9713578 0.9939803 1.0144097 0.90788704
1.059412 0.9861073 1.0027907 0.9730817 1.0619905 0.9522872 1.1029258 0.97005504
1.0004504 0.97750133 0.988243 0.9602331 1.0164927 0.98163337 0.9734959 1.0509988
0.98960286 0.94569564 0.9101104 0.961206 1.0274767 0.96068305 0.9745016 1.0221043
0.9361675 1.069458 0.97839946 1.0198717 1.0002928 0.9885827 0.993196 1.0106031
0.95238966 0.9362999 1.0921327 0.9730612 0.95104176 1.0005683 1.0126148 1.0019155
1.1554743 0.9607656 0.9713782 1.0019413 0.95330703 0.97872037 0.94242245 0.9993186
1.0580008 0.9902059 1.0563729 1.0355563 0.9579531 1.0388852 1.0443377 1.0455666
0.98656553 1.0215688 0.9347823 0.95476973 1.0473583 0.9496037 1.0438756 1.0010558
0.9479778 1.0302341 1.0155597 1.0215253 1.0186838 1.0082532 1.0137794 1.0069213
1.0182068 0.9388682 0.9876591 0.9930612 0.9680455 1.0358143 1.0209708 0.9565312
0.940694 0.9415924 0.9542293 0.90767676 1.0116539 1.0687915 1.0149703 0.9223332
1.0249783 1.0860738 0.93303335 0.9729643 1.0019604 1.0429264 0.9985836 1.0103943

network.1.bias f4 [128]
00000000: c329 a83c 9d7a aebc 4ab6 65bd 6509 c8bb
00000010: e7b2 09bd 8d66 15bd 69ec 7dbd 78e2 f63c
00000020: 35ec 0b3b 4576 933d e84d cbbd cb64 ae3d
00000030: aef5 8abc e732 8dbc 2839 00bd 18f1 9b3c
00000040: e8ac f4bc e7af 4b3d f48a a2bc 3da5 68bd
00000050: 2e83 5abc dd7c a7bc 9c18 4dbd 4210 0a3c
00000060: a684 5bbd fb01 da3c 953e 573c 30a6 bfbc
00000070: 5d2c 15bd e2cc ccbc 2533 123c 54b8 c3bd
00000080: 04d6 733c 1151 533b b56e 85bb dad1 763c
00000090: a0fd 903d f42d 99bc 4531 643d defa d9ba
000000a0: 7f2a 45bc 902a 79bd 35ac 413c 76f6 1dbd
000000b0: 4131 40bc 8d7a dcbb d48b 85bc f0c4 033d
000000c0: a16d e73c fd00 4dbd 1903 93bd f176 85bc
000000d0: 0159 4ebc 9879 d7bc ba6f cdba c5ce 78bc
000000e0: dcae 61bd b881 073d 4b53 b5bc fe2b ef3b
000000f0: 96e5 c7bc 3a5f b1bc 4367 d4bc fb9e 3c3d
00000100: 4377 b6bc f150 35bd a350 243c 3a58 0ebd
00000110: a7dd 90bc e731 e43b 709e 2d3d 0448 fe3b
00000120: 0ee6 663d d9fd 6bbd aae4 f7bc a913 7e3a
00000130: efc7 0ebd 6ad8 f4bc f26b d6bc 2dcb 013c
00000140: 4234 a13c b16f b0bc ec51 993d 5474 813d
00000150: 93bf 17bd 6615 b13c d741 1fbc 1226 7f3c
00000160: a2b3 09bb e675 a03c 8642 b3bd 1487 31bd
00000170: 8546 893d 238a 82bd 07ff 673d c884 ccbc
00000180: f2c0 7ebd 0d60 02bc b0ba 313d b86a bfbb
00000190: d25d ae3d 5247 a53c bc06 fcbc f382 d3bb
000001a0: 4ba8 49bc 868f a8bd 7b3e 2abd 6f4b 2fbd
000001b0: 1cdc 2f3c cc5b 4c3d c979 aa3c c72d 82bc
000001c0: 3833 51bd 7f01 49bb 5aff 7cbd 33d6 c4bd
000001d0: 6608 22bd 4b77 593b 9643 bcbb 99de 9abd
000001e0: b254 d4bb e8ac 483d ecca c5bd 9282 5f3c
000001f0: b7ac 6a3c 89e5 b13d 21a8 c5bc 1cb5 193d
0.020527726 -0.021298701 -0.056082048 -0.0061046355 -0.03361788 -0.036474753 -0.061993036 0.030137286
0.0021350507 0.072002925 -0.09926969 0.085153185 -0.016962852 -0.017236186 -0.03130451 0.01903586
-0.029867604 0.0497283 -0.019841649 -0.05679821 -0.01333694 -0.020445282 -0.050072297 0.008426728
-0.0535933 0.026612272 0.013137479 -0.023394674 -0.03641926 -0.02500004 0.008923327 -0.09556642
0.014882568 0.0032244364 -0.004072035 0.015064681 0.07079625 -0.01869867 0.05571105 -0.001663055
-0.012034058 -0.060831606 0.0118208425 -0.03856512 -0.011730493 -0.0067284764 -0.016302027 0.032170236
0.028250517 -0.05004977 -0.07178325 -0.016292067 -0.012594462 -0.026303098 -0.0015673556 -0.015186016
-0.0550984 0.033082694 -0.022134444 0.0072989454 -0.024401467 -0.021651853 -0.025928145 0.046050053
-0.022273665 -0.044266645 0.010028991 -0.03475211 -0.017683817 0.0069639566 0.042387426 0.00776005
0.05637174 -0.057615135 -0.030260403 0.00096922606 -0.03485864 -0.02988835 -0.02617452 0.007921976
0.019678239 -0.021537634 0.074863285 0.06321016 -0.037047934 0.021616649 -0.009720287 0.0155730415
-0.002101161 0.019587468 -0.08752923 -0.04334171 0.06702904 -0.06374004 0.056639697 -0.024965659
-0.062195726 -0.007957471 0.04339093 -0.0058415793 0.085139886 0.02017561 -0.03076493 -0.0064548193
-0.012308191 -0.082305 -0.041563492 -0.04279655 0.0107336305 0.04989223 0.020810025 -0.015890969
-0.051074237 -0.0030671058 -0.06176696 -0.09611168 -0.03955879 0.0033182676 -0.0057453616 -0.075619884
-0.006479823 0.04899302 -0.09657845 0.01364197 0.014323405 0.086863585 -0.024128022 0.037526235

network.1.running_mean f4 [128]
00000000: 9dd9 05be a1ed 493d 3a09 8f3e cf6f 723b
00000010: 3440 ee3d f5d1 6bbd 2e32 cc3d 054d 5abe
00000020: 5c10 84bd d095 813e 86b0 7fbe 04a5 823e
00000030: 55ac 0cbe 5cf7 3b3e c027 cb3d ea1d 713e
00000040: 676f 7ebd 0c12 e8bd 72f9 00be 6285 94bd
00000050: 5819 1b3e 4d62 64be 5244 edbd e97f 45be
00000060: b08d 913d 5283 163d d226 24be e253 423e
00000070: dd20 0a3d 0d9c 0dbe 837f 423e 7f65 9ebe
00000080: 7130 a93d 61e0 82bd 6359 b43c ecad 97bd
00000090: 4de3 103d fcf9 f9bd 8a7e 033e aa7b a8bd
000000a0: bb33 30be 49d2 373e 42e5 423e 7b06 823e
000000b0: db88 393e eb3e 28be 5260 0e3e dcb6 95be
000000c0: 28ee 533c 095b 88be bc06 8f3e e411 da3d
000000d0: e3c0 513e 55f1 69be 8833 ba3d d201 53be
000000e0: da24 103e 8929 bc3c fd73 4dbd d8e3 ad3d
000000f0: 23e8 903e 9255 9abe 8650 debd aa4b 6cbe
00000100: 9e01 d9bd 6bbe b43c 887e 903e 3a71 a5bd
00000110: 8148 70bd a833 8b3e a2dd 873d 7074 0d3e
00000120: 0081 11be 0dfd 9dbd e06d 84be a704 cdbd
00000130: 40cf 943e 2ada e8bd 2a68 473e c933 6e3e
00000140: 304a a5bd 767a 3ebe 66d3 3b3e 1600 dfbd
00000150: a80e a33a acca 86be b0ce 6cbd 4c5b ce3d
00000160: 88bb 223d cc03 62be b856 6c3e 4100 873e
00000170: 713b 433d 4f10 df3c b994 7fbe 47f7 3fbe
00000180: c3eb ec3b 48a2 98be 4cc7 893e f814 c63c
00000190: 007f 4439 c62e b43d 4622 07be c601 23be
000001a0: 2bb9 a33d 4503 7f3e 9c1f 8a3e 56d3 60be
000001b0: 6f14 e3bd 2782 f8bd 81e7 8cbd 9b7d 96be
000001c0: 9fda 543e 76e3 0abe cb13 74be 9758 653e
000001d0: b69f 5d3e b233 6b3e 5acb 80be 5c9a e23d
000001e0: d133 22be cc9b 30be b5b1 0c3e 11d9 b8bd
000001f0: 941d 83be 7f2c 663e 0c6b 473e c5ab 44be
-0.13071294 0.049298886 0.27936727 0.0036992913 0.116333395 -0.057573278 0.099705085 -0.21318443
-0.06448433 0.2530961 -0.24969682 0.25516522 -0.13737614 0.18356079 0.09919691 0.23546568
-0.06211796 -0.11331567 -0.12595156 -0.07252003 0.15146387 -0.22303124 -0.11585297 -0.19287075
0.07107103 0.03674633 -0.16030434 0.18977311 0.033722747 -0.1382906 0.18993954 -0.3093681
0.082611926 -0.06390453 0.02201528 -0.0740622 0.03537302 -0.12205884 0.1284124 -0.08226712
-0.17207234 0.17951311 0.19032767 0.2539557 0.18118612 -0.16430251 0.13903931 -0.29241073
0.012935199 -0.26631954 0.27934825 0.106479436 0.20483737 -0.22845967 0.0909186 -0.20606163
0.14076558 0.022969024 -0.050159443 0.08490723 0.28302106 -0.3014341 -0.108552024 -0.23075739
-0.105960116 0.022063455 0.28221536 -0.08078237 -0.058662895 0.27187848 0.0663407 0.13813949
-0.14209366 -0.07714281 -0.25865078 -0.10010653 0.2906437 -0.113697365 0.19473329 0.23261942
-0.08070791 -0.18601403 0.18342361 -0.10888688 0.0012440281 -0.263265 -0.0578143 0.10076007
0.039729625 -0.22071761 0.23079956 0.2636738 0.04766411 0.027229456 -0.24959077 -0.18746673
0.0072302534 -0.2981131 0.26909864 0.02417992 0.00018739328 0.08797984 -0.13196668 -0.15918645
0.07994302 0.24903591 0.2697724 -0.21955618 -0.11087882 -0.121341996 -0.06880093 -0.29392704
0.20786522 -0.13563332 -0.23835675 0.22397076 0.21642956 0.22968939 -0.25155145 0.11064598
-0.15840079 -0.17246932 0.13739665 -0.09025777 -0.25608504 0.22477911 0.19474429 -0.1920615

network.1.running_var f4 [128]
00000000: 6c1c 8a3e 3382 2a3e 9ef2 623e a0b2 663e
00000010: 89fe 5b3e 1d83 093e 32a9 333e b34c 493f
00000020: 5c33 4a3e 783c 363d 65b8 fe3e 8e84 c03d
00000030: df4f 043f 5e1c 463f a394 893d 18ad 043f
00000040: 65d9 7d3e 480a b83d fe5a 563d 5075 613e
00000050: 898b 973e 3165 733e 36ff aa3e aeb7 d73e
00000060: 195b 8d3e 822f 263e dcdf 0c3e b955 e33e
00000070: 62ae 0f3f 58cf 653e c284 de3e c57d e93e
00000080: 9f1d 013e 2519 033e 9b2d c13e c9c4 b63e
00000090: 84a7 af3e 21df 763e cb15 833d 1f35 b93e
000000a0: e33d b53e a61e 923e b77e 083f 527a 4c3e
000000b0: 4af3 113e 89bf 9c3e 3c21 323e e2fc 493e
000000c0: 4a97 ad3e f7cb 123e bfff 603e 46ea d43e
000000d0: 9b9e 913e bdf2 413e 3fac 153e 84df d13e
000000e0: 6370 843d c2bc 083d a250 3a3e f67f 8d3e
000000f0: 74f6 003f ad90 673e 25ff 2f3e 4737 943e
00000100: 70d4 ac3e ebbd 653e 11d9 f53e 9fed 313e
00000110: a61e 143e d639 f73e 9cde b53e 4448 253f
00000120: 3572 7c3d be7b fc3e 0185 7b3e e2fb 013e
00000130: 0d1f 393f 7dd5 553e 4eee 203e 2dec a33e
00000140: 1213 433f 1e33 f23d 9b8f 773d d2e2 dd3d
00000150: 5595 9f3e 16ee ed3d d14c 453e 01a0 2c3f
00000160: fd38 f43e 6fac 6d3e 8a14 603e 214c 273e
00000170: 3f53 343e 8e0c 883e 6f98 973e f222 1d3e
00000180: d810 8c3e f897 2e3d b5e6 cf3d b326 0a3f
00000190: 7bb3 033e 4fa1 133e 276e d23e b73e b43d
000001a0: 1c79 0e3e ab6c 003f 55be 293e b8c1 9d3e
000001b0: 1328 4a3e 0ef1 783d fc6b aa3e 39eb b63e
000001c0: 96f3 af3d d5b0 5a3f ce32 013f 1685 ba3e
000001d0: 3dc6 133e 78d0 213f 0ea5 663e 5400 ed3d
000001e0: a8da b53f 2f4c f53e 2fcb 8a3e e927 783e
000001f0: 1478 6a3e 7384 9a3d ca66 073e 566c 3d3d
0.2697481 0.1665123 0.22162864 0.22529078 0.21483816 0.13428922 0.17545012 0.7863266
0.19746155 0.04449126 0.49750057 0.09400283 0.51684374 0.77387035 0.06717803 0.5182662
0.2478996 0.08986336 0.05233287 0.22017407 0.29598644 0.2376907 0.33397835 0.42132324
0.27608564 0.1622906 0.1375727 0.4440134 0.5612546 0.22442377 0.4346066 0.45603767
0.12608956 0.1280256 0.37730107 0.3569701 0.34307492 0.24108554 0.06400641 0.3617334
0.35398778 0.28539008 0.5331835 0.19968536 0.14252964 0.3061488 0.1739549 0.19725373
0.33904487 0.14335619 0.2197256 0.41584986 0.2844132 0.18940254 0.14616488 0.4099084
0.064667486 0.03338314 0.18194821 0.2763669 0.5037606 0.22613783 0.17187174 0.28948423
0.33755827 0.22435729 0.4801717 0.17375802 0.14464816 0.48286313 0.355214 0.64563394
0.061632354 0.49313158 0.24562456 0.12693742 0.72313005 0.2088222 0.15715906 0.32016125
0.76200974 0.11826156 0.060439687 0.10834278 0.3116862 0.11617677 0.19267584 0.67431647
0.4769973 0.2321031 0.21882835 0.16337635 0.17609881 0.26572078 0.29608485 0.15345362
0.273566 0.042625397 0.10151426 0.539653 0.12861435 0.14417003 0.41099665 0.088010244
0.13913387 0.50165814 0.16576512 0.30811858 0.1974185 0.060776763 0.3328551 0.35726336
0.08591382 0.85426074 0.50468147 0.36429662 0.1443109 0.63208723 0.22523901 0.11572328
1.4207354 0.47909686 0.27108142 0.24233975 0.22897369 0.07544794 0.13222805 0.046245895

network.4.weight f4 [64, 128]
00000000: 2759 b33c e987 f83c 67ac 933c dffc d63c
00000010: ae5e cebc cae3 86bd d2ea a63d ca8a c73d
00000020: e692 813d 12cf ea3c a041 333c 617d 97bd
00000030: 1206 cc3b 7844 9cbd e559 cabc 8902 743d
00000040: 3674 d63c 0591 8d3c e1d1 763d bf2b 7a3d
00000050: d240 c13d 1fc1 313d 4ba7 853d a54b 4f3d
00000060: 48ab 3f3b 84e7 3e3b a56a eebc 5707 063c
00000070: 271b 52bd c8af 353c 9908 873d 93da c3bc
00000080: bb82 4ebd 577b 90bd 950d 5abd 73e0 88bc
00000090: 6d79 4c3d 207a 8abc 99d5 23bd 3833 803d
000000a0: a6b9 dfbd 46a5 e13c c79a bd3d 67da 213d
000000b0: 788a 033d 6f3e 45bd 8eb9 08bd dfb8 d2bd
000000c0: 8c59 18bd a2ba a13d 12aa 86bc 1d0d b23d
000000d0: f8c9 d1bd 9a9a a93d bc4c 97bd 7c7a a13d
000000e0: c520 16bd 7820 93bd 5ba4 753d e7e4 71bd
000000f0: c4d5 2eba b6bf df3d 5fe7 8d3c d8d1 bfbd
00000100: a006 523d 39c7 bcbc afce 073c 892e eebc
00000110: f918 993c 9e90 763d 6200 513d 83f8 3fbc
00000120: 320a bcbd f50b b63c f166 043d fc34 4fbd
00000130: 8370 f2bb 1bd1 123b 10a3 31bc 97f5 e13b
00000140: 075f bd3d f224 1abd a586 053d 2d7b b3bd
00000150: c402 d73c 8be5 0f3d b337 a9bc 7137 173b
00000160: 0f5f 81bd 7741 67bd efff be3b e3ba 7fbd
00000170: 5746 3cbd 67a0 89bd 6304 95bd 7b57 923d
00000180: 7507 6ebd dc43 e0bc b82c a5bc 38a9 243d
00000190: 88ad 9b3d 192e ef3c c91d 773c f093 d13d
000001a0: 6f75 a33b ed09 5d3d fe38 08bd d125 7e3d
000001b0: 29ad 98bd 4279 84bd f81a 30bc 7e58 70bb
000001c0: 2089 76bd 20f3 a3bd 8933 22bd 4584 073c
000001d0: 7a93 56bc d9d5 06bc cef4 023b 75ac 5bbb
000001e0: 3f88 733d 0b4d 2b3d 0cb5 e43c 7afe 01bc
000001f0: a3fa bcbd c9b2 e0bd b59c af3d b4df bbbd
00000200: 250e 9b3d 811e 953d b6ca f9bc cb82 c638
00000210: 3ce7 053d 1987 fbbc 89b9 6b3b af64 013d
00000220: 7ab1 ae3c 3d4d 9b39 ab68 85bb fea2 9d3d
00000230: f8d6 61bd 293d 05bd e6b2 683d ea3e 07be
00000240: 2d44 eb3c 4c90 49bc c55d bc3d dec5 4b3d
00000250: 844d 02bc 9a0c d1bc a4a8 a73a a998 b4bd
00000260: 1b8a 24bc 815f 9fbd 5cc1 b63d f472 d83d
00000270: 9342 44bd e158 61bb 3e70 e4bd 4d39 80bd
00000280: 920a 6b3d 238d 97bc 490c 483d 6a3e 513d
00000290: a30f d6bd 2b45 343d 3000 94bd 933f 8c3d
000002a0: c4e4 713d 0d72 2dbd ca69 2dbd 6c77 723c
000002b0: 4900 213d 5f94 5dbd f292 cc3c 2784 493c
000002c0: 503d c83c 8dc5 1d3d f434 3c3d 6bda 59bd
000002d0: 170d edbc 92a8 e03c e5a2 083c 5159 deba
000002e0: e936 833d da51 48bb 755b 9f3d 013a 7fbd
000002f0: 6b74 943d 2ec3 ed3c adfc 85bd 1c39 3a3d
00000300: d9a3 4f3d 4eb1 0f3c 7e73 b6bd 1457 3d3b
00000310: 8447 92bd 39c3 1abe 164d 06bb 20a4 babd
00000320: 588c cfbd 918d 283d cc74 75bb 4c3b 8c3d
00000330: f9f9 68bd 074b 99bd c173 35bd 9cfb 353d
00000340: 531d a4bd 8613 233b 450b a93d f192 87bd
00000350: eaf3 34bd 77ba 013d b0ae 87bd 3905 c5bd
00000360: 5f9f bbbc d0c6 303d bbcc 8b3c b0e2 aa3d
00000370: c18a 673d 8162 96bd 7dbd 7b3d 7d3d 91bc
00000380: a24c 973d f439 62bd 63dc 453d 5db6 cc3c
00000390: a323 21bd 8531 00bd 65fe 93bd e862 b3bd
000003a0: 0f3f 64bd c9ec a53d f28b 383c a3bf 82bd
000003b0: 4739 48bc f627 58bd 9b8c 12bd 5434 4ebd
000003c0: 2aa0 42bc 4ef6 53bd e587 3f3d 6203 cf3c
000003d0: 74c5 83bc b165 9f3d c80f 44bd 4211 bb3d
000003e0: 5a1d d8bc 43b7 f7bd 5acd dbbc a7b8 dab9
000003f0: 28f5 f23c 73ab 50bc 2b27 9e3d 3f45 55bd
0.021893097 0.030338245 0.018026544 0.026243625 -0.025191631 -0.06586416 0.08150257 0.09743269
0.06326847 0.028663192 0.010940939 -0.07396961 0.0062263096 -0.07630247 -0.024701068 0.05957273
0.02617846 0.017281065 0.06025875 0.061076876 0.094361916 0.043397065 0.06526049 0.05060925
0.0029246379 0.0029129693 -0.029103586 0.008180461 -0.051295426 0.011089273 0.06593437 -0.023907935
-0.050417643 -0.07054775 -0.05323561 -0.016708588 0.04992049 -0.016903937 -0.039998624 0.06259769
-0.109240815 0.027544629 0.09258037 0.039514925 0.032114476 -0.048155244 -0.033380084 -0.102891676
-0.037194774 0.078969255 -0.016438518 0.086939074 -0.102436006 0.08281441 -0.07387683 0.0788469
-0.036652345 -0.07183927 0.059971195 -0.05905619 -0.0006669427 0.10925238 0.01732224 -0.093661964
0.05127585 -0.023044216 0.008289023 -0.029074924 0.018688666 0.06019651 0.051025756 -0.011716965
-0.09181632 0.022222498 0.032324735 -0.05058764 -0.0073986663 0.0022402469 -0.0108421 0.0068957317
0.09246641 -0.03763289 0.03259911 -0.08763728 0.026246436 0.03513102 -0.020656442 0.0023073817
-0.06316959 -0.056458917 0.0058288495 -0.06243409 -0.04596552 -0.067200474 -0.07276227 0.07145592
-0.05811258 -0.027376108 -0.020162925 0.040200442 0.07601458 0.029196786 0.015082785 0.10233295
0.0049883644 0.053964544 -0.033257477 0.062047783 -0.07454903 -0.064684406 -0.010748617 -0.003667384
-0.060189366 -0.08005357 -0.03959993 0.008271282 -0.013096685 -0.008229696 0.001998234 -0.003351954
0.059456106 0.04182152 0.027918361 -0.007934207 -0.09227493 -0.109716006 0.08574811 -0.09173527
0.07571057 0.07281209 -0.030492168 9.465738e-05 0.032691225 -0.030704068 0.0035968742 0.03159016
0.021324862 0.0002962145 -0.0040713153 0.07697104 -0.05513665 -0.03252903 0.056811236 -0.13207594
0.028719032 -0.012302469 0.091975726 0.049749248 -0.0079530515 -0.025518704 0.0012791348 -0.0881818
-0.010042693 -0.07781888 0.08923599 0.105688006 -0.047915053 -0.0034385251 -0.11154221 -0.06260929
0.057383128 -0.018499916 0.04883984 0.051084913 -0.10452201 0.044011276 -0.07226598 0.06848063
0.05905606 -0.042345095 -0.042337216 0.01479898 0.039306913 -0.054096576 0.024972413 0.012299574
0.024443299 0.038518477 0.045948938 -0.053186815 -0.028936906 0.02742413 0.008339618 -0.0016963874
0.06406958 -0.0030566365 0.07781116 -0.062311176 0.072487675 0.029023733 -0.06542335 0.04546462
0.050693367 0.0087703 -0.08908747 0.0028891014 -0.07142547 -0.15113534 -0.0020492724 -0.091133356
-0.1013419 0.041150633 -0.003745365 0.068472475 -0.056879018 -0.074850135 -0.044299845 0.044429407
-0.08013406 0.0024883463 0.082541026 -0.06619824 -0.044177927 0.031671967 -0.06625116 -0.09620137
-0.022903142 0.043158352 0.017065397 0.083440185 0.05652881 -0.07343007 0.061460007 -0.017729515
0.073876634 -0.05523105 0.04830588 0.024989301 -0.039340626 -0.031297226 -0.07226256 -0.08759099
-0.0557242 0.08101804 0.011263834 -0.06384208 -0.012220687 -0.052772485 -0.035778623 -0.050342873
-0.011879006 -0.051748566 0.04676046 0.025270168 -0.016085364 0.07783068 -0.047866613 0.09134151
-0.026381183 -0.12095501 -0.026831318 -0.00041717777 0.029657915 -0.012736189 0.077223144 -0.05206799

network.4.bias f4 [64]
00000000: 5a36 ba3b abc8 87bd 88a2 a4bd 4123 7abd
00000010: cd70 953d c6cd f83c 171d 253d 5510 0ebd
00000020: 6e78 60bd 5471 dd3c 5507 eebc 1bd5 bd3b
00000030: ff28 6dbd 2a19 8c3d 656b 10bc 778c 02bd
00000040: dd09 4b3d 31ce 8fbd 6f66 1f3d 6e1a 033d
00000050: dca4 4dbd 65da 0c3d 1a16 b23d fc35 ceba
00000060: a3cb 08bd f336 4dbd 6879 8e3d 4223 20bc
00000070: 2c59 26bd ca22 fdbc dd35 90bc 68ce 67bd
00000080: f96a 9a3d b16c 9f3c 31b2 80bc b4f3 943d
00000090: 4898 f1bb 91dd b4bc 6029 a9bc ad30 803d
000000a0: cb2a 1cbd 17ff 8fbd 016e b33b cd6a 0bbb
000000b0: a610 a9bd 8b1f adbd 6aa7 273d 99d9 9e3d
000000c0: ab4b 9abd e092 3f3c 182d 933d d0b5 65bd
000000d0: 3268 a4bc 1c7e b1bc feec 093d 5cf8 c1bc
000000e0: ca8c 46bd 13b2 8e3b 3d58 433d c03b 5f3d
000000f0: 6f28 9cbc f1ff 013d c0ef a1bd 21ca 85bd
0.0056827487 -0.06630071 -0.08038813 -0.061068777 0.07296906 0.030371558 0.040310945 -0.034683544
-0.05480235 0.027031578 -0.02905623 0.0057932264 -0.057900425 0.06840737 -0.008814667 -0.03187224
0.049569953 -0.0702175 0.038916048 0.032007627 -0.05020605 0.034387965 0.08695622 -0.0015732641
-0.033397328 -0.05010123 0.0695675 -0.009774031 -0.040612385 -0.030900378 -0.017603809 -0.05659333
0.07539935 0.019461008 -0.015709968 0.07273045 -0.0073728897 -0.022078307 -0.020649612 0.06259284
-0.038126748 -0.070310764 0.00547576 -0.0021273375 -0.082551286 -0.08453282 0.040931143 0.07756347
-0.07533964 0.011692733 0.07186335 -0.056081593 -0.020069215 -0.021666579 0.03367328 -0.023677997
-0.04847411 0.004354724 0.047691572 0.05450034 -0.019062249 0.031738225 -0.07907057 -0.06532694

network.5.weight f4 [64]
00000000: 3755 8b3f 7a98 823f 2976 823f 17f7 783f
00000010: adf5 823f fa1d 843f 5aa5 7f3f 61fb 833f
00000020: 59ea 8b3f c9e9 883f 71fc 753f be12 833f
00000030: f679 763f b2b5 793f fb71 843f 00cb 873f
00000040: efe6 8b3f 4a52 7b3f 0dad 853f 3dd3 793f
00000050: f4d1 843f a1c9 853f 385b 7b3f 0fda 793f
00000060: 4556 723f a7d2 753f 649e 873f f610 8b3f
00000070: 3cc7 843f 56fa 843f c611 863f 11a7 8a3f
00000080: 39bd 7a3f 4ff2 723f 9f14 883f 9c83 753f
00000090: 4c59 623f d56e 7b3f 36f6 733f 6cf2 8b3f
000000a0: 9ad7 723f 7c48 713f 8955 833f c95d 7f3f
000000b0: ec9d 883f a4bf 7b3f 5ab6 783f 1b77 883f
000000c0: 4a9e 7d3f 5291 853f 2f3d 6e3f 42db 713f
000000d0: 5aa1 813f 5847 763f 743d 7f3f c8b3 883f
000000e0: 9f5a 823f f6c8 8b3f c467 743f 1eb9 8d3f
000000f0: 56c8 7a3f fcfa 813f 4eb8 743f 885d 703f
1.088538 1.0202782 1.019231 0.9725203 1.0231224 1.0321648 0.9986168 1.031109
1.0930892 1.0696346 0.9608832 1.0240095 0.9627985 0.9754287 1.0347284 1.0608826
1.092985 0.9817244 1.0443436 0.9758795 1.0376573 1.0452157 0.98186064 0.97598356
0.94662887 0.96024555 1.0595212 1.0864551 1.0373302 1.0388896 1.0474174 1.0832235
0.9794498 0.94900984 1.0631293 0.95903945 0.88417506 0.9821599 0.95297563 1.0933356
0.9486023 0.9425123 1.0260478 0.9975248 1.0673194 0.98339295 0.97153246 1.0661348
0.99069655 1.0434973 0.9306211 0.94475186 1.0127366 0.9620261 0.99703145 1.0679865
1.0183905 1.0920703 0.95470834 1.1072118 0.9796194 1.0154719 0.95593727 0.9389272

network.5.bias f4 [64]
00000000: a09d aa3d 1a3a 4b3d 4bbe 783d ba84 66bc
00000010: 2877 9b3c 8b3e b23c 1492 eb3c a9f3 bb3d
00000020: 200a f03d d984 203d 2e93 14bd 60c7 2a3c
00000030: 0a96 11bc 1a49 80bd f00c 4f3d 6553 d53d
00000040: df4e 643d f595 c2bc 1188 1e3d e8af 96ba
00000050: 4f87 473d 1708 893d a14d 893b 5122 eabc
00000060: 5d1a eebc 560c 3bbc 488c c33d 909b a93d
00000070: 948c 153d 61db 993d dbed a83d 920d 063e
00000080: 59db 45bd 9c3b e13c a306 9d3d 6936 1bbd
00000090: a84e cbbd ffd4 84bd 2f57 e4bb 7dbd c43d
000000a0: ff02 523c f6e3 e63b e55d 00be 173b 8d3b
000000b0: aa4c 813d daea b03c 54ad 8dbc 9920 633d
000000c0: 0247 5fbd 8032 6d3d 0fc0 4dbd 7e37 463c
000000d0: 519d 83bc a413 143b cd1e 13bd b215 2b3d
000000e0: 46f0 db3b e9d2 cf3d ee4e a03c bc84 ed3d
000000f0: d61b ecbc 3307 ffbb c0f6 1d3c a68a 18bd
0.08330846 0.049615957 0.060728353 -0.01406973 0.018977717 0.021758338 0.028756179 0.09177334
0.11720681 0.039189193 -0.036273174 0.010423511 -0.00888587 -0.06263943 0.050549448 0.10416297
0.05573928 -0.023753146 0.03870398 -0.0011496516 0.048713025 0.06690996 0.0041901623 -0.028580816
-0.029065305 -0.011416515 0.09548241 0.08281624 0.03651102 0.07512546 0.08248492 0.13091114
-0.04830489 0.027494244 0.076672815 -0.037893686 -0.09927112 -0.06485938 -0.006968401 0.096064545
0.012818097 0.007046218 -0.12535818 0.0043100226 0.06313451 0.021596361 -0.017294563 0.05545101
-0.054511078 0.05790949 -0.05023199 0.012098191 -0.016066225 0.0022594715 -0.035918046 0.041768737
0.0067119924 0.1014765 0.019568887 0.11597583 -0.028821867 -0.0077828406 0.009641349 -0.0372416

network.5.running_mean f4 [64]
00000000: 66e0 92bd 0df1 bcbe 699f 38bf 4de3 8ebf
00000010: 9165 8bbd dbe5 0fbf 052b f9be aced 75be
00000020: 16e9 24bf b35f 73bf dc0a 23bf 105b d33e
00000030: 8049 bcbd 82d8 65bf c6b9 da3e 03da abbe
00000040: 75a0 89bf 2625 81be 911e 29bf 7088 aebe
00000050: 02d1 3bbf 9652 f6be 0ff1 e33e 4ec6 d4be
00000060: c24c 09bf de8a c3bc 7943 d7be e6be 27bf
00000070: 70c5 163e 7f47 57bf 141c 3dbf ba60 42bf
00000080: c257 8bbc 06fa 173e e622 90be c073 13be
00000090: b8e5 4c3e aea6 9cbe dc5b 98bf f5f5 c3be
000000a0: 5cc0 16bf 890d f2be a054 57bf b11b a23c
000000b0: 954c b6be 1980 acbc 1010 70be 6fd3 66be
000000c0: 7cdd e0be 7f91 24bf 6616 893e ab75 29bf
000000d0: 20f2 0abf 6dc3 2bbf 11fc 64be b4ed d8be
000000e0: 3aef 3b3e cc09 f6be 7a4b 8f3e 4ccf e3be
000000f0: c6fc 71bf 7cf2 9ebe 5eb4 d9be 8304 8bbf
-0.07171707 -0.36902657 -0.7211824 -1.1163117 -0.06806482 -0.56210107 -0.48665634 -0.24016446
-0.6441816 -0.950679 -0.63688445 0.41280413 -0.091937065 -0.8978349 0.4271986 -0.33564767
-1.0752093 -0.25223655 -0.66062266 -0.3408847 -0.73365796 -0.48109883 0.4451985 -0.41557544
-0.5363275 -0.023869928 -0.42043665 -0.6552566 0.14723754 -0.8409347 -0.7387097 -0.75928843
-0.01700962 0.1484147 -0.28151625 -0.14399624 0.20009506 -0.30595917 -1.1903033 -0.38273588
-0.5888727 -0.47275952 -0.841135 0.019788595 -0.35605302 -0.021057175 -0.23443627 -0.22541593
-0.4391898 -0.6428451 0.267749 -0.6619517 -0.54275703 -0.6709507 -0.2236178 -0.42368853
0.18352976 -0.4805435 0.27987272 -0.44494092 -0.94526327 -0.31044376 -0.42520422 -1.0860752

network.5.running_var f4 [64]
00000000: d471 0d3f 42f9 3a3f 3867 b53e 1347 0b3f
00000010: 739a 073f 1d46 563f bd14 bb3e ad74 f43e
00000020: d9d5 273f 4784 a53f 2727 983f 17ec 5b3f
00000030: 1b69 b73e 11b2 093f 6b5e 1d3f d766 233f
00000040: 30f0 883f 202d fe3e f455 a83e 98c0 e13e
00000050: 1be0 1d3f 2ebc 283f 1f5b 343f c247 1e3f
00000060: 14f9 ef3e d2be 653f 64be 333f 4142 363f
00000070: ceae 2a3f 71a7 353f ba8e 633f 8dac cb3e
00000080: b7a9 ec3e 42a7 113f 2af6 e73e e5f7 273f
00000090: 8eff b93e f894 123f 4507 233f a366 2e3f
000000a0: 0cae c23e 5969 ac3e 7d4e 843f 21ee ff3e
000000b0: cfad 023f d45b 323f 31d0 083f c478 073f
000000c0: fadd 193f 575e 013f 24d8 953e 3de0 193f
000000d0: 22df 933f 5734 a93e fa2d 7f3f 8f39 263f
000000e0: fe48 623f 2cbc 343f c7bd f73e afb5 c83e
000000f0: 755a 383f 8bf4 223f 147d c03e f4e2 b83e
0.5525181 0.7303659 0.35430312 0.54405326 0.52970046 0.83700734 0.3653926 0.47745267
0.6556068 1.2930993 1.1886948 0.8590712 0.35822377 0.5378733 0.61472195 0.63828796
1.06983 0.49643803 0.32878077 0.4409225 0.6167008 0.6591214 0.7045154 0.61828244
0.4686972 0.89744294 0.7021239 0.71194845 0.6667298 0.7095862 0.8888966 0.39780083
0.46223232 0.5689584 0.45304996 0.6561263 0.36327785 0.5725856 0.6368297 0.6812536
0.38023412 0.33674124 1.0336453 0.49986365 0.5104646 0.6967137 0.53442675 0.5291865
0.60104334 0.50534576 0.29266465 0.60107785 1.155247 0.33047745 0.9967953 0.6493158
0.8839263 0.7059963 0.48386976 0.39201114 0.72013026 0.6365439 0.37595427 0.36110651

network.8.weight f4 [32, 64]
00000000: c2ac 06be 9515 00be 59e2 b33c 5bbe 9a3d
00000010: 3412 afbd 1022 21be 33ca 173c 6461 23be
00000020: 64d1 1c3d 8866 b3bd c6fe c73c ae7c 4ebd
00000030: d29a 04bd c6f6 f73d 4899 1dbd e002 0cbe
00000040: c73f b9bd b566 543d 0f29 fbbd 2925 863d
00000050: f7bf 7d3d 4acb d7bd 17ee dabd e88f 4d3d
00000060: fe6e 993c d913 a73c 8bea 35bd b005 cfbd
00000070: a911 f6bd 8262 b93d 3ea3 bdbd 20e9 3bbc
00000080: eb28 62bd 3589 f0bd 3759 eabd 109d c3b9
00000090: f5e0 9c3d 3551 a33d ca68 5c3c c69f e6bd
000000a0: 86f1 ffbd e679 133d a8e1 0cbe a0d6 d2bd
000000b0: c485 55bd c07a 5f3d 222e 653d 0de5 19be
000000c0: c982 7e3d 276b b5bd 02c4 5fbd 9654 893d
000000d0: 3b03 0a3e 88cb 0ebc 68ec af3c e01f 09be
000000e0: 06bb 2abd 48dc 85bd c7b8 f13c 934a 7cbd
000000f0: 26f9 5c3d 5ae2 1dbd 7214 523d 5de4 70bd
00000100: ffec 18bd dc7c 9cbd 5a9f 173e d3da b63c
00000110: 5682 383b ea68 af3c a8e3 883d 98b3 0dbe
00000120: 81fc 0a3e d137 b5bd b852 96bd e9ce 32bd
00000130: 276d 8bbd 2958 843d 1587 2f3c 9c9e c13d
00000140: acf0 1fbe 1000 cfbd ede8 95bd 2bf2 b23c
00000150: 0260 ee3d d576 fabd 3e87 cdbd 22cc 34bd
00000160: 9744 b5bd 7752 513d 2a28 00be 8217 c73d
00000170: f96d 0cbe 4d2f 7b3a 148f d83d b071 f4bd
00000180: d0cf cebd 46bc b63c e319 c93b 2a16 ebbb
00000190: 4e84 a53a 0043 d8bd 502e d63c 71fd 45ba
000001a0: 5b35 24bd 4559 b93d 4992 72bd 3d3c 0e3d
000001b0: d032 1fbe 037e 41bd 3f09 6b3d fb79 54bd
000001c0: 9f7a 193d 10ab cfbd a86e 99bd 730c 4d3d
000001d0: 0fb2 673c 2d47 53bd 2226 b3bc b79b 383d
000001e0: 9c8f e8bd ad65 6239 6be8 c3bd 8882 583a
000001f0: d2ad 3abd d231 b03d a580 763c a0ad cd3d
00000200: 0d98 a0bd 7bea aabd 5fa4 dbbd f07a c73d
00000210: 36de c53c 8193 e339 e56b 0abe d9a4 693d
00000220: 70d9 3abe 4e1e bd3d aa0c 72bc 462d 993d
00000230: e452 943d bd33 143d a1f6 5b3d 680f c4bd
00000240: 95b9 563d 3b8a 003c f118 e2bd f57d 10bd
00000250: 0bb1 fdbd e5d0 693d 2201 0a3e 8a0d 73bd
00000260: 3bfe 83bd 550f 04be 5b4b a1bd 71ac cdbd
00000270: 4382 1d3d 3d39 d7bd 67c4 e1bd e976 36be
00000280: b9aa 503d 0718 933d 4594 08bc 5c58 f13a
00000290: 785b ad3d 8ad2 36bd 3252 993d f929 ddbc
000002a0: 81b1 203b d0c1 7cbd c94f 8fbd 322e 34bd
000002b0: 9454 f83d b73f d33d 95d7 30bd b8af 543d
000002c0: 5224 a43d 63b4 0e3d 56f3 f7bc d53d 69bd
000002d0: dbd4 fe3c 9c59 17bd 6529 35bc d75e 9f3d
000002e0: e8ec fa3d 4abe d8bd 86aa 82bc a204 cebd
000002f0: 2c1f d63c e38c 2bbb 268a 04bd 64f8 453d
00000300: 919a aabd ade7 a8bc 30d3 13bd e284 453d
00000310: 4424 79bc 4caa 21bd 7a21 29bd 4d8b d83d
00000320: be32 8e3d c155 003b b8bc 45bd cfcf 14bd
00000330: 7957 de3d 2122 ca3d 0245 12be 9254 a73d
00000340: 94d4 8c3c 65bd ed3d 2d39 783d 9cb4 b93c
00000350: 0927 28be 1752 17be f935 efbb 7b84 043e
00000360: 7d0b f9bd 1f12 a7bd e4ce 79bc c51a 39be
00000370: f3ce 7dbd 9958 84bd 7d64 8f3c 7334 7bbc
00000380: c4b0 fc3d 3b22 183e 40ad f53d 68f0 8d3d
00000390: e8c7 44bd 0846 0d3d 9dae 543d 5e81 a63d
000003a0: a584 8fbd e605 553d 6ad5 1b3e 60c7 f1bd
000003b0: c148 2d3d 87f1 6dbd 028e d93c b5de 11be
000003c0: ef27 e73d 057f c3bd c810 98bd db75 b73d
000003d0: a35e adbc f5c6 cdbd 031c 9c3d 6e78 d63a
000003e0: a737 803d 1ada 713d 3192 0b3d f54d 933d
000003f0: 52cf 243d d7e5 3a3d fb35 80bd 0d91 4a3c
-0.1315184 -0.12508233 0.021958517 0.07555839 -0.08548394 -0.1573565 0.009264517 -0.1595512
0.038285628 -0.08759791 0.024413478 -0.050411873 -0.03237421 0.12107615 -0.03847626 -0.13672972
-0.09045368 0.05185576 -0.12263691 0.065500565 0.06195065 -0.10536821 -0.10689943 0.050186068
0.018729683 0.020395206 -0.04441313 -0.10108507 -0.12015087 0.09051992 -0.092596516 -0.011469156
-0.055214804 -0.1174492 -0.11442798 -0.0003731032 0.07660095 0.079744734 0.013452718 -0.11260943
-0.12497239 0.036004923 -0.13757956 -0.10294843 -0.052129522 0.054560423 0.0559522 -0.15028782
0.062136445 -0.08858328 -0.054630287 0.067055866 0.13477795 -0.008715518 0.021475032 -0.13391066
-0.041682266 -0.06536156 0.029507054 -0.061594557 0.053948544 -0.038545944 0.05128903 -0.058811534
-0.037335392 -0.076410025 0.14806882 0.02232114 0.0028153858 0.021412332 0.06684047 -0.13838041
0.13572885 -0.08848537 -0.07339996 -0.043654356 -0.068079285 0.06462128 0.010713358 0.094540805
-0.15619153 -0.10107434 -0.07319818 0.02184399 0.11639406 -0.12229697 -0.10035561 -0.04413999
-0.08850973 0.051104035 -0.12515321 0.09721281 -0.13713826 0.00095819385 0.10574165 -0.11935747
-0.10098231 0.022306573 0.006137119 -0.007174273 0.0012627931 -0.10559654 0.02614513 -0.00075527193
-0.040089946 0.0905023 -0.05922154 0.034725416 -0.15546727 -0.047239315 0.057381865 -0.051874142
0.037470456 -0.101400495 -0.07491809 0.0500607 0.014141574 -0.05158155 -0.02186877 0.045070376
-0.11355516 0.00021590917 -0.095658146 0.0008259197 -0.045575924 0.086032525 0.01504532 0.10042882
-0.078415014 -0.08345505 -0.10724711 0.09740245 0.02415381 0.00043406713 -0.13517721 0.057041977
-0.18247008 0.09234296 -0.014773527 0.07479338 0.07242373 0.036182154 0.053702 -0.09573251
0.05242308 0.007845457 -0.110399134 -0.035276372 -0.12387284 0.057083983 0.13476995 -0.059339084
-0.06444975 -0.12896474 -0.07875701 -0.10042656 0.038454305 -0.10508964 -0.11023789 -0.17818798
0.050944064 0.07182317 -0.008336131 0.0018413174 0.08464712 -0.04463438 0.07486381 -0.026997553
0.0024519863 -0.06170827 -0.0699764 -0.043989368 0.12125507 0.10314887 -0.043174345 0.05192539
0.0801474 0.03484 -0.030267399 -0.056943733 0.031107357 -0.036950693 -0.0110572325 0.07781761
0.122522175 -0.1058317 -0.015950453 -0.100594774 0.02613791 -0.0026176504 -0.03235831 0.048332587
-0.083302625 -0.020618284 -0.036090076 0.04822243 -0.0152064 -0.03946905 -0.04129169 0.105734445
0.06943272 0.0019582363 -0.04827568 -0.036330994 0.10856528 0.09869791 -0.14284137 0.081704274
0.017191209 0.1160839 0.060601402 0.02266913 -0.1642114 -0.14777409 -0.007300135 0.12941162
-0.12160394 -0.08157753 -0.0152470805 -0.18076618 -0.06196494 -0.06462211 0.017503971 -0.015332329
0.12338403 0.14856808 0.119959354 0.069306195 -0.048042208 0.034490615 0.051924337 0.081301436
-0.07007722 0.05200758 0.1521813 -0.11805606 0.04230571 -0.058091667 0.026556972 -0.14245112
0.112869136 -0.095457114 -0.07425076 0.08958026 -0.02116329 -0.10047714 0.0762253 0.0016362795
0.06260615 0.05904589 0.034074966 0.071926035 0.04023678 0.04562935 -0.06260296 0.012363684

network.8.bias f4 [32]
00000000: 4afd aebd 2292 ad3d f237 f13d dfeb f9bd
00000010: 6437 533d 5a39 9a3c 3c23 09bd e132 8d3d
00000020: d38d 44bc 9f99 bdbc a85a 663d cc0f 813d
00000030: 3012 d5bd 7af3 c03d f4e4 fe3d 3769 ba3d
00000040: d745 2cbc bc97 dd3d 87de cd3d d8d6 f0bd
00000050: d3ab d93d 2837 debd 8a65 853d d199 fdbc
00000060: c0ee b3bd 798b 1fbc dd0f 0c3d f56b 243d
00000070: 0cdd 2abd 8ca8 abbd a9fb 9db8 de77 d4bd
-0.08544405 0.08475138 0.11778249 -0.12203192 0.051566496 0.018826175 -0.033480868 0.0689447
-0.011996704 -0.023144541 0.0562388 0.06301841 -0.104038596 0.094214395 0.12446013 0.091020994
-0.010514698 0.10819957 0.10052209 -0.11759728 0.10628476 -0.10850364 0.06513508 -0.030957134
-0.08785772 -0.009737843 0.034194816 0.04014202 -0.041714713 -0.08381757 -7.533219e-05 -0.10374425

network.9.weight f4 [32]
00000000: d372 7c3f cbe2 803f 1c52 803f b6ec 7a3f
00000010: 0e9f 813f 6063 813f 54ad 823f 519d 743f
00000020: 2c3f 7b3f 95dc 7a3f 84ea 803f 774c 8a3f
00000030: b78e 763f ef85 7d3f 4285 853f be96 7c3f
00000040: b5b5 893f 5b87 853f 5a4f 843f f05f 823f
00000050: b8d4 813f 8c99 853f 055b 933f ae37 7d3f
00000060: f63a 753f c021 7a3f d6ae 923f 277f 733f
00000070: daea 843f 1fca 633f d749 733f 531d 823f
0.9861271 1.0069212 1.0025058 0.9801744 1.0126665 1.0108452 1.0209146 0.95552546
0.9814327 0.9799283 1.0071568 1.0804585 0.96311516 0.9903249 1.0431292 0.98667514
1.0758578 1.0431932 1.0336716 1.0185528 1.0143042 1.0437484 1.1512152 0.98913085
0.9579309 0.9770775 1.1459606 0.95115894 1.0384171 0.8898029 0.95034546 1.0165199

network.9.bias f4 [32]
00000000: 2a5f 09be f59d 183d 6573 9eba 1e71 b9bd
00000010: f00c 933c 20f8 00bd 5d67 173b bfd2 8fbd
00000020: 19c2 09be f7c0 513d f6b2 543b efb6 593d
00000030: 6d50 b7bd c34a c6bd d819 1fbc b5a9 6fbd
00000040: 0bb5 aa3c 8ef8 1cbd e458 28bd f757 a23c
00000050: e2a8 af3c 2e08 863c 5798 8a3d b9b3 4bbc
00000060: 9f8e b5bd a643 90bd 5123 383d 1969 73bd
00000070: 5349 403d a1a9 14bd f8df e2bd eaad 57bd
-0.13415208 0.037260015 -0.0012088834 -0.090547785 0.017950505 -0.03148663 0.002310238 -0.070226185
-0.13452949 0.051209416 0.0032455302 0.053152975 -0.08950887 -0.096822284 -0.0097107515 -0.058511455
0.020838281 -0.038322978 -0.041100398 0.019817336 0.021442834 0.016361322 0.06767338 -0.012432986
-0.088650934 -0.07044153 0.044955555 -0.0594264 0.046944927 -0.036294583 -0.11077875 -0.05265609

network.9.running_mean f4 [32]
00000000: c388 60bf a83d a4be 3210 71be c404 70bd
00000010: fd93 4ebe a42e 493d 2dfb a4be ac6c e1be
00000020: beb8 ebbe b10b d9be 693f cdbd f8ed 443e
00000030: aa91 89bf 7c83 0dbe 5e2c 28bf 9f44 3cbf
00000040: be12 94be b25a c63d ae4a adbe f170 adbe
00000050: c50e e4be add2 2bbe d0d3 f1bc 5b65 0bbe
00000060: 378e cabe 668e 13bf e394 b3be 22a4 edbe
00000070: 65ae acbe 404e 13bf 1d68 24bf d806 22bd
-0.8770868 -0.3207829 -0.23541334 -0.058598295 -0.2017364 0.049116746 -0.32222882 -0.44028223
-0.46039385 -0.42391732 -0.1002186 0.19231403 -1.0747578 -0.13819689 -0.656927 -0.7354221
-0.2892055 0.096852675 -0.3384604 -0.3387523 -0.44542518 -0.16779585 -0.029519945 -0.13612883
-0.39561626 -0.5763916 -0.3507453 -0.46414286 -0.33726802 -0.57541275 -0.64221364 -0.039557308

network.9.running_var f4 [32]
00000000: eef3 343f 1c42 093f 1f64 253f 73f2 123f
00000010: 77f3 0e3f b388 113f 78ab f83e 8a3e 363f
00000020: 9e0f e63e 5490 453f ce6a 5d3f c084 253f
00000030: 7a0a 6d3f de1d 023f e030 453f cd6d 5c3f
00000040: 9e0d c53e a609 123f e5c4 043f 64ed 183f
00000050: c1c9 463f 88b9 103f 5baf fd3e 4258 083f
00000060: e4c0 823f f8c4 2d3f 768a 313f 9bc2 003f
00000070: f966 4d3f 6b12 433f 47e4 f33e fe2f 2e3f
0.7068471 0.536165 0.646059 0.574012 0.5584025 0.5684921 0.4856832 0.7118918
0.4493379 0.7717335 0.86491096 0.64655685 0.9259411 0.50826824 0.770277 0.8610504
0.38486952 0.5704597 0.5186294 0.5973723 0.776516 0.565331 0.49547848 0.5325967
1.0215116 0.67878675 0.693519 0.50296944 0.8023525 0.7619998 0.476351 0.6804198
