ai-layer/model/results/50000_v2/dnn_eligibility_model.pth (torch, 63873 bytes, 25 tensors)

network.0.weight f4 [128, 8]
0.21937233 -0.16141105 -0.044755716 0.25095356 -0.15025882 0.36844885 -0.4297292 0.116581626
0.62282115 -0.32429808 0.08393251 0.27947268 0.14933306 -0.11355678 0.07535412 0.08545543
0.37904602 -0.0007747162 -0.42917094 -0.0081634335 -0.23974107 0.12143245 -0.1984414 0.15200424
-0.7601465 -0.3420013 -0.014076038 -0.22901826 0.101512566 -0.18337499 0.2518677 -0.26643452
0.639353 -0.11139013 -0.069964916 -0.18550919 0.06056718 0.1611813 -0.17431223 -0.153126
0.16955453 -0.31220993 -0.036947634 0.48338237 0.07934747 -0.28949 0.09933729 -0.06978043
0.2500755 -0.091696754 -0.35313267 -0.30301964 -0.29818895 0.36607248 0.1328455 0.20038891
0.15308318 0.20473254 0.17861325 -0.2186325 0.14683434 -0.31686452 0.08589158 -0.46263927
-0.21559514 -0.2478694 0.17253599 -0.56631595 -0.29273242 -0.21635424 0.31126335 -0.066204585
0.45832145 -0.22300886 -0.37427312 -0.32234567 -0.2637218 0.29541886 0.15416351 0.2737524
-0.6909849 -0.5118681 0.07552416 -0.13336049 0.053864274 0.0496629 0.15375209 -0.092649125
-0.15240717 0.22660458 0.11160638 -0.03915606 0.038364366 0.349075 -0.5106843 -0.18928844
0.3263319 0.00026205633 -0.19702758 -0.45911354 -0.28816032 0.2990695 0.0810467 0.06591504
-0.33377644 -0.3597878 -0.13981059 -0.47363058 -0.41027963 -0.28027248 0.24085368 -0.04757572
-0.39176285 -0.2682725 -0.19601566 -0.08547281 -0.06536263 -0.25469106 -0.3696927 -0.3595668
-0.34192857 0.0070399526 0.0026451123 -0.50311667 -0.2010883 -0.36891785 -0.075847864 -0.20052318
0.14196388 -0.24656819 0.22173657 0.066765554 -0.48865116 0.2824512 -0.112488635 -0.36297378
-0.84674126 -0.31683072 0.045661196 -0.1440079 -0.01997329 -0.0015043113 0.31350636 -0.14904591
0.13498232 0.081768036 0.04876664 0.33023214 0.31966078 -0.5015327 -0.029629491 -0.19794486
0.041834563 -0.35227516 0.11953816 -0.6683258 0.13793482 0.082105346 0.2509918 -0.099578425
0.3645489 -0.042957395 -0.12176 -0.34118244 -0.03125568 -0.008298086 -0.36514017 0.37335393
0.3193835 -0.25021544 -0.076640286 -0.011428796 0.29124224 -0.1764716 -0.23683922 -0.13170724
-0.7523842 0.015997615 0.14314707 -0.20788746 -0.010916698 0.054049086 -0.07027358 -0.20513311
0.20991684 0.17737153 0.14731629 -0.12911792 -0.00708585 -0.23812985 -0.3604949 -0.19106486
0.6322917 0.21828298 -0.14114347 -0.18413658 0.011049549 -0.053304892 -0.08443827 0.09207516
-0.69100815 -0.26333514 0.22569138 0.119890235 -0.09138912 -0.2917684 -0.1327818 -0.30518794
-0.51796865 0.24139227 0.18738648 0.37051415 -0.28942844 -0.035942927 -0.009827996 0.11852121
-0.11401734 0.031605113 0.28993055 0.08930347 -0.16324836 0.36239272 -0.364764 -0.111891605
-0.7029856 0.28713703 0.11756076 0.07840412 -0.45773816 -0.0050058058 -0.1695489 0.289292
0.23216106 0.2515938 0.31074303 0.20878592 0.07969822 -0.5088015 -0.27215314 -0.09938517
-0.2669024 -0.20651354 0.12660113 -0.5036869 0.036974087 -0.33119562 -0.09638697 0.18956053
-0.4418521 0.29047295 0.07869059 -0.20924644 0.09580862 -0.44400966 -0.10251529 -0.28529018
00000000: 24a3 603e f048 25be c551 37bd fc7c 803e
00000010: 73dd 19be 54a5 bc3e 7705 dcbe 59c2 ee3d
00000020: 3571 1f3f 660a a6be cfe4 ab3d 0b17 8f3e
00000030: c4ea 183e 7590 e8bd 4353 9a3d 4203 af3d
00000040: 5212 c23e 5316 4bba 4bbc dbbe ecbf 05bc
00000050: af7e 75be 94b1 f83d 3934 4bbe 00a7 1b3e
00000060: f698 42bf cb1a afbe 2f9f 66bc c383 6abe
00000070: d2e5 cf3d a7c6 3bbe cef4 803e 1b6a 88be
00000080: a3ac 233f 8220 e4bd c449 8fbd 1ff6 3dbe
00000090: 4b15 783d b60c 253e e87e 32be 10cd 1cbe
000000a0: b49f 2d3e fbd9 9fbe 6756 17bd e57d f73e
000000b0: ed80 a23d 0938 94be 5971 cb3d 0be9 8ebd
000000c0: e509 803e 82cb bbbd cecd b4be 6425 9bbe
000000d0: 39ac 98be da6d bb3e a708 083e c032 4d3e
000000e0: d6c1 1c3e 68a5 513e 64e6 363e 33e1 5fbe
000000f0: be5b 163e 113c a2be ede7 af3d 0edf ecbe
00000100: f9c4 5cbe 7ad1 7dbe 46ad 303e 15fa 10bf
00000110: 06e1 95be f78b 5dbe e95d 9f3e 4596 87bd
00000120: 1ca9 ea3e 6f5c 64be baa0 bfbe 7e0a a5be
00000130: 8b06 87be 2441 973e 0add 1d3e 4629 8c3e
00000140: 63e4 30bf ca09 03bf 69ac 9a3d a78f 08be
00000150: c9a0 5c3d 536b 4b3d 3071 1d3e d3be bdbd
00000160: a010 1cbe 080b 683e e391 e43d 1b62 20bd
00000170: f423 1d3d f5b9 b23e 35bc 02bf d4d4 41be
00000180: fa14 a73e 9b64 8939 99c1 49be ee10 ebbe
00000190: c089 93be a31f 993e d0fb a53d 77fe 863d
000001a0: bfe4 aabe 1b36 b8be 822a 0fbe b57f f2be
000001b0: 2c10 d2be e07f 8fbe 59a2 763e c2de 42bd
000001c0: 2495 c8be 035b 89be 54b8 48be 5e0c afbd
000001d0: d8dc 85bd de66 82be 5d48 bdbe 2419 b8be
000001e0: 4311 afbe 67af e63b 9f59 2d3b 41cc 00bf
000001f0: 17ea 4dbe cde2 bcbe 2056 9bbd f355 4dbe
00000200: fb5e 113e 5f7c 7cbe e90e 633e 61bc 883d
00000210: 7c30 fabe 729d 903e 7160 e6bd b3d7 b9be
00000220: 09c4 58bf a337 a2be 3c07 3b3d cf76 13be
00000230: 069f a3bc 502c c5ba e883 a03e 7e9f 18be
00000240: ce38 0a3e 0076 a73d 87bf 473d 3014 a93e
00000250: 94aa a33e 7264 00bf 8cb9 f2bc 0fb2 4abe
00000260: b85a 2b3d 695d b4be 6cd0 f43d 6617 2bbf
00000270: c93e 0d3e d926 a83d ff81 803e c6ef cbbd
00000280: 27a6 ba3e 18f4 2fbd 4f5d f9bd 77af aebe
00000290: f505 00bd b2f4 07bc a7f3 babe 3f28 bf3e
000002a0: 3c86 a33e 3d1c 80be 95f5 9cbd d83f 3bbc
000002b0: b41d 953e f9b4 34be fb85 72be 43de 06be
000002c0: 409c 40bf 6e0d 833c 2595 123e 73e0 54be
000002d0: f3db 32bc 9362 5d3d 98eb 8fbd 6a0e 52be
000002e0: 71f4 563e e2a0 353e 15da 163e 7d37 04be
000002f0: 6b30 e8bb 50d8 73be ca92 b8be 82a6 43be
00000300: dedd 213f 9385 5f3e ea87 10be 4d8e 3cbe
00000310: 2b09 353c 3b56 5abd f9ed acbd e791 bc3d
00000320: e9e5 30bf ddd3 86be a41b 673e 0389 f53d
00000330: 382a bbbd ab62 95be f4f7 07be 9841 9cbe
00000340: 9899 04bf 892f 773e 3ee2 3f3e 08b4 bd3e
00000350: f72f 94be e438 13bd 9a05 21bc 40bb f23d
00000360: ec81 e9bd 5d74 013d c771 943e bde4 b63d
00000370: 942a 27be 8a8b b93e 59c2 babe 6d27 e5bd
00000380: ddf6 33bf a003 933e b2c3 f03d 5792 a03d
00000390: a85c eabe be07 a4bb 3a9e 2dbe 151e 943e
000003a0: a1bb 6d3e e7d0 803e b619 9f3e facb 553e
000003b0: d238 a33d d140 02bf a857 8bbe 748a cbbd
000003c0: 6ea7 88be 4978 53be baa3 013e a0f1 00bf
000003d0: 2472 173d 7992 a9be 8866 c5bd 281c 423e
000003e0: 703a e2be dfb8 943e 8828 a13d b344 56be
000003f0: 4f37 c43d 3c55 e3be 89f3 d1bd 8e11 92be

network.0.bias f4 [128]
0.19558398 -0.05319888 0.15327026 -0.20342703 0.055428274 -0.21314198 0.18185022 -0.15485634
-0.08966773 -0.3045763 0.0011706183 0.33937612 0.17015631 -0.18853563 0.0037528106 -0.03632558
-0.2840186 0.27561074 0.008254427 0.07360473 -0.14097826 -0.16711542 0.059299823 0.12711181
0.07913607 -0.17144431 0.34526095 -0.05044622 -0.21257234 -0.16551714 0.34799477 -0.0017555269
-0.0478046 -0.1472358 -0.09351124 -0.29788303 -0.28115723 0.21017209 0.3044034 0.3326897
-0.25616708 0.189023 -0.21916538 0.21010447 0.25394717 0.27366742 0.2529819 0.22254553
0.005636988 0.16329065 -0.12573634 0.15332474 -0.11160335 0.0005445297 -0.31000113 -0.09044275
-0.18843026 -0.11869378 -0.22678135 -0.3218832 0.021612756 0.22886187 0.32367837 0.19958024
-0.18506463 -0.3516264 0.13441627 0.2013318 -0.3032753 0.12815113 0.29722014 0.021269353
-0.21576451 0.29323542 0.15494663 0.23309499 -0.23824427 0.20491342 -0.24275579 0.3491206
-0.15083142 0.21635976 0.06752507 0.08496017 -0.055770177 0.14588168 -0.1409234 -0.32830033
-0.13634196 0.27768314 -0.09177605 0.107264094 -0.12986158 0.27126524 0.2125734 0.12302127
-0.17728992 -0.27963892 0.009034416 -0.20737903 0.2906653 -0.34429625 0.15769003 0.35249794
0.17575404 0.12218585 -0.34050465 0.33854574 -0.059914608 -0.33395156 0.34936294 -0.15204729
-0.031614512 0.3271064 -0.24673258 -0.24929821 0.05983857 -0.04398954 0.08296908 -0.3007355
0.013555081 -0.16156663 -0.17386293 -0.3184528 0.18631713 0.069294795 -0.29921624 0.27943543
00000000: 2b47 483e 12e7 59bd e1f2 1c3e 2d4f 50be
00000010: c208 633d e441 5abe f236 3a3e a992 1ebe
00000020: b7a3 b7bd 6df1 9bbe 6f6f 993a b5c2 ad3e
00000030: 753d 2e3e 7c0f 41be b7f1 753b 22ca 14bd
00000040: e36a 91be da1c 8d3e 943d 073c 14be 963d
00000050: 9b5c 10be 4e20 2bbe 5fe4 723d 9929 023e
00000060: 1812 a23d 198f 2fbe 0bc6 b03e b2a0 4ebd
00000070: 90ac 59be 537d 29be 5f2c b23e b519 e6ba
00000080: c2ce 43bd fbc4 16be d282 bfbd 2084 98be
00000090: d7f3 8fbe 5a37 573e c3da 9b3e 4e56 aa3e
000000a0: 5528 83be 3f8f 413e e46c 60be a025 573e
000000b0: 5d05 823e 231e 8c3e d886 813e fae2 633e
000000c0: 7cb6 b83b aa35 273e 07c1 00be 2901 1d3e
000000d0: 4c90 e4bd c5be 0e3a 78b8 9ebe 0c3a b9bd
000000e0: ddf3 40be b915 f3bd 5f39 68be e0cd a4be
000000f0: 3c0d b13c c45a 6a3e 2cb9 a53e c35e 4c3e
00000100: 9581 3dbe 6008 b4be 6ba4 093e ec29 4e3e
00000110: e646 9bbe 0d3a 033e 3d2d 983e 113d ae3c
00000120: 5ff1 5cbe f422 963e 54aa 1e3e 74b0 6e3e
00000130: 4ef6 73be d3d4 513e f994 78be efbf b23e
00000140: 8d73 1abe 6a8d 5d3e 954a 8a3d 99ff ad3d
00000150: 456f 64bd 0262 153e 394e 10be fb16 a8be
00000160: 3a9d 0bbe 7c2c 8e3e 15f5 bbbd 47ad db3d
00000170: 6ffa 04be 47e3 8a3e d7ac 593e 93f2 fb3d
00000180: 7d8b 35be d52c 8fbe 1605 143c 2b5b 54be
00000190: 15d2 943e 9947 b0be 7f79 213e 9c7a b43e
000001a0: def8 333e 933c fa3d a056 aebe de55 ad3e
000001b0: 0569 75bd b3fb aabe b3df b23e 49b2 1bbe
000001c0: 387e 01bd 7d7a a73e 77a7 7cbe 0848 7fbe
000001d0: 4a19 753d 602e 34bd b1eb a93d 01fa 99be
000001e0: 2116 5e3c b971 25be 2009 32be 3f0c a3be
000001f0: ebc9 3e3e 6eea 8d3d df32 99be 2912 8f3e

network.1.weight f4 [128]
0.84173197 0.73162687 1.2114564 1.0943624 1.1185824 0.9495195 1.2207903 1.0232754
0.7502242 1.1916169 0.9278584 0.9223133 1.271138 0.68136454 0.7861019 0.7143834
0.97140735 0.91757107 1.1028711 0.8981038 1.0459157 1.1824907 0.95139843 0.8677245
0.5872791 0.8486249 1.1279879 0.8852078 1.1465149 0.942142 0.9132748 0.9913865
0.9594229 1.1589985 0.8763484 1.0143938 0.936172 0.87585735 1.1590321 0.9109617
0.8481605 0.92415947 0.93050736 0.99677765 1.0617914 1.0298936 1.0061574 0.6436878
0.9177799 1.0564297 0.8981622 1.0623816 0.9696989 1.209963 1.0238112 0.8982162
0.8774077 0.9970453 1.1446468 1.1128057 1.2178622 0.8477572 0.9043074 0.8662669
0.9193463 0.8565047 0.67989147 1.0355333 0.8330586 0.81130064 0.9128681 0.9202601
0.9012583 1.0332744 0.9454706 0.98437095 0.9029909 0.68429375 0.9124728 0.89259565
0.9801014 0.9071918 0.85301834 1.1382341 1.0473832 0.90437 1.0297704 1.110699
0.79555225 1.020801 0.5953451 1.0220617 0.9959304 0.9917129 0.8540728 1.1376442
1.0154884 0.9195497 0.9285747 0.7566268 0.9284743 0.9413427 0.96435255 0.66096824
1.0833695 0.98177403 0.7855796 1.090524 1.0571735 0.97371453 0.508879 1.025155
0.9083247 0.85298157 0.73723227 0.8892733 1.0081462 0.98860174 0.92759514 1.0421917
0.99690133 0.9813837 1.1390749 1.0148075 0.9393703 0.9335709 0.93336385 1.0923146
00000000: bf7b 573f e64b 3b3f 0111 9b3f 1114 8c3f
00000010: b52d 8f3f b613 733f db42 9c3f b0fa 823f
00000020: b10e 403f e786 983f 2188 6d3f b91c 6c3f
00000030: a6b4 a23f e86d 2e3f f93d 493f d5e1 363f
00000040: 27ae 783f f0e5 6a3f e12a 8d3f 21ea 653f
00000050: 91e0 853f db5b 973f d98e 733f 3123 5e3f
00000060: ec57 163f 7b3f 593f e861 903f fa9c 623f
00000070: 00c1 923f 3830 713f 61cc 693f 81cb 7d3f
00000080: bd9c 753f 105a 943f 5e58 603f a8d7 813f
00000090: f8a8 6f3f 3038 603f 2a5b 943f c934 693f
000000a0: 0c21 593f b795 6c3f bb35 6e3f d22c 7f3f
000000b0: c8e8 873f 8ed3 833f c4c9 803f b9c8 243f
000000c0: a0f3 6a3f 1739 873f f5ed 653f 1ffc 873f
000000d0: 303e 783f 11e0 9a3f 3f0c 833f 7ff1 653f
000000e0: cb9d 603f 5c3e 7f3f c983 923f 6b70 8e3f
000000f0: e9e2 9b3f 9e06 593f b180 673f abc3 5d3f
00000100: 475a 6b3f e443 5b3f 5e0d 2e3f 5b8c 843f
00000110: 5443 553f 66b1 4f3f b9b1 693f 2a96 6b3f
00000120: ddb8 663f 5642 843f 5c0a 723f bcff 7b3f
00000130: 692a 673f e02d 2f3f d197 693f 2681 643f
00000140: ede7 7a3f b93d 683f 695f 5a3f a8b1 913f
00000150: a710 863f cb84 673f 84cf 833f 632b 8e3f
00000160: 50a9 4b3f 9ba9 823f 8968 183f ebd2 823f
00000170: 4bf5 7e3f e6e0 7d3f 84a4 5a3f 539e 913f
00000180: 86fb 813f 9c67 6b3f 12b7 6d3f 4bb2 413f
00000190: 7eb0 6d3f d6fb 703f cfdf 763f 3735 293f
000001a0: daab 8a3f 8b55 7b3f bf1b 493f 4a96 8b3f
000001b0: 7651 873f 5b45 793f e545 023f 4738 833f
000001c0: f887 683f 005d 5a3f 41bb 3c3f 6aa7 633f
000001d0: ef0a 813f 0115 7d3f e076 6d3f 8a66 853f
000001e0: ed34 7f3f f63b 7b3f 35cd 913f 36e5 813f
000001f0: 927a 703f 81fe 6e3f eff0 6e3f f7d0 8b3f

network.1.bias f4 [128]
-0.12526904 -0.10300295 0.13744074 -0.41141456 0.030263504 -0.40574387 0.09023088 -0.4229865
-0.69167525 0.018649446 -0.52984405 -0.3540664 0.03452969 -0.6038936 -0.6735042 -0.87748396
0.022790385 -0.63985276 -0.074458554 -0.59871346 -0.11854132 -0.49059945 -0.27170447 -0.3322332
-0.46679157 -0.51131856 -0.07917755 -0.08358089 -0.2772236 -0.09058482 -0.40931058 -0.62711495
-0.032229237 -0.04314487 -0.27378276 -0.3605416 -0.40898994 -0.68182164 -0.13961111 -0.2860963
-0.72986823 -0.4255439 -0.24916443 -0.57002455 -0.3879352 -0.42142892 -0.24823353 -0.37183595
0.09341629 0.050121505 -0.68836015 -0.22649719 -0.34114364 0.1705598 -0.042290542 -0.30810383
-0.4689841 -0.2370174 -0.06020519 -0.067648806 -0.19133449 -0.21673052 -0.25118077 -0.5113854
-0.6071535 -0.15129241 -0.3228832 -0.3515033 0.017691638 -0.3389604 -0.66429955 -0.6121102
-0.13101703 -0.34085613 -0.2952451 -0.53293663 -0.26717377 -0.66353923 -0.456799 -0.40376595
-0.36412662 -0.056905143 -0.10897855 0.10912079 -0.07562703 -0.25286463 -0.25137272 -0.26242623
-0.36289728 -0.052558653 -0.11915455 -0.60265917 0.057652824 -0.2123097 -0.08205351 -0.336474
-0.37403378 -0.81712645 0.0018918727 -0.41829562 -0.23083603 -0.55441934 0.059808593 -0.058919407
-0.33305284 -0.4909306 -0.549197 0.022536298 -0.18799545 -0.11472338 -0.3593811 -0.633375
-0.37378317 -0.13161702 -0.26750702 -0.37001175 -0.14283802 -0.16586839 -0.25139046 -0.21237251
-0.39535674 -0.1897088 -0.13620085 -0.31395632 -0.43953007 -0.395829 -0.693401 -0.32242325
00000000: 8746 00be 36f3 d2bd 44bd 0c3e eea4 d2be
00000010: 2beb f73c a9bd cfbe f8ca b83d b091 d8be
00000020: a111 31bf b9c6 983c dca3 07bf 3148 b5be
00000030: 016f 0d3d c598 1abf c56a 2cbf caa2 60bf
00000040: e7b2 ba3c 64cd 23bf ba7d 98bd 4945 19bf
00000050: cbc5 f2bd da2f fbbe d91c 8bbe 781a aabe
00000060: 4eff eebe c6e5 02bf d727 a2bd 752c abbd
00000070: 40f0 8dbe 8984 b9bd 2891 d1be 9b8a 20bf
00000080: ce02 04bd adb8 30bd 412d 8cbe e998 b8be
00000090: 2167 d1be dd8b 2ebf 37f6 0ebe 377b 92be
000000a0: a5d8 3abf e4e0 d9be f624 7fbe 21ed 11bf
000000b0: 719f c6be 88c5 d7be ee30 7ebe 4861 bebe
000000c0: 0a51 bf3d 354c 4d3d 5f38 30bf e1ee 67be
000000d0: 61aa aebe 3aa7 2e3e d938 2dbd c9bf 9dbe
000000e0: af1e f0be b0b4 72be b899 76bd 758b 8abd
000000f0: 30ed 43be 9bee 5dbe c49a 80be 27ea 02bf
00000100: 696e 1bbf 66ec 1abe f250 a5be 3ef8 b3be
00000110: 0eee 903c 388c adbe 890f 2abf 41b3 1cbf
00000120: 5429 06be b284 aebe 5e2a 97be 896e 08bf
00000130: 00cb 88be b5dd 29bf 8fe1 e9be 69ba cebe
00000140: ce6e babe 5e15 69bd 2530 dfbd b97a df3d
00000150: 58e2 9abd 7977 81be edb3 80be bb5c 86be
00000160: accd b9be be47 57bd 4d07 f4bd df47 1abf
00000170: 5e25 6c3d b767 59be ac0b a8bd 5246 acbe
00000180: 5b81 bfbe 332f 51bf b7f8 f73a d82a d6be
00000190: 4860 6cbe 6dee 0dbf dbf9 743d 7a55 71bd
000001a0: e785 aabe 415b fbbe 2d98 0cbf 0b9e b83c
000001b0: e181 40be 17f4 eabd cd00 b8be dd24 22bf
000001c0: 8260 bfbe 9dc6 06be aef6 88be 2e72 bdbe
000001d0: 2144 12be 67d9 29be 40b6 80be 2e78 59be
000001e0: 336c cabe 0643 42be 3c78 0bbe e2be a0be
000001f0: 160a e1be 19aa cabe ba82 31bf a914 a5be

network.1.running_mean f4 [128]
0.21798208 -0.028299842 0.16119014 -0.26798266 0.08524387 -0.22635207 0.19541556 -0.16038376
-0.13174266 -0.2873424 -0.047078747 0.3552383 0.18621022 -0.25467625 -0.06003597 -0.09129971
-0.28714967 0.21968248 -0.0012744195 0.06694639 -0.12805015 -0.16949688 0.021913055 0.12553428
0.111303866 -0.23499638 0.3292912 -0.035632767 -0.24152772 -0.16545327 0.3111629 -0.043647833
-0.061329015 -0.14606056 -0.0836082 -0.31678435 -0.3132013 0.15786992 0.2944051 0.33429155
-0.31949237 0.13671473 -0.2579563 0.17535618 0.2649896 0.22992538 0.2230364 0.22771214
0.01019664 0.17745058 -0.15752418 0.14102557 -0.14399266 0.009894753 -0.34653902 -0.1302801
-0.18734485 -0.108239025 -0.21589643 -0.31754556 0.009386887 0.23002805 0.35365236 0.19377215
-0.19087432 -0.35347635 0.17149425 0.17011741 -0.27263078 0.1328468 0.26406875 -0.014428909
-0.2192522 0.31044647 0.14277607 0.21459527 -0.20365648 0.1510491 -0.29248744 0.31134102
-0.20341335 0.2360427 0.018361343 0.080268316 -0.044284955 0.16582853 -0.16747467 -0.33604443
-0.16683227 0.2737174 -0.05097775 0.08148695 -0.13370508 0.24994925 0.2002917 0.085561045
-0.19891024 -0.30593863 -0.0005586576 -0.22196683 0.28576759 -0.34005266 0.18969354 0.37876308
0.13553433 0.063342646 -0.3492472 0.33977488 -0.06230476 -0.32269633 0.40624207 -0.16080482
-0.040406693 0.33455902 -0.2323802 -0.29185078 0.030162685 -0.056973092 0.052459627 -0.27519926
-0.01732679 -0.17241558 -0.19320714 -0.32185927 0.13780066 0.016276818 -0.3202297 0.25927246
00000000: b236 5f3e 12d5 e7bc 070f 253e 0635 89be
00000010: 5794 ae3d d6c8 67be 041b 483e a43b 24be
00000020: 8ce7 06be 8b1e 93be a5d5 40bd cbe1 b53e
00000030: e4ad 3e3e ed64 82be 47e8 75bd 58fb babd
00000040: 4805 93be 72f4 603e 6c0a a7ba 301b 893d
00000050: 941f 03be 9790 2dbe 0283 b33c 0f8c 003e
00000060: 48f3 e33d e4a2 70be db98 a83e aaf3 11bd
00000070: 0b53 77be 956c 29be be50 9f3e 12c8 32bd
00000080: 2234 7bbd e690 15be c73a abbd 8f31 a2be
00000090: ec5b a0be a7a8 213e 44bc 963e 4328 ab3e
000000a0: 8194 a3be f2fe 0b3e d912 84be 9290 333e
000000b0: b8ac 873e 8f71 6b3e a763 643e 5f2d 693e
000000c0: cf0f 273c 9bb5 353e 054e 21be 0269 103e
000000d0: d072 13be 9a1d 223c 906d b1be 2668 05be
000000e0: 54d7 3fbe 6cac ddbd f413 5dbe 5595 a2be
000000f0: 75cb 193c 798c 6b3e ec11 b53e 356c 463e
00000100: 8f74 43be dafa b4be 309c 2f3e 4233 2e3e
00000110: 4396 8bbe fe08 083e 0534 873e 3b67 6cbc
00000120: a683 60be d7f2 9e3e e433 123e ddbe 5b3e
00000130: 538b 50be 9eac 1a3e eac0 95be 1768 9f3e
00000140: 974b 50be 2db5 713e 876a 963c b763 a43d
00000150: 2464 35bd f4ce 293e 7b7e 2bbe 040e acbe
00000160: 14d6 2abe b024 8c3e 0cce 50bd a1e2 a63d
00000170: fce9 08be b2f2 7f3e 4419 4d3e a13a af3d
00000180: 20af 4bbe fda3 9cbe e072 12ba 464b 63be
00000190: 2150 923e 621b aebe 063f 423e 3ced c13e
000001a0: 83c9 0a3e cab9 813d 87d0 b2be f9f6 ad3e
000001b0: 4733 7fbd 7438 a5be f6fe cf3e 05aa 24be
000001c0: 7d81 25bd 524b ab3e 13f5 6dbe 776d 95be
000001d0: bc17 f73c 9e5c 69bd e8df 563d ebe6 8cbe
000001e0: eaf0 8dbc b68d 30be 18d8 45be bdca a4be
000001f0: 9e1b 0d3e f656 853c 26f5 a3be 5cbf 843e

network.1.running_var f4 [128]
0.3912642 0.5930613 0.49973926 1.95346 0.23468903 0.1799234 0.48269626 0.37568146
1.5033426 0.5988375 1.3561114 0.3109525 0.28147972 2.2517235 2.1058378 1.9858593
0.34510887 1.5068101 0.25384957 0.63396156 0.25123313 0.12933795 1.1768532 0.25258747
0.5061248 2.0847003 0.17931733 0.23082088 0.5570077 0.3357925 1.1456074 1.0772874
0.2630733 0.33183044 0.28484753 0.6214673 0.9458246 1.0576488 0.13605115 0.17698462
1.919529 1.4717351 0.63212866 0.6151823 0.686983 0.8008746 0.7538309 0.51782686
0.32840547 0.24372405 0.52486527 0.3273849 0.6959585 0.30969775 0.68893373 0.80908376
0.32381877 0.22137833 0.71901953 0.33185762 0.15226749 0.27272233 0.5776704 0.3048165
0.24507642 0.34268928 0.36865705 0.24558622 1.0965534 0.23734733 0.95047253 1.2253424
0.2944133 0.47494027 0.2918837 0.32655683 0.24093626 1.8770286 1.230103 1.0003082
1.589111 0.6450609 1.4864011 0.17162693 0.5937614 0.43651307 0.46455503 0.263346
0.51310086 0.31478912 1.1241181 0.45885935 0.21103433 0.3172032 0.7012567 1.1564739
0.2417016 0.29273793 0.40004197 0.62242025 0.3870227 0.20422073 0.47527784 0.42686066
0.60543084 1.9479902 0.78590506 0.38193893 0.2588879 0.1404357 2.0722508 0.1080918
0.36928254 0.49285838 0.23063156 0.85727715 0.99121004 0.4115689 0.89933634 0.29796505
0.47185618 0.17416902 0.21308996 0.10569393 1.5211785 1.3469384 0.29071194 0.28963172
00000000: c853 c83e ded2 173f d3dd ff3e fa0a fa3f
00000010: 5252 703e d73d 383e f723 f73e 5259 c03e
00000020: 886d c03f 6a4d 193f 0f95 ad3f 2b35 9f3e
00000030: 1c1e 903e 3d1c 1040 0cc6 0640 a330 fe3f
00000040: 1cb2 b03e 27df c03f 92f8 813e 4e4b 223f
00000050: a1a1 803e 2b71 043e 20a3 963f 2553 813e
00000060: 6591 013f bb6b 0540 f69e 373e 4f5c 6c3e
00000070: 0e98 0e3f ffec ab3e 43a3 923f 8ee4 893f
00000080: 8bb1 863e aee5 a93e 89d7 913e 7b18 1f3f
00000090: 9021 723f 0961 873f fe50 0b3e 753b 353e
000000a0: 20b3 f53f d161 bc3f 2fd3 213f 967c 1d3f
000000b0: 1ede 2f3f 1e06 4d3f 10fb 403f 4d90 043f
000000c0: c324 a83e cc92 793e 925d 063f fe9e a73e
000000d0: 562a 323f b490 9e3e f65d 303f 1d20 4f3f
000000e0: 93cb a53e 00b1 623e aa11 383f 3ee9 a93e
000000f0: 02ec 1b3e 43a2 8b3e 35e2 133f e910 9c3e
00000100: 50f5 7a3e f874 af3e 9ec0 bc3e f47a 7b3e
00000110: dd5b 8c3f 2e0b 733e 2b52 733f 05d8 9c3f
00000120: 57bd 963e 5f2b f33e c871 953e 7532 a73e
00000130: ffb7 763e 7942 f03f 0474 9d3f 190a 803f
00000140: fd67 cb3f b622 253f 6442 be3f f8be 2f3e
00000150: bf00 183f a47e df3e 28da ed3e 49d5 863e
00000160: 945a 033f 0a2c a13e 1ae3 8f3f 9def ea3e
00000170: 6219 583e 7568 a23e 8f85 333f 5607 943f
00000180: a080 773e bfe1 953e 4dd2 cc3e ef56 1f3f
00000190: d727 c63e 3d1f 513e 9e57 f33e 7b8d da3e
000001a0: 84fd 1a3f be57 f93f 1331 493f 808d c33e
000001b0: f48c 843e 60ce 0f3e c29f 0440 3c5f dd3d
000001c0: 9a12 bd3e ef57 fc3e ae2a 6c3e 8476 5b3f
000001d0: f1bf 7d3f 29b9 d23e e83a 663f e08e 983e
000001e0: 2297 f13e 5d59 323e 4134 5a3e 0f76 d83d
000001f0: fab5 c23f 7a68 ac3f 32d8 943e 9c4a 943e

network.4.weight f4 [64, 128]
0.22800148 0.21121322 -0.107310146 -0.16499953 0.094062604 0.3811301 0.020126862 0.19447054
-0.09133726 0.04442919 -0.11235883 -0.14750217 0.027819466 -0.065149225 -0.121415645 -0.1328215
-0.15242052 0.022197265 0.110969245 -0.14165863 -0.011251334 0.10301824 0.020588152 -0.058222458
0.17859319 -0.17919935 0.08991106 -0.5507684 0.0012304632 -0.015668802 -0.2563426 -0.2715045
0.043427423 -0.0009804891 0.027560327 -0.08009139 -0.20886758 -0.1013757 0.04996143 -0.053747695
-0.13080668 -0.23702867 -0.23855923 -0.20333734 0.09836096 -0.17523932 -0.028933289 0.15301335
-0.25949496 -0.22421524 -0.22694467 0.2211482 -0.21586266 -0.08828705 -0.3163404 -0.12930046
-0.032591403 0.08393839 0.3870176 0.18131776 0.16350469 0.28539598 0.16929565 0.2636695
0.33234185 0.1364524 0.04368949 0.11607158 0.035350464 0.34497505 -0.15981705 -0.01633352
0.33398247 0.16354997 0.20908412 -0.09607183 0.098722674 -0.2160681 -0.040862333 -0.25926083
-0.16269062 -0.16274498 -0.11613835 0.04698426 0.05817964 0.17916104 -0.17309159 -0.002690704
-0.2179671 0.09860822 0.09342496 -0.35480163 0.06658613 -0.011530375 -0.25756985 -0.16106786
-0.076092444 0.0126118455 -0.24343044 -0.21134071 0.088923216 0.11613258 0.14149004 0.048531856
-0.06127235 -0.04131235 -0.08524878 0.13289157 0.060892902 0.124829896 -0.08794713 -0.24286152
0.039023884 0.15184021 0.01545153 0.04712439 -0.44407904 -0.49948156 -0.16572735 0.13310821
-0.22984247 0.18919934 0.071108125 0.007047773 -0.17203921 -0.09326059 -0.18234535 0.008429757
0.11799791 0.030382406 -0.20289639 0.10450784 0.12680227 -0.09553366 0.06365137 0.22404142
0.32602534 0.0048478763 0.23137519 -0.14785202 0.08981387 0.20378283 0.2693351 0.35818857
-0.11694698 0.23139308 0.1813098 0.33817548 0.009552775 0.24162705 0.22188708 0.1778715
-0.015409257 0.09105753 0.24592309 -0.10436836 0.10622285 -0.091249086 0.2375509 0.31981832
0.14183447 -0.19604477 0.008872681 0.18839 0.12074888 0.26511732 0.23783904 0.16999072
0.2144261 0.14163484 0.15909065 0.16647923 -0.09047087 0.028110867 0.17533265 0.076097906
0.036518283 0.16777015 0.117180884 0.1635915 0.23083866 0.20726317 -0.13184957 0.11396913
0.13025221 -0.0010390554 0.097990036 -0.12935929 -0.161339 0.17606233 0.11311709 0.23915596
0.2421958 0.09951286 -0.11284813 0.20072646 0.09672999 -0.23608266 0.27325413 0.12226037
0.041131817 -0.1559294 0.08281015 0.099439576 -0.14294136 0.19619823 0.0565549 0.12194908
0.13327368 -0.14205898 -0.1218587 0.13031639 0.08591206 -0.006657855 -0.17704852 0.17876238
0.03523349 0.1572336 -0.11383505 0.22744843 0.099902056 -0.27839744 -0.035995614 0.21845339
0.36389905 0.1461 -0.06578388 0.25946814 -0.008274599 0.028517663 0.20460057 -0.046772905
0.2469136 0.27649468 0.16432345 0.18595998 0.10236452 0.073947445 -0.118134476 0.1944262
0.118368946 -0.109301195 0.14161551 0.11093356 0.12840505 0.09427989 -0.014050085 -0.25974235
0.04440242 -0.26644963 0.059591085 0.043355953 0.015844595 0.045087878 0.14124668 0.22397237
00000000: 3879 693e 4748 583e 6cc5 dbbd a3f5 28be
00000010: e5a3 c03d 7c23 c33e 17e1 a43c 4923 473e
00000020: 080f bbbd 62fb 353d 631c e6bd cf0a 17be
00000030: a6e5 e33c f56c 85bd c4a8 f8bd 5c02 08be
00000040: 2014 1cbe 0ad7 b53c d843 e33d f60e 11be
00000050: 8457 38bc 3afb d23d 7ca8 a83c ac7a 6ebd
00000060: 22e1 363e 0980 37be 4a23 b83d 28ff 0cbf
00000070: 7e47 a13a dc5b 80bc 563f 83be a302 8bbe
00000080: f4e0 313d c183 80ba 32c6 e13c f406 a4bd
00000090: 62e1 55be 109e cfbd 5ba4 4c3d 8b26 5cbd
000000a0: 30f2 05be a5b7 72be df48 74be aa37 50be
000000b0: 7971 c93d f071 33be 8105 edbc 88af 1c3e
000000c0: 86dc 84be ae98 65be 2f64 68be ac74 623e
000000d0: 1a0b 5dbe d7cf b4bd 5ef7 a1be 5767 04be
000000e0: 907e 05bd e4e7 ab3d 2c27 c63e 5dab 393e
000000f0: c66d 273e 6c1f 923e d75b 2d3e b0ff 863e
00000100: b628 aa3e 2eba 0b3e c0f3 323d f0b6 ed3d
00000110: a6cb 103d 92a0 b03e 15a7 23be e0cd 85bc
00000120: c0ff aa3e a579 273e 261a 563e 4fc1 c4bd
00000130: 1d2f ca3d f540 5dbe 435f 27bd d6bd 84be
00000140: 5f98 26be 9fa6 26be f1d9 edbd 9172 403d
00000150: c64d 6e3d fe75 373e ec3e 31be 8656 30bb
00000160: c432 5fbe 1bf3 c93d 9655 bf3d 8fa8 b5be
00000170: 4f5e 883d e6e9 3cbc 32e0 83be f9ee 24be
00000180: 5bd6 9bbd eaa1 4e3c d445 79be b369 58be
00000190: 601d b63d ebd6 ed3d c4e2 103e 57c9 463d
000001a0: b7f8 7abd 2437 29bd ea96 aebd ba14 083e
000001b0: d66a 793d d1a6 ff3d a01d b4bd b1b0 78be
000001c0: 82d7 1f3d 007c 1b3e 6a28 7d3c 8105 413d
000001d0: 545e e3be 0cbc ffbe 6eb4 29be 854d 083e
000001e0: d35b 6bbe 79bd 413e 23a1 913d 01f1 e63b
000001f0: 0c2b 30be 69ff bebd bdb8 3abe f71c 0a3c
00000200: e3a8 f13d 86e4 f83c 12c4 4fbe 3508 d63d
00000210: 74d8 013e 27a7 c3bd a65b 823d 1d6b 653e
00000220: cbec a63e efda 9e3b 9eed 6c3e 8566 17be
00000230: 56f0 b73d 72ac 503e 4ae6 893e 7e64 b73e
00000240: e681 efbd 4ff2 6c3e 47a9 393e 5625 ad3e
00000250: 3e83 1c3c 156d 773e 5e36 633e f223 363e
00000260: 1c77 7cbc 5f7c ba3d 43d3 7b3e 14bf d5bd
00000270: 5e8b d93d cde0 babd 8b40 733e 3abf a33e
00000280: 0e3d 113e f6bf 48be b95e 113c 4fe9 403e
00000290: 304b f73d 75bd 873e 148c 733e 0c12 2e3e
000002a0: 8492 5b3e b908 113e a9e8 223e 8879 2a3e
000002b0: cb48 b9bd c348 e63c 678a 333e 38d9 9b3d
000002c0: 3294 153d f0cb 2b3e 88fc ef3d 8884 273e
000002d0: f860 6c3e cc3c 543e 9303 07be a668 e93d
000002e0: d660 053e ea30 88ba 00af c83d c376 04be
000002f0: 0d36 25be af49 343e efa9 e73d 4de5 743e
00000300: 2d02 783e 66cd cb3d ec1c e7bd 3d8b 4d3e
00000310: 5f1a c63d a7bf 71be f7e7 8b3e a563 fa3d
00000320: d679 283d f5ab 1fbe 5e98 a93d faa6 cb3d
00000330: 385f 12be 30e8 483e 1ca6 673d 70c0 f93d
00000340: e578 083e e977 11be 0e91 f9bd a971 053e
00000350: aaf2 af3d 232a dabb 354c 35be 7c0d 373e
00000360: fe50 103d d801 213e 5a22 e9bd 3ee8 683e
00000370: 7399 cc3d 1c8a 8ebe 2370 13bd 3fb2 5f3e
00000380: fa50 ba3e 3d9b 153e b3b9 86bd 02d9 843e
00000390: 2f92 07bc e09d e93c d082 513e f294 3fbd
000003a0: ebd6 7c3e b690 8d3e 6844 283e 4b6c 3e3e
000003b0: 7da4 d13d c271 973d 7df0 f1bd a917 473e
000003c0: 6b6b f23d 4ed9 dfbd a803 113e 2231 e33d
000003d0: 9d7c 033e d115 c13d 5432 66bc f3fc 84be
000003e0: 50df 353d 166c 88be c815 743d 0396 313d
000003f0: 86cc 813c 11ae 383d f8a2 103e 0359 653e

network.4.bias f4 [64]
0.03480211 0.026624963 0.053174343 0.029761357 -0.017643923 -0.014538532 0.07496337 -0.0031652325
-0.07401046 -0.062285524 -0.06595381 0.009349138 0.066509314 0.052481357 0.024505848 0.030227253
-0.039352756 0.08116729 0.035015848 -0.056628175 -0.06148242 -0.07818742 -0.026662081 0.065260805
0.006587342 -0.043033484 0.023790762 -0.06180036 0.025210401 0.060469784 0.04263243 -0.026622118
-0.030916424 0.038607404 0.05453174 -0.022720627 -0.0016881891 -0.010428404 -0.0068747187 -0.07615527
-0.07297748 0.07675121 -0.043880768 0.064148344 0.054826453 -0.012936549 -0.041642517 0.0028910898
-0.016667191 -0.049989477 0.08384093 -0.0051493053 -0.013239643 -0.061366424 0.01487164 0.010069242
0.088894226 -0.027600324 0.049381223 0.0047703236 0.046159018 0.0029716622 -0.015129425 0.033412833
00000000: a88c 0e3d 981c da3c 57cd 593d 17ce f33c
00000010: fd89 90bc 0633 6ebc 6586 993d ca6f 4fbb
00000020: cc92 97bd 1b1f 7fbd cb12 87bd 202d 193c
00000030: 0936 883d b1f6 563d 7dc0 c83c 259f f73c
00000040: 5b30 21bd 093b a63d c76c 0f3d f2f2 67bd
00000050: fdd4 7bbd ba20 a0bd 706a dabc 75a7 853d
00000060: a1da d73b e143 30bd d8e4 c23c 6022 7dbd
00000070: 0b86 ce3c 2aaf 773d 589f 2e3d a116 dabc
00000080: 7144 fdbc cc22 1e3d ac5c 5f3d 9c20 babc
00000090: 3a46 ddba e6db 2abc 5245 e1bb 4bf7 9bbd
000000a0: 3875 95bd bd2f 9d3d 52bc 33bd 3560 833d
000000b0: b491 603d d2f3 53bc 5891 2abd 7078 3d3b
000000c0: a289 88bc c4c1 4cbd cbb4 ab3d 81bb a8bb
000000d0: 16eb 58bc 5c5b 7bbd 2ea8 733c 76f9 243c
000000e0: 2d0e b63d 131a e2bc f743 4a3d 6050 9c3b
000000f0: 3d11 3d3d 38c0 423b 68e1 77bc e5db 083d

network.5.weight f4 [64]
1.0900187 0.9050849 0.82591915 1.1390969 1.1082066 1.207568 0.9886392 0.93411267
0.93685377 0.9387553 1.1395426 1.1707739 1.000292 1.1812369 1.0464793 0.95296174
1.0028884 0.8924944 1.0529459 1.0192044 1.0991073 1.0161848 0.9299486 1.0172619
0.86351717 0.9002193 0.7672177 1.0119003 1.0901524 0.8337924 1.068425 1.0192115
0.96437716 1.0518029 1.0454868 1.059973 1.215281 0.4685142 1.1207128 1.1004517
0.90083754 1.149164 0.85419893 0.8890686 1.0191752 1.0517756 0.8618304 1.0617876
0.97804123 1.0126532 0.8853222 0.9723301 1.1303805 1.1183732 1.0000825 0.93732214
0.9534531 0.9947748 1.0848002 1.076724 1.0139221 0.88820755 1.0916936 1.0748506
00000000: bc85 8b3f a5b3 673f 706f 533f edcd 913f
00000010: b7d9 8d3f 9791 9a3f 7517 7d3f 0222 6f3f
00000020: a6d5 6f3f 4452 703f 88dc 913f ebdb 953f
00000030: 9109 803f c532 973f 09f3 853f 4df5 733f
00000040: a65e 803f 837a 643f eec6 863f 4a75 823f
00000050: 8caf 8c3f 5812 823f 1d11 6e3f a335 823f
00000060: 760f 5d3f c674 663f 6168 443f f385 813f
00000070: 1d8a 8b3f 6b73 553f 27c2 883f 8675 823f
00000080: 6ce1 763f 7aa1 863f 83d2 853f 32ad 873f
00000090: 548e 9b3f 18e1 ef3e 8473 8f3f 9adb 8c3f
000000a0: 4a9d 663f ce17 933f c8ac 5a3f 009a 633f
000000b0: 5574 823f 95a0 863f eba0 5c3f a8e8 873f
000000c0: e960 7a3f 9f9e 813f 7aa4 623f a0ea 783f
000000d0: 4fb0 903f da26 8f3f b402 803f 58f4 6f3f
000000e0: 8115 743f 90a9 7e3f bcda 8a3f 18d2 893f
000000f0: 33c8 813f 9261 633f 9ebc 8b3f b494 893f

network.5.bias f4 [64]
0.033721205 -0.6294304 -0.10668956 -0.2279951 0.0050987434 -0.22325535 -0.12779792 -0.17143095
-0.082981825 -0.080895506 -0.16321957 -0.06652111 -0.10663233 -0.08193018 -0.09815189 0.14066285
-0.14583816 -0.06435741 -0.5169341 -0.42478335 -0.24922328 -0.12443227 0.053202648 -0.1813122
-0.15188009 -0.11477664 -0.31174475 -0.28856534 -0.06359546 -0.18911031 -0.58380455 -0.52744704
-0.2850055 0.035028264 -0.31509572 0.072145574 -0.0585938 -0.4185861 -0.14472772 0.03622064
-0.059353452 -0.13791864 0.031163035 -0.20509607 0.08534009 -0.77258736 -0.28263757 -0.25718093
-0.058385994 -0.033662487 -0.14077331 -0.24451469 -0.30590406 -0.15165265 -0.08851886 -0.14870113
-0.13721955 -0.35294652 0.035785124 -0.08908407 -0.06270976 -0.06940694 -0.17351441 -0.17576016
00000000: 3f1f 0a3d 5a22 21bf 0e80 dabd 8c77 69be
00000010: 5c13 a73b 0d9d 64be 75dd 02be 988b 2fbe
00000020: 60f2 a9bd 8bac a5bd 0823 27be 383c 88bd
00000030: 0d62 dabd 03cb a7bd dc03 c9bd ec09 103e
00000040: 9956 15be d1cd 83bd cb55 04bf 347d d9be
00000050: 6334 7fbe 59d6 febd 05eb 593d e8a9 39be
00000060: 7486 1bbe 0410 ebbd 029d 9fbe d6be 93be
00000070: 563e 82bd 22a6 41be 3774 15bf c506 07bf
00000080: 3eec 91be cc79 0f3d 3a54 a1be 0fc1 933d
00000090: 0d00 70bd eb50 d6be 8133 14be 185c 143d
000000a0: 9b1c 73bd 8b3a 0dbe 9f49 ff3c b404 52be
000000b0: c9c6 ae3d 49c8 45bf dfb5 90be 38ad 83be
000000c0: 2726 6fbd ade1 09bd e126 10be 0f62 7abe
000000d0: 759f 9cbe d54a 1bbe 6049 b5bd 1c45 18be
000000e0: 4883 0cbe 68b5 b4be 6c93 123d b571 b6bd
000000f0: fa6d 80bd 3a25 8ebd c3ad 31be 79fa 33be

network.5.running_mean f4 [64]
-0.51984036 2.2559907 -0.1830432 1.0442123 -0.39187056 2.5497298 0.031470872 -0.047585256
0.38689047 -0.67184085 -0.34053022 0.9944447 -0.89482856 1.2962523 -0.10449459 -1.28497
0.22025757 -0.18367206 3.1896353 -0.20149797 -1.2673986 0.3706778 0.4851905 0.06533337
-1.6733456 -1.1247021 -1.3919815 1.253823 0.25009674 1.138241 2.9375958 2.2212648
1.2076243 0.4851774 1.0568005 -1.9569432 -1.4752426 -2.5655713 -0.80125487 -0.021163091
-0.38600826 1.4346381 0.40353602 0.36507216 -1.3067446 1.7296536 0.6805809 0.078292176
-0.76454675 0.76468587 -0.022380626 0.26685843 2.523385 0.90903085 -0.2788006 -0.9826835
-0.6484407 0.67104083 -0.946145 -2.4121103 -0.79927665 -1.0171363 0.116306715 -0.2677359
00000000: 4214 05bf 2762 1040 ad6f 3bbe c0a8 853f
00000010: 42a3 c8be c62e 2340 9ae7 003d c2e8 42bd
00000020: 8216 c63e c3fd 2bbf fa59 aebe ee93 7e3f
00000030: 7c13 65bf 98eb a53f 4201 d6bd e679 a4bf
00000040: 338b 613e 8714 3cbe fc22 4c40 7c55 4ebe
00000050: 1e3a a2bf 7bc9 bd3e e46a f83e 80cd 853d
00000060: 3030 d6bf 3df6 8fbf 732c b2bf 467d a03f
00000070: ae0c 803e e2b1 913f 9201 3c40 3429 0e40
00000080: 6f93 9a3f 2c69 f83e 3d45 873f 1d7d fabf
00000090: c0d4 bcbf 5232 24c0 0a1f 4dbf 385e adbc
000000a0: e0a2 c5be 39a2 b73f 469c ce3e bdea ba3e
000000b0: 6843 a7bf 4a65 dd3f 8d3a 2e3f a657 a03d
000000c0: 56b9 43bf 74c2 433f 9357 b7bc aba1 883e
000000d0: 247f 2140 3fb6 683f f4be 8ebe 2591 7bbf
000000e0: 3600 26bf 55c9 2b3f 8f36 72bf 0460 1ac0
000000f0: 659d 4cbf 8631 82bf 3732 ee3d ae14 89be

network.5.running_var f4 [64]
12.222839 5.0113926 8.632287 6.0995927 14.681877 6.184445 13.751786 8.6086035
13.646387 19.217138 12.44383 9.949544 12.886614 11.702344 8.740254 7.044647
5.5716586 5.821385 4.5791974 2.4053798 8.405218 7.027737 7.283076 7.115834
4.528163 2.826566 3.8910136 5.375054 9.412388 4.2031155 2.8535085 6.175596
6.5238576 7.5506835 13.202089 11.428231 7.1478415 3.1066597 8.299795 7.2521496
10.300764 7.7557707 2.390002 4.2420034 17.581411 7.4558635 4.194866 8.720133
9.513318 10.104371 12.810222 5.001051 6.35408 9.200741 14.592507 4.3658247
2.993183 3.4970899 11.364825 5.1941733 12.681979 6.943317 12.363532 6.9093037
00000000: c090 4341 545d a040 d91d 0a41 dd2f c340
00000010: f8e8 6a41 f9e6 c540 5107 5c41 d7bc 0941
00000020: 9a57 5a41 b3bc 9941 ed19 4741 5531 1f41
00000030: 922f 4e41 cd3c 3b41 15d8 0b41 c06d e140
00000040: 074b b240 c948 ba40 c988 9240 bef1 1940
00000050: c67b 0641 39e3 e040 f50e e940 eab4 e340
00000060: b6e6 9040 75e6 3440 5e06 7940 7100 ac40
00000070: 2499 1641 ec7f 8640 e29f 3640 7c9e c540
00000080: 71c3 d040 339f f140 c23b 5341 09da 3641
00000090: 1ebb e440 83d3 4640 f6cb 0441 9c11 e840
000000a0: eecf 2441 462f f840 cbf5 1840 7ebe 8740
000000b0: bba6 8c41 6f96 ee40 583c 8640 aa85 0b41
000000c0: 8d36 1841 81ab 2141 abf6 4c41 9c08 a040
000000d0: a054 cb40 3c36 1341 e97a 6941 d6b4 8b40
000000e0: 4f90 3f40 52d0 5f40 53d6 3541 ab36 a640
000000f0: 63e9 4a41 a72f de40 07d1 4541 0419 dd40

network.8.weight f4 [32, 64]
0.04088338 -0.019117696 -0.19526854 -0.2322968 -0.04610241 -0.18949857 -0.11030745 -0.2248267
0.16451876 -0.062291257 -0.25293243 -0.18663608 -0.0058348477 -0.27256715 0.031336896 0.2185018
0.13260031 0.03481371 0.0013410667 -0.119090796 -0.13713723 -0.26249558 0.101299174 -0.15437521
0.12060686 0.15005253 -0.22461495 -0.03995158 0.048698638 0.004083538 -0.18970118 -0.20565315
-0.20486544 -0.047714535 -0.25997058 -0.14289956 -0.45674685 0.091538996 -0.30423006 0.16171686
-0.05756069 -0.013166403 -0.1471867 0.14062136 -0.12532477 -0.27743754 -0.1537458 -0.41723332
-0.057644296 -0.14953198 0.019627603 0.07607102 -0.20834036 -0.17149368 0.060029984 -0.06418451
-0.09657926 0.06943953 0.005547561 -0.11440699 -0.068205476 -0.036630712 -0.38335618 -0.19966745
-0.18217531 0.26544502 0.08738414 0.11174885 -0.10119767 0.048834395 -0.1032 -0.075518064
-0.08294093 -0.20288318 -0.037712876 0.05565478 -0.2998746 0.47052896 -0.013133862 -0.05137781
0.08136175 0.23663522 0.14622797 0.1715049 0.14556928 -0.15203509 -0.19152047 0.043066096
-0.07555223 -0.23134221 -0.10048309 0.16098231 -0.18196413 0.08178376 0.26682553 0.3912204
0.13547422 -0.07690905 0.022885028 0.025444487 0.16563313 0.058046103 0.27110812 0.14206485
0.19061205 0.22313195 -0.17208783 0.07497903 -0.12948416 0.3757333 -0.12211974 0.19661574
-0.1045969 -0.04099548 -0.29592726 0.08432459 0.1510899 0.1394279 -0.12188385 -0.0040003937
0.059029598 0.20203395 0.050737396 0.0043619405 -0.07032064 0.021409858 0.3475169 0.11092295
-0.15515365 0.21650156 0.046130493 0.11626243 -0.15017347 0.27463722 -0.1639391 -0.21465226
-0.25834867 -0.16834128 0.22459792 0.07330803 -0.086840756 -0.029274352 0.06892903 -0.014120301
-0.18948917 0.2227401 0.31122506 0.1485124 0.26864254 -0.2649501 -0.2549659 0.014085705
0.19555521 0.067499414 0.14712021 0.106329985 -0.26507494 0.03518094 0.2253856 0.06386773
0.3034451 -0.30988207 0.05637268 -0.11375391 0.21261089 0.1233736 0.20580103 -0.12985139
0.080597386 0.23607612 -0.09781933 0.02845408 -0.20493516 0.3064734 -0.0932543 0.0688199
-0.12786083 0.093202956 -0.40012625 0.021117652 0.08157997 0.08011603 -0.2343862 -0.0020072628
-0.10348919 -0.35686255 -0.17498326 0.1241615 -0.11869537 -0.14456269 0.12417154 -0.022134766
0.08852777 -0.22663294 -0.20715588 -0.3387157 0.1557251 -0.18716034 0.08918187 0.10207131
0.12031253 0.029962117 -0.30573246 -0.15000272 0.18128996 -0.44846138 0.21017207 0.2616139
-0.109950475 -0.04415312 -0.13163178 -0.06347054 -0.32626373 0.056864586 0.08703604 -0.012616009
-0.2723823 -0.16850565 -0.20787412 -0.18072993 0.08298176 -0.0019757512 -0.15778664 -0.112890616
-0.1232276 0.2620493 -0.1005394 0.2117071 -0.1547027 -0.120053545 -0.42809632 -0.090491466
-0.23320538 -0.060336005 0.014386515 0.09507956 0.032546647 -0.17480458 0.09730977 -0.21758513
0.05395753 -0.2920849 0.07608643 -0.24182695 -0.14550343 -0.14978288 0.11750403 -0.062849864
0.19743799 -0.23462375 0.10762397 -0.35154638 0.10011702 0.11026505 -0.1397142 -0.22331357
00000000: 5575 273d b79c 9cbc 7af4 47be 36df 6dbe
00000010: e1d5 3cbd ea0b 42be dfe8 e1bd f838 66be
00000020: 9b77 283e 1e25 7fbd 5c80 81be 871d 3fbe
00000030: 4032 bfbb ec8d 8bbe 1e5b 003d f0be 5f3e
00000040: 60c8 073e d298 0e3d bbc6 af3a e0e5 f3bd
00000050: b46d 0cbe d265 86be f175 cf3d 8914 1ebe
00000060: bb00 f73d 5fa7 193e 7601 66be 45a4 23bd
00000070: 3978 473d 33cf 853b 0741 42be bd96 52be
00000080: 3fc8 51be 5170 43bd dd1a 85be 4354 12be
00000090: b9da e9be cc78 bb3d 0bc4 9bbe 1b99 253e
000000a0: c2c4 6bbd e6b7 57bc 1cb8 16be 0cff 0f3e
000000b0: 2355 00be 4b0c 8ebe 8a6f 1dbe 9b9f d5be
000000c0: 6d1c 6cbd e91e 19be 11ca a03c 1fcb 9b3d
000000d0: 2d57 55be 0a9c 2fbe 00e2 753d 2b73 83bd
000000e0: 59cb c5bd 5036 8e3d 51c8 b53b 364e eabd
000000f0: 50af 8bbd 160a 16bd 4347 c4be a075 4cbe
00000100: 2a8c 3abe 69e8 873e 75f6 b23d 95dc e43d
00000110: b940 cfbd 9306 483d 865a d3bd 37a9 9abd
00000120: efdc a9bd 9cc0 4fbe d178 1abd 44f6 633d
00000130: 2a89 99be 2ce9 f03e 692f 57bc 8a71 52bd
00000140: fda0 a63d 8150 723e c9bc 153e fb9e 2f3e
00000150: 1d10 153e 16af 1bbe f11d 44be 1366 303d
00000160: 21bb 9abd f9e4 6cbe 14ca cdbd 8cd8 243e
00000170: ce54 3abe 3e7e a73d 5b9d 883e 0a4e c83e
00000180: c1b9 0a3e 7e82 9dbd 6279 bb3c f570 d03c
00000190: bb9b 293e c0c1 6d3d afce 8a3e 7379 113e
000001a0: ce2f 433e b47c 643e cb37 30be 9b8e 993d
000001b0: 7f97 04be 1d60 c03e ea19 fabd a355 493e
000001c0: e636 d6bd e0ea 27bd c783 97be 5fb2 ac3d
000001d0: 50b7 1a3e 30c6 0e3e 3d9e f9bd bc15 83bb
000001e0: 05c9 713d fde1 4e3e 04d2 4f3d 9cee 8e3b
000001f0: 4504 90bd ba63 af3c bced b13e 922b e33d
00000200: 99e0 1ebe 96b2 5d3e 54f3 3c3d ff1a ee3d
00000210: 13c7 19be 409d 8c3e a7df 27be cdcd 5bbe
00000220: 4746 84be a861 2cbe fffc 653e 8522 963d
00000230: 91d9 b1bd c4d0 efbc aa2a 8d3d d658 67bc
00000240: 7309 42be fb15 643e e458 9f3e a213 183e
00000250: 848b 893e 8aa7 87be e48a 82be bbc7 663c
00000260: a03f 483e 223d 8a3d aea6 163e 89c3 d93d
00000270: e7b7 87be e419 103d 7ccb 663e 16cd 823d
00000280: 285d 9b3e dda8 9ebe 0ae7 663d cff7 e8bd
00000290: abb6 593e 4cab fc3d 81bd 523e c3f7 04be
000002a0: 3e10 a53d f0bd 713e 8055 c8bd 8818 e93c
000002b0: 86da 51be 15ea 9c3e 1cfc bebd 73f1 8c3d
000002c0: f3ed 02be 31e1 be3d 59dd ccbe edfe ac3c
000002d0: 6613 a73d e013 a43d f002 70be 488c 03bb
000002e0: 24f2 d3bd b0b6 b6be d02e 33be 6248 fe3d
000002f0: 8f16 f3bd 3e08 14be a64d fe3d f853 b5bc
00000300: 0c4e b53d 7712 68be ac20 54be 256c adbe
00000310: 6776 1f3e f6a6 3fbe fca4 b63d c30a d13d
00000320: 6a66 f63d 1d73 f53c f788 9cbe 509a 19be
00000330: 13a4 393e bb9c e5be 5937 573e 42f2 853e
00000340: b72d e1bd e7d9 34bd 7bca 06be d8fc 81bd
00000350: 0a0c a7be d7ea 683d f43f b23d 61b3 4ebc
00000360: b175 8bbe bf8c 2cbe f4dc 54be 4411 39be
00000370: 57f2 a93d 9b7b 01bb d292 21be 3233 e7bd
00000380: c05e fcbd 532b 863e 9ae7 cdbd bfc9 583e
00000390: 626a 1ebe a2de f5bd 712f dbbe 9753 b9bd
000003a0: 64cd 6ebe e322 77bd 6bb5 6b3c 13b9 c23d
000003b0: a24f 053d f9ff 32be 584a c73d a3ce 5ebe
000003c0: 9202 5d3d 278c 95be 34d3 9b3d 7ca1 77be
000003d0: dafe 14be af60 19be f4a5 f03d 6eb7 80bd
000003e0: 2f2d 4a3e 3541 70be f569 dc3d e3fd b3be
000003f0: 270a cd3d a4d2 e13d 3d11 0fbe 50ac 64be

network.8.bias f4 [32]
0.05769157 -0.06862624 -0.008546218 0.030392766 -0.05087355 -0.06967807 0.03748326 0.099127345
0.09694566 0.040889647 0.0064068493 0.05311451 -0.03865728 0.09426726 0.06831273 -0.12404057
0.11020514 0.005205799 -0.094340086 -0.044356305 0.11928882 -0.10321434 0.02997474 -0.04431425
-0.10094725 0.044360533 0.07193301 0.1259683 -0.103170216 0.061594155 0.08739853 -0.003675021
00000000: ff4d 6c3d ea8b 8cbd 7005 0cbc 40fa f83c
00000010: c960 50bd 60b3 8ebd 0c88 193d 4703 cb3d
00000020: 728b c63d e77b 273d 8cf0 d13b 9a8e 593d
00000030: 1957 1ebd 310f c13d 8be7 8b3d fb08 febd
00000040: 3cb3 e13d 6895 aa3b 6035 c1bd f5ae 35bd
00000050: b24d f43d 0a62 d3bd 968d f53c dc82 35bd
00000060: 6fbd cebd 64b3 353d 9d51 933d d6fd 003e
00000070: e84a d3bd 274a 7c3d 00fe b23d 9fd8 70bb

network.9.weight f4 [32]
1.0082998 1.0941577 1.2109221 1.040909 1.0437713 1.0902363 1.077005 1.0428302
1.1826712 0.98493356 1.1570303 1.0445728 0.836104 1.1197249 1.0507772 0.9580539
0.955254 1.1454935 1.1336615 0.98015517 1.0678198 1.1844805 1.0212193 1.1689599
0.93861747 1.002392 1.0694158 0.9168362 1.0391008 1.0675273 1.060609 0.9677619
00000000: f80f 813f 5c0d 8c3f 7fff 9a3f 823c 853f
00000010: 4c9a 853f dd8c 8b3f 4ddb 893f 767b 853f
00000020: c561 973f 9b24 7c3f 9219 943f 90b4 853f
00000030: e90a 563f 2553 8f3f de7f 863f 0543 753f
00000040: 878b 743f 889f 923f d21b 913f 73eb 7a3f
00000050: 52ae 883f 0f9d 973f 50b7 823f 7aa0 953f
00000060: 3c49 703f 624e 803f 9ee2 883f c7b5 6a3f
00000070: 4101 853f bca4 883f 09c2 873f 3ebf 773f

network.9.bias f4 [32]
0.19352724 -0.07701765 0.28290722 0.22150217 -0.041005578 0.098522015 0.04472637 0.2197755
0.111176684 0.13244414 -0.03110083 -0.014048755 -0.020735864 0.20300178 -0.21199515 -0.23836769
-0.382181 0.06059545 0.0780945 -0.22326452 0.07801116 0.23519309 0.017894275 0.111343995
-0.250503 -0.20958808 0.2464807 -0.088230446 0.19140278 0.12832265 0.11283039 0.043475624
00000000: 012c 463e 6ebb 9dbd 37d9 903e 77d1 623e
00000010: 77f5 27bd e9c5 c93d 0033 373d d40c 613e
00000020: 9ab0 e33d 709f 073e 2bc7 febc c02c 66bc
00000030: 42de a9bc b3df 4f3e 4215 59be a916 74be
00000040: 3aad c3be ef32 783d 02f0 9f3d 749f 64be
00000050: 51c4 9f3d 75d6 703e 0497 923c 5208 e43d
00000060: ee41 80be 429e 56be 7065 7c3e 2ab2 b4bd
00000070: 17ff 433e 0367 033e 9f13 e73d 7f13 323d

network.9.running_mean f4 [32]
-1.9224737 0.68191266 -0.22912689 -1.2155827 0.71513426 -0.004733066 -0.41006285 -1.4728137
-1.9467335 -0.53547585 -3.109913 0.9299346 -1.3830956 -1.9801798 1.166251 0.663187
1.3006622 -0.7221942 -1.0405569 0.66807413 -0.7282076 -0.98743343 0.2518455 -2.463119
0.9900689 1.307227 -0.94723326 0.08207155 -2.4677904 0.5655761 -1.3928533 -0.75713575
00000000: 9e13 f6bf d491 2e3f 3da0 6abe 3798 9bbf
00000010: 0a13 373f d617 9bbb c2f3 d1be 2985 bcbf
00000020: 902e f9bf f214 09bf d108 47c0 3210 6e3f
00000030: 4709 b1bf 8876 fdbf b647 953f a0c6 293f
00000040: 197c a63f b8e1 38bf f830 85bf e806 2b3f
00000050: d06b 3abf 70c8 7cbf e5f1 803e bea3 1dc0
00000060: 2875 7d3f 3753 a73f e17d 72bf 2115 a83d
00000070: 47f0 1dc0 98c9 103f 0449 b2bf a6d3 41bf

network.9.running_var f4 [32]
9.229393 11.101986 12.905734 17.879131 9.158292 12.187473 15.008072 21.664267
16.68895 17.72611 5.2082124 6.3299584 17.15403 18.474703 8.39398 9.068964
6.1912994 16.105463 15.772227 5.071142 17.55424 14.555075 9.241075 8.009216
6.0038958 5.914791 13.97438 9.8148985 16.093372 8.496309 17.764427 14.187924
00000000: 98ab 1341 bca1 3141 e37d 4e41 7608 8f41
00000010: 5d88 1241 e4ff 4241 1021 7041 6b50 ad41
00000020: f882 8541 13cf 8d41 ada9 a640 058f ca40
00000030: 743b 8941 31cc 9341 be4d 0641 7a1a 1141
00000040: 201f c640 fdd7 8041 0b5b 7c41 cc46 a240
00000050: 156f 8c41 96e1 6841 71db 1341 c025 0041
00000060: ea1f c040 f845 bd40 0f97 5f41 d309 1d41
00000070: 3abf 8041 e2f0 0741 8c1d 8e41 bd01 6341
