ai-layer/model/results/10000/dnn_eligibility_model.pth (torch, 63873 bytes, 25 tensors)

network.0.weight f4 [128, 8]
0.26055717 0.309124 -0.1305115 0.24818556 -0.19941515 0.01521977 -0.24024801 0.17255804
0.36370414 -0.29924732 0.24231182 0.121366456 0.24971648 0.01795933 0.13918483 -0.026356548
0.3049862 0.10916423 -0.13927014 0.028126428 -0.18465608 -0.035240743 -0.1358485 0.22958183
-0.35311455 -0.043807674 -0.07894972 -0.2046285 0.024519676 -0.37370473 0.3507536 -0.25156286
0.2966959 0.058360383 -0.09100572 0.22229443 0.06564623 0.30551136 0.048588764 -0.11241955
0.19651514 -0.09475837 0.10543357 0.21838933 0.21885832 -0.14750123 0.2887539 0.10758084
0.11882666 -0.25782514 -0.41572854 -0.12248325 -0.2523147 0.28986138 0.07237561 0.14402825
0.15988925 -0.009658446 0.2440483 -0.30672833 0.054653417 -0.2658582 0.0474753 -0.08489296
0.16211687 -0.119900025 0.31539714 -0.15911916 -0.15050468 -0.1878273 0.35592875 0.11470878
0.31092873 -0.38184768 -0.3561374 -0.31266454 -0.20863602 0.15663362 0.10643242 0.25603572
-0.2631029 -0.14358133 0.18807301 -0.180628 0.15907054 -0.08387972 0.18971843 -0.32318684
-0.19442964 0.13507058 0.10426878 -0.045368202 0.22855091 0.21401186 -0.27308258 -0.1873008
0.45722663 -0.07598713 -0.11398701 -0.2851157 -0.11289784 0.10957964 -0.048386578 -0.20438848
-0.066642225 -0.3051601 -0.28155878 -0.21846497 -0.25487486 -0.22149247 0.36447623 0.056033287
0.044746492 -0.33156794 -0.26485655 -0.11601643 0.030136269 -0.286718 -0.19424728 -0.21330085
-0.1720928 -0.13695836 -0.02479854 -0.26881364 -0.2966953 -0.2502875 -0.13767223 -0.19323064
0.2037856 -0.08553368 0.3187566 0.20185956 -0.29387257 0.20187974 -0.060024343 -0.22305703
-0.4138195 -0.26385412 0.09569246 -0.122080736 0.10084567 -0.34282124 0.30367878 -0.10039859
0.006113389 0.095800824 0.2239353 0.24896444 0.37284175 -0.27955195 0.056406554 -0.13177188
-0.046952333 -0.306973 0.28520772 -0.22299463 0.23718055 0.12137141 -0.008657444 -0.23616762
0.34626076 0.13862318 0.044410907 -0.3175197 0.08246867 -0.094498925 -0.31346643 0.092277884
0.25641778 -0.08260929 -0.09499829 -0.1317782 0.24676384 -0.08294614 -0.16727346 -0.073651455
-0.38632807 0.09365786 0.25521743 -0.26548696 0.050638065 0.09951439 0.0969346 -0.17008679
0.17048243 0.1788272 0.15177007 -0.03613612 -0.08139292 0.085735016 -0.079134144 -0.13276894
0.29773992 0.2135927 0.0012252725 -0.039589517 0.042087395 0.038867168 0.18334876 0.095750734
-0.46637443 -0.03676356 0.26916468 0.18762861 -0.00011829857 -0.21591686 -0.22697066 -0.2090528
-0.26012525 0.081921324 0.20926824 0.13223927 -0.33942005 -0.20076221 -0.115053535 0.27636886
0.15172614 -0.019331453 0.20854738 -0.18874362 -0.16741109 0.21929276 -0.21725912 -0.030896315
-0.4930169 0.20855926 0.2532067 0.15529886 -0.28493997 -0.1970484 -0.28515527 0.24008515
0.22488062 0.31318277 0.1538844 0.05637734 0.031417113 -0.26527417 -0.35368153 -0.27174833
0.048338804 -0.18884926 -0.06525483 -0.17102773 -0.09030895 -0.29707658 -0.24758314 0.12777418
-0.13540924 0.28328153 -0.07473464 -0.15975338 -0.056801647 -0.15499924 -0.124778256 -0.35352442
00000000: c067 853e 8045 9e3e cfa4 05be 5b24 7e3e
00000010: 7c33 4cbe 585c 793c 9303 76be 0eb3 303e
00000020: 6e37 ba3e f236 99be 9720 783e fa8e f83d
00000030: adb5 7f3e 721f 933c 7886 0e3e b0e9 d7bc
00000040: 2727 9c3e 7f91 df3d d59c 0ebe 6569 e63c
00000050: 7c16 3dbe 9958 10bd df1b 0bbe 8017 6b3e
00000060: 6ecb b4be ad6f 33bd 64b0 a1bd 228a 51be
00000070: 7ddd c83c 3a56 bfbe fa95 b33e d9cc 80be
00000080: 86e8 973e 4c0b 6f3d 3561 babd 27a1 633e
00000090: 8871 863d fc6b 9c3e 0305 473d 393c e6bd
000000a0: 443b 493e ad10 c2bd 8eed d73d 74a1 5f3e
000000b0: 651c 603e 900a 17be 8dd7 933e 5853 dc3d
000000c0: 645b f33d a801 84be 5fda d4be 80d8 fabd
000000d0: 642f 81be b668 943e aa39 943d 247c 133e
000000e0: 02ba 233e 753e 1ebc cce7 793e 7f0b 9dbe
000000f0: 43dc 5f3d 911e 88be 7675 423d 5cdc adbd
00000100: f701 263e 258e f5bd bc7b a13e 22f0 22be
00000110: e61d 1abe cd55 40be 4b3c b63e 70ec ea3d
00000120: 0d32 9f3e 8a81 c3be a457 b6be 9115 a0be
00000130: aea4 55be 9064 203e 3ef9 d93d 1d17 833e
00000140: 6cb5 86be fc06 13be 3696 403e 8cf6 38be
00000150: 63e3 223e 21c9 abbd 8c45 423e bf78 a5be
00000160: 9018 47be f14f 0a3e df8a d53d 02d4 39bd
00000170: 4009 6a3e ed25 5b3e 7bd1 8bbe c8cb 3fbe
00000180: 9c19 ea3e 249f 9bbd 0672 e9bd affa 91be
00000190: fc36 e7bd 4a6b e03d 0131 46bd 374b 51be
000001a0: b87b 88bd f23d 9cbe 7928 90be 48b5 5fbe
000001b0: f57e 82be ecce 62be a19c ba3e 2983 653d
000001c0: 1948 373d 46c3 a9be 479b 87be 069a edbd
000001d0: 56e0 f63c b4cc 92be c2e8 46be 8a6b 5abe
000001e0: 1839 30be d03e 0cbe 4f26 cbbc f1a1 89be
000001f0: 72e8 97be af25 80be f3f9 0cbe 41de 45be
00000200: 2cad 503e 482c afbd 1134 a33e 46b4 4e3e
00000210: 7776 96be 90b9 4e3e 16dc 75bd 1069 64be
00000220: 26e0 d3be e317 87be 69fa c33d 7705 fabd
00000230: 2d88 ce3d 4486 afbe c97b 9b3e c79d cdbd
00000240: d352 c83b 3933 c43d 4c4f 653e 89f0 7e3e
00000250: 1de5 be3e 6f21 8fbe 8f0a 673d 35ef 06be
00000260: 1751 40bd 912b 9dbe bf06 923e b458 64be
00000270: 75df 723e 9391 f83d f4d7 0dbc edd5 71be
00000280: 1749 b13e 3cf3 0d3e 36e8 353d f191 a2be
00000290: 56e5 a83d a788 c1bd ac7e a0be 30fc bc3d
000002a0: 3149 833e 0f2f a9bd 778e c2bd ddf0 06be
000002b0: a9af 7c3e aadf a9bd bc49 2bbe 93d6 96bd
000002c0: cbcc c5be b1cf bf3d dcab 823e e8ed 87be
000002d0: dc69 4f3d 33ce cb3d a685 c63d 3b2b 2ebe
000002e0: f292 2e3e 7a1e 373e 9d69 1b3e 7803 14bd
000002f0: 55b1 a6bd d795 af3d 1511 a2bd 95f4 07be
00000300: 5e71 983e 0bb8 5a3e 5399 a03a 9e28 22bd
00000310: d563 2c3d 2e33 1f3d c7bf 3b3e f618 c43d
00000320: a1c8 eebe 6395 16bd f4cf 893e b721 403e
00000330: 1017 f8b8 4f19 5dbe ff6a 68be f011 56be
00000340: 232f 85be 5ec6 a73d 6a4a 563e bb69 073e
00000350: 77c8 adbe 9c94 4dbe 30a1 ebbd 3880 8d3e
00000360: 195e 1b3e ff5c 9ebc 728d 553e 0246 41be
00000370: d06d 2bbe 488e 603e 2d79 5ebe 451a fdbc
00000380: b66c fcbe 8f90 553e 4fa4 813e aa06 1f3e
00000390: a7e3 91be 0ec7 49be dfff 91be e2d8 753e
000003a0: 1b47 663e 7e59 a03e df93 1d3e edeb 663d
000003b0: 3baf 003d 04d2 87be bf15 b5be 9922 8bbe
000003c0: e9fe 453d b361 41be 53a4 85bd e521 2fbe
000003d0: e6f3 b8bd 6c1a 98be 6f86 7dbe 3cd7 023e
000003e0: b8a8 0abe 470a 913e 7a0e 99bd 6496 23be
000003f0: d8a8 68bd 1fb8 1ebe be8b ffbd 2701 b5be

network.0.bias f4 [128]
0.19413161 -0.05231663 0.15131363 -0.20714213 0.052934792 -0.21423541 0.17568505 -0.1555658
-0.09049015 -0.3058159 0.0020924828 0.3318511 0.17169064 -0.18909922 0.003459991 -0.038139682
-0.28449804 0.2790225 0.005834073 0.07418091 -0.14153731 -0.1647939 0.059039958 0.13048469
0.0793579 -0.17085132 0.34178436 -0.048788477 -0.21531117 -0.1645124 0.34908938 0.0011788972
-0.04712192 -0.14744239 -0.0914568 -0.29871398 -0.2823771 0.20831947 0.30473173 0.33655024
-0.25693932 0.19180448 -0.22022144 0.20920874 0.2550674 0.27373543 0.25279707 0.22082873
0.005398957 0.1628789 -0.12338685 0.15312397 -0.11342641 -0.0152120665 -0.31224686 -0.092623025
-0.18610732 -0.121566884 -0.22406657 -0.3172179 0.02322204 0.2296142 0.3240967 0.20587233
-0.18217131 -0.3517571 0.13385469 0.19821614 -0.30350938 0.12560724 0.2983695 0.021388598
-0.2131292 0.29030424 0.1514008 0.23365623 -0.23922892 0.20878172 -0.24088292 0.35064408
-0.14761035 0.21294118 0.06735816 0.09672905 -0.056064375 0.14668296 -0.14768063 -0.33122075
-0.13677946 0.2760217 -0.09164905 0.109383896 -0.13049762 0.2625299 0.21180528 0.124655046
-0.18284537 -0.28450567 0.015657863 -0.2094322 0.291268 -0.34058017 0.15864447 0.35089165
0.17603976 0.12120653 -0.3437968 0.34037766 -0.060667187 -0.33565974 0.34875873 -0.145392
-0.025119046 0.32223755 -0.24575642 -0.24914126 0.054435708 -0.046678297 0.08266152 -0.29739112
0.01456151 -0.15715723 -0.17334552 -0.32383645 0.18923162 0.06967119 -0.29542252 0.28219435
00000000: 70ca 463e f649 56bd f6f1 1a3e 111d 54be
00000010: 27d2 583d 8760 5bbe c8e6 333e a44c 1fbe
00000020: e652 b9bd e793 9cbe 0922 093b 63e8 a93e
00000030: accf 2f3e 3aa3 41be 04c1 623b 5b38 1cbd
00000040: baa9 91be 0adc 8e3e c02b bf3b 29ec 973d
00000050: 28ef 10be bbbf 28be e2d3 713d c79d 053e
00000060: 6586 a23d a6f3 2ebe 5cfe ae3e 6dd6 47bd
00000070: 887a 5cbe f075 28be d8bb b23e 3a85 9a3a
00000080: ea02 41bd 23fb 16be b44d bbbd 0af1 98be
00000090: bb93 90be b351 553e cc05 9c3e 5050 ac3e
000000a0: 8d8d 83be 6568 443e bb81 61be d13a 563e
000000b0: 3298 823e 0d27 8c3e 9e6e 813e ed20 623e
000000c0: bce9 b03b bac9 263e 3fb2 fcbd 88cc 1c3e
000000d0: 1b4c e8bd 083c 79bc d2de 9fbe 24b1 bdbd
000000e0: eb92 3ebe 0ff8 f8bd b571 65be 626a a2be
000000f0: 263c be3c fc1f 6b3e 01f0 a53e 32d0 523e
00000100: 1e8b 3abe 8219 b4be 3411 093e 2cf9 4a3e
00000110: 9565 9bbe 2f9f 003e e3c3 983e 2437 af3c
00000120: 8a3e 5abe c2a2 943e d008 1b3e 9443 6f3e
00000130: 6df8 74be e0ca 553e 03aa 76be 9f87 b33e
00000140: 2b27 17be 410d 5a3e 13f3 893d e119 c63d
00000150: c2a3 65bd 0f34 163e 9739 17be c495 a9be
00000160: ea0f 0cbe b752 8d3e 7fb2 bbbd aa04 e03d
00000170: 2ba1 05be 526a 863e 7ce3 583e 254b ff3d
00000180: d13b 3bbe baaa 91be eb44 803c 6575 56be
00000190: 1421 953e 8660 aebe b273 223e 12a8 b33e
000001a0: c443 343e 213b f83d 2206 b0be fb45 ae3e
000001b0: 287e 78bd 98db abbe 8190 b23e a4e1 14be
000001c0: 75c6 cdbc 52fc a43e 92a7 7bbe e31e 7fbe
000001d0: faf7 5e3d be31 3fbd 714a a93d a643 98be
000001e0: 6693 6e3c d3ed 20be 7d81 31be e4cd a5be
000001f0: efc5 413e c5af 8e3d 9f41 97be c77b 903e

network.1.weight f4 [128]
1.0646063 0.99343127 0.9976247 0.9492471 0.9959673 1.0229282 0.94985145 1.0039306
0.9958739 0.9511284 0.93724316 0.94337213 0.98809856 0.96300066 0.8830507 0.99170625
0.99524534 0.94700104 0.99391633 1.0162934 1.1012312 1.0586588 1.0743457 0.99585253
0.9619586 1.075988 0.9590501 1.0794293 0.9665706 0.955751 0.98542 0.9367945
0.96128064 1.0831726 0.9643344 0.96585584 1.0148193 0.94339675 1.041729 1.0524703
1.0150158 1.0370063 1.000301 0.9663282 0.9776957 0.9195872 1.0773647 0.95554346
0.963368 0.93828183 0.9809015 1.0075157 0.9949367 1.0606877 0.9582921 0.9493249
0.9368271 1.0354475 0.9968421 0.9832779 1.0108339 0.95168966 0.95104486 0.9888897
1.0003135 1.0424572 1.0622165 1.1152984 0.9811401 0.92588633 0.9751618 0.9890236
1.0243151 0.8986551 1.0560987 1.0235679 0.9417431 1.0281748 0.9668609 0.92353415
0.9479738 0.98348504 0.9769643 1.0088608 0.9866453 0.9971991 0.98764724 1.0078628
0.95983577 1.038014 1.0835729 0.9891236 0.98787725 1.0258363 0.94019824 1.0633879
1.0462978 1.0654608 1.0780677 1.0557214 0.9930091 0.987358 0.94084203 1.0411606
0.97387177 0.9778804 1.0574267 0.97222894 0.9938641 0.989731 0.9229292 1.0796313
0.99933875 0.99432135 1.0182053 0.9600865 0.9439571 0.98101693 1.0070628 1.0832249
0.9831989 0.9417634 1.0166506 1.058352 1.0069968 0.9319772 1.0872259 1.0383492
00000000: 0545 883f 8351 7e3f 5564 7f3f dc01 733f
00000010: b7f7 7e3f 50ef 823f 7729 733f cc80 803f
00000020: 98f1 7e3f 277d 733f 2bef 6f3f d680 713f
00000030: 07f4 7c3f 3687 763f 9c0f 623f 76e0 7d3f
00000040: 66c8 7e3f a96e 723f 4d71 7e3f e715 823f
00000050: 25f5 8c3f 2282 873f 2984 893f 31f0 7e3f
00000060: eb42 763f fab9 893f 4f84 753f bd2a 8a3f
00000070: 2c71 773f 19ac 743f 7c44 7c3f c4d1 6f3f
00000080: 7d16 763f 66a5 8a3f 9fde 763f 5442 773f
00000090: 99e5 813f 7382 713f 6057 853f 59b7 863f
000000a0: 0aec 813f 9fbc 843f dd09 803f 4961 773f
000000b0: 444a 7a3f 116a 6b3f 16e7 893f 7f9e 743f
000000c0: 499f 763f 3d33 703f 5c1c 7b3f 46f6 803f
000000d0: 2cb4 7e3f 9dc4 873f a252 753f f506 733f
000000e0: e7d3 6f3f 8b89 843f 0b31 7f3f 1ab8 7b3f
000000f0: 0163 813f efa1 733f ad77 733f e027 7d3f
00000100: 460a 803f 3d6f 853f b6f6 873f 19c2 8e3f
00000110: ff2b 7b3f e306 6d3f 34a4 793f a730 7d3f
00000120: c21c 833f 430e 663f 3e2e 873f 4604 833f
00000130: 1316 713f 3b9b 833f 3284 773f bc6c 6c3f
00000140: 69ae 723f adc5 7b3f 551a 7a3f 5a22 813f
00000150: c994 7c3f 7148 7f3f 73d6 7c3f a601 813f
00000160: ccb7 753f a5dd 843f 84b2 8a3f 3437 7d3f
00000170: 86e5 7c3f 9b4e 833f d5b0 703f 181d 883f
00000180: 16ed 853f 0561 883f 1ffe 893f e121 873f
00000190: d835 7e3f 7ec3 7c3f 06db 703f c044 853f
000001a0: a94f 793f 5f56 7a3f c259 873f ffe3 783f
000001b0: e16d 7e3f 035f 7d3f 1745 6c3f 5c31 8a3f
000001c0: aad4 7f3f d88b 7e3f 8d54 823f 3bc8 753f
000001d0: 2ca7 713f ed23 7b3f 6fe7 803f 1da7 8a3f
000001e0: ecb2 7b3f 6817 713f 9b21 823f 1478 873f
000001f0: 45e5 803f 0f96 6e3f 382a 8b3f a0e8 843f

network.1.bias f4 [128]
0.10457034 -0.10395578 0.051972635 -0.04087288 -0.027589304 -0.031618856 -0.08138251 0.026030866
-0.03407117 -0.0076061436 -0.04150786 -0.060958154 -0.030387951 -0.019777646 -0.0844417 -0.025123348
-0.012951277 -0.06778522 -0.034313217 -0.041882474 0.059941463 -0.032297116 0.02891661 -0.041545752
-0.045946542 -0.011493452 -0.07298656 0.035717543 -0.0990007 0.035055593 -0.0020169213 -0.09579078
-0.07432888 0.07688555 -0.027053338 -0.08114054 -0.037199102 -0.067693286 0.11066992 0.04092576
-0.12254952 -0.10486172 -0.040089436 -0.07810579 -0.008354079 -0.041235756 -0.14695536 -0.08110653
-0.105851755 -0.08591728 -0.1043791 0.0556115 -0.05734432 0.06300504 -0.10799996 -0.041610796
-0.036180392 -0.033959154 0.057017937 0.03494995 -0.041005954 0.005977929 -0.06408318 -0.03239805
0.010002803 0.07454807 -0.0006608335 -0.018255815 -0.08667581 0.011862771 -0.04082935 -0.089765914
0.011459443 -0.0655121 -0.05100181 -0.11501567 -0.054779284 -0.011215884 -0.054649346 -0.12690024
-0.08267998 -0.025475245 -0.15349124 0.044478055 0.02542002 0.030086085 -0.041545976 -0.10976206
-0.08415381 -0.0015108001 -0.012002481 -0.034776628 -0.020271901 -0.016018039 -0.05867771 0.08386225
-0.027049143 -0.0343888 -0.036245245 -0.008267375 -0.0015657182 -0.045675993 -0.08014125 0.037076317
-0.12045628 -0.043754082 0.074362755 -0.009920994 0.045329396 -0.07067581 -0.12053117 -0.08896698
0.022189543 -0.057822384 -0.0118228225 -0.08052289 -0.09645544 -0.07088712 -0.11514728 0.0999008
-0.1292665 -0.100453205 -0.00075142144 -0.10900647 -0.040840197 -0.018793825 -0.0045340974 -0.21267146
00000000: f928 d63d c5e6 d4bd 42e1 543d 526a 27bd
00000010: f702 e2bc c682 01bd e0ab a6bd af3e d53c
00000020: 368e 0bbd f53c f9bb 2504 2abd 42af 79bd
00000030: 27f0 f8bc bb04 a2bc c5ef acbd 7bcf cdbc
00000040: 9831 54bc fad2 8abd 048c 0cbd f58c 2bbd
00000050: 2e85 753d fb49 04bd 87e2 ec3c e12b 2abd
00000060: 7132 3cbd 084f 3cbc fa79 95bd 8f4c 123d
00000070: e1c0 cabd 7496 0f3d 532e 04bb f52d c4bd
00000080: bd39 98bd 2c76 9d3d f69e ddbc 032d a6bd
00000090: 165e 18bd c7a2 8abd e9a6 e23d c5a1 273d
000000a0: 3efb fabd bec1 d6bd d234 24bd eef5 9fbd
000000b0: 8cdf 08bc d3e6 28bd 777b 16be 2e1b a6bd
000000c0: cec8 d8bd 66f5 afbd b6c4 d5bd e2c8 633d
000000d0: e1e1 6abd c908 813d 152f ddbd 1570 2abd
000000e0: e431 14bd c118 0bbd a48b 693d ae27 0f3d
000000f0: dcf5 27bd 81e2 c33b 0b3e 83bd d1b3 04bd
00000100: cce2 233c a9ac 983d c93b 2dba 388d 95bc
00000110: 1683 b1bd 115c 423c ad3c 27bd 31d7 b7bd
00000120: 63c0 3b3c 352b 86bd 46e7 50bd 568d ebbd
00000130: 3e60 60bd d4c2 37bc fed7 5fbd 23f2 01be
00000140: 1f54 a9bd 76b1 d0bc cf2c 1dbe 9f2e 363d
00000150: a53d d03c 1877 f63c 1d2c 2abd eeca e0bd
00000160: d558 acbd 0a06 c6ba 0ea6 44bc f071 0ebd
00000170: 4211 a6bc 4338 83bc 0a58 70bd f9bf ab3d
00000180: 2a96 ddbc 45db 0cbd e575 14bd e273 07bc
00000190: c938 cdba c016 3bbd 1821 a4bd 56dd 173d
000001a0: c8b1 f6bd 7b37 33bd 804b 983d aa8b 22bc
000001b0: 51ab 393d 7bbe 90bd 0cd9 f6bd 5234 b6bd
000001c0: d8c6 b53c 2ad7 6cbd 83b4 41bc 2fe9 a4bd
000001d0: 6e8a c5bd 442d 91bd 56d2 ebbd ca98 cc3d
000001e0: 705e 04be 69ba cdbd 0afb 44ba c93e dfbd
000001f0: 0d48 27bd 82f5 99bc c492 94bb 8cc6 59be

network.1.running_mean f4 [128]
0.17252454 -0.032457538 0.13927113 -0.18463323 0.044465117 -0.18987612 0.15654533 -0.13363135
-0.05439739 -0.31379065 0.0223997 0.31901684 0.16455044 -0.17754029 -0.010884243 -0.044212922
-0.28616673 0.3062995 0.024790106 0.086832955 -0.14771156 -0.17023844 0.073350206 0.1297085
0.09110767 -0.1732593 0.34262672 -0.05602866 -0.22236036 -0.17287873 0.34134442 -0.007090329
-0.017586503 -0.13692778 -0.07984059 -0.3106129 -0.2666389 0.198288 0.30977222 0.34030434
-0.25702894 0.21010594 -0.23354371 0.22561952 0.23613669 0.2560444 0.2501374 0.25608695
-0.005441472 0.16500285 -0.13829447 0.16616635 -0.12841439 -0.016667506 -0.33330885 -0.09893695
-0.17922899 -0.11028905 -0.21860486 -0.32039633 0.02746359 0.23530732 0.33330005 0.2022224
-0.16132444 -0.33597422 0.14287752 0.18325983 -0.29720974 0.13475005 0.28434223 0.023797553
-0.20629583 0.28895286 0.17432849 0.21835974 -0.22400153 0.18189248 -0.25875184 0.32890314
-0.1332468 0.2360878 0.04421232 0.10878914 -0.08372092 0.11433746 -0.14657122 -0.34991282
-0.14480482 0.28816855 -0.09600458 0.12498762 -0.122627445 0.2716627 0.21493918 0.119696416
-0.18174781 -0.2742417 -0.0005031023 -0.2070752 0.28026485 -0.3406262 0.14000562 0.37500453
0.16779414 0.122939646 -0.3565232 0.37351364 -0.051285017 -0.33313075 0.3626241 -0.13204165
-0.011571148 0.2995851 -0.2363143 -0.25469866 0.06342475 -0.05477527 0.055977046 -0.2690007
0.003750394 -0.13481693 -0.15884374 -0.3354812 0.19998907 0.055552367 -0.2820311 0.2750374
00000000: 46aa 303e 32f2 04bd 179d 0e3e 7e10 3dbe
00000010: 0e21 363d e36e 42be 6b4d 203e a8d6 08be
00000020: cccf 5ebd 2ba9 a0be 937f b73c 2d56 a33e
00000030: e97f 283e 1fcd 35be d353 32bc 9c18 35bd
00000040: 7284 92be 4ad3 9c3e 9f14 cb3c 7ad5 b13d
00000050: b341 17be fc52 2ebe a238 963d 4ed2 043e
00000060: a896 ba3d e36a 31be c56c af3e 4f7e 65bd
00000070: 6fb2 63be 1f07 31be b2c4 ae3e fe55 e8bb
00000080: 9211 90bc cc36 0cbe 7783 a3bd a708 9fbe
00000090: e584 88be 020c 4b3e 779a 9e3e 5f3c ae3e
000000a0: 4c99 83be 0326 573e 1526 6fbe ce08 673e
000000b0: d1cd 713e 4018 833e 0212 803e d41d 833e
000000c0: 604e b2bb 82f6 283e 119d 0dbe 8327 2a3e
000000d0: 107f 03be 4b8a 88bc 75a7 aabe 759f cabd
000000e0: ce87 37be 3adf e1bd f4d9 5fbe fd0a a4be
000000f0: 53fb e03c 67f4 703e 4ea6 aa3e 6413 4f3e
00000100: 3c32 25be d004 acbe 7c4e 123e 77a8 3b3e
00000110: e02b 98be ebfb 093e 4e95 913e 16f3 c23c
00000120: 373f 53be a1f1 933e 2b83 323e b299 5f3e
00000130: a860 65be 0642 3a3e 1f7b 84be fe65 a83e
00000140: d971 08be 00c1 713e fa17 353d d7cc de3d
00000150: e075 abbd c229 ea3d c416 16be c627 b3be
00000160: b747 14be d48a 933e 0d9e c4bd 82f9 ff3d
00000170: 1924 fbbd 6017 8b3e 0419 5c3e 6523 f53d
00000180: 191c 3abe 6869 8cbe a0e2 03ba 850b 54be
00000190: e07e 8f3e 8f66 aebe a25d 0f3e 9800 c03e
000001a0: 3ad2 2b3e c8c7 fb3d 358a b6be 2e3d bf3e
000001b0: 3d10 52bd 1d90 aabe dea9 b93e ed35 07be
000001c0: ea94 3dbc 3863 993e 60fc 71be dd67 82be
000001d0: d6e4 813d 095c 60bd 3048 653d 76ba 89be
000001e0: 2cc9 753b 730d 0abe efa7 22be 31c4 abbe
000001f0: efc9 4c3e e18a 633d 6166 90be b4d1 8c3e

network.1.running_var f4 [128]
0.21502334 0.6419861 0.10293437 0.5283052 0.63885665 0.51703453 0.33169854 0.123366795
0.2272742 0.45290294 0.19985925 0.13792568 0.123556845 0.7664013 0.8516504 1.1471139
0.333135 0.4661474 0.45790535 0.20118558 0.1359738 0.063363664 0.12531424 0.16224346
0.4313626 0.3642686 0.39290285 0.088298425 0.59880275 0.22451963 0.6855862 0.31664032
0.56867677 0.27631256 0.53786063 1.171966 0.19956735 0.26589075 0.15777794 0.27917355
0.56869507 0.27896896 0.15761554 0.27994943 0.24319765 0.39585042 0.17003974 0.49674585
0.15347391 0.12613986 0.5597693 0.253782 0.8352139 0.098408766 0.18292665 0.31056562
0.37054256 0.19257692 0.2786438 0.08116459 0.07027848 0.7112111 0.3527453 0.18764223
0.41533756 0.31305975 0.23252979 0.22267523 0.31750062 0.18157901 0.5842501 0.7325267
0.59071124 0.16862924 0.19244762 0.9538558 0.93419015 0.26735976 0.17490113 0.7805817
0.28278384 0.27627185 0.23491035 0.09052616 0.1585918 0.17982826 0.3669857 0.31751385
0.22089298 0.21234909 0.2002235 0.48952127 0.25172472 0.31035188 0.24224836 0.2918416
0.12892729 0.052096587 0.33436316 0.5940799 0.47152364 0.1478277 0.7619381 0.11207737
0.3362419 0.8511953 0.17719899 1.0115775 0.27215043 0.07676869 1.4987335 0.063193895
0.1429076 0.41569334 0.41791183 0.2168052 0.24885912 0.51353383 0.8799149 0.40511099
0.11118708 0.2516637 0.6103527 0.30775332 0.26166922 0.22524722 0.18800324 0.18816026
00000000: 142f 5c3e 3359 243f 41cf d23d 023f 073f
00000010: 1c8c 233f 605c 043f 64d4 a93e bba7 fc3d
00000020: 91ba 683e e5e2 e73e e7a7 4c3e 643c 0d3e
00000030: 5f0b fd3d e032 443f c305 5a3f a1d4 923f
00000040: ac90 aa3e dfaa ee3e 9272 ea3e 9803 4e3e
00000050: b73c 0b3e cfc4 813d 6052 003e 2623 263e
00000060: 8fdb dc3e 6a81 ba3e 902a c93e ced5 b43d
00000070: 234b 193f 79e8 653e 9482 2f3f ae1e a23e
00000080: cd94 113f d778 8d3e 3cb1 093f fb02 963f
00000090: 625b 4c3e d522 883e 8a90 213e d6ef 8e3e
000000a0: 0096 113f 05d5 8e3e f865 213e 8855 8f3e
000000b0: ce08 793e e8ac ca3e e61e 2e3e 7955 fe3e
000000c0: 4428 1d3e cf2a 013e 0a4d 0f3f b7ef 813e
000000d0: 94d0 553f 898a c93d 2051 3b3e 7502 9f3e
000000e0: c1b7 bd3e e232 453e 66aa 8e3e 9f39 a63d
000000f0: 2aee 8f3d ee11 363f 089b b43e 4925 403e
00000100: 20a7 d43e 5e49 a03e 4a1c 6e3e fa04 643e
00000110: 718f a23e d9ef 393e 6a91 153f df86 3b3f
00000120: da38 173f 25ad 2c3e fd10 453e e52f 743f
00000130: 1627 6f3f 61e3 883e 4819 333e 34d4 473f
00000140: 0bc9 903e 8173 8d3e 578c 703e c865 b93d
00000150: e465 223e e624 383e 8de5 bb3e 2d91 a23e
00000160: c531 623e 0a72 593e 6407 4d3e 88a2 fa3e
00000170: 10e2 803e 71e6 9e3e f40f 783e 436c 953e
00000180: 8405 043e 3b63 553d a631 ab3e 9f15 183f
00000190: 8c6b f13e 2560 173e 600e 433f d288 e53d
000001a0: e627 ac3e efe7 593f a773 353e 5f7b 813f
000001b0: 4d57 8b3e e738 9d3d 80d6 bf3f cd6b 813d
000001c0: 5f56 123e c2d5 d43e 8af8 d53e 2f02 5e3e
000001d0: edd4 7e3e f476 033f 1a42 613f b56a cf3e
000001e0: 0db6 e33d 11da 803e 1340 1c3f d891 9d3e
000001f0: 82f9 853e 35a7 663e ec83 403e 15ad 403e

network.4.weight f4 [64, 128]
0.03105599 -0.0315782 -0.07253643 0.062095877 0.121430844 -0.010327592 -0.13985693 0.078853875
0.0019371086 0.056502495 -0.020022005 0.123383254 -0.12531525 0.0039493972 -0.0868498 0.040085144
-0.008452756 -0.016325668 0.022685293 -0.015830385 -0.09184449 -0.007249598 0.10469915 0.1089313
0.055190045 0.030979777 0.12276866 -0.043497484 0.041370776 0.09462611 -0.106457464 -0.04628207
0.06559273 -0.06082701 0.09481076 -0.0051855543 0.04892294 0.07247396 -0.09215067 0.13433005
0.116991036 -0.08722362 -0.08943747 -0.10190564 -0.10704191 -0.1099285 -0.030405331 -0.090100646
-0.06743749 -0.04670412 0.052801576 0.13349473 0.027240062 -0.1386201 0.06023773 -0.017661672
0.032219954 0.12343383 0.088859454 -0.05441176 0.011366081 0.10364084 0.00336491 0.0500582
0.056910053 -0.10284274 0.0857708 -0.0490513 -0.122048296 0.00023011639 0.08036916 -0.066699095
0.092869826 -0.018516446 0.11822883 0.05473419 0.045774933 -0.0034454307 0.105222054 0.018737609
-0.03111496 -0.013402685 0.030754564 -0.10482641 0.0048190453 0.019939678 0.0072554504 0.11077242
-0.04704079 -0.09592167 0.1116228 -0.08470349 0.054196633 0.02503704 -0.04438695 -0.0036961397
0.011721538 0.07893178 0.020135963 -0.15005156 -0.059563544 -0.019971238 0.01168941 0.07926805
-0.035464767 0.057782263 0.029409023 -0.060416583 0.01658427 0.011726618 -0.01783662 0.016736649
0.07796563 0.0072079864 -0.10885564 0.05175179 -0.029035522 -0.061031148 0.02046799 0.03904255
0.0014586395 0.0061995033 -0.117783494 0.124209836 0.059117004 -0.007596146 -0.011395653 0.05423991
-0.117531024 -0.026896438 0.02887626 -0.03553706 -0.05977642 0.05997795 0.048467536 -0.11249513
0.030846331 0.06012266 0.029690461 0.011024348 0.0544298 -0.013823043 0.08788812 0.11543323
-0.07794686 -0.009580438 -0.010058331 0.012458208 -0.08986728 0.012319658 0.019418739 0.03701764
-0.07134486 0.123160124 0.07606049 -0.058138743 -0.012690828 -0.0074274465 0.049536854 0.06819034
0.0077483244 -0.029992906 0.05766919 -0.028656593 0.021512933 0.039665572 -0.05098969 -0.0013403506
0.008778783 0.064776346 0.017302291 0.0523658 -0.08431271 -0.069327034 0.070951246 0.016192416
-0.07443064 0.016298601 -0.0028655855 -0.017280396 0.13584262 0.0046673934 -0.02606949 0.040751252
0.06991113 -0.015819613 0.049848672 0.030362418 0.015183611 -0.10636569 -0.0016840405 -0.0064821476
-0.030889824 -0.0843818 -0.08796335 0.12504731 -0.066226445 -0.026866604 0.034478705 -0.021685963
0.057735864 -0.014590295 0.106723756 0.03786904 -0.07156453 0.0795985 0.054700635 0.0071870023
-0.036174357 0.030928984 -0.049144723 -0.0040092454 0.020043433 -0.13103753 -0.04373221 -0.07319606
0.09471436 0.078597166 0.02442449 0.10205363 -0.021635128 -0.0435498 0.036311377 0.059463196
0.12575108 0.031997964 0.08823267 0.07162343 0.11206986 -0.08592126 0.030618114 -0.10775251
0.06223616 0.057592325 -0.12317315 -0.018918855 -0.04373252 -0.16352826 -0.06260276 0.036356308
0.025192697 0.006170392 0.03488802 0.020584429 0.092108935 0.05085361 0.019719357 -0.13104768
-0.00814847 -0.09612004 -0.057889003 0.011521857 -0.0445448 -0.00593717 0.05239344 0.03274568
00000000: 2269 fe3c 2558 01bd fb8d 94bd 3f58 7e3d
00000010: bcb0 f83d 0f35 29bc a836 0fbe 247e a13d
00000020: 94e6 fd3a 296f 673d 3005 a4bc 5cb0 fc3d
00000030: a452 00be f269 813b 4fde b1bd 5230 243d
00000040: 6e7d 0abc 68bd 85bc 82d6 b93c b9ae 81bc
00000050: f718 bcbd 098e edbb 826c d63d 6017 df3d
00000060: f50e 623d 4dc9 fd3c 236e fb3d 6b2a 32bd
00000070: 6774 293d 55cb c13d 5f06 dabd 4592 3dbd
00000080: 7b55 863d be25 79bd 252c c23d 95eb a9bb
00000090: 6c63 483d 3a6d 943d 7eb9 bcbd d18d 093e
000000a0: ff98 ef3d 4ca2 b2bd fe2a b7bd e7b3 d0bd
000000b0: ca38 dbbd 3222 e1bd 9a14 f9bc b086 b8bd
000000c0: ab1c 8abd d24c 3fbd 7746 583d d8b2 083e
000000d0: 8d26 df3c 6df2 0dbe d7bb 763d 36af 90bc
000000e0: 12f9 033d e0ca fc3d f2fb b53d dede 5ebd
000000f0: cd38 3a3c a641 d43d d285 5c3b d409 4d3d
00000100: 841a 693d 379f d2bd 9aa8 af3d 04ea 48bd
00000110: 75f4 f9bd 664b 7139 9698 a43d 8999 88bd
00000120: 8932 be3d cdaf 97bc f521 f23d f530 603d
00000130: 7f7e 3b3d bccc 61bb a97e d73d 9d7f 993c
00000140: cde4 febc ef96 5bbc fff0 fb3c 3baf d6bd
00000150: 15e9 9d3b 8958 a33c 21bf ed3b a7dc e23d
00000160: d8ad 40bd 9572 c4bd 7f9a e43d 0679 adbd
00000170: 4afd 5d3d 7a1a cd3c 17cf 35bd ef3a 72bb
00000180: b20b 403c fca6 a13d 2df4 a43c 1ea7 19be
00000190: e7f8 73bd b99a a3bc f084 3f3c 4a57 a23d
000001a0: 8143 11bd 18ad 6c3d 31eb f03c 6177 77bd
000001b0: bcdb 873c 0021 403c 1a1e 92bc 4c1b 893c
000001c0: 72ac 9f3d f930 ec3b b5ef debd aff9 533d
000001d0: e7db edbc ccfb 79bd 7cac a73c 15eb 1f3d
000001e0: d22f bf3a 3425 cb3b 7938 f1bd ba61 fe3d
000001f0: ac24 723d 17e9 f8bb d5b4 3abc ab2a 5e3d
00000200: 1bb4 f0bd eb55 dcbc e88d ec3c 4f8f 11bd
00000210: 1fd8 74bd 70ab 753d e585 463d d963 e6bd
00000220: 72b1 fc3c 2e43 763d 6939 f33c 789f 343c
00000230: c8f1 5e3d 0b7a 62bc b0fe b33d 4268 ec3d
00000240: 9aa2 9fbd 45f7 1cbc b3cb 24bc 831d 4c3c
00000250: 560c b8bd 64d8 493c 0c14 9f3c cf9f 173d
00000260: 411d 92bd 603b fc3d 9ac5 9b3d e422 6ebd
00000270: 31ed 4fbc f061 f3bb 28e7 4a3d 61a7 8b3d
00000280: a8e5 fd3b afb3 f5bc 8736 6c3d 3bc1 eabc
00000290: e43b b03c 5e78 223d 91da 50bd b4ae afba
000002a0: e2d4 0f3c 76a9 843d 89bd 8d3c 857d 563d
000002b0: 24ac acbd 55fb 8dbd e34e 913d f5a5 843c
000002c0: 176f 98bd a584 853c 8ccc 3bbb 9e8f 8dbc
000002d0: 541a 0b3e eff0 983b af8f d5bc c9ea 263d
000002e0: 912d 8f3d 2298 81bc 1f2e 4c3d 9bba f83c
000002f0: aec4 783c 41d6 d9bd 06bb dcba 3268 d4bb
00000300: a80c fdbc 5dd0 acbd 2126 b4bd 670c 003e
00000310: bba1 87bd 5a17 dcbc 8b39 0d3d c3a6 b1bc
00000320: 717c 6c3d 220c 6fbc fc91 da3d 911c 1b3d
00000330: 6d90 92bd 8a04 a33d c60d 603d f280 eb3b
00000340: 902b 14bd c85e fd3c fa4b 49bd fd5f 83bb
00000350: 2032 a43c b42e 06be 8c20 33bd d1e7 95bd
00000360: 9af9 c13d 8df7 a03d de15 c83c 7e01 d13d
00000370: 273c b1bc 4661 32bd 3dbb 143d ae8f 733d
00000380: e4c4 003e 4c10 033d 55b3 b43d 4eaf 923d
00000390: e284 e53d 7cf7 afbd d7d2 fa3c 59ad dcbd
000003a0: 58eb 7e3d eee5 6b3d 3442 fcbd b7fb 9abc
000003b0: df20 33bd f473 27be e035 80bd 5aea 143d
000003c0: ea60 ce3c 0031 ca3b bee6 0e3d ada0 a83c
000003d0: 9ca3 bc3d e04b 503d 7d8a a13c 5d31 06be
000003e0: 2981 05bc 95da c4bd 051d 6dbd 2cc6 3c3c
000003f0: 9c74 36bd 978c c2bb 819a 563d 5620 063d

network.4.bias f4 [64]
0.033746757 0.02618789 0.056656823 0.03456672 -0.020635856 -0.015408174 0.0762064 -0.0036407027
-0.07375125 -0.06008609 -0.06543763 0.007622345 0.06133837 0.051546134 0.020679561 0.029531837
-0.04102198 0.08272541 0.03443335 -0.054314986 -0.05828883 -0.08066995 -0.024123874 0.06577818
0.0049021784 -0.04111533 0.0239004 -0.06284988 0.025963396 0.060877666 0.044759843 -0.026963899
-0.03216436 0.038563386 0.051954295 -0.023819728 -0.001970713 -0.012821891 -0.010104963 -0.078440584
-0.07250992 0.07760497 -0.042884085 0.06693717 0.05492804 -0.013104881 -0.041724622 0.0017352432
-0.01773661 -0.05205095 0.08635716 -0.00667393 -0.013568007 -0.060049318 0.0145572545 0.01212197
0.08712492 -0.027407313 0.050634794 0.000574445 0.046822086 0.0016147009 -0.015859198 0.03590747
00000000: 0a3a 0a3d fc87 d63c fc10 683d d595 0d3d
00000010: 870c a9bc 9172 7cbc 1a12 9c3d db98 6ebb
00000020: e50a 97bd d51c 76bd 2a04 86bd ddc4 f93b
00000030: f13d 7b3d 0a22 533d 2f68 a93c c0ec f13c
00000040: aa06 28bd f16b a93d fc09 0d3d 6479 5ebd
00000050: 45c0 6ebd 4936 a5bd 6e9f c5bc b6b6 863d
00000060: 74a2 a03b 8c68 28bd c6ca c33c 70b7 80bd
00000070: 30b1 d43c dc5a 793d 1956 373d 65e3 dcbc
00000080: c7be 03bd a4f4 1d3d 07ce 543d 9721 c3bc
00000090: 1427 01bb e912 52bc 498f 25bc 75a5 a0bd
000000a0: 1580 94bd 5bef 9e3d 39a7 2fbd 5b16 893d
000000b0: 39fc 603d dbb5 56bc 70e7 2abd 1a71 e33a
000000c0: 5e4c 91bc 6033 55bd 06dc b03d fcb0 dabb
000000d0: 594c 5ebc 46f6 75bd 8d81 6e3c 3a9b 463c
000000e0: 8d6e b23d 4d85 e0bc 6e66 4f3d 5a96 163a
000000f0: 84c8 3f3d 5fa4 d33a 26eb 81bc b613 133d

network.5.weight f4 [64]
1.0576661 0.9003981 1.0049046 0.915502 0.96465504 1.0270069 0.9460723 0.976038
0.9942992 1.0368528 0.9807759 0.97964954 1.0735909 0.898322 1.0098294 0.978526
1.0330143 1.0107261 0.92971116 1.0160911 1.0905955 0.9680818 1.0062127 1.002692
1.0764177 1.0287669 0.92085 0.97429764 1.0048681 0.96718854 1.03158 1.0338737
0.928376 0.9237159 1.0963668 1.0018609 0.967685 0.9642384 1.024796 0.973588
0.9728059 0.9930951 1.0220628 1.0912908 1.0489122 0.96580994 1.0316468 1.0012068
0.9443945 0.9068136 1.0676519 0.92873913 0.9472164 1.0191793 0.93339914 1.0757265
1.0290141 0.9622762 1.0523723 1.076404 1.0398102 1.0248513 1.0107585 1.0251279
00000000: 9a61 873f 7d80 663f b7a0 803f 575e 6a3f
00000010: a2f3 763f f674 833f cb31 723f a0dd 793f
00000020: 648a 7e3f 98b7 843f 2114 7b3f 50ca 7a3f
00000030: 6d6b 893f 6ef8 653f 1742 813f ae80 7a3f
00000040: d039 843f 795f 813f 8d01 6e3f 460f 823f
00000050: a298 8b3f 35d4 773f 94cb 803f 3658 803f
00000060: 0ec8 893f a2ae 833f d3bc 6b3f 926b 793f
00000070: 859f 803f ab99 773f d00a 843f f955 843f
00000080: 0daa 6d3f a578 6c3f bf55 8c3f fa3c 803f
00000090: 34ba 773f 54d8 763f 842c 833f 103d 793f
000000a0: cf09 793f 7b3b 7e3f f4d2 823f 6baf 8b3f
000000b0: c142 863f 523f 773f 010d 843f 8b27 803f
000000c0: d7c3 713f f024 683f d1a8 883f d9c1 6d3f
000000d0: c67c 723f 7874 823f 3ff3 6e3f 68b1 893f
000000e0: bcb6 833f bc57 763f 23b4 863f 9bc7 893f
000000f0: 8018 853f 542e 833f 8960 813f 6437 833f

network.5.bias f4 [64]
0.04550188 -0.11903655 -0.03484088 -0.038535096 -0.07982644 -0.033927858 -0.09099901 -0.019082736
-0.01148365 0.022245096 -0.08862592 -0.055058505 0.039406028 -0.09500561 0.012272105 0.027975686
0.04808622 0.004924315 -0.051955152 -0.06274541 -0.010338701 -0.02484331 -0.05890751 0.036037244
-0.022655135 -0.004724642 -0.057397626 0.0096306065 -0.044024017 -0.07810408 0.07466517 -0.046497166
-0.0555185 -0.03915782 0.0036314363 -0.051579162 -0.011976628 0.03334049 0.01659791 -0.077135265
0.0036048447 -0.121886395 -0.030657155 0.09045706 0.026256151 -0.056109056 0.060023893 -0.056852374
-0.07246632 -0.15396777 0.1042476 -0.047987673 -0.058672123 0.05258861 -0.08388249 0.077356
0.022849621 -0.07316145 -0.0070327837 -0.0018939963 -0.07564788 0.024848884 -0.050600003 -0.013449735
00000000: 2e60 3a3d 6fc9 f3bd 50b5 0ebd fad6 1dbd
00000010: 0b7c a3bd f0f7 0abd b05d babd 6653 9cbc
00000020: eb25 3cbc 593b b63c 8281 b5bd 0785 61bd
00000030: 3768 213d 4d92 c2bd f010 493c 442d e53c
00000040: 0ef6 443d 265c a13b edce 54bd aa80 80bd
00000050: a863 29bc 3284 cbbc 0049 71bd ca9b 133d
00000060: 4397 b9bc 2bd1 9abb c619 6bbd b1c9 1d3c
00000070: 8752 34bd 08f5 9fbd 0dea 983d d073 3ebd
00000080: 5e67 63bd f363 20bd 64fd 6d3b ac44 53bd
00000090: 9e39 44bc 0a90 083d 57f8 873c 18f9 9dbd
000000a0: 423f 6c3b 939f f9bd b724 fbbc 8d41 b93d
000000b0: 2417 d73c 9cd2 65bd 9ddb 753d 09de 68bd
000000c0: 3969 94bd baa9 1dbe c47f d53d b98e 44bd
000000d0: 2e52 70bd 2867 573d 95ca abbd d36c 9e3d
000000e0: 212f bb3c acd5 95bd 4473 e6bb f83f f8ba
000000f0: 47ed 9abd e38f cb3c f341 4fbd 475c 5cbc

network.5.running_mean f4 [64]
0.37481996 0.18812576 0.22416267 -0.39340112 -0.4653907 0.9813896 0.06473571 0.7478269
-0.6777772 -0.5413725 1.2634729 0.59783006 -0.1276228 0.32412848 0.44032848 0.31886965
-0.32585177 -0.10350764 -0.70591754 0.5215973 0.6559134 -0.48147324 0.33042267 0.6148905
1.0376892 -1.6474127 -0.56041074 0.3695316 -0.6785258 0.50769174 0.5824338 0.97131354
-0.14564899 0.20138241 1.0044051 0.38403267 -0.06584396 -0.120709956 -0.071929656 -0.724454
-0.21923701 1.2325348 0.6320052 0.2792549 -0.29787797 0.70962507 0.2699326 0.48133907
0.5128192 0.5578887 -0.097528316 -0.48389542 0.3947495 -1.123856 -0.0523441 0.4403353
0.5259785 -0.21734941 0.11390714 0.8377672 0.27319655 0.14294387 0.6681774 0.70190656
00000000: 67e8 bf3e 0aa4 403e e68a 653e df6b c9be
00000010: b147 eebe 593c 7b3f 2894 843d 9571 3f3f
00000020: ce82 2dbf 6397 0abf 7bb9 a13f 640b 193f
00000030: 8daf 02be 2bf4 a53e bc72 e13e e242 a33e
00000040: 0bd6 a6be d0fb d3bd 03b7 34bf 6787 053f
00000050: f1e9 273f a983 f6be 292d a93e 7769 1d3f
00000060: 00d3 843f 6bde d2bf 1477 0fbf 3f33 bd3e
00000070: deb3 2dbf 16f8 013f 621a 153f 01a8 783f
00000080: 0225 15be 3137 4e3e 5990 803f ee9f c43e
00000090: 33d9 86bd c836 f7bd db4f 93bd d175 39bf
000000a0: ab7f 60be b3c3 9d3f 18cb 213f 80fa 8e3e
000000b0: 7683 98be fda9 353f 9b34 8a3e 1372 f63e
000000c0: 1e48 033f cbd1 0e3f edbc c7bd 24c1 f7be
000000d0: 9b1c ca3e 83da 8fbf c466 56bd a173 e13e
000000e0: 87a6 063f d890 5ebe 2648 e93d e977 563f
000000f0: 6be0 8b3e e15f 123e ad0d 2b3f 26b0 333f

network.5.running_var f4 [64]
0.53553414 1.7418995 0.60666627 0.7359685 0.6909213 1.3922591 0.5013745 0.9478729
1.2680258 0.9283765 0.9766308 1.0269737 0.6954167 1.1201679 1.2510645 0.8197751
0.7200048 0.7199392 0.82268476 1.2357314 1.2231565 0.35652247 0.7588823 1.0725377
0.74349505 0.71234936 0.38916832 0.8861923 0.7639515 0.832102 1.2917762 1.3821036
0.43873578 0.54060876 1.0811002 0.91981655 0.5533965 0.5964395 0.75321454 0.42961666
0.30283657 1.7299856 0.5947568 0.86368096 0.5670496 1.0800345 0.84296334 0.71762156
1.1013873 0.41297886 0.6181389 0.71153766 0.5717514 0.81440103 0.6747442 0.9391115
0.5002331 0.4477434 0.9595229 0.95819825 0.8295765 1.1098803 0.73987085 1.540471
00000000: c418 093f 90f6 de3f 7b4e 1b3f 6e68 3c3f
00000010: 38e0 303f 8c35 b23f 145a 003f cca7 723f
00000020: ab4e a23f 15aa 6d3f 7a04 7a3f e073 833f
00000030: d406 323f a961 8f3f e222 a03f c8dc 513f
00000040: 3c52 383f ef4d 383f 789b 523f 722c 9e3f
00000050: 6490 9c3f 1d8a b63e 1c46 423f ea48 893f
00000060: b155 3e3f 875c 363f 1241 c73e 80dd 623f
00000070: 5392 433f a304 553f ec58 a53f c5e8 b03f
00000080: faa1 e03e 5665 0a3f 7e61 8a3f 1979 6b3f
00000090: 65ab 0d3f 42b0 183f abd2 403f b7f6 db3e
000000a0: 650d 9b3e 2b70 dd3f fb41 183f 321a 5d3f
000000b0: 2a2a 113f 923e 8a3f 72cc 573f 0cb6 373f
000000c0: 42fa 8c3f f771 d33e 5a3e 1e3f 5527 363f
000000d0: 4d5e 123f 967c 503f 09bc 2c3f 9c69 703f
000000e0: 470f 003f 9f3e e53e 4ba3 753f 7b4c 753f
000000f0: 205f 543f 8f10 8e3f 2d68 3d3f 272e c53f

network.8.weight f4 [32, 64]
-0.095858365 0.04540594 -0.07503253 -0.0374885 0.08112097 -0.08704455 -0.1095602 -0.0905875
0.11999472 0.021924159 -0.03284045 -0.048346642 -0.01044504 -0.091221385 -0.09007375 0.028095575
0.040705085 0.06656627 0.0028900374 -0.061544392 -0.14734961 -0.10585662 -0.06609756 -0.08697279
-0.0580547 0.119504906 0.11627268 -0.036402963 -0.048277453 -0.057281293 0.08935715 -0.086414926
-0.014806464 -0.016633827 -0.13865559 -0.109297894 -0.13269365 0.007212757 -0.15624763 0.06410822
-0.07482898 0.041543614 -0.16102229 0.056279756 0.07107674 -0.10716108 -0.19278885 -0.119807854
-0.090127036 -0.0353736 0.10223002 0.10455793 0.066644214 0.08636611 -0.02763172 -0.035995886
-0.05249029 -0.15902619 0.0769445 -0.08424477 -0.09068475 0.024500024 -0.048157226 0.033998612
-0.099620484 0.086392656 -0.01206928 0.0057178307 0.12471206 -0.01806306 -0.03794151 -0.08543876
0.17341802 -0.14887941 -0.03384186 0.07003555 -0.13404962 0.085278 0.07524171 0.09616469
0.11145371 0.11470616 0.13801545 -0.1341691 0.01518835 -0.029441547 0.116295844 0.1244063
-0.0322726 0.01995117 -0.049036145 0.06940059 -0.021551833 -0.037968073 0.04805191 0.028229037
0.0882464 0.12861519 -0.08079092 -0.01589686 0.089334376 0.14761621 -0.024366109 0.093498066
-0.07847143 -0.062033992 -0.07639744 0.18799189 0.11390263 0.036261965 0.014088227 0.05827619
0.018016791 -0.02928213 0.09971025 0.018281626 0.0095777195 -0.006522654 -0.028660122 -0.10406726
0.11185974 0.051762532 0.17878029 -0.15041965 0.09263269 0.15644772 0.0954041 -0.017149221
0.18533422 0.10389649 -0.10521469 0.097930096 0.027821831 0.027017366 -0.14186794 -0.023291571
-0.042787615 -0.13640958 0.085502684 0.07526119 -0.11252635 0.00043556694 0.043724276 0.03792278
-0.12404079 0.07309341 0.1061019 0.0805559 0.1614 0.004159706 0.14985308 0.010808835
0.025090488 -0.06003489 0.07582502 -0.016693246 -0.0891167 0.01912881 -0.0023290408 0.01757593
0.062159352 0.06698813 0.042875975 -0.092840225 -0.04273831 -0.06916069 0.07042302 0.14326997
0.0014829967 0.0694064 -0.020023918 -0.03308465 -0.06308474 -0.061373804 -0.10556673 0.11951941
0.013889861 -0.026812714 -0.07446149 -0.091663174 -0.0032693564 -0.010074683 -0.07563803 0.070864104
-0.1116017 0.0057399967 -0.014869269 0.11565972 -0.037084028 0.06184314 0.067933194 0.06204051
0.016686164 -0.030474195 -0.033594374 0.005887286 0.11018446 0.0572281 0.03501023 0.09394456
-0.023180434 0.00858264 -0.05307359 -0.07464347 0.06517991 -0.12964012 0.122733414 0.17617644
0.018156257 0.11738773 -0.11020335 0.03881909 -0.12427699 0.09781238 0.016717212 0.10408365
-0.0117726615 -0.02372866 -0.04059912 0.105714165 0.12397469 -0.124489516 0.017890783 0.056996755
0.013867086 0.042086825 0.045678567 0.07272267 -0.0145874 -0.0511031 -0.16741776 -0.07920323
0.08678699 0.07970998 0.14187415 0.2337281 -0.00094903586 0.10270293 0.14447501 -0.107343145
-0.046130825 -0.05672958 0.102851875 0.059890363 0.120318584 -0.071892716 0.08622358 0.14598024
0.03251145 0.008373518 0.18061411 -0.054014586 0.09343821 0.08020115 0.0033927134 -0.109547235
00000000: 6451 c4bd 94fb 393d a8aa 99bd 8b8d 19bd
00000010: c022 a63d 6a44 b2bd 1961 e0bd f085 b9bd
00000020: cbbf f53d 4b9a b33c b583 06bd 2107 46bd
00000030: ac21 2bbc 47d2 babd 9678 b8bd b128 e63c
00000040: 60ba 263d e653 883d c866 3d3b f915 7cbd
00000050: d1e2 16be 5bcb d8bd 285e 87bd ca1e b2bd
00000060: c4ca 6dbd fdbe f43d 5f20 ee3d 461b 15bd
00000070: 94be 45bd ca9f 6abd e200 b73d 4ffa b0bd
00000080: d096 72bc aa43 88bc bbfb 0dbe 93d7 dfbd
00000090: d8e0 07be fe58 ec3b 61ff 1fbe 2c4b 833d
000000a0: f03f 99bd a329 2a3d 07e3 24be 9a85 663d
000000b0: af90 913d 4577 dbbd 716a 45be d25d f5bd
000000c0: 8694 b8bd e8e3 10bd f95d d13d 7822 d63d
000000d0: c37c 883d b7e0 b03d eb5b e2bc 6c70 13bd
000000e0: 0f00 57bd c3d7 22be 1495 9d3d 8688 acbd
000000f0: edb8 b9bd 46b4 c83c 8340 45bd 2142 0b3d
00000100: d305 ccbd a2ee b03d 3bbe 45bc a45c bb3b
00000110: 0969 ff3d fbf8 93bc 8f68 1bbd 84fa aebd
00000120: 7e94 313e d873 18be c39d 0abd cc6e 8f3d
00000130: 4e44 09be 3ba6 ae3d 5318 9a3d fef1 c43d
00000140: d841 e43d 10eb ea3d ec53 0d3e a063 09be
00000150: 8fd8 783c 662f f1bc 842c ee3d bbc8 fe3d
00000160: 4630 04bd a370 a33c 20da 48bd e621 8e3d
00000170: 788d b0bc 6984 1bbd 14d2 443d 9540 e73c
00000180: 87ba b43d b3b3 033e b675 a5bd 223a 82bc
00000190: f1f4 b63d b428 173e 6f9b c7bc ea7b bf3d
000001a0: a1b5 a0bd 5b17 7ebd 4376 9cbd f280 403e
000001b0: c845 e93d 6d87 143d 4fd2 663c 04b3 6e3d
000001c0: f397 933c 14e1 efbc e334 cc3d 59c3 953c
000001d0: deeb 1c3c fdbb d5bb a2c8 eabc 3721 d5bd
000001e0: b816 e53d f304 543d 2e12 373e 9c07 1abe
000001f0: 35b6 bd3d d533 203e 3a63 c33d 867c 8cbc
00000200: 41c8 3d3e afc7 d43d cd7a d7bd 938f c83d
00000210: 9cea e33c 8653 dd3c d445 11be f7cd bebc
00000220: 1142 2fbd f4ae 0bbe 081c af3d 8a22 9a3d
00000230: 3774 e6bd ce5c e439 3a18 333d eb54 1b3d
00000240: 1909 febd ffb1 953d f44b d93d 7efa a43d
00000250: 0b46 253e 254e 883b 1673 193e 8a17 313c
00000260: 918a cd3c 25e7 75bd 264a 9b3d 46c0 88bc
00000270: d182 b6bd 06b4 9c3c d2a2 18bb 66fb 8f3c
00000280: ce9a 7e3d 1331 893d b89e 2f3d 0423 bebd
00000290: 5e0e 2fbd 1fa4 8dbd f239 903d 5db5 123e
000002a0: 1d61 c23a f124 8e3d 3309 a4bc c583 07bd
000002b0: 9232 81bd 1963 7bbd 5f33 d8bd 98c6 f43d
000002c0: 4d92 633c 56a6 dbbc 447f 98bd e7b9 bbbd
000002d0: b342 56bb 4910 25bc 1de8 9abd 3321 913d
000002e0: 6f8f e4bd 9516 bc3b 3c9e 73bc 01df ec3d
000002f0: 6ce5 17bd 3b4f 7d3d 8f20 8b3d 311e 7e3d
00000300: 6cb1 883c 05a5 f9bc 419a 09bd 22ea c03b
00000310: 64a8 e13d 0368 6a3d e366 0f3d 0166 c03d
00000320: e5e4 bdbc 349e 0c3c b163 59bd adde 98bd
00000330: 0b7d 853d 61c0 04be a85b fb3d 9967 343e
00000340: 6ebc 943c fa68 f03d 4bb2 e1bd c400 1f3d
00000350: ef84 febd db51 c83d 89f2 883c cf29 d53d
00000360: 1fe2 40bc 9b62 c2bc 434b 26bd ab80 d83d
00000370: 71e6 fd3d 5cf4 febd b18f 923c 6e75 693d
00000380: c632 633c 3c63 2c3d 7319 3b3d a0ef 943d
00000390: fdff 6ebc 7c51 51bd 906f 2bbe 4e35 a2bd
000003a0: 61bd b13d fc3e a33d 7547 113e 6b56 6f3e
000003b0: b8c8 78ba ea55 d23d 42f1 133e b9d6 dbbd
000003c0: adf3 3cbd 475d 68bd 01a4 d23d 994f 753d
000003d0: 9769 f63d 7d3c 93bd fd95 b03d d87b 153e
000003e0: ba2a 053d 1431 093c e8f2 383e 663e 5dbd
000003f0: 885c bf3d 8040 a43d 4958 5e3b 4d5a e0bd

network.8.bias f4 [32]
0.059050355 -0.07428563 -0.007776562 0.034486964 -0.051799405 -0.06721756 0.033531934 0.10185466
0.09522489 0.040402368 0.009493302 0.058410045 -0.03644577 0.09592191 0.06592257 -0.12086707
0.11053266 0.0035058397 -0.0963035 -0.048384104 0.122115634 -0.104269594 0.031588517 -0.044056777
-0.10693662 0.04657667 0.07509112 0.12198524 -0.09697886 0.062114734 0.09008268 -0.003568704
00000000: c9de 713d 1023 98bd 88d2 febb 3442 0d3d
00000010: 9d2b 54bd 5ca9 89bd c858 093d 2d99 d03d
00000020: 4405 c33d f47c 253d cb89 1b3c 5f3f 6f3d
00000030: 2948 15bd b572 c43d 6a02 873d 2889 f7bd
00000040: f25e e23d 3bc2 653b c53a c5bd 692e 46bd
00000050: c317 fa3d 4c8b d5bd f662 013d e174 34bd
00000060: 9601 dbbd 2ec7 3e3d 60c9 993d 66d3 f93d
00000070: da9c c6bd 056c 7e3d 457d b83d ebe0 69bb

network.9.weight f4 [32]
1.06733 1.0211608 1.0356766 1.1154292 0.9574835 1.0123612 1.0531561 1.0147859
0.9082059 1.0520562 0.9966725 1.0264373 0.99254733 0.9995589 1.0113761 0.95143783
0.9770757 0.9619894 1.0362785 1.0533952 1.0284362 1.0113151 0.97498256 1.023921
0.9370474 0.9840057 0.92915124 1.1070374 1.0355577 0.9722923 0.96318614 0.9574634
00000000: 459e 883f 66b5 823f 0d91 843f 62c6 8e3f
00000010: a31d 753f 0d95 813f d2cd 863f 81e4 813f
00000020: 2f80 683f c7a9 863f ee25 7f3f 4c62 833f
00000030: 9517 7e3f 18e3 7f3f c674 813f 6e91 733f
00000040: a221 7a3f f044 763f c6a4 843f a7d5 863f
00000050: cca3 833f c672 813f 7598 793f d80f 833f
00000060: 57e2 6f3f cce7 7b3f dbdc 6d3f 67b3 8d3f
00000070: 288d 843f 26e8 783f 5e93 763f 521c 753f

network.9.bias f4 [32]
0.071673885 0.032725874 0.013908328 0.07189501 -0.06593014 0.042390574 0.024530033 0.030267956
-0.019438608 0.013101345 -0.0141311055 0.000875185 -0.053299755 -0.051264364 -0.026875464 -0.008730941
-0.0040695025 -0.037172824 0.028167276 0.020560754 0.021073006 0.03918869 -0.018995553 0.044509947
-0.033285927 0.052861568 -0.029564703 0.120565645 0.075235374 -0.01997221 -0.0011582153 0.015302507
00000000: c2c9 923d 910b 063d c1df 633c b13d 933d
00000010: 6206 87bd bda1 2d3d 35f3 c83c 81f4 f73c
00000020: b73d 9fbc 06a7 563c 2786 67bc ac6c 653a
00000030: d850 5abd 95fa 51bd ef29 dcbc 390c 0fbc
00000040: 7659 85bb 8842 18bd 0fbf e63c 076f a83c
00000050: 4ca1 ac3c 5284 203d 909c 9bbc 1050 363d
00000060: d356 08bd 5f85 583d ad31 f2bc 1feb f63d
00000070: 0115 9a3d c39c a3bc 42cf 97ba 5eb7 7a3c

network.9.running_mean f4 [32]
-0.6996112 0.62639916 0.18930005 0.8021845 -0.0139714945 -0.1994195 0.7680949 0.16552663
-0.4471121 -0.02518505 -0.5222606 0.15152003 -0.065596655 -0.47373018 -0.014193201 -0.6056425
0.14071497 -0.2514901 -0.78951603 0.055390615 0.33945337 -0.06715849 -0.0076659406 0.1812517
-0.13147978 0.4847158 -0.09364244 -0.6717194 -0.53128296 -0.095348336 -0.256606 -0.538454
00000000: b819 33bf b25b 203f dfd7 413e f75b 4d3f
00000010: b2e8 64bc a034 4cbe dea1 443f d07f 293e
00000020: e1eb e4be e150 cebc dfb2 05bf 1128 1b3e
00000030: 8a57 86bd c38c f2be 9a8a 68bc 630b 1bbf
00000040: 9617 103e 4fc3 80be b91d 4abf 45e1 623d
00000050: d5cc ad3e 648a 89bd 9232 fbbb 0c9a 393e
00000060: a3a2 06be ab2c f83e 9cc7 bfbd cdf5 2bbf
00000070: 2902 08bf fd45 c3bd dd61 83be 1fd8 09bf

network.9.running_var f4 [32]
0.92018294 0.7533509 0.91472757 1.2785336 1.4079498 0.7521034 1.0415124 0.6890062
0.63704294 1.0246668 0.73450303 0.6348872 0.83225864 0.684819 1.385615 1.0677673
1.03932 0.37013283 0.94881016 1.1080148 0.43847623 0.6970347 0.5208075 0.7483281
1.1579095 1.0293137 0.9335619 0.74680203 0.80146027 0.30993786 0.49918473 0.35985225
00000000: 1c91 6b3f 9bdb 403f 962b 6a3f fda6 a33f
00000010: b337 b43f d989 403f 4750 853f b662 303f
00000020: 3f15 233f 4828 833f 6408 3c3f f887 223f
00000030: e70e 553f 4c50 2f3f d55b b13f 99ac 883f
00000040: 7008 853f 0d82 bd3e 39e5 723f 6ed3 8d3f
00000050: f57f e03e de70 323f a453 053f 6e92 3f3f
00000060: 6136 943f 8dc0 833f eafd 6e3f 6b2e 3f3f
00000070: 802c 4d3f 2db0 9e3e 2495 ff3e 8e3e b83e
