ai-layer/model/results/10000/dnn_oud_risk_model.pth (torch, 65493 bytes, 25 tensors)

network.0.weight f4 [128, 11]
000000 e1 8d 39 3e 67 01 5a be 4c d8 ed bb fb 5f 50 be
       0.18120529 -0.21289597 -0.0072584506 -0.20349114
000010 df 55 19 be 37 ef d0 bd aa ad 92 be 09 84 e3 bd
       -0.14974163 -0.102018766 -0.2864812 -0.11109168
000020 3c f8 26 3e df 05 4f bc 58 d9 04 be 42 c2 4e 3d
       0.16305631 -0.012635677 -0.12973535 0.050478227
000030 d3 8a 4a 3e 70 a8 35 be e7 2c 22 3e 66 93 91 be
       0.1977952 -0.17740035 0.15837441 -0.2843277
000040 a5 bc 0c be 2f 73 03 be a5 37 90 3e 48 f8 1e be
       -0.13743837 -0.12836908 0.28167453 -0.155244
000050 69 f2 9b 3e 83 9f 00 3e f5 f8 94 3e 3a a8 54 3e
       0.30458382 0.12560849 0.2909619 0.20767298
000060 f1 80 2c be bd ee ba bd 80 d0 5a 3e 49 fd 60 bd
       -0.16846062 -0.09127567 0.21368599 -0.05492905
000070 5f 50 9a 3c 5d bf d3 3d 1e ec 87 3c 6b 70 11 be
       0.018837152 0.10339234 0.016592082 -0.1420304
000080 27 e8 93 3e 7d cb 67 be 9f e8 82 bd 83 8b 96 be
       0.28888056 -0.22636218 -0.06392025 -0.29403314
000090 f3 61 ba bd 9f 89 63 3e 7c 00 93 3d 14 55 b1 3d
       -0.091007136 0.22220467 0.07177827 0.086588055
0000a0 79 5d 79 be 29 00 2d bc b6 26 d7 bd 0a 95 86 bd
       -0.24352063 -0.01055912 -0.105054304 -0.06571396
0000b0 77 e3 48 be 10 f1 17 be 8d 49 3a be 9a 5a 82 3e
       -0.19618021 -0.14838052 -0.1819212 0.25459749
0000c0 0a e6 89 be ee 02 5e 3d ec 23 80 be a6 80 00 bb
       -0.26933318 0.054202013 -0.25027406 -0.001960793
0000d0 1b 3a 81 be e4 1f 8f 3d 35 b8 62 3e 6a e4 88 3e
       -0.25239643 0.069885045 0.22140582 0.26736766
0000e0 5d 31 80 be 4a b1 e4 bd 2a eb bc bc 0b aa 59 3e
       -0.2503766 -0.11166628 -0.023061354 0.21256272
0000f0 dc dc 35 3e 38 24 b9 bd 2a 8d 8e bd 8b 33 62 bd
       0.17760032 -0.09040111 -0.06960519 -0.055224936
000100 bf f7 17 be a2 be 05 bd 76 6d 5d be c0 35 26 be
       -0.14840601 -0.032652505 -0.21623787 -0.16231441
000110 c1 e9 16 3e 19 90 a5 3d 49 80 d7 3d d4 59 f0 bc
       0.14737608 0.08084125 0.10522515 -0.029339708
000120 d8 70 77 3d c3 9d 1b 3e 71 2e f3 bd 4f 21 a4 bc
       0.06041035 0.151969 -0.11874092 -0.020035414
000130 cb b0 9b bd aa 37 93 3d d9 8f 1f 3e 81 f3 8c 3e
       -0.0760208 0.071883515 0.15582217 0.2752953
000140 44 0d 54 be aa 80 e9 3d b3 2d 3b be 93 04 4c be
       -0.20708185 0.11401494 -0.18279152 -0.1992362
000150 3d 92 5b be 92 4b 04 3e f4 35 70 3e 55 f7 a4 3c
       -0.21442504 0.12919453 0.23458081 0.020137468
000160 ad 9d 87 3e 10 1c 16 be d1 a7 87 3e a2 c9 53 be
       0.26487485 -0.14659142 0.2649522 -0.20682386
000170 3c 3a eb 3c 48 50 43 bd 5e 99 86 bd 50 2a 91 3e
       0.028714292 -0.047683984 -0.06572221 0.28352594
000180 a8 4e df 3d ee d5 36 be a9 0e 4b 3d 7c 50 62 be
       0.10903674 -0.17855045 0.049574528 -0.22101015
000190 e6 9b 7b be aa 52 ad bd 46 2a 64 3e 83 b2 23 3e
       -0.2457119 -0.084630325 0.22281751 0.15986066
0001a0 75 a7 dd bd 87 ee 40 3e b4 e3 c6 3d 7f 0a 54 be
       -0.108229555 0.18840991 0.097114 -0.20707129
0001b0 f8 5e 05 3e 20 b2 20 be 1e fc 20 be 66 82 25 3e
       0.13024509 -0.1569295 -0.15721175 0.16163024
0001c0 ad 38 8b 3e 31 c4 4c 3c 2f 95 86 3e a3 0c 3f bd
       0.27191678 0.012497948 0.26285693 -0.04664291
0001d0 fd b0 37 be f0 a9 d6 bd aa 2c 1a be 8e 28 09 be
       -0.1793861 -0.10481632 -0.150561 -0.13394377
0001e0 0c 0b 45 be dc 62 29 bd 9e 6b 5f be 8e ae d4 3d
       -0.19242495 -0.041354045 -0.21818396 0.10384856
0001f0 0a ad df 3d 5a ec e4 3d 86 8d 3e be e2 d7 10 be
       0.109216765 0.11177893 -0.18608674 -0.14144853
000200 25 5b 11 3e 36 6d 03 3e 2f 39 43 3d 6f db 43 be
       0.14194925 0.1283463 0.047661956 -0.19126676
000210 a5 4f 14 be d4 4b 33 be 80 f0 ca 3d a1 c6 89 3e
       -0.14483507 -0.17509395 0.09909153 0.26909354
000220 3e 9a 0e be 72 31 89 3e 15 6d 27 3e 91 2d 62 bd
       -0.13926026 0.26795536 0.16350205 -0.055219237
000230 a5 53 76 3c 54 47 89 3e 80 a9 7d be 39 cf 87 3d
       0.015034591 0.26812232 -0.2477169 0.066313215
000240 79 49 90 be 9e 48 49 3e ea cb 04 be 25 96 95 3e
       -0.28181055 0.19656608 -0.12968412 0.29216114
000250 46 7a 93 be 0a 30 97 3e 3e fe 80 bd 3b a8 8d be
       -0.28804225 0.29528838 -0.06298493 -0.27667412
000260 aa 13 12 be 2c f7 07 be 15 9d 61 be 90 4c 80 3d
       -0.14265314 -0.13277882 -0.22032578 0.06264603
000270 a7 d9 65 3e 28 d2 61 be 33 3b 18 bc 95 46 7c be
       0.22446309 -0.22052824 -0.009291458 -0.246363
000280 c7 64 d2 3d bd 87 9a bd a4 11 61 bc a8 88 8f 3e
       0.10273128 -0.07545421 -0.013737116 0.28033948
000290 98 30 73 bc d0 f2 8c be 09 35 9e be 3b f1 b6 bd
       -0.014843129 -0.27529 -0.30899838 -0.0893273
0002a0 f6 e3 2c 3d ff 59 54 be 01 d0 7a be fb f6 d7 3b
       0.042209588 -0.20737456 -0.2449341 0.0065907217
0002b0 4b d4 29 be 21 81 70 be 5f 93 f4 3d 89 d9 87 3e
       -0.1658489 -0.23486759 0.11942171 0.26533154
0002c0 b7 51 fb bc c0 77 45 3c 6d 88 90 3e e5 c7 64 3e
       -0.030678613 0.012052476 0.28229085 0.22341879
0002d0 15 38 18 3e 2c e4 98 bd f4 79 21 be 29 16 53 be
       0.14865144 -0.07465395 -0.15769178 -0.20613922
0002e0 4d cd 5c 3e 27 e3 2e be 1a 37 a3 3d b7 e8 42 be
       0.21562691 -0.17078839 0.07969494 -0.19034086
0002f0 38 e1 ff 3d 98 45 09 3e 2a d7 bf 3d 06 7e 8e 3e
       0.12494129 0.13405454 0.09367211 0.27830523
000300 82 46 f9 3d e8 01 85 3e cc f1 73 be ac 09 99 be
       0.121716514 0.25978017 -0.23822707 -0.29890192
000310 bb f6 25 3e bc 2e 76 be ac 0a 3b be f8 32 36 3d
       0.16207401 -0.24041265 -0.1826579 0.0444822
000320 41 38 00 be 1b ea e7 bd 05 f1 4c 3c d0 09 98 be
       -0.12521459 -0.11323949 0.012508635 -0.29694986
000330 2d 09 d9 3c 80 20 28 be 2c 09 0e bd 38 bb e1 3c
       0.026493633 -0.16418648 -0.034676716 0.027555093
000340 29 1f 2c be 81 33 9f bd 8f f4 a1 3d d5 f4 fd bd
       -0.16808762 -0.077734955 0.07907974 -0.12400214
000350 af c5 10 3e 51 46 5d be 4c 67 7a bd 4c b1 4f be
       0.1413791 -0.21608855 -0.061133668 -0.20282477
000360 4f ed c0 3c 10 9c e7 bc 21 2c 6a 3e 4c 94 f1 bc
       0.023550658 -0.028272659 0.22868396 -0.029489659
000370 ba 98 bf 3d d2 2d b8 bd d0 a3 ea bc 4c 3d 8a 3e
       0.09355302 -0.089931145 -0.028642565 0.2699989
000380 43 ee 80 3e e3 eb b7 3d 97 8c 77 3e 42 39 90 be
       0.2518178 0.08980539 0.24174725 -0.28168684
000390 c3 cc af 3d e4 7e c1 bd fc 20 82 be 54 93 1d be
       0.08583977 -0.094480306 -0.2541579 -0.15388232
0003a0 45 ec 19 be 0e 14 75 bd df f2 cc 3c cd bf ae bd
       -0.15031536 -0.05983358 0.025018154 -0.08532677
0003b0 e2 65 7b 3e 32 4e 0a be be be 89 3e 32 c7 5b bd
       0.24550584 -0.13506392 0.26903337 -0.053656764
0003c0 7f 0d 11 be c5 ff a0 bd 2b 0a eb 3c 13 2d c4 3d
       -0.14165305 -0.07861284 0.028691372 0.0957891
0003d0 a8 86 14 3e b1 70 8e be 32 6b 89 3d e8 31 4c 3e
       0.14504492 -0.27820352 0.06709899 0.19940913
0003e0 88 c0 ec 3d 4d 44 0f 3c ca f1 d8 bd 82 f1 5a be
       0.1156016 0.0087443115 -0.105929926 -0.2138119
0003f0 b4 57 92 3e cf 81 7b 3e 7b 8d e7 bc bf 12 1d 3c
       0.28582537 0.24561237 -0.028265705 0.009586989

network.0.bias f4 [128]
000000 7f a3 91 be fa b6 06 3e 8d 43 d8 3d ae 37 5d 3e
       -0.2844505 0.13155738 0.10559759 0.21603271
000010 27 96 3c 3d f6 52 ed 3d dd 56 3d be 91 3b 72 3e
       0.046041634 0.11588089 -0.18490167 0.23655535
000020 80 13 63 be bc b5 2a be 05 7f 2f bd a3 47 3c 3e
       -0.22175407 -0.16670889 -0.042845745 0.18386702
000030 9a f2 81 3e fe a4 4e be e7 db 66 be 60 e3 30 bc
       0.25380403 -0.20180127 -0.22544824 -0.010796398
000040 27 d5 25 3e ee c5 31 3e 5f 51 b0 3d bc a1 da bd
       0.16194592 0.1736066 0.0860927 -0.1067538
000050 97 c9 96 be 93 4b 40 be 75 e2 f6 3c 4c 10 78 3e
       -0.29450676 -0.1877883 0.03013728 0.24224967
000060 fe 94 b6 3c 8e b2 75 3e b9 57 df 3b 76 f3 63 be
       0.022287842 0.23993894 0.0068158773 -0.22260842
000070 44 5d 3d 3e f4 13 05 bc 4e 67 63 be 6a cd 45 be
       0.1849261 -0.008122433 -0.22207376 -0.1931664
000080 83 96 17 be d0 71 ab bc 19 68 6f be 01 b1 d5 bd
       -0.1480351 -0.020928293 -0.23379554 -0.104341514
000090 9a f5 f3 3d 30 49 29 3e f6 c1 94 3d e7 ad d4 3d
       0.11912079 0.16531825 0.072635576 0.10384732
0000a0 2c 6c cc 3d bb ac 00 3d b8 6b 94 3e 8f 4a 88 be
       0.0998157 0.03141473 0.28988433 -0.26619384
0000b0 17 93 44 3e ee 1a 86 3e 5e a5 43 3e e7 a7 a0 3c
       0.19196735 0.2619242 0.19106051 0.019611312
0000c0 cb 80 a2 bd 60 03 8f 3e f8 3f 87 be 9c 41 8b 3e
       -0.079347216 0.27932262 -0.26415992 0.27198493
0000d0 b0 ee 63 bd 35 20 58 3e 84 99 ca 3b 16 6a 04 be
       -0.055647552 0.21106036 0.0061828513 -0.12931094
0000e0 fb 15 c5 3c 01 26 4a 3c d5 1f b4 3d 6e 9e 78 3e
       0.024058333 0.012338162 0.08795134 0.24279186
0000f0 32 c3 8b 3d 08 b6 53 be c9 4b 8b 3d 2e d2 1c be
       0.0682434 -0.20674908 0.06801564 -0.15314552
000100 f3 19 51 be a4 6f 4c 3c 48 b8 8c 3e 72 d6 39 bd
       -0.20420055 0.012477789 0.27484345 -0.045370527
000110 49 84 bb bd ff 51 b4 bd d2 87 9b 3b 40 cc 82 3e
       -0.09156091 -0.08804702 0.0047464157 0.25546455
000120 8a 2f 86 3e 47 02 07 be 73 61 46 3e 28 6a 50 be
       0.26208144 -0.13184462 0.19373111 -0.20352995
000130 e2 1f 7b 3c 0f 36 af bd a4 2c 45 3e d6 8a 17 bc
       0.015327426 -0.08555233 0.1925531 -0.00924941
000140 3f d9 30 be 06 80 97 3e e6 cc 29 3d b3 ae 43 3e
       -0.17270373 0.29589862 0.041455172 0.19109611
000150 2e ce 48 3d 50 87 34 3e 57 39 07 3e e4 db 42 3e
       0.049024753 0.17629743 0.13205467 0.19029194
000160 a9 1e bf 3d c0 3e 98 3e 95 09 34 3e ce 66 93 be
       0.0933202 0.29735374 0.1758178 -0.2878937
000170 8a 28 f0 3d 98 f2 d3 bd 18 db ed bd a4 dc fe bd
       0.11726482 -0.103490055 -0.116140544 -0.124444276
000180 83 92 65 be 9d 15 f5 3d e9 a6 69 be 7c af 59 be
       -0.22419171 0.11967013 -0.22817577 -0.21258348
000190 49 2c 4b be 46 bc 8d 3e 43 6e 49 3d 2c 62 a4 3d
       -0.19841112 0.27682704 0.04917742 0.08026537
0001a0 41 2b 69 be e4 d3 94 be 36 f7 01 be d1 04 8c be
       -0.22770406 -0.2906791 -0.1269196 -0.27347425
0001b0 d8 8b bc 3d 7b 5e 15 be 9e 73 8f 3e 1b 69 8c be
       0.092063606 -0.14586823 0.28017896 -0.2742394
0001c0 db da 17 be 08 50 74 3e 15 f7 16 3d 91 53 82 3d
       -0.1482958 0.23858654 0.03685673 0.06363595
0001d0 c1 36 0c be ca 42 07 3e 2d 8b 15 bd 3a c6 9b 3d
       -0.13692762 0.13209072 -0.03650968 0.07606168
0001e0 f2 8d 0e 3e 2b f0 cc bd b0 4b 27 bd f2 57 51 3e
       0.13921335 -0.10006746 -0.040843666 0.20443705
0001f0 76 cb 5f be 2c bd 12 be e8 dd d9 bd d1 11 f8 bd
       -0.21854958 -0.14329976 -0.106380284 -0.12112773

network.1.weight f4 [128]
000000 4e 00 7e 3f 95 52 7f 3f cf 6c 80 3f ba c7 80 3f
       0.99219215 0.99735385 1.0033206 1.0060952
000010 4f d9 7e 3f 8f 1e 80 3f ba 35 81 3f 98 27 80 3f
       0.99550337 1.0009326 1.0094521 1.0012083
000020 15 73 81 3f be 48 80 3f 3f 89 80 3f 3a b7 81 3f
       1.0113245 1.0022199 1.0041884 1.0134041
000030 03 5f 81 3f dd 83 80 3f d3 ff 7e 3f 64 c2 7b 3f
       1.010712 1.0040241 0.99609107 0.9834349
000040 30 ef 80 3f d9 94 7e 3f e7 1a 7d 3f 3a 4a 7f 3f
       1.0072994 0.99445873 0.98869175 0.99722636
000050 78 f8 7f 3f f3 a9 7f 3f 2d 02 80 3f 6a 6d 7e 3f
       0.9998851 0.99868697 1.0000664 0.993857
000060 4c 08 80 3f da 3e 80 3f 67 28 81 3f d8 f9 7b 3f
       1.0002532 1.0019181 1.0090455 0.98428106
000070 e5 97 7d 3f 3b 51 81 3f 3c 27 81 3f fe c4 80 3f
       0.990599 1.0102915 1.0090098 1.0060117
000080 6a 59 7f 3f b2 76 82 3f fc 38 7e 3f 13 67 82 3f
       0.9974581 1.0192473 0.993057 1.0187706
000090 f8 dd 7f 3f 44 2e 7c 3f e2 18 7f 3f 27 83 7c 3f
       0.9994807 0.98508096 0.99647343 0.9863762
0000a0 9c 4c 7e 3f 7d cd 7c 3f 07 94 7e 3f 26 35 7f 3f
       0.99335647 0.9875105 0.9944462 0.99690473
0000b0 01 8c 7e 3f b1 b0 7c 3f 79 33 7f 3f f2 a8 79 3f
       0.9943238 0.9870711 0.99687916 0.97523415
0000c0 40 8b 80 3f 8c b3 7f 3f 71 c6 7e 3f 09 bf 81 3f
       1.0042496 0.9988334 0.9952155 1.0136424
0000d0 a4 59 81 3f 8b 88 7c 3f 02 54 7e 3f 50 11 82 3f
       1.0105481 0.9864585 0.99346936 1.0161533
0000e0 46 55 80 3f e0 aa 82 3f 77 bc 7d 3f 35 f1 80 3f
       1.0026023 1.0208397 0.991157 1.007361
0000f0 d1 0e 7e 3f 4c 9b 81 3f 62 df 7e 3f b4 07 7f 3f
       0.9924136 1.0125518 0.99559605 0.9962113
000100 b5 b9 80 3f eb 7a 7c 3f 6e 7d 80 3f 36 2a 80 3f
       1.0056673 0.9862506 1.0038278 1.0012882
000110 b5 8a 7d 3f de 18 7e 3f da 23 82 3f ad 09 81 3f
       0.99039775 0.99256694 1.0167191 1.0081078
000120 2a 68 7d 3f 46 15 7d 3f 01 a1 80 3f d9 da 80 3f
       0.98987067 0.98860586 1.0049134 1.0066787
000130 6b 5c 80 3f ed d0 7e 3f f6 74 7e 3f e1 d7 7d 3f
       1.0028204 0.99537545 0.9939722 0.9915753
000140 34 73 7e 3f 94 82 80 3f c3 6e 7d 3f 70 c4 80 3f
       0.99394536 1.0039849 0.98997134 1.0059948
000150 29 3f 7d 3f 12 03 82 3f ce df 7e 3f 55 0d 80 3f
       0.989245 1.0157187 0.9956025 1.0004069
000160 a7 b5 80 3f ea 05 7e 3f 53 8d 81 3f 91 19 82 3f
       1.0055436 0.99227774 1.0121254 1.0164052
000170 b1 85 7c 3f 8b 87 80 3f 7d 6a 81 3f 87 a8 81 3f
       0.98641497 1.0041364 1.0110623 1.0129555
000180 59 f9 80 3f d7 6e 7f 3f 6b 4c 7e 3f e8 0e 82 3f
       1.0076095 0.99778503 0.99335355 1.0160799
000190 cc 4e 7d 3f 91 74 81 3f 53 71 80 3f 70 81 81 3f
       0.9894836 1.0113698 1.0034584 1.0117626
0001a0 5b e4 7c 3f 99 61 7f 3f 0f aa 7a 3f 3f 3d 80 3f
       0.9878594 0.997583 0.9791574 1.0018691
0001b0 cf 72 81 3f e6 31 81 3f 38 85 80 3f 45 64 7f 3f
       1.0113162 1.0093353 1.0040655 0.99762374
0001c0 63 6e 80 3f e5 aa 81 3f 1b ef 7c 3f 68 dd 7c 3f
       1.0033687 1.0130278 0.98802346 0.9877534
0001d0 24 37 7d 3f 72 4f 7f 3f 6b 2e 81 3f 53 e2 80 3f
       0.9891226 0.997306 1.0092291 1.0069069
0001e0 b9 d5 7e 3f 3f 12 7f 3f 65 6e 80 3f f8 b9 80 3f
       0.99544865 0.99637216 1.003369 1.0056753
0001f0 21 a1 80 3f 9b c8 7f 3f 3a 4b 7f 3f ad 5d 81 3f
       1.0049173 0.99915475 0.9972416 1.0106713

network.1.bias f4 [128]
000000 d5 c4 69 bb 02 56 43 b9 76 6f 56 bc f2 bb 7f 3b
       -0.00356703 -0.0001862869 -0.013088098 0.0039021936
000010 26 b2 5d 3a 0c 33 0d bb ed c8 87 3c e1 c3 89 bb
       0.0008457027 -0.002154532 0.016575301 -0.004204259
000020 db 75 89 3b 71 de b4 bb ed d8 0f 3c 88 e4 18 b9
       0.0041949577 -0.005519681 0.0087797465 -0.00014580984
000030 37 db c0 3b 77 87 06 bc 82 6d 1a 3c de b7 21 bc
       0.0058855074 -0.008211008 0.009425523 -0.0098704975
000040 bf 2b 17 3c 50 f7 68 b9 4a 7a 3f bc 3e a3 c9 b9
       0.0092267385 -0.00022217375 -0.011686871 -0.00038459332
000050 d2 e0 52 b9 de 0e 76 bc 75 34 e6 3a 5d 0a 9e bc
       -0.00020110913 -0.015018193 0.0017563241 -0.019292051
000060 d8 16 61 bc ae b4 5f bb 1a 3a d2 3b 1f 00 be bb
       -0.0137383565 -0.0034134793 0.0064156177 -0.0057983543
000070 d8 6a af bc 7f ee a3 3b b2 ea 17 3c c2 8d 47 3b
       -0.021413252 0.005002796 0.009272264 0.0030449484
000080 ed c5 b9 bb 85 ee 0d 3c b0 87 cc bb bb ac 9f 3c
       -0.0056693465 0.0086628245 -0.006241761 0.019491544
000090 77 de eb 3b 96 e1 e7 bb 52 e9 0f bc 02 8a ee bb
       0.0071981507 -0.0070764525 -0.008783655 -0.0072796354
0000a0 37 37 6a bb 48 0e 7a bc 5b 3f 1c bc 47 54 f9 3b
       -0.0035738477 -0.015262194 -0.0095365895 0.0076089236
0000b0 5a ed a2 3a 53 29 1b bc 13 00 83 3c 22 e1 8f bc
       0.0012430355 -0.009470302 0.015991246 -0.017563406
0000c0 c5 4e 14 3a 9d 8a c3 bb af 41 09 3c e7 60 60 3b
       0.00056574895 -0.0059674517 0.008377477 0.0034237446
0000d0 d8 e4 1e 3c 76 fc 83 bc 2d d9 4b bb 14 a9 96 3c
       0.009698115 -0.016111594 -0.0031104789 0.01839117
0000e0 5a ac 1c b8 0b 6e bd 3c 7c cd 41 bc 23 56 9a 3c
       -3.7353813e-05 0.023123762 -0.011828776 0.018839901
0000f0 a1 d0 86 bb 63 30 54 ba 9b 2c 28 3c 1c 95 a8 ba
       -0.004114226 -0.00080943684 0.010264541 -0.0012861821
000100 28 08 e5 3b 62 b3 ae bc 88 59 a0 3b 54 0c 61 3c
       0.0069894977 -0.02132577 0.0048934855 0.013735849
000110 91 0b b7 bc 57 9a d8 bb 2b 18 04 3c a9 59 41 3b
       -0.022344382 -0.0066101956 0.008062403 0.0029502905
000120 f2 a3 4e 3c f9 e2 42 bb 03 47 29 3b 4c 93 1e 3c
       0.01261233 -0.0029737337 0.002582968 0.009678673
000130 9b 91 8b 3c ce 90 cb bb cd 77 89 bb 18 67 ff bb
       0.017037204 -0.0062123304 -0.0041951896 -0.007794272
000140 eb b1 44 bc 42 a5 24 bc a2 ac a9 3b 74 2e 03 3c
       -0.01200531 -0.010049166 0.00517805 0.008006681
000150 b9 f2 26 ba 02 a6 97 3c 4e 61 e7 bc de 01 65 bb
       -0.0006368566 0.018511776 -0.02824464 -0.003494374
000160 21 36 a4 3a 95 a0 87 3b f8 10 6a 3c d5 4b 6b 3b
       0.0012528339 0.004139016 0.014286272 0.0035903354
000170 b2 48 35 bc 23 5f 34 3c 74 63 9e 3c 7d 1c 20 ba
       -0.011064695 0.0110090105 0.019334532 -0.0006107761
000180 1e b6 e6 3b b4 e4 61 bc ff eb 3a bc 05 e6 9b 3a
       0.007040753 -0.013787437 -0.011408805 0.0011894113
000190 75 b6 aa bc 17 51 91 3b ca 6b b1 ba e2 e2 12 3c
       -0.020838955 0.0044347155 -0.0013536152 0.008965226
0001a0 fe 0f 9e bb 25 36 dd ba 73 9d 70 bc 1f be 2a bc
       -0.0048236838 -0.0016877098 -0.014685976 -0.010421305
0001b0 ee e2 e5 3b 46 7f 23 3c 5b 71 62 bb d7 3a 2e 3b
       0.0070155775 0.009979075 -0.0034552428 0.0026585364
0001c0 95 8d d7 3b 8d 0c 79 3c bd bc ac 3b 94 4f a6 bc
       0.006578157 0.015200746 0.005271523 -0.020301618
0001d0 77 e2 74 3b 04 5d bc 3b 16 8b ec 3b b5 f3 82 3c
       0.003736643 0.005748393 0.007218729 0.01598535
0001e0 14 66 19 3c c9 f8 0e bb f9 80 e9 3a bc 11 83 bb
       0.009362716 -0.0021815768 0.0017814926 -0.003999917
0001f0 ea 38 c2 3b 47 cc 9b ba 78 b5 86 bb 1c 9d 80 3c
       0.005927195 -0.0011886441 -0.004110988 0.015699916

network.1.running_mean f4 [128]
000000 4a b8 77 be 52 e4 fe 3d f8 13 a4 3d 7c 60 80 3e
       -0.24191394 0.124458924 0.08011621 0.25073612
000010 80 5a be 3d f6 69 16 3e 6d 4f 45 be c3 2c 60 3e
       0.09294605 0.14688858 -0.1926858 0.21892075
000020 83 a7 7d be c2 8f 21 be be ba 32 bd 09 d6 3a 3e
       -0.24770932 -0.15777496 -0.043635122 0.1824571
000030 a1 cb 81 3e aa 31 47 be a7 85 7b be f1 2e 0d 3d
       0.2535067 -0.19452539 -0.24562703 0.034468595
000040 a0 c5 14 3e 7e 26 2b 3e 98 e3 e6 3d 24 34 b8 bd
       0.14528513 0.16713902 0.11273879 -0.0899432
000050 89 97 94 be b6 12 30 be ba 65 16 3c 62 df 80 3e
       -0.29021862 -0.17194638 0.009179527 0.25170428
000060 38 4d 42 3d 0e b2 7c 3e 9d 53 e1 3c e7 56 6b be
       0.047436923 0.24677297 0.02750569 -0.2298237
000070 34 7d 50 3e ac f3 31 3c 4e e3 67 be 0a 4a 3c be
       0.20360261 0.010861319 -0.22645304 -0.18387619
000080 dd 77 1b be 32 44 99 bc c1 ab 66 be bd e4 14 bd
       -0.15182443 -0.018709276 -0.22526456 -0.036350954
000090 88 a8 be 3d 56 00 29 3e 44 e3 ba 3d 7c aa c7 3d
       0.093094885 0.16504034 0.09125379 0.09749314
0000a0 ec 8b a2 3d 60 46 15 3d 47 0e 92 3e a3 aa 7f be
       0.07936844 0.036444068 0.28526518 -0.24967436
0000b0 86 12 65 3e fe ed 66 3e aa 09 32 3e 92 43 36 bd
       0.22370347 0.22551724 0.17386499 -0.044498034
0000c0 6a 4d f9 bd 2c c9 7a 3e 67 dd 95 be 1e 68 8c 3e
       -0.12172969 0.24490803 -0.2927048 0.27423185
0000d0 f8 ca 7f bd 50 35 3a 3e 63 50 aa 3c e8 8d 27 be
       -0.062449425 0.181844 0.020790284 -0.16362727
0000e0 5f 0a ad 3d ec b6 0d bc f4 01 95 3d fa 2e 47 3e
       0.08449244 -0.008649569 0.07275763 0.19451514
0000f0 e8 9b 87 3d 4a b4 83 be 1e 69 d1 3d cd 79 fb bd
       0.06621534 -0.25723487 0.10225128 -0.12279091
000100 2d 13 36 be 18 05 cc bb c8 c3 a5 3e 04 19 31 bd
       -0.17780752 -0.006226193 0.32375932 -0.043236747
000110 ac 11 e4 bd 7c 3e de bd f8 b2 e1 3c 11 e7 84 3e
       -0.11136183 -0.10851762 0.02755116 0.2595754
000120 f3 d8 81 3e 68 36 0e be 3d 8d 57 3e 24 94 41 be
       0.25360832 -0.13887942 0.21049972 -0.18904167
000130 9c 64 14 3d e6 ce 73 bd 50 9e 3d 3e 77 ff 46 3d
       0.03622876 -0.059523486 0.18517423 0.048583474
000140 45 11 16 be 9f c9 95 3e 35 e5 55 3d 94 bb 66 3e
       -0.14655025 0.29255387 0.052220542 0.22532493
000150 34 af f9 3c 2c b0 18 3e 57 fa 2d 3e f9 f3 25 3e
       0.030479051 0.14910954 0.16990028 0.1620635
000160 4c 37 c4 3d 68 15 8f 3e 1e 5d 34 3e a3 41 7e be
       0.095808595 0.2794602 0.17613646 -0.24829726
000170 d4 d7 a2 3d 62 88 d4 bd cb 9a 24 be 3b 61 fc bd
       0.07951322 -0.103775755 -0.16074674 -0.12323233
000180 95 ce 59 be 61 48 d1 3d d2 51 54 be 83 8e 7f be
       -0.21270211 0.10218883 -0.20734337 -0.24956708
000190 4a e1 3e be 6c 9c a9 3e 9e bc 6f 3d c7 71 35 3d
       -0.18640628 0.33127153 0.05852949 0.04429796
0001a0 eb 10 68 be 93 e5 96 be 69 e2 f8 bd 17 6a 8b be
       -0.22662704 -0.29472026 -0.12152559 -0.27229378
0001b0 b2 bc 0d 3e d2 56 45 be 1e c9 75 3e 99 46 a7 be
       0.13841513 -0.192714 0.24002501 -0.3267105
0001c0 fe ad cf bd 30 89 81 3e 05 72 29 3d 61 37 47 3d
       -0.10140608 0.25299978 0.041368503 0.048636798
0001d0 9f 6d 1a be ce d7 15 3e c0 f2 9a bc 26 53 05 3e
       -0.1508088 0.14633104 -0.01891458 0.1302
0001e0 4a 49 c9 3d 92 63 1b be 70 f3 60 bd 2e ff 44 3e
       0.09828432 -0.15174702 -0.05491966 0.19237968
0001f0 36 71 77 be d2 e7 01 be 95 4a 04 be 8a 57 ee bd
       -0.2416428 -0.12686089 -0.12919076 -0.116377905

network.1.running_var f4 [128]
000000 07 85 d1 3e 1f 5f 95 3e 2e 26 dc 3e 1c b1 bb 3e
       0.40921804 0.29174134 0.4299788 0.3665856
000010 36 75 2a 3f bf 32 37 3e 0d 49 8d 3d 3c 11 24 3e
       0.665851 0.17890452 0.06898699 0.160222
000020 70 2b a1 3e 73 f8 20 3e 60 f0 09 3e 13 c6 e3 3d
       0.31478453 0.15719776 0.13470602 0.11121764
000030 e4 4f 7f 3e 81 fc 3f 3e 29 42 4b 3e f9 c0 63 3f
       0.2493282 0.18748666 0.19849457 0.8896633
000040 73 57 96 3e 91 f0 97 3e 7b 7c b2 3e 57 0c 76 3e
       0.29363593 0.29675725 0.34860596 0.24028145
000050 4a 52 c5 3e 10 79 6f 3e 42 02 85 3e 37 0d 81 3d
       0.38539344 0.23386025 0.25978285 0.06301349
000060 9f 1c 5a 3e 0a 3e 1a 3e c5 4e 0e 3e 13 8c 48 3e
       0.2129998 0.15062729 0.13897236 0.19584684
000070 89 10 10 3f 59 2f 68 3e 26 6a a0 3e ed ca 27 3e
       0.5627523 0.22674312 0.31330985 0.16386004
000080 a4 61 58 3e 38 37 60 3e 78 3c 89 3e 77 55 80 3f
       0.21130997 0.21896064 0.26803946 1.0026082
000090 18 11 a6 3e cb 2c 75 3e d6 a0 0d 3e 5f fc 9a 3e
       0.32434916 0.23942868 0.13830885 0.3027067
0000a0 a7 33 84 3e 96 17 3d 3e 74 9d dc 3d 3e e3 15 3e
       0.25820658 0.18466029 0.10772219 0.14637467
0000b0 84 a0 e6 3e 9c 2d 3a 3f 34 78 b5 3e 9e ef 98 3f
       0.4504434 0.72725844 0.3544327 1.1948125
0000c0 e6 d8 d4 3e 11 0b 9f 3e b7 1e f4 3e 97 7a 53 3e
       0.4157173 0.3106313 0.47679684 0.20652233
0000d0 ae 3c 93 3e 8e bc c1 3e d4 92 04 3f bf 63 67 3e
       0.28757232 0.37839168 0.5178654 0.22596644
0000e0 c9 0c 91 3f 4a ed f8 3e 40 59 81 3e e6 09 3b 3f
       1.1332027 0.48618537 0.25263405 0.7306198
0000f0 39 fb 00 3e c9 1f 20 3f 95 60 15 3e b8 23 0d 3e
       0.12595834 0.625485 0.14587624 0.13783157
000100 ca 54 b4 3e f3 11 17 3f 14 59 0e 3f 73 62 46 3e
       0.3522094 0.59011763 0.5560467 0.19373493
000110 a0 41 2d 3e 3a 8c 37 3e 50 c9 02 3e 2e ff 34 3e
       0.16919565 0.17924586 0.12772107 0.17675468
000120 7d a9 33 3e 3a da 92 3e 2e f9 06 3f 91 e9 80 3e
       0.17545123 0.2868212 0.5272397 0.25178197
000130 b7 de 19 3e f6 28 70 3e 79 1b 8c 3e 17 60 0a 3f
       0.15026365 0.23453125 0.2736471 0.5405287
000140 c9 79 91 3e f3 16 a6 3e 52 5b 1b 3e 07 d2 5d 3e
       0.28413227 0.32439384 0.15171555 0.2166215
000150 8c 78 f6 3e ac 9a cc 3e 27 a5 ce 3e ce ba 8c 3e
       0.48138845 0.39961755 0.40360376 0.2748627
000160 04 a6 36 3e b7 0f 3a 3e b1 11 57 3e 81 63 b2 3e
       0.17836767 0.18170057 0.21002842 0.3484154
000170 18 3c fd 3e 9e 9e 15 3e 80 d2 96 3e 21 0d 89 3e
       0.4945991 0.14611289 0.29457474 0.2676783
000180 9d 2d 44 3e 75 fa 63 3e 50 c0 a2 3e 23 12 8b 3e
       0.19158025 0.2226351 0.31787348 0.27162275
000190 f3 9c 61 3e 6c 96 6c 3f 62 2b 6c 3e 95 76 23 3f
       0.22032528 0.92417026 0.23063424 0.63852817
0001a0 77 47 2e 3e 90 11 2c 3e b5 22 8e 3e 3a cb 27 3e
       0.17019449 0.16803575 0.27760854 0.16386119
0001b0 e7 cd 84 3e fc 49 f8 3e 45 6d 15 3e 42 aa 9d 3e
       0.2593834 0.48493946 0.14592464 0.3079396
0001c0 c2 d6 00 3f f9 01 bb 3e 25 ec 33 3e 40 ef 24 3e
       0.50327694 0.36524943 0.1757055 0.16106892
0001d0 6b 66 09 3e d5 24 89 3e cd 13 2c 3e d9 05 af 3e
       0.13417976 0.26785913 0.16804428 0.3418415
0001e0 15 6e fa 3e 52 b6 b0 3e ed 0b 82 3e 0a 2e 84 3e
       0.4891211 0.345141 0.25399724 0.25816375
0001f0 4f 2d 96 3e dd c0 09 3e 0f 84 35 3e 2a 01 58 3e
       0.29331443 0.13452478 0.17726158 0.21094194

network.4.weight f4 [64, 128]
000000 3a 99 5b 3d a6 18 b6 bd fe 34 71 3c 96 b3 3a 3d
       0.053612925 -0.0889142 0.014722107 0.045581423
000010 73 88 4b bd 84 50 18 bb 6e a8 88 3d d5 eb 06 3c
       -0.049690675 -0.002324135 0.066727504 0.008234938
000020 6c cd 90 3d 38 69 5d bd 21 b4 23 bd 90 96 68 bd
       0.07070431 -0.054055423 -0.039966706 -0.056784213
000030 17 cf a6 3c 65 2d a1 bd 17 e9 fd 3c f7 d6 53 bd
       0.02036242 -0.078699864 0.030994935 -0.05171868
000040 5a 77 49 3d 68 01 c7 bc ff fd a3 3d 50 28 6a 3d
       0.04918609 -0.024292663 0.0800743 0.05716735
000050 d8 29 a6 3d 05 d8 0e bb e0 15 94 3d 2d 4b e5 3c
       0.0811345 -0.0021796238 0.07230735 0.027989948
000060 2e b9 63 bb 26 45 4f 3c ea 1e 1a 3d a4 3b 86 3d
       -0.0034747827 0.012650764 0.03762714 0.06554344
000070 46 7f a5 bd b8 ce 9a 3d 0a ab a9 3d b5 f0 b4 bd
       -0.08080916 0.0755896 0.08284576 -0.08834974
000080 34 cb 30 bc fc 78 5e bd 27 06 91 bd 77 c0 8b 3c
       -0.010790635 -0.0543146 -0.070812516 0.017059548
000090 72 64 9f bc b8 9f 9c 3d a8 67 e0 3c b1 2e 50 bd
       -0.019457076 0.076476514 0.027393177 -0.05082578
0000a0 ab 52 a1 bd 77 35 5e 3d bd ab a5 bd 4a eb ac 3d
       -0.07877096 0.054250207 -0.08089397 0.08443315
0000b0 c6 95 80 bd 04 93 37 3d 63 5c 68 3d 94 85 8a 3d
       -0.06278567 0.04481794 0.05672873 0.06763759
0000c0 9e c6 4f 3d 52 1c 88 3d d6 e1 94 3d 64 64 09 bd
       0.050726525 0.06646027 0.07269637 -0.033543006
0000d0 ab e7 f2 3c 0e a3 9c 3d 73 af 1d bd b4 28 49 3d
       0.029651484 0.07648288 -0.0384974 0.049111083
0000e0 29 a1 6a bd f0 81 ec 3d f8 cb 8b 3c 56 2b fc bb
       -0.0572826 0.11548221 0.017065033 -0.0076955957
0000f0 16 19 92 3d 41 4d b2 3c f4 8e 3c bb 8f 4e 8c bd
       0.07133691 0.021765353 -0.002877173 -0.06850921
000100 0b 15 14 bb 02 6f 92 3d 25 ce 9c 3c 06 3a 76 3c
       -0.002259555 0.07150079 0.019141266 0.015028482
000110 b2 e7 03 bd de 00 e5 bb 31 45 78 bd 16 d5 30 3d
       -0.032203384 -0.006988629 -0.06061286 0.043171965
000120 3a 50 93 bc e0 bc d5 3c 78 8d 90 bc 4b 62 1a 3d
       -0.017982591 0.02609104 -0.017645583 0.037691396
000130 12 21 0a 3d 90 00 7b bd 04 23 3a 3d 97 fc bb 3d
       0.033722945 -0.061279833 0.04544355 0.09179037
000140 cd da 3b 3d a8 78 83 3c ae 67 fb bc 12 6c b7 bd
       0.04586296 0.016048744 -0.030689087 -0.0895616
000150 2e 38 51 3d 65 77 16 bd b1 b1 5f bd 42 12 34 bc
       0.051078968 -0.036734957 -0.05461282 -0.010990681
000160 df b4 1a 3d 07 f0 90 bd 3e 50 0b 3d aa 91 6b bd
       0.03777015 -0.070770316 0.03401207 -0.057511963
000170 32 d0 a6 bd dc ee 04 3d c1 12 c0 bd d0 fb cb bb
       -0.08145179 0.032454357 -0.09378577 -0.0062250867
000180 a7 41 93 3d 23 6f 5e 3d 91 0d 87 bc eb 6d 7a 3c
       0.071902566 0.054305207 -0.016485961 0.015284996
000190 3e 8a 8d 3d 96 39 ab 3c 2d 79 a2 3d ac cf 54 bc
       0.06911133 0.020901483 0.07933269 -0.012988966
0001a0 fb 80 7b 3d 97 50 f8 bc d0 b2 18 bc 8c ff 9a bd
       0.061402302 -0.030311866 -0.009319976 -0.07568273
0001b0 e3 d6 45 bd 36 21 14 bd ca fa 88 3d 8a f6 4b 3d
       -0.048300635 -0.036164485 0.06688459 0.049795665
0001c0 23 15 6a 3d f2 46 f7 3b fc b4 14 bd 4f 91 8e 3d
       0.057149064 0.007546299 -0.036305413 0.06961309
0001d0 18 d3 10 3d 12 ee 8f 3d 17 28 86 bb 2e 77 f8 3c
       0.035357565 0.0702783 -0.0040941346 0.030330267
0001e0 b7 bf b0 3c c3 fd 9c 3c 1b 20 8f 3d a5 c0 04 3d
       0.021575792 0.019163972 0.069885455 0.032410283
0001f0 6a 4d a8 3d d3 a2 44 3d 51 e2 62 3d 53 45 fa 3c
       0.082178906 0.048006844 0.055391613 0.030550634
000200 db 4f af 3c 46 24 d4 3c 51 38 a1 3d 1f 61 18 bd
       0.021400383 0.025896203 0.078720696 -0.037201997
000210 b8 19 9a bd bf 6b 8a bd 1b fe 29 bd 48 7c 6e bd
       -0.07524437 -0.06758832 -0.0415021 -0.058223993
000220 f3 ad 8f 3d 9b 49 32 3b 28 35 34 bd 6e 3b ac bc
       0.070156 0.0027204517 -0.043996006 -0.021024432
000230 57 d6 81 3c da 3c 0b bd 9e bc 77 bd 8d cf 14 3d
       0.015849276 -0.03399358 -0.060482614 0.03633075
000240 fd a9 8f 3d be a6 28 bd c8 bd f0 3c 2d e0 5c bd
       0.070148446 -0.041174643 0.02938737 -0.05392473
000250 ec ea b8 3c 30 15 14 3d 20 73 13 ba 8f 72 a6 3d
       0.022572957 0.03615302 -0.000562476 0.08127319
000260 61 77 b4 3d e4 ba 8e 3d 27 f9 b2 bd 37 18 33 bb
       0.08811832 0.0696924 -0.08738928 -0.0027327666
000270 37 93 30 bd 53 7f 08 bd 63 b1 ae bd 45 9b 92 3d
       -0.043109145 -0.03332455 -0.085299276 0.071585216
000280 77 1d 80 bd f1 46 98 3b 00 e3 9b 3d f8 e9 d1 bb
       -0.0625562 0.0046471287 0.07611656 -0.006406065
000290 b5 8f c6 3d 4b 4f a3 3b 54 62 3b 3d 9b 06 87 bd
       0.09695379 0.0049838177 0.04574807 -0.06593057
0002a0 89 07 72 bc 65 8b ed bc 7c d6 4f bd d6 ef 33 3d
       -0.014772304 -0.028997133 -0.050741658 0.043929897
0002b0 11 d1 8f 3d cb 2d a4 3c c4 79 51 bc 01 d8 82 3c
       0.07022298 0.020041367 -0.012785379 0.01597214
0002c0 6a fc 81 3c 5e 56 84 3c fd 15 8d bd 0e 83 b5 bc
       0.01586743 0.016154464 -0.068889596 -0.022157218
0002d0 74 16 ab 3c 7c 34 08 3c 00 68 94 3d f9 c7 38 bd
       0.02088473 0.0083132945 0.07246399 -0.045112584
0002e0 a9 bd 60 3d 6a dc a4 bd c8 99 73 3d ce 1f d8 bc
       0.054868374 -0.08049853 0.05947283 -0.026382353
0002f0 f8 65 7c bd 53 29 bb ba 3a 08 5d bc 7e 9b 31 3d
       -0.061620682 -0.0014279283 -0.013490731 0.04336118
000300 f2 e6 75 3d 93 36 05 bd 37 f8 de 3b 1a 28 41 3d
       0.0600347 -0.03252275 0.006804492 0.047157384
000310 c7 4c 1f bd 61 b8 b7 bc ae d9 f8 3c 35 9b 71 bd
       -0.03889158 -0.022426786 0.030377235 -0.058985908
000320 02 63 33 3d bf 79 65 bd 5a b0 18 3d ff 36 7e bd
       0.043795593 -0.05602431 0.037277557 -0.062064167
000330 56 fd 3f 3b 09 a1 0e 3c e1 f2 a2 bd 67 5a 4e 3d
       0.0029295287 0.008705386 -0.07956482 0.050379183
000340 94 8a f4 3b 16 73 b9 bc 87 40 42 3d 55 4b 8f bd
       0.007462809 -0.022637885 0.04742482 -0.0699679
000350 3b 52 9e 3d 70 52 6f 3d fd cc 5f 3d 8b 23 de 3c
       0.07730528 0.058428228 0.05463885 0.027116558
000360 56 dc 5c 3b d3 ea 4c 3d 7b b8 95 3d 56 0a 82 3c
       0.0033700666 0.050028633 0.073105775 0.01587407
000370 71 d9 90 bd f8 90 28 bd 21 e9 34 3d 34 bb 0c bd
       -0.07072724 -0.041153878 0.04416764 -0.03435822
000380 ea d8 85 3d e1 00 16 bd e5 46 6a 3d 51 2b a8 bd
       0.06535514 -0.036621932 0.057196517 -0.08211387
000390 27 a7 06 bd 5f 45 5f bd 78 6d 37 bb 19 cb 4f bd
       -0.032874253 -0.054509517 -0.0027988832 -0.0507308
0003a0 73 d3 87 3c c8 a2 8d 3d f8 29 b9 bd 34 d9 b2 3d
       0.016580319 0.06915814 -0.09041208 0.087328345
0003b0 43 47 92 3c 91 88 dc bc 1b fd fd bc 02 b0 65 bc
       0.017856246 -0.026920589 -0.03100448 -0.014019014
0003c0 cc 35 38 bd 28 d0 d3 3d 64 99 1e 3d a5 ab e4 bc
       -0.04497318 0.10342437 0.038720503 -0.027913878
0003d0 a8 bb 86 bc 2b 56 2c 3c 8f b5 52 bd f7 5c b6 bd
       -0.016446903 0.010518591 -0.05144268 -0.089044504
0003e0 22 17 31 bc dc b4 b7 bd f2 28 7b bc 81 24 4e bd
       -0.010808738 -0.08970043 -0.015329586 -0.05032778
0003f0 d6 bb 4b bc 69 7f be bc 85 eb 98 bd e2 21 33 bd
       -0.01243492 -0.023254113 -0.07466797 -0.043733485

network.4.bias f4 [64]
000000 53 cb 71 3d 07 0a 85 3d 0e a8 14 bd c0 1c 1f 3d
       0.059031796 0.06496053 -0.036293082 0.038845778
000010 42 18 74 3d 9a 79 0e bd f3 8b f9 ba 46 89 de 3b
       0.059593447 -0.034783937 -0.00190389 0.0067912666
000020 a7 58 98 bd 37 70 97 bd 35 bc 47 bd 9b 6b 37 bd
       -0.07438784 -0.0739445 -0.048763473 -0.044780355
000030 b6 f4 5f bc 7f 06 9e 3a 3e 62 66 3d 99 01 27 bd
       -0.0136691835 0.0012056379 0.056246035 -0.040773008
000040 20 d4 98 bd 50 ee 7b bd 3d 37 7b bd 19 f5 2b 3d
       -0.07462335 -0.06150657 -0.061331976 0.04198179
000050 a5 66 de bc d8 d8 29 bd 16 1f 12 3d bb ce b5 bd
       -0.027148554 -0.041466564 0.035674177 -0.08877321
000060 94 b7 57 3d a3 c1 f6 bb 72 49 89 3d ba 2b 0b bd
       0.052665308 -0.0075304075 0.06703462 -0.033977248
000070 6c 3b a7 bd d3 5d ab bd c9 e3 b4 3d 35 9b 38 bb
       -0.08165631 -0.08367505 0.08832509 -0.0028168682
000080 7f d1 af 3b bf eb 09 3b a5 4e 9c 3d a8 9e 89 bd
       0.00536555 0.0021045057 0.07632188 -0.067197144
000090 5d 66 1c 3d 70 31 62 3d ab 2e 97 3c 1b 20 e1 bb
       0.03818356 0.05522293 0.01845487 -0.0068702823
0000a0 ab c9 0a bd 97 fa 1c bd 3e ae a7 3d af e8 28 3d
       -0.03388373 -0.03832492 0.08187531 0.04123753
0000b0 ed 05 98 3d 7e 14 99 3c 88 05 94 bd 2f 55 5a 3c
       0.07423005 0.01868653 -0.072276175 0.013325973
0000c0 6c 89 02 bd 36 8f 73 bd 86 10 8d bc bf 96 19 bc
       -0.031869337 -0.05946275 -0.017219793 -0.00937432
0000d0 4d f0 28 3d 95 37 86 3d e7 8f af bd f2 db 09 3d
       0.041244794 0.0655357 -0.08572369 0.03365702
0000e0 d0 27 6b bd 34 1d a6 3d 35 10 31 bd de 6c 85 bd
       -0.057411015 0.08111039 -0.043228347 -0.065149054
0000f0 f0 92 00 3c 35 45 09 3d 15 bf 63 3d 39 8c b4 3d
       0.007847533 0.033513267 0.055602152 0.08815808

network.5.weight f4 [64]
000000 26 ad 80 3f 30 d6 7e 3f 27 80 7e 3f d4 23 7f 3f
       1.0052841 0.99545574 0.99414295 0.99664044
000010 17 3c 7a 3f 3e 91 7f 3f 66 39 7e 3f 7a db 7d 3f
       0.9774794 0.99830997 0.99306333 0.9916302
000020 55 f4 81 3f 91 6b 84 3f ea 02 80 3f 67 87 7d 3f
       1.0152689 1.0345327 1.0000889 0.9903473
000030 fe ef 81 3f 73 9d 7e 3f 3c 81 82 3f a0 bf 7d 3f
       1.0151365 0.99459 1.0195689 0.9912052
000040 c7 e7 7e 3f 45 6d 7e 3f 86 f8 7e 3f 6c 87 81 3f
       0.99572414 0.9938548 0.99597967 1.0119452
000050 2e 4b 80 3f 77 64 77 3f 8e c8 80 3f 8a a2 7e 3f
       1.0022943 0.9663767 1.0061204 0.99466765
000060 48 65 7f 3f d7 89 80 3f 5c 18 81 3f 67 4f 7d 3f
       0.9976392 1.0042065 1.0085559 0.98949283
000070 32 c7 80 3f 0f 83 82 3f a7 5a 7f 3f 25 4d 80 3f
       1.006079 1.0196246 0.997477 1.0023543
000080 2e a8 81 3f a3 ea 7a 3f 40 15 81 3f 9e c2 7f 3f
       1.0129449 0.9801428 1.008461 0.9990634
000090 15 ea 80 3f 41 58 7d 3f 69 a8 7d 3f 67 6e 81 3f
       1.0071436 0.9896279 0.990851 1.0111817
0000a0 21 f3 7e 3f 2e 80 7a 3f 9d 4c 84 3f e9 ec 7b 3f
       0.99589735 0.97851837 1.033588 0.9840837
0000b0 5e bc 80 3f 71 0a 80 3f b0 fc 7e 3f 7a 15 80 3f
       1.0057485 1.0003186 0.9960432 1.0006554
0000c0 78 e1 7f 3f 5e 74 7a 3f ea 2a 7c 3f ba ba 7e 3f
       0.99953413 0.9783381 0.9850298 0.9950367
0000d0 92 ad 7b 3f 9c e1 83 3f 4d 8a 7e 3f ef b3 7f 3f
       0.9831172 1.0303226 0.9942978 0.9988393
0000e0 59 48 81 3f 91 f3 80 3f fd dc 82 3f cf 81 7f 3f
       1.0100204 1.007433 1.022369 0.9980745
0000f0 0c 82 80 3f 8d 7a 84 3f 4e be 82 3f 11 5e 7b 3f
       1.0039687 1.03499 1.0214326 0.9819041

network.5.bias f4 [64]
000000 62 54 df bb 6a 7d 0d bc 54 0d 8d 3b 5c 89 98 bc
       -0.006815479 -0.008635858 0.0043045674 -0.018620186
000010 bc 6c 9d bb 1c 23 9a ba 0a b9 b0 bc a9 57 c1 bb
       -0.004804222 -0.0011759731 -0.021572609 -0.0059003425
000020 cc ab c1 3b 81 05 96 3c 1e 08 be ba cc ab 84 3b
       0.0059103724 0.018313171 -0.0014498269 0.0040488
000030 74 0e c4 3c 4b c6 a5 bb 84 f7 23 38 b6 b9 06 3b
       0.023932673 -0.0050590388 3.9092745e-05 0.002055747
000040 27 6b f7 3b 3d b8 3f 3c f4 24 9a ba a6 96 2f 3b
       0.0075506154 0.011701641 -0.001176028 0.0026792674
000050 10 0d 41 3c 3c e9 d7 bc ca 66 57 3c fe 5d e8 3b
       0.0117828995 -0.026356332 0.013147065 0.007091283
000060 4d 0b 8f 3c 4d d4 51 3c 00 65 5c ba 4d 7d 41 bc
       0.017461443 0.012806964 -0.0008407384 -0.011809659
000070 fb 00 69 3c ba 3b 4f 3c 8e 46 b3 bc 61 b5 df bb
       0.014221425 0.012648517 -0.021884229 -0.006827042
000080 1e c5 2a 3c 8f 70 69 bc 24 d5 e3 bb 0e b2 ba ba
       0.010422973 -0.0142480275 -0.0069528986 -0.0014243738
000090 5c fc 29 3b 11 40 68 bc c2 13 c4 3b 78 1d 58 bb
       0.0025937771 -0.014175431 0.0059838006 -0.003297655
0000a0 f9 99 11 bc 77 ce e1 bb 3a 18 18 3d c2 e5 7d 3b
       -0.008886808 -0.0068910676 0.03713248 0.0038741683
0000b0 cd 0a cc 3a 4f dd 46 bc d3 a9 7e 3b 5f 76 23 3c
       0.0015567184 -0.012137725 0.0038858547 0.009976952
0000c0 c5 91 7c 3a e4 e2 61 bc 17 9d 97 bb ef 97 4f 3c
       0.00096347585 -0.013787005 -0.004626881 0.012670501
0000d0 f6 ac 35 bc df 12 11 3d a3 75 2c 3c 72 08 00 b8
       -0.0110886 0.035418388 0.010526094 -3.0525443e-05
0000e0 6c c4 3b bc b0 86 2e 3c 34 53 e5 3b 38 cd 93 3b
       -0.011460405 0.010652229 0.006998444 0.004510548
0000f0 07 08 af 3b 7d 0f 99 3c e0 c1 f9 3b cc b1 14 bc
       0.005341533 0.018684143 0.0076219887 -0.009075593

network.5.running_mean f4 [64]
000000 dd 60 24 3f 9d 8d 5a bd f1 ac 2f be 12 20 7b 3d
       0.642103 -0.05335771 -0.17155816 0.06130988
000010 d6 aa 1d bd e8 fe fa 3d 9b cd 11 3e 54 20 12 be
       -0.038493 0.12255651 0.14238589 -0.14270145
000020 9c 37 b9 be 70 f5 1b 3e 55 70 a3 be d3 9b d6 be
       -0.3617524 0.15230346 -0.3192164 -0.4191576
000030 6a d8 82 bc 34 40 95 3d 77 26 f7 be af 2f 49 bd
       -0.015972335 0.072876364 -0.48271534 -0.04911774
000040 fd ef f3 3d f3 e4 48 3d 90 62 c2 b9 8a 98 f0 3d
       0.119110085 0.049046468 -0.00037075998 0.117478445
000050 ad 2e af 3d dc 3c b2 be cf 04 44 3d 1e a3 13 bf
       0.085538246 -0.34812057 0.04785615 -0.5767077
000060 60 bd 37 3e 87 c4 30 3e 61 e0 07 3f e7 a4 9a be
       0.17943335 0.17262469 0.5307675 -0.30203936
000070 2b 96 02 be 17 50 81 3e 76 ff 08 3f f4 2d ba bd
       -0.12752597 0.25256416 0.535148 -0.09090796
000080 82 c0 cc 3e 94 70 58 be 4a c9 48 3e b2 66 8e 3e
       0.39990622 -0.21136695 0.19608036 0.27812725
000090 c2 79 ae be df 42 a3 3e fe ce f6 be ca 54 9b 3e
       -0.3407727 0.31886956 -0.48204798 0.30338126
0000a0 91 62 9a be e5 ff 08 be 75 d4 cc be 70 5d d1 bb
       -0.30153325 -0.13378866 -0.40005842 -0.0063893124
0000b0 a3 0e e1 3e 5e 19 18 be c5 7f 84 bd fc f8 0c bf
       0.4395648 -0.14853427 -0.064696826 -0.5506742
0000c0 e9 fb e9 be c9 00 ad bc 48 54 5e 3e fe 91 85 3e
       -0.45700005 -0.021118538 0.21711838 0.26087946
0000d0 bb 40 dd bd 65 66 96 bd f2 ea 00 3d 44 1b 55 3d
       -0.10803362 -0.07343749 0.03147406 0.052027956
0000e0 1e 30 34 bd 9b c6 fe 3e 73 a3 dd 3d bf 84 19 3e
       -0.0439912 0.497609 0.10822191 0.14992045
0000f0 79 5b ef 3d 6e 9f 5d 3e e7 c6 3c 3e 4d 15 69 3d
       0.11687369 0.21642849 0.1843525 0.05690508

network.5.running_var f4 [64]
000000 78 45 bc 3e 9c e0 3b 3e f1 85 26 3e 2e b1 33 3e
       0.3677175 0.183474 0.16262032 0.17548057
000010 ae 30 8b 3e 0c 23 45 3e 26 ea 17 3f 30 90 5c 3e
       0.27185577 0.1925165 0.5934166 0.21539378
000020 66 b0 24 3e 4e 7b 9a 3e df 20 b0 3e 41 df 66 3e
       0.16082916 0.301722 0.3440008 0.22546102
000030 d5 39 55 3e 62 8d 47 3e 13 f0 a7 3e e7 1b 8c 3e
       0.20822842 0.19487527 0.3280035 0.27365038
000040 e5 06 8d 3e 38 ac 03 3e b7 81 8b 3e 78 b4 01 3f
       0.27544323 0.12858665 0.27247402 0.50666
000050 89 ce a4 3e 99 fe 04 3f 0f 57 5a 3e 48 85 5f 3e
       0.32188824 0.51950985 0.21322273 0.21828187
000060 39 ec e7 3e c2 e0 55 3e 10 23 6f 3e 0a 92 62 3e
       0.4529741 0.2088652 0.23353219 0.22126022
000070 e1 82 8b 3e 99 02 da 3e 12 b9 91 3e d5 42 6b 3e
       0.2724829 0.42580107 0.2846151 0.22974713
000080 eb cc 27 3e 59 c4 3c 3e c9 83 03 3e c2 31 0e 3e
       0.16386764 0.18434276 0.12843241 0.13886169
000090 fa a5 33 3e 51 0b 33 3e 9f 34 94 3e ef 26 0e 3e
       0.17543784 0.17484786 0.28946397 0.1388204
0000a0 99 19 72 3e 0d 14 2c 3e fd 97 0e 3f ce 44 94 3e
       0.23642577 0.16804524 0.55700666 0.28958744
0000b0 47 21 2b 3e cc 30 a2 3e cc b8 2a 3e 34 0f a2 3e
       0.16711913 0.31677854 0.16672057 0.31652224
0000c0 33 e6 4d 3e cb 4b 8f 3e f7 93 83 3e f5 b7 22 3e
       0.20107345 0.27987513 0.25698826 0.15890487
0000d0 7d a1 60 3e 57 12 c6 3e 0d dd 6d 3e b1 b8 bc 3e
       0.21936603 0.38685867 0.23228855 0.36859658
0000e0 54 ab 64 3e 35 13 3e 3e 45 58 72 3e a5 8c 47 3e
       0.22330981 0.18562014 0.23666485 0.19487245
0000f0 9a 3c 25 3e 9f 17 99 3e e2 cc df 3e 3c 2d 45 3e
       0.16136399 0.29900834 0.43711 0.19255537

network.8.weight f4 [32, 64]
000000 09 cd 81 3d d6 06 d6 3c 1c 40 18 3d 21 33 9f bd
       0.063379355 0.026126307 0.037170514 -0.07773424
000010 bd e0 6b 3d 99 fc 0e be c5 04 d2 bd 53 1d 68 bd
       0.057587374 -0.13963546 -0.10254816 -0.05666859
000020 a1 c1 84 bd 1f 95 b8 bd 33 78 6f bc 4a 7f 70 3d
       -0.06482244 -0.090128176 -0.01461606 0.058715142
000030 63 eb c8 bd 43 f5 62 3a bc d5 10 3e fc f4 5d bd
       -0.098105215 0.00086577627 0.14144033 -0.054188713
000040 0d 2b 1c bd e8 29 f7 bd 85 bc 83 3d 26 75 b5 bd
       -0.038126994 -0.1206854 0.064324416 -0.08860235
000050 1a a2 d7 bd 48 17 f1 bc eb 75 7e bd 49 4c da 3d
       -0.10528965 -0.029430047 -0.062124174 0.106590815
000060 93 2e 17 bd 67 92 e2 bd d1 68 09 3c de f3 7c 3d
       -0.03690965 -0.1106308 0.008386807 0.061756007
000070 ef 47 be 3d 7f 68 e7 bd 92 51 53 bd e5 d3 12 bd
       0.09291064 -0.11299228 -0.051591463 -0.03584661
000080 5f 75 81 bd 0d cd 73 3d 9d cd 3a bd 99 b0 5e bd
       -0.06321215 0.059521724 -0.045606244 -0.054367635
000090 fd b3 2f 3d 49 7b 8e 3d 4b 70 aa 3d 2d b6 30 bd
       0.04289626 0.069571085 0.083221994 -0.043142486
0000a0 76 04 aa bd e5 d5 3d 3b 1e 3c 9c 3c 87 6e de 3d
       -0.08301632 0.0028966602 0.019071635 0.10860925
0000b0 35 72 08 bd 59 c2 e5 3c 92 bd a3 3d 23 68 31 3d
       -0.03331204 0.028046774 0.07995142 0.043312203
0000c0 e6 bb 3f 3d e8 1f 83 3d d6 0e fd 3c 03 f3 f2 bd
       0.046810053 0.0640257 0.030890863 -0.11862757
0000d0 28 77 0a 3d b6 79 f7 bd 4c a8 b1 3d 19 9f 50 3d
       0.033805043 -0.120837614 0.08674678 0.050932977
0000e0 c1 3f d5 bd db 06 e3 bd 6c 91 ae bd a9 e2 62 bd
       -0.10412551 -0.11085292 -0.08523831 -0.05539194
0000f0 0a da dc 3c bb 3e 36 bd d4 b2 e8 bd 39 58 3a 3d
       0.026959438 -0.04449342 -0.11362234 0.045494292
000100 24 61 6a 3c 63 9b 84 bc d2 53 ca 3d f5 b3 8c 3d
       0.014305387 -0.016187375 0.09879269 0.068702616
000110 9d b8 a0 3d 22 45 ec 3d fa ce d5 bc 98 6f ea bc
       0.07847712 0.115366235 -0.02609967 -0.028617665
000120 00 f2 bb 3d 56 a9 99 3d 3a d9 0f 3c 64 83 31 3d
       0.09177017 0.075030014 0.008779818 0.043338194
000130 b8 53 08 bd 1b 2c d2 3d 59 36 6c bd 5d 86 d0 3d
       -0.033282965 0.10262319 -0.057669017 0.10181878
000140 8d a2 34 3d 16 90 05 3d ed 64 4a 3b 76 cf ef bc
       0.044100333 0.032608114 0.003088291 -0.02927373
000150 4a f9 6c 3d d1 79 d2 3d 59 81 a4 3d 46 69 ce 3c
       0.057854928 0.10277141 0.080324836 0.025196683
000160 b4 78 e8 3d 17 63 d2 bd 55 89 a1 bd 59 10 2a 3c
       0.11351147 -0.10272806 -0.07887522 0.010379874
000170 98 16 a2 bd bf a4 bf bd dd 59 f1 3d ac 2e 7b 3d
       -0.07914466 -0.09357595 0.11784718 0.061323807
000180 99 51 03 bc 29 9a 91 3d 12 13 35 bd 0b ad a3 bc
       -0.00801506 0.07109482 -0.04420764 -0.019979974
000190 fa 5b bb 3d 4b e0 1b 3d bf 9d 60 3d 6d 21 95 3d
       0.091484025 0.0380557 0.05483794 0.07281766
0001a0 a0 ae fa bc b4 b6 e2 3d c2 c0 e7 bd b8 18 6e 3d
       -0.030600846 0.11070004 -0.113160625 0.058129042
0001b0 2b e6 dd bb 32 98 03 bd 99 13 9e 3d 74 de ff bd
       -0.006771823 -0.032127567 0.07718582 -0.124936014
0001c0 11 f6 56 3d 20 45 9b bc de 85 d7 3c 12 de b2 3d
       0.05248076 -0.01895386 0.02630895 0.08733763
0001d0 00 96 43 3d 43 82 c4 3d 7f b8 d8 bd 35 75 95 bc
       0.047750473 0.09595158 -0.10582065 -0.018244365
0001e0 5d 5e 94 bd 2d 48 ae bd ec 5b 1d bd 67 99 c4 bd
       -0.07244561 -0.0850986 -0.03841774 -0.09599572
0001f0 79 3f 86 3d 40 3c 65 3b 0b 25 15 bd 08 65 9e bd
       0.06555075 0.0034978539 -0.03641228 -0.07734114
000200 96 de 23 3d 0c 48 4f 3d ab 66 28 bd cc 98 e5 3d
       0.040007196 0.05060582 -0.041113537 0.11210784
000210 a2 3c b1 3c 44 b7 16 bd 21 2e b3 3d 2a ab 2e bd
       0.021635357 -0.03679587 0.08749033 -0.042643704
000220 32 b8 71 3d 7e 81 63 bd 46 a5 bf 3d 22 b2 c3 3d
       0.059013553 -0.055543415 0.09357695 0.095554605
000230 54 71 95 bd 82 ae db bb 82 81 ec bc 21 1e 9a 3d
       -0.07297006 -0.0067041526 -0.028870348 0.07525278
000240 72 81 fd bc e4 79 f3 bd 9b 4e ab 3d 02 b1 cf bd
       -0.030945513 -0.11888483 0.08364602 -0.101411834
000250 6d 8b 90 3d 01 ce c2 bd a5 a3 6d bd 5d 6c 0c be
       0.07057843 -0.095119484 -0.05801739 -0.13713212
000260 86 44 0b be 84 3d e4 3c fc f7 09 be 09 f3 96 bc
       -0.13600358 0.027861364 -0.13473505 -0.018426435
000270 64 3e 07 be 1b 67 a7 3c ac 32 54 3d c0 a9 8d 3c
       -0.13207394 0.020434907 0.051806137 0.017292857
000280 6f 22 4d bd 55 cb 55 3d 31 63 7f bc 0e 8e ed bd
       -0.050081667 0.052195866 -0.015587614 -0.115993604
000290 b7 78 e7 bd 28 a3 d3 3d df b4 e7 3d 88 1c d3 3d
       -0.113023214 0.10333854 0.11313795 0.10308176
0002a0 e9 ad f1 3d 2c 9b cf 3d f1 02 f6 bd 40 ac 72 3d
       0.11800749 0.101370186 -0.1201228 0.0592463
0002b0 eb e2 f5 3d b2 4d 81 bd c1 e7 19 3e c1 23 49 3d
       0.12006172 -0.06313647 0.15029813 0.049106363
0002c0 4a a8 de bd 9e 08 78 bc c2 92 d7 bd 50 27 32 3d
       -0.10871942 -0.015138773 -0.10526039 0.043494523
0002d0 05 78 b6 bd b3 74 5f bd 29 60 5a bd 71 5c c4 bd
       -0.08909611 -0.054554652 -0.05331436 -0.09587944
0002e0 78 10 59 bd c3 c7 44 bc 88 fb d8 bd 68 51 ea bd
       -0.05299422 -0.0120105175 -0.10594851 -0.11441308
0002f0 98 82 d8 3d c7 6f ba bd 7a 70 23 3d db 86 be 3d
       0.10571784 -0.09103351 0.039902188 0.093030654
000300 33 51 9b bb 51 5d 0f 3e 92 ce 07 bd 3f a4 2c 3c
       -0.0047399043 0.14000441 -0.033155985 0.010537206
000310 33 a4 e8 bc 8b 17 a4 3d 2d bf 73 3d d8 44 9e bd
       -0.028398609 0.08012303 0.05950849 -0.07727975
000320 7f 64 07 be ba 13 25 bd 77 5e 85 3d f4 8d 52 bd
       -0.1322193 -0.040302016 0.06512158 -0.05140491
000330 07 c0 d1 bd 37 ef e7 bd d9 96 95 bd 0a e9 c3 3c
       -0.102417044 -0.113249235 -0.073041625 0.023914833
000340 e0 e4 8c 3c 18 2f c9 bd 6a a8 b9 3d 17 0f b7 3c
       0.01719898 -0.098234355 0.090653256 0.022346063
000350 fa 8a 4f bd c4 2c ba bb 08 1d 8f bd 0b 46 a8 3d
       -0.050669648 -0.005681606 -0.06987959 0.08216485
000360 36 12 62 bd 2f 88 ad bd 75 13 bf 3c 1f 6d 2d 3a
       -0.05519315 -0.084732406 0.023324708 0.00066156866
000370 68 54 dd 3d 12 39 a0 bd 6d 68 e5 bc c5 7d 77 bd
       0.10807115 -0.07823385 -0.028003896 -0.060422678
000380 92 4f 8b bd 1e 0e b5 bd 3c d0 40 3c 9b 14 d8 bd
       -0.06802286 -0.08840583 0.011768397 -0.10550805
000390 23 27 ca 3c 52 d7 86 bc f0 73 ca bd 5b 55 bc 3d
       0.024676865 -0.016460095 -0.098853946 0.09195968
0003a0 2b c1 e3 3d 62 2a 8b 3c a4 65 d7 3c 6c bd 3e 3d
       0.11120828 0.016987983 0.026293583 0.046567366
0003b0 e1 65 69 bd cd 15 9a bd 05 a9 13 3d 88 d4 a1 3d
       -0.056981925 -0.075236894 0.03604986 0.07901865
0003c0 d3 ef 9e bd ef 95 67 bc 82 03 f9 bd 3e e0 a9 bd
       -0.077605866 -0.014134868 -0.12158872 -0.08294724
0003d0 35 2b ac bd 9b 4f 7e 3c da 7b bd bd 84 49 97 bc
       -0.084066786 0.015521909 -0.092521384 -0.018467672
0003e0 eb 38 a5 3d 6e 91 60 bd 45 e5 81 bd ba 96 87 3d
       0.08067497 -0.054826193 -0.06342558 0.06620546
0003f0 3c 8c fa bc a4 72 02 be ef 4e e9 bc a0 3b be 3d
       -0.030584447 -0.12739044 -0.028480021 0.09288716

network.8.bias f4 [32]
000000 85 6c b7 3d 00 92 c8 3c db 02 f0 3d 57 34 cb 3d
       0.08956245 0.02448368 0.11719295 0.099220924
000010 cd 88 4e bd 3f 7a fb bc 36 e8 7d 3c 0f 0e d1 3d
       -0.050423432 -0.03069794 0.015497258 0.102077596
000020 25 db cb bd 7a 0b e1 3d ef a5 c0 bb 86 2f f1 bd
       -0.09953908 0.10988517 -0.005879156 -0.117766425
000030 d4 fd ec bd 6f 18 94 bd 1f 57 72 bd 4a 1d 92 bd
       -0.115718514 -0.07231223 -0.059165116 -0.07134493
000040 49 e0 51 bc e8 3a 8e bd 82 f0 0a 3d ae ec dd 3b
       -0.012809821 -0.06944829 0.033920772 0.006772599
000050 2f a9 54 bd 20 52 bd bd be bc b1 3d 79 7c 01 3d
       -0.05191916 -0.0924418 0.08678578 0.031612847
000060 e0 a4 d8 3d d1 a8 03 3c 12 5f d6 3d ff da c7 bd
       0.105783224 0.008035854 0.10467352 -0.09758567
000070 d4 06 89 3d c4 4a ac bd 44 b2 1e bd 1d 46 b9 bc
       0.066907555 -0.08412698 -0.038744226 -0.02261644

network.9.weight f4 [32]
000000 4b c0 86 3f 51 4c 82 3f 00 db 80 3f 46 7f 7a 3f
       1.0527433 1.017954 1.0066833 0.97850454
000010 a8 60 83 3f 48 cd 7f 3f fa 8a 83 3f ac 65 80 3f
       1.0263872 0.9992261 1.0276787 1.0031028
000020 5f 99 82 3f eb 87 7e 3f e1 84 7b 3f a0 3c 7a 3f
       1.0203055 0.99426144 0.9824963 0.97748756
000030 20 1f 81 3f 0f 31 7b 3f 63 21 74 3f 9d 06 82 3f
       1.0087624 0.9812173 0.95363444 1.0158268
000040 6a 52 81 3f da 8e 7c 3f 08 05 78 3f 70 43 7d 3f
       1.0103276 0.98655474 0.9688268 0.98931026
000050 4a ee 7a 3f 34 51 7c 3f d3 57 7d 3f 8f 3e 81 3f
       0.9801985 0.98561406 0.98962134 1.0097216
000060 6b d7 7d 3f 74 1f 7e 3f 46 e9 83 3f 7c 94 79 3f
       0.99156827 0.99266744 1.0305564 0.97492194
000070 0b e0 81 3f 78 8a 82 3f 38 47 89 3f 69 54 80 3f
       1.0146497 1.0198507 1.0724859 1.002576

network.9.bias f4 [32]
000000 b0 79 6e 3d d4 b9 50 3a 3c 8a fd 3c 27 5a b1 ba
       0.05822152 0.0007962261 0.030949704 -0.0013530896
000010 7e f8 a1 3c f5 94 37 3c 03 f9 4d 3c 7b 97 23 3c
       0.01977181 0.011204948 0.012571576 0.009984846
000020 e2 c5 00 3d 58 80 05 3c fd bd d4 bb 1f 95 99 bc
       0.031438716 0.008148275 -0.006492375 -0.018747864
000030 ad 0c 16 3c 46 3e 83 bc 32 ba 38 bd 52 1b 0a 3c
       0.009158296 -0.016020905 -0.045099445 0.008429365
000040 15 9f b4 3c 57 df f0 3b b4 f3 ae bc fe b5 b4 bb
       0.022048512 0.007350843 -0.021356441 -0.005514859
000050 8c 0f 83 3c 39 c0 a6 bc 7a ae 5f 3c b1 5c 8f 39
       0.015998624 -0.02035533 0.013652438 0.00027344146
000060 0b c9 be bc bc 26 b8 bb f6 0e 95 3b 6a 19 da 3b
       -0.023289224 -0.005619852 0.0045489026 0.0066558616
000070 72 8d 61 bc d0 69 cf 3c 4f 1b 58 3d 3e 47 88 39
       -0.013766633 0.02531901 0.05276042 0.0002599302
