ai-layer/model/results/10000_v2/dnn_eligibility_model.pth (torch, 63873 bytes, 25 tensors)

network.0.weight f4 [128, 8]
00000000: 92ce aa3e 1c71 293e 2e08 f8bd ae51 b03e
00000010: 83af 92bd 0c81 273e 1f72 4abe 0cf5 3f3e
00000020: 6304 b23e 9953 55be 60d4 8d3e f797 003e
00000030: 09c3 9b3e 61e8 153e d6db 083e 347f 153c
00000040: 2473 b43e 34a6 d7bd 1f5a 4cbe 5b09 f43d
00000050: 2807 d6bd 8606 a6bd 7423 5cbd eadb 493e
00000060: e127 8abe b82f cdbd 650c 23be 340f 95bd
00000070: c58f 783d 9321 68be 30b8 d23e daed a6be
00000080: 1e5f 9d3e f29d c5bc 6378 36bd c14c 453e
00000090: 2e66 c23d f865 ad3e 4042 02bd 7c11 debd
000000a0: 879b 3e3e c173 28be ebd3 073e 1a2a a33e
000000b0: 4ee1 173e 9e85 fcbd 9a19 583e 3db5 d93d
000000c0: d099 fd3d ae72 81be 6931 b6be 28ea 9ebd
000000d0: 45b3 b5be c014 933e d8c7 f43d 03e3 c43d
000000e0: 04cd 383e d1a0 bbbb 6366 883e 2f7b acbe
000000f0: c01b b53c ecd9 3ebe ed85 82bd e878 d8bd
00000100: 14f2 013e 1dc6 05be 3bbe a23e 8c7f 63be
00000110: ec5b 78be ea29 85be 1528 903d cc9e 493e
00000120: 37fa a63e af2f babe cedd ccbe e2e0 9bbe
00000130: 6e14 7ebe ee74 dc3d 6441 cd3d cf44 4a3e
00000140: 5a50 3bbe b0ef 68be 3dc8 1c3e b04c 80bd
00000150: c7fe 9b3e a2aa 003d 8156 5b3e 89f2 8bbe
00000160: aee6 4dbe 29bb 8a3d 0699 e03d 9a0f 41bd
00000170: 6bc5 503e 7817 8a3e 6d47 93be 6297 0dbe
00000180: 2e08 9f3e 507a 0dbe 1716 2dbe 688d c4be
00000190: 01e8 f5bd eaed 373c 61e6 77bd c855 9bbe
000001a0: de54 c8bc 07c4 8cbd 6a47 73be 8ea8 78bd
000001b0: f66f 8cbe 96eb 4cbe af12 f93e a889 863d
000001c0: a584 a83d 80c5 c4be 7184 91be 6d47 0abe
000001d0: 2874 8d3d 1204 99be 2025 c3bd a214 5ebe
000001e0: 4aa6 82bd 92bc 12be 9317 a0bd b52e 42be
000001f0: 7a12 6dbe c6f6 71be bdc0 dcbd a577 a5be
00000200: a044 c03e 9e8c a8bd 1e3c 643e 2d9b 0c3e
00000210: 5478 a6be 7432 573e ebb4 acbd 7e37 31be
00000220: 0106 7cbe f4fa a7be dbd1 a83c f35d b9bb
00000230: b3d5 313e b330 6bbe 47da b03e 0574 85be
00000240: 6635 02be 8910 89bb be00 3a3e 8a80 843e
00000250: cf6a 893e b6ae 9bbe deae 1e3e 216c 55be
00000260: d8fa 86bd 3379 92be bbc6 6d3e c852 92be
00000270: 4177 4a3e b294 073e 90c8 163e 0ada 81be
00000280: 2376 e23e 7ae5 993b 1af8 42bd 4907 b2be
00000290: 6be4 d03d c60b 1dbe 9448 c7bd 34eb 303e
000002a0: 59db 373d b15c 7bbe 3135 66be 8862 c4bc
000002b0: 5e19 2a3e db4a f1bd c81e 36be adc3 e5bd
000002c0: d098 9abe c03d 9a3d 8c58 573e dab6 9abe
000002d0: 122c 093d 75bf 713e 6979 1f3e 56f8 2dbe
000002e0: 4423 093e 02e5 103e 073b 103e a09c c7bd
000002f0: 1f0e 0abe 666f d33d 2d85 abbd 539c ebbd
00000300: c283 8c3e 5366 503e df60 26be 35c5 a1bd
00000310: d52b eebc e32a 00bc 4f28 6d3d a988 333e
00000320: 011c ecbe f377 24bd 6f1d 893e bcf4 373e
00000330: 88c2 87bd f255 81be 7c48 4abe 8193 3dbe
00000340: 6a11 19be fbe8 253e e2ef 8a3e 8580 473e
00000350: 03ee 60be b4d2 d9bd a68d 21be 23fd bc3e
00000360: 95f0 c23d 1b02 a1bd d4f5 d13d 8f17 10be
00000370: 7f8a 5ebe dc23 773e 31a1 6dbe 1f0f d5bd
00000380: 87c9 fdbe 6098 4f3e 15e3 673e f149 233e
00000390: 0347 0cbe 901a 8dbe 3378 aabe e3fe 7a3e
000003a0: 4cdf 913e 10f3 2e3e 4f99 2d3e 04bb a33d
000003b0: e386 62b9 08e1 83be 399b 8bbe cda7 d5be
000003c0: 66fa 843e e858 2abe c587 25bd a0f2 2bbe
000003d0: b033 663c 9fa1 a2be 8959 94bd ac35 453e
000003e0: 7ba8 3dbe c476 413e 2b33 64be 4356 70be
000003f0: 3ce3 8dbd 2a24 2dbe b49a fcbd 72e5 99be
0.33360726 0.16547054 -0.12110935 0.34437317 -0.071623825 0.16357821 -0.19770096 0.18745822
0.34768972 -0.20832671 0.27701092 0.1255797 0.30422238 0.14639427 0.13365111 0.009124566
0.35244095 -0.105297476 -0.19956253 0.11915847 -0.10450584 -0.08106713 -0.05374475 0.19712797
-0.2698355 -0.10018867 -0.15922697 -0.072782904 0.060683984 -0.22669058 0.4115615 -0.3260334
0.3073663 -0.024123166 -0.044548403 0.1926756 0.094921455 0.33866858 -0.031801462 -0.10843179
0.18614016 -0.16450407 0.13264434 0.31868058 0.1483204 -0.12330173 0.21103516 0.106302716
0.12382853 -0.25282806 -0.35584572 -0.077595055 -0.35488334 0.28726768 0.1195218 0.096136115
0.18046957 -0.005725958 0.26640615 -0.33687732 0.022107959 -0.18637818 -0.063732006 -0.10569936
0.12690002 -0.13063855 0.3178576 -0.22216624 -0.24253815 -0.2600854 0.07038895 0.19689482
0.32612774 -0.36364505 -0.40012974 -0.3044501 -0.24812481 0.1076449 0.10022238 0.19752811
-0.1829237 -0.22747684 0.1531076 -0.06264627 0.30467817 0.031412728 0.21419717 -0.27333477
-0.20107529 0.06773979 0.10966687 -0.04713402 0.20387809 0.2697103 -0.2876543 -0.13827279
0.31060928 -0.1381619 -0.16902958 -0.38389134 -0.12007142 0.011226157 -0.06052244 -0.30338883
-0.02445453 -0.06873327 -0.23757711 -0.06070762 -0.2742917 -0.20011744 0.48647067 0.065692246
0.08228425 -0.3843193 -0.28421357 -0.1350381 0.06906921 -0.29885918 -0.095285654 -0.21687558
-0.06379373 -0.14329746 -0.078169964 -0.1896313 -0.2315158 -0.23629293 -0.107789494 -0.32317844
0.37552357 -0.082299456 0.22288558 0.1373107 -0.32513678 0.2101534 -0.08432945 -0.17306325
-0.24611665 -0.3280865 0.02060788 -0.0056569516 0.17366676 -0.22967796 0.34541532 -0.26065078
-0.12715682 -0.0041828793 0.18164346 0.25879318 0.268393 -0.3040673 0.15496394 -0.20842029
-0.065908134 -0.28608093 0.23220341 -0.28578782 0.19772054 0.13240317 0.14724946 -0.25361663
0.44230756 0.004696545 -0.04759989 -0.34771183 0.10199817 -0.15336522 -0.0973064 0.17277223
0.04488692 -0.24547078 -0.22481228 -0.023972765 0.1661124 -0.11781856 -0.1778518 -0.11218963
-0.30194712 0.07531309 0.21029872 -0.3021763 0.033489294 0.23608191 0.15573658 -0.16989264
0.13392359 0.1414986 0.14085017 -0.09746671 -0.1348195 0.10323982 -0.08375011 -0.11504426
0.27444273 0.20351534 -0.16247891 -0.078989424 -0.029073635 -0.007822725 0.05789977 0.175326
-0.46115115 -0.040153455 0.2678027 0.17964453 -0.06628901 -0.25260884 -0.19754213 -0.185133
-0.14948049 0.16202156 0.2713614 0.1948262 -0.21965794 -0.106358916 -0.15776691 0.36911878
0.09518544 -0.0786173 0.10251966 -0.14071487 -0.2173252 0.24134773 -0.23206021 -0.10403275
-0.49567816 0.2027297 0.22645219 0.15946175 -0.13698964 -0.27559328 -0.3329483 0.24511294
0.28490674 0.17084908 0.16953014 0.07994655 -0.00021603289 -0.25757623 -0.27266863 -0.41729584
0.2597229 -0.16635478 -0.040412683 -0.16791773 0.014050409 -0.31763932 -0.0724364 0.19258755
-0.18521301 0.18892962 -0.22285144 -0.23470406 -0.06928107 -0.16908327 -0.12334195 -0.30057865

network.0.bias f4 [128]
00000000: 0037 4b3e 707d 58bd 35a1 1c3e a4c0 53be
00000010: a464 593d 2cf1 5bbe e9f0 343e 985a 20be
00000020: caa1 b8bd febd 9cbe ba3f b83a 973a ac3e
00000030: 9710 2e3e 033a 41be d280 993b b1cd 1dbd
00000040: c05c 92be 92e8 8d3e 9214 933b f690 923d
00000050: 1e27 13be 53c3 28be 7349 6d3d ba8d 043e
00000060: 4d77 a73d 038b 2fbe 5225 ad3e 838b 53bd
00000070: bb59 5cbe a2a0 28be f9af b13e 69f4 583a
00000080: 47d3 46bd ad7e 16be ac67 bdbd 52ac 97be
00000090: 7e85 90be 7d66 543e 3c4a 9b3e 1126 ad3e
000000a0: 1625 83be b66e 443e 9620 60be f86c 5b3e
000000b0: 4155 833e cb14 8c3e e263 823e 9a6e 623e
000000c0: 20a1 843b 36cd 243e ecc1 01be f58f 1c3e
000000d0: 5d04 e8bd 806c c5ba e453 9bbe b0c6 bcbd
000000e0: aeda 3bbe 15e0 f7bd b1e7 64be 281e a2be
000000f0: 70cd b13c 868b 6a3e b550 a43e a807 553e
00000100: b801 3bbe d7eb b2be ecdf 083e 32b3 4a3e
00000110: 89cb 9bbe 3efc 013e 2755 993e 38f8 ad3c
00000120: 48ea 56be c957 933e 39b1 193e ba84 6f3e
00000130: c656 76be 2665 523e 1ac2 74be fa67 b33e
00000140: b8cf 18be 980d 5b3e e4c2 8e3d 3881 c03d
00000150: 9047 54bd 150d 163e 0c82 17be 7632 a9be
00000160: 2c06 0ebe ab44 8d3e cf50 bbbd e303 e73d
00000170: 33fb 04be a5b9 873e e6cb 593e 8a56 fd3d
00000180: df48 3abe 47b4 93be 1ecd 5a3c e575 57be
00000190: 05a0 933e b38f acbe 6ec1 1f3e 1edb b43e
000001a0: 742a 373e d9ac f23d 1ea9 acbe 7d33 ae3e
000001b0: bd07 76bd c602 a9be 0741 b33e 9511 13be
000001c0: aa15 bdbc 56b2 a53e 8362 79be 8515 7fbe
000001d0: 3627 6d3d 60fa 3abd db73 aa3d 73e2 97be
000001e0: 7a9e 293c b9d6 1cbe 67d5 32be 74cf a7be
000001f0: c465 3f3e 8c92 8d3d 2e87 97be 05b7 903e
0.198452 -0.052854 0.1529587 -0.20678955 0.053074494 -0.21478719 0.17670025 -0.15659559
-0.09015234 -0.30613703 0.0014057078 0.3363845 0.16998516 -0.18869786 0.004684546 -0.03852624
-0.28586388 0.277165 0.004488536 0.07156555 -0.14370391 -0.1648076 0.057931375 0.1294469
0.08177052 -0.17142873 0.33817536 -0.05164672 -0.21518604 -0.16467527 0.3470457 0.0008276166
-0.048541334 -0.1469676 -0.092482895 -0.29623657 -0.28226846 0.20742221 0.30330074 0.33818105
-0.25614232 0.19182858 -0.2188743 0.21428287 0.2565098 0.27359614 0.2546683 0.22112504
0.004047528 0.16093907 -0.12671632 0.1528929 -0.11328957 -0.0015062243 -0.3033744 -0.09217584
-0.18345138 -0.12103287 -0.22354008 -0.31663632 0.021704406 0.22904786 0.32092825 0.20803702
-0.18262374 -0.34945557 0.1336667 0.1979492 -0.30428723 0.12693879 0.2994778 0.021236524
-0.20987809 0.28777912 0.15009011 0.23390475 -0.24056539 0.20546398 -0.23902169 0.35040265
-0.14922988 0.21391904 0.06970766 0.093996465 -0.05182606 0.14653428 -0.14795703 -0.3304631
-0.13869542 0.27591452 -0.091462724 0.11280038 -0.1298645 0.26508823 0.21269187 0.12370022
-0.1819186 -0.28848478 0.013354568 -0.21041067 0.28833023 -0.33703384 0.15601131 0.35323423
0.17887288 0.11849374 -0.33722776 0.34023657 -0.060065974 -0.33009928 0.3501055 -0.14362176
-0.02308162 0.32362622 -0.24353985 -0.24910553 0.057898723 -0.045648932 0.08322879 -0.29664955
0.010352725 -0.15316285 -0.17464219 -0.32775462 0.18691164 0.06912717 -0.2959532 0.28264633

network.1.weight f4 [128]
00000000: b058 7d3f 5bdc 793f 929b 883f 7df6 873f
00000010: cea9 733f 141f 803f fac1 853f 5650 953f
00000020: a902 7b3f d0fd 6a3f ffb0 803f 2573 793f
00000030: e2b4 7b3f b492 743f 81ff 7d3f 9504 713f
00000040: 76bb 883f 8d2d 723f 49b3 723f 83b8 833f
00000050: d5ea 853f 9b9d 713f 5413 893f ea92 673f
00000060: 8e6c 853f 4b3a 823f 88ec 773f 0093 6e3f
00000070: 0d47 883f c093 853f d661 733f cde1 823f
00000080: 04b9 803f e7be 703f 41de 773f 85a1 703f
00000090: ac2b 7f3f dd95 713f 1b9f 7a3f b476 883f
000000a0: 5abc 813f a16d 853f b30a 703f c5ed 7f3f
000000b0: 4c97 883f 802a 863f d47e 823f cb54 753f
000000c0: b460 6d3f c644 7e3f 0a44 703f 1c11 773f
000000d0: 4854 7b3f 077d 843f 837d 813f 71c8 723f
000000e0: 14c2 763f 4678 733f f7a9 6d3f 8664 8b3f
000000f0: 516d 7c3f 43c2 6c3f 6d7c 873f 5355 773f
00000100: 09db 773f 7bc2 793f 9c35 733f 3de5 8c3f
00000110: 1a9f 823f 8032 7f3f dcf5 613f 6ec5 7e3f
00000120: fd19 893f 2a50 773f 3fc6 803f e8cb 753f
00000130: 9972 773f 0280 693f a293 763f c4ce 803f
00000140: cbe2 823f 5406 843f 600e 833f 9489 803f
00000150: ce6a 873f 733e 833f 90f4 873f 669c 7d3f
00000160: faf9 753f e5a3 743f 35d2 743f 42da 8d3f
00000170: 2aec 6c3f 1da7 803f 6cb1 7d3f d85a 843f
00000180: 3d92 8a3f 670b 7e3f 3e05 793f 5ac3 873f
00000190: 64dd 703f 8a47 703f f6a9 7a3f 1a79 793f
000001a0: 19d0 723f d156 853f 551a 803f 6340 7c3f
000001b0: ea9d 823f 8788 723f cffc 6b3f ed76 813f
000001c0: 9054 753f 5860 7f3f 7f42 8c3f 9fd9 833f
000001d0: 7d36 763f be06 7f3f a8ad 833f 59ef 7a3f
000001e0: d617 833f af33 723f b7c6 713f c831 8a3f
000001f0: 8cb8 7f3f 67b9 703f bd0f 903f 0d5f 863f
0.9896345 0.9760186 1.0672476 1.0622097 0.95180976 1.0009484 1.0449822 1.1665142
0.98050934 0.9179354 1.0054015 0.9744132 0.9832288 0.9553635 0.99217993 0.94147617
1.0682209 0.94600755 0.9480482 1.0290684 1.046229 0.9438111 1.0709023 0.9045855
1.0423753 1.017404 0.96845293 0.93193054 1.0646683 1.0435715 0.9507116 1.0225159
1.0056462 0.94041294 0.9682351 0.9399646 0.99676013 0.943693 0.97899026 1.0661225
1.0135605 1.0424081 0.93766326 0.9997218 1.0671172 1.048172 1.0194955 0.9583251
0.9272568 0.9932369 0.9385382 0.9651048 0.9817548 1.0350655 1.0116428 0.948371
0.9638989 0.951054 0.9283747 1.0890052 0.98604304 0.9248392 1.0584847 0.9661457
0.96818596 0.9756238 0.95003676 1.1007458 1.0204804 0.9968643 0.88265777 0.99520004
1.0711056 0.96606696 1.00605 0.9601426 0.9665924 0.9121095 0.9631902 1.00631
1.0225462 1.0314431 1.0238762 1.0041986 1.0579469 1.0253433 1.062151 0.9906677
0.9608456 0.95562583 0.9563325 1.1082232 0.9254786 1.0050999 0.9909885 1.0340223
1.0825878 0.9923615 0.97273624 1.0606492 0.94087815 0.9385916 0.9791559 0.9745041
0.9484878 1.0417119 1.0008036 0.98535746 1.0204442 0.94739574 0.9218263 1.0114418
0.9583216 0.99756384 1.0957793 1.0300788 0.9617689 0.9961966 1.0287371 0.98021466
1.0241649 0.9461011 0.9444384 1.0796442 0.9989097 0.940329 1.1254803 1.0497757

network.1.bias f4 [128]
00000000: 1b21 41b8 c8d5 e9bc 1d92 4dbd d34b 35bd
00000010: 55a9 9ebd e8ef 603c fd4a 943c 186f 9a3d
00000020: 01cc d03c 79de eabd f23a 0cbe c1bd 2fbd
00000030: 94c1 cbbd d773 2abd 287c 14be 57f9 0dbe
00000040: 72a5 f6bd de29 4bbe ee4a 4fbd a3be b0bc
00000050: b792 573d fe69 64bd b474 5b3d ab31 e7ba
00000060: dbc1 16bd 1e95 67bd 4542 8a3c 628e 92bd
00000070: 4d53 303d 2495 ff3c 7aaf afbd b46b 16be
00000080: 3f83 77bd 4a81 f7bd 7703 7e3c 8693 e0bc
00000090: 4e7d 62bd c096 abbd c949 e43d be23 0abd
000000a0: 5bc0 f5bd c66e 9bbd 6750 3ebe 75e9 a1bc
000000b0: 5ea2 b8bb 6540 dcbd 8819 b3bd 896c 733d
000000c0: 99cb c3bc c406 abbd a2fa 25bd 513a 6cbd
000000d0: ac37 acbd 4ffc ff3c d626 00be 0e2f 09bd
000000e0: 9560 a8bd 5821 1f3d 5494 0bbd f3ab aabd
000000f0: 8f99 dfbd a9ab babd 5adf 483c 3905 eabd
00000100: 3b0e 20be 01f5 85bd 6d8a 87bd 33ad dabd
00000110: 6666 903c e791 423d eb30 b1bd 1b6e 13bd
00000120: ac51 5d3d e672 05bd 9a8f 05bd 2d3e 12be
00000130: 8e94 f6bc b4e2 aebd da96 5fbd b20b 313d
00000140: e84f 9abc 8967 dcbb ab0a 8a3d 7b21 e7bc
00000150: 76fd c1bd e671 7a3b 83db 8cbc d011 88bd
00000160: e6f4 1cbd 992e d4bd ba18 013d 4cdb 8f3d
00000170: 14be 32bc 76ad f1bd 3c37 f23b aaeb d8bd
00000180: 9b5b 4f3d d707 e5bd baab 53bd 72cd dabd
00000190: 7d77 f7bd 89b0 9cbd 91a8 a0bd 18ca 0b3c
000001a0: a78b d4bd a3ab cebd 5e44 213d a117 afbd
000001b0: 04a4 56bd e945 8dbd 804b 70bd 8303 f83d
000001c0: 4854 43bc 359a 3abd 876c f53d 2d0c 04bd
000001d0: 7732 c8bc 74e2 e4bd 510d 70bc 51e7 c3bc
000001e0: 7257 1abd 09eb bbbd 2f3e 94bd cf5d 65bc
000001f0: cd6c 02be 612e 1ebe 9bc4 2b3c c585 cdbc
-4.6045618e-05 -0.028544322 -0.050188173 -0.044261765 -0.07747141 0.013729073 0.018102163 0.07540721
0.025487902 -0.114682145 -0.13694361 -0.042905573 -0.099490315 -0.04161438 -0.14500487 -0.13864647
-0.12043275 -0.1984019 -0.050608568 -0.021575278 0.052630153 -0.055765145 0.053578094 -0.0017638704
-0.03680597 -0.056538694 0.016877303 -0.071560636 0.04304819 0.031199045 -0.085783914 -0.14689523
-0.0604279 -0.12085207 0.015503756 -0.027414095 -0.05529528 -0.08378363 0.11146886 -0.033725493
-0.119995795 -0.07589488 -0.18585359 -0.019764641 -0.00563459 -0.1075447 -0.08745104 0.05942968
-0.023900794 -0.083509 -0.040522225 -0.057672802 -0.08409056 0.03124824 -0.12514815 -0.03349214
-0.082215466 0.03885016 -0.034077004 -0.08333578 -0.10917961 -0.09114773 0.012260282 -0.114267774
-0.15630428 -0.065408714 -0.066181995 -0.106775664 0.017626952 0.047502425 -0.086519085 -0.035993677
0.054032966 -0.03258028 -0.032607652 -0.1428153 -0.030100133 -0.08539334 -0.054587223 0.043224044
-0.01883693 -0.0067262095 0.06740316 -0.028214207 -0.09472172 0.0038214861 -0.017194515 -0.066440225
-0.03831949 -0.1036045 0.03151772 0.070242494 -0.010909576 -0.11800663 0.0073918384 -0.10591824
0.05062447 -0.11183136 -0.051677443 -0.10683717 -0.120833375 -0.07650859 -0.078446515 0.00853207
-0.10378199 -0.10091331 0.03937184 -0.08549429 -0.05240251 -0.068981 -0.058665752 0.12110045
-0.01192195 -0.04555722 0.119835906 -0.032238174 -0.024438126 -0.11176005 -0.014651612 -0.023914011
-0.03768105 -0.09175689 -0.07238423 -0.0139994165 -0.12736817 -0.1544738 0.010483886 -0.0250882

network.1.running_mean f4 [128]
00000000: 1a47 673e 4200 873c 4e4c 0f3e 0a20 95be
00000010: 0483 9a3d 2294 45be 61ca a93d 9b91 e7bd
00000020: f99a 9cbd 2120 c6be 47bd 0d3c 484c c83e
00000030: 4eca 0a3e 0137 9abe f0cc 1abd eee2 b1bd
00000040: 5f9c 8abe 06be 6d3e d223 e63c 4f77 b33d
00000050: 7332 dcbd 6aca 2ebe d88a 6b3d b166 183e
00000060: ae6d 9b3d d793 1dbe 338b c13e ea03 21bd
00000070: 2f11 36be 31ae e9bd f97a b73e 3c94 29bd
00000080: 80f0 c2bc fd63 48be 9ab5 d1bd 7661 9ebe
00000090: 87d1 b5be a431 3d3e 5d2c 703e 0a98 c03e
000000a0: cda1 89be 38d1 233e 77e8 75be 1b0f 6e3e
000000b0: ce1b 923e 8eff 623e d305 8c3e 0e0d 8f3e
000000c0: 5309 e5bb c0af 173e e64a 0cbe 0a33 0f3e
000000d0: cd85 e2bd 6063 50bc 599e b5be 3222 88bc
000000e0: 0827 7abe 7bd2 05be 8f0b 81be 27c5 acbe
000000f0: dd72 84bd e69b 903e 48ac 9d3e 16b1 183e
00000100: a53b 62be b133 b1be a27d eb3d 2463 173e
00000110: 79c8 51be f05d 093e 1e34 983e e72d a3bd
00000120: dbc1 43be fa5f 893e 9a64 7d3d 7bd8 3a3e
00000130: 71af 69be e2d6 643e 55bf 93be 197d ac3e
00000140: 3148 09be f485 873e abff 8c3d 8346 183e
00000150: bcb8 8bbd 9aa7 163e 9def 31be 3841 9abe
00000160: 9bd1 31be e96a a63e 1ec1 edbd 55db 8e3d
00000170: 9a5e b7bd 42ba 7c3e 278e 883e f509 b53c
00000180: 9cb2 46be 39cf 8cbe 9e44 fe3c 95b8 2abe
00000190: 969a 733e a4a4 c0be 4c7b 423e fd0e be3e
000001a0: f86b ac3d 58d2 3d3d 537d a1be 4261 b63e
000001b0: 5429 41bc 1868 a5be 2c8f b73e 2da6 44be
000001c0: 3693 35bd e019 943e 7558 38be 8f83 59be
000001d0: a9ab 813d 1682 77bd bc14 d23c cc0d 99be
000001e0: df3e 53bd f6af febd bed8 fbbd 5faa a7be
000001f0: fce8 483e e082 cb3b e5f2 9dbe ee4d 8b3e
0.22585717 0.016479615 0.13993952 -0.29126006 0.075445205 -0.1929479 0.08290554 -0.11307069
-0.07646746 -0.38696387 0.008651084 0.39120698 0.13553736 -0.3012009 -0.0377931 -0.086858615
-0.27072427 0.2321702 0.028093252 0.08762991 -0.1075181 -0.17069402 0.05750546 0.14882924
0.07589279 -0.15388428 0.37801513 -0.039310373 -0.17779993 -0.114101775 0.35836008 -0.041401133
-0.02379632 -0.19569393 -0.10239716 -0.30933732 -0.3551142 0.18475968 0.23454423 0.37615997
-0.26881257 0.1599778 -0.2401446 0.2324795 0.28536838 0.22167799 0.27348194 0.27939647
-0.006989637 0.14813137 -0.13700446 0.13984314 -0.11060677 -0.012719005 -0.35472372 -0.016617868
-0.24428952 -0.13068573 -0.2520413 -0.33744165 -0.06467221 0.2824394 0.30795503 0.14911303
-0.22093065 -0.3460975 0.11498572 0.14783913 -0.2048663 0.1341474 0.29727262 -0.079677396
-0.19116919 0.26831037 0.06186352 0.18246643 -0.22820832 0.22347596 -0.28856912 0.33689192
-0.13406445 0.26469386 0.06884702 0.14870648 -0.06822345 0.14712372 -0.17376561 -0.30127883
-0.17365114 0.3250344 -0.116091 0.06975428 -0.08953591 0.24680427 0.26670954 0.022099474
-0.19404072 -0.27501848 0.031038579 -0.16671975 0.23789439 -0.3762561 0.18992347 0.3712081
0.08419031 0.046343178 -0.31540927 0.35621077 -0.011789639 -0.3230598 0.3585142 -0.19204016
-0.044329844 0.2892599 -0.18002494 -0.21241592 0.0633157 -0.060426794 0.025644653 -0.2989334
-0.05157363 -0.12435906 -0.122972 -0.3274717 0.19620126 0.00621067 -0.30849376 0.27207893

network.1.running_var f4 [128]
00000000: 53a3 383f b852 463f 32d6 ba3d bab3 823f
00000010: ab74 d83e 2d72 b83e 8ca1 d83e 2f51 de3d
00000020: 4c0c 183e 91e7 f33e 25b0 453e 342a 2f3e
00000030: f7f9 da3e 4c4d 3a3f 0a16 5d3f 72f4 783f
00000040: 4068 793e 2e5e 343f d5a0 393e 781e 543e
00000050: 3402 4e3e 8d50 6a3e 6645 313e 394d a03d
00000060: 907c 283e 76c6 db3e 283b ae3e 103a 013e
00000070: 3cad b03e 5712 5c3e 735e cb3d 631f 2f3f
00000080: eca9 413e b727 ac3e 202b 5d3e b6c3 e93e
00000090: 71a1 3c3f 3b98 be3e b44a 833e 3b73 043e
000000a0: b45b 343f b3fb a83e 4937 7b3e 1954 0b3e
000000b0: 168a 0d3f b24b a33e 2b81 703e 4b0b b13e
000000c0: 1147 e63d 02c1 c63d cbfa d43e 3d6e 353e
000000d0: 520f 223e 216e cc3d e43c 3b3e 5f1f 373f
000000e0: 0afe fe3e 71ec ed3d 9989 c33e 5a15 a93d
000000f0: b266 073f 2f16 5b3f 5c4f 013e 7250 e63e
00000100: bfc0 003f 70c5 193e 87f9 803e 49f8 b23e
00000110: cc49 963f 9e3c 063e 3b8e bd3e 8b48 913f
00000120: f117 383e 56bb 453e 9391 2a3f 2336 3c3f
00000130: 1491 9a3e 3826 7d3e 716b 083f bb94 983e
00000140: f584 3f3e 5dbc 4a3e 71b1 4d3e 9b28 423e
00000150: 9ff7 0d3e f82f b33e 2ecb 123e fbb5 ab3e
00000160: 3813 6d3e e531 833e 2045 0e3e 4ddd 023f
00000170: 46ba fa3e 0598 283e a327 8f3e 427b a43f
00000180: 388a 303e a016 353d dd4c 183e 5cd5 6c3e
00000190: 7763 6d3e 7eed 203e 236f 143f dd1a cc3d
000001a0: 3c05 343f 8322 623f 1857 af3e f0ec f23e
000001b0: 2af7 7b3e c5f8 e63d 2a58 353f d1b2 393e
000001c0: 27a3 633e 868f 4a3e d92b 813e 6871 1a3e
000001d0: 947f c93e 1d6e 0a3e 358c 353f b644 973e
000001e0: 2e3d 863e 6219 b43e 3336 2f3f 4191 9b3d
000001f0: 7930 983e 8216 013f b327 e03d 8af9 e83e
0.72124213 0.7746997 0.09122886 1.0211098 0.4227651 0.3602461 0.4231075 0.10855328
0.14848441 0.4763761 0.19305475 0.17105943 0.42768833 0.72774196 0.86361754 0.97247994
0.24356174 0.70456207 0.18127759 0.20714748 0.20118028 0.2288229 0.1731163 0.07827229
0.16453767 0.4292485 0.34029508 0.12619805 0.34507167 0.21491371 0.09930124 0.6840727
0.18912476 0.3362405 0.21598482 0.45657128 0.7368384 0.37225518 0.2564293 0.12934582
0.7045243 0.3300453 0.24532808 0.136063 0.5528883 0.31893688 0.23486774 0.34578928
0.112440236 0.09704782 0.4159759 0.17717834 0.15826157 0.09981943 0.18284947 0.71532243
0.4980319 0.11617363 0.38190916 0.082560256 0.52891076 0.85580724 0.1262793 0.4498325
0.5029411 0.15016723 0.25190374 0.34955052 1.1741271 0.13109061 0.37022576 1.1350263
0.17977883 0.19309744 0.6662838 0.73520106 0.3018881 0.2472161 0.5328894 0.29800972
0.18703063 0.19798417 0.2008722 0.18960802 0.13863991 0.34997535 0.1433532 0.33537278
0.23151863 0.25624004 0.13893557 0.5111893 0.4897024 0.16464241 0.27959928 1.2850115
0.17240226 0.04421103 0.14873071 0.23128265 0.23182474 0.15715596 0.5798208 0.09966061
0.7032049 0.8833391 0.34246135 0.47446394 0.24606004 0.11277918 0.7083765 0.1813462
0.22230206 0.19781312 0.25228766 0.15082324 0.39355147 0.13518567 0.70917064 0.2954461
0.2621855 0.35175616 0.68442076 0.07596064 0.29724482 0.5042497 0.10945072 0.45502883

network.4.weight f4 [64, 128]
00000000: 138a 5f3d 84ac 5b3c 2db5 17bd 5940 34bd
00000010: aa14 573d 168a 383c bb45 92bd c00d 0b3d
00000020: c124 d1bc 10c1 85bc fb2d 3c3d 2ea1 c93d
00000030: 5c1a 02be 47e0 8abc c505 7dbd 9ff4 17bd
00000040: 0ec5 66bd fbbd 1dbd b2ab 35bd 7e57 f7bb
00000050: e220 383d 9743 e5bc fe99 8e3d 1980 9e3a
00000060: 5d58 16bc 8f22 703c c4dc 943d a025 00bb
00000070: 5816 68bd db8f 6cbc 0b50 6ebd 72a9 cfbd
00000080: 5b32 d83c b3e6 78bd d0ae 4b3d 6046 4cbd
00000090: 89dc 683b 726e 8e3c f596 0fbd 0615 0d3e
000000a0: 2ef3 223d 3868 10be 5158 e1bd a9f1 e5bd
000000b0: 7ae4 45bd d3b9 c3bc 2f26 823b 9a0b 60bd
000000c0: baa5 75bd 38b5 9cbd fc00 e9bd 9e20 983d
000000d0: dbfe 66bd edfa 05be f6c2 cf3c 7459 a1bc
000000e0: 3329 663d 3cba 5c3d 7c78 ff3d 8b82 a5bd
000000f0: 7fa1 203d aaaf 6f3d 10e8 8ebd dfa1 ac3d
00000100: ba8d 2f3d 596e 8dbc fc0c cf3d 0a84 a8bc
00000110: ec00 74bd 21e5 d43c bae4 2bbc e2d6 27bd
00000120: 8702 5f3d 6ed8 b9bd 26a4 343d c7ad 043d
00000130: 19f1 62bc 9ec9 50bd 9862 853d 8fa6 54bc
00000140: b0f1 083d c4e1 9c3c e5e1 a53d 3d51 68bd
00000150: eab4 d9bd 363f d0ba d4a6 d53d 3359 69bc
00000160: 5286 4e3d 6335 46bc d2a0 853d f016 1bbe
00000170: 78d1 cf3d d7a5 43bd a165 97bd 96e4 23bd
00000180: 628f febd 9975 993b 60cc 833d 55c9 16be
00000190: d3ce 9abd a6e5 9a3d 9420 1ebd 2c9f 91bb
000001a0: a773 1abc 886d 253d db92 c83c cb15 cebd
000001b0: b4e9 7b3c e94e dd3d 49d9 83bd 380d a0bb
000001c0: 2692 e53d d8dd 153d 5f1f 32bd 6ecf b63c
000001d0: 7278 d1bd a3ad 1bbe 6f7b d8bc 5ff4 cebb
000001e0: 0480 e5bb c9d8 7b3d ffff a2bc 28e5 a73c
000001f0: 61a3 7c3d d6d3 31ba addf 0ebe 91b6 0bbd
00000200: 7320 e9bd e9b1 4abd 8619 3dbc 7770 13bd
00000210: 018f c5bd b3cc c13c 78f5 b03d 7a4d 57bd
00000220: 00f9 873d 9630 bd3c e6d0 ab3d 27d8 4cbc
00000230: 9585 d53d cf8f 7fbb 7acd d03d 93a5 c83d
00000240: 30bc 05be b5c1 69bd 367b cbbc 83cf 7e3d
00000250: 048a 92bd e303 683d 069d 513c b071 20bd
00000260: d6c8 95bd 7e75 823d ad05 2e3d 36c2 b5bd
00000270: b77f 84bc 60dd e5bc f033 0b3d c65b 013d
00000280: 2d0f b73c 66df 9bbc 9e20 463d 45f2 70bc
00000290: 4c6a aa39 b1b7 853c 763c c63b f3da c0bc
000002a0: b790 5bbc d70a a33c aec4 07bd bde1 433d
000002b0: 116a c0bd 21de a7bd 0a48 bf3c 6043 853d
000002c0: fda9 2dbe 821b e83b 3ff1 84bd 89d5 35bc
000002d0: 1dfb 2e3d d352 b33d d652 9abd fbf6 f93c
000002e0: 61e3 de3d aba9 a9ba 78fd a03c 359b d4bd
000002f0: 6c3e ffbb 6d51 abbd bc33 de3c 23af 4a3d
00000300: 1d22 1e3d 2e73 a3bd e40a 85bd a253 853b
00000310: 0f6d f0bd e415 22bd 48f3 80bb 972d 363b
00000320: a043 6f3c 9300 02bc 02d1 c53d 5fcb c63c
00000330: 6fb2 88bd 8c1e 413d 5ce2 98bb fba5 24bd
00000340: cb67 71bd b780 bbba 84fd e8bd 8db0 06ba
00000350: 3d2b 283d 2297 fcbd d0ef 42bd 1bc8 bfbd
00000360: 54f4 933d 4840 8c3d 369d 4fbc 8e63 113e
00000370: 00f6 04bc ca88 79bd c445 51bc 9c09 cc3c
00000380: e9b4 d53c b1bb 053d a7de 353d 560f 003d
00000390: 111b fd3c 2c96 92bd c6c7 f33b 96ec abbd
000003a0: a232 ed3d 096d 253d e4ca 05be cd6d 873c
000003b0: 8a0b e3bc 0e0e e3bd dc03 73bd baae 363d
000003c0: 1b80 b53d 9197 82bc 8a0f 63bc 2b94 e8bb
000003d0: 233e 523d 1438 bc3c 3fad d2bd fcb6 c2bd
000003e0: f92e 8abc a262 f5bd 0b01 06bd a04f 44bd
000003f0: 66f3 2bbd 7b27 02bb fdec 4c3d 107e 25bd
0.054575037 0.01340783 -0.037038017 -0.04400668 0.05250994 0.011263391 -0.07142206 0.03394866
-0.025530221 -0.016327411 0.045942288 0.09845196 -0.12705368 -0.016952647 -0.06177308 -0.037098523
-0.05634027 -0.038511258 -0.044353195 -0.0075482717 0.044953234 -0.02798633 0.069629654 0.001209262
-0.009176341 0.014656677 0.0726867 -0.0019553676 -0.056661934 -0.014438595 -0.058181804 -0.10139741
0.026391199 -0.060766887 0.04972726 -0.049871802 0.003553184 0.017386649 -0.035056073 0.13777551
0.039782695 -0.14102256 -0.11003173 -0.11227734 -0.048313595 -0.023892319 0.003971837 -0.054698564
-0.059972502 -0.07651752 -0.11377141 0.07428096 -0.056395393 -0.13084002 0.02536152 -0.019695975
0.056191634 0.053888544 0.124741524 -0.0808154 0.039216515 0.058517136 -0.06977856 0.08429312
0.04285977 -0.017264532 0.101098984 -0.020570774 -0.05957119 0.025988163 -0.010491544 -0.040976413
0.05444577 -0.09074484 0.044101857 0.03239229 -0.0138514275 -0.050973527 0.06512946 -0.012979164
0.033433616 0.019150622 0.080997266 -0.0567181 -0.1063021 -0.0015887979 0.104322106 -0.014242458
0.050421067 -0.012097689 0.06524815 -0.15145469 0.10147375 -0.04776558 -0.07392431 -0.04001292
-0.12429692 0.004683208 0.06435466 -0.1472524 -0.0755898 0.07563333 -0.038605288 -0.0044440236
-0.009426988 0.04038766 0.024484089 -0.100627504 0.015375543 0.108060665 -0.06437928 -0.0048843883
0.11209516 0.03658852 -0.04348695 0.022315707 -0.10228051 -0.15202956 -0.026426045 -0.0063157524
-0.007003786 0.06148604 -0.01989746 0.020495012 0.061679248 -0.000678358 -0.13952513 -0.034109656
-0.11383142 -0.049486075 -0.01154173 -0.035995927 -0.096464165 0.023657179 0.086405694 -0.05256412
0.0663929 0.023094457 0.083894536 -0.012502707 0.104258694 -0.0038995629 0.101954415 0.09797206
-0.13060069 -0.0570695 -0.024839025 0.062209617 -0.07155231 0.05664433 0.012793785 -0.03917092
-0.07313697 0.06370066 0.04248588 -0.088749334 -0.01617418 -0.028059661 0.03398508 0.031581663
0.022346104 -0.019027423 0.04837095 -0.014706199 0.00032504124 0.016322942 0.006049688 -0.023541903
-0.013401202 0.01990263 -0.033146553 0.047822703 -0.093952306 -0.081966646 0.02334978 0.065069914
-0.16959377 0.0070833573 -0.064913265 -0.011098274 0.04271995 0.08756032 -0.07535331 0.030513277
0.10883213 -0.0012944242 0.019652113 -0.10381166 -0.0077894237 -0.0836514 0.027124278 0.04948343
0.03860675 -0.07980953 -0.06496218 0.0040688077 -0.11739551 -0.039571658 -0.0039352514 0.002779817
0.014603525 -0.007934707 0.09659006 0.024266897 -0.066746585 0.047148272 -0.004665656 -0.040197354
-0.058936875 -0.0014305328 -0.11376479 -0.00051380025 0.04105686 -0.12333514 -0.047591984 -0.09364339
0.07224336 0.06848198 -0.012671759 0.14198133 -0.008115292 -0.060921468 -0.012772981 0.024906926
0.026087241 0.0326497 0.04440179 0.031264625 0.030896695 -0.07157549 0.0074395863 -0.083947346
0.11581923 0.040387187 -0.13065678 0.01653185 -0.027715463 -0.11086665 -0.059329852 0.044600226
0.08862325 -0.015941413 -0.013858685 -0.007097741 0.05132879 0.022975959 -0.1028695 -0.09507558
-0.016868101 -0.11981703 -0.03271584 -0.0479275 -0.04198017 -0.0019859958 0.050030697 -0.040403426

network.4.bias f4 [64]
00000000: 0cc3 0a3d 4f4c d63c 3382 6b3d 4f25 013d
00000010: a063 9dbc 7233 9ebc 779a 903d 2cd4 82bb
00000020: 53ce 92bd 713b 7fbd 1b2d 8cbd d697 053c
00000030: 00a2 843d 9196 593d 50b7 c03c 8178 f03c
00000040: 9fa7 23bd dc98 a93d de84 093d 3a32 65bd
00000050: 3fdd 6ebd 2a24 a3bd 56d7 ddbc 63a4 893d
00000060: 89b8 053c 4e18 35bd 3b1c cd3c 15b1 6dbd
00000070: 0820 e03c c395 763d 3219 223d e813 d3bc
00000080: cefa eebc 3b2f 1a3d db79 653d 8a9a b4bc
00000090: 407b 85bb 7cfc 19bc 0813 23bc f084 9fbd
000000a0: 7ad4 92bd 9ddf 953d d66f 2dbd 03db 813d
000000b0: 8cf2 5e3d dc41 4bbc f57e 24bd 445e 333b
000000c0: f4bc 76bc d3d5 67bd 3a9a ad3d 0db0 ddbb
000000d0: c74c 45bc 2992 76bd b6e2 803c 42c9 643c
000000e0: d984 b13d b89d dcbc abb5 543d bacb ac3b
000000f0: 3ef6 423d 10bb 0c3b 44af 6cbc 5113 103d
0.033877417 0.026159434 0.057497215 0.03152972 -0.019212544 -0.01931164 0.07060712 -0.003992578
-0.071682595 -0.062312547 -0.06844541 0.008153876 0.064762115 0.053122107 0.02352491 0.029354336
-0.039954778 0.08281109 0.033573978 -0.055956103 -0.058316465 -0.07965882 -0.02708022 0.067208074
0.008161672 -0.044212632 0.025037875 -0.058030207 0.027359024 0.060201418 0.03957481 -0.025766328
-0.029172327 0.0376427 0.056024414 -0.022046346 -0.0040735304 -0.009398576 -0.009953268 -0.07789028
-0.07169433 0.073180415 -0.042342983 0.06340601 0.05443053 -0.012405839 -0.04016014 0.002736942
-0.015059698 -0.056600403 0.08476682 -0.0067653717 -0.012042231 -0.060197983 0.015733104 0.013963999
0.08667917 -0.026930675 0.051931065 0.0052733095 0.047598116 0.0021473803 -0.014446083 0.03517467

network.5.weight f4 [64]
00000000: 1a38 7c3f f02d 7f3f 6373 673f 9bcf 7b3f
00000010: caea 803f 05b9 803f 7d01 873f f935 823f
00000020: a421 853f d469 893f d3bc 843f 6859 703f
00000030: 8650 873f 38b6 7b3f b74c 813f ad59 793f
00000040: 799e 883f 4661 7e3f 5634 6f3f 1cc5 893f
00000050: 6c1d 823f e215 773f 19d4 843f 9f40 813f
00000060: b287 7e3f 5da7 843f 72f9 833f 1c19 883f
00000070: ff84 733f c515 7e3f 6e1a 763f 200b 883f
00000080: 5156 803f 6390 843f ac08 813f 5462 823f
00000090: 7d9c 843f b4c4 833f 41af 823f dafa 7e3f
000000a0: d223 773f 38b8 823f e723 833f 9e4f 803f
000000b0: 7f29 6f3f 49c5 7d3f 36a5 873f 70b5 7e3f
000000c0: efb4 843f 0e5e 813f 9a37 7b3f caac 783f
000000d0: 3dff 723f 3903 7b3f 2d0d 783f da86 683f
000000e0: 9689 813f 61ed 6f3f 16de 843f 109a 673f
000000f0: faa8 813f abf9 6b3f 9540 743f 89a0 813f
0.98523104 0.9967947 0.9041044 0.98363656 1.0071652 1.0056463 1.0547329 1.0172721
1.0400891 1.0735421 1.0370125 0.93886423 1.0571449 0.9832492 1.0101537 0.9740246
1.0673362 0.9936718 0.93439233 1.0763278 1.0165229 0.96517766 1.0377227 1.0097846
0.99425805 1.0363575 1.03105 1.0632663 0.9512481 0.9925197 0.9613408 1.0628395
1.0026342 1.0356563 1.0080771 1.0186257 1.0360256 1.0294404 1.0209733 0.9960152
0.9653903 1.0212469 1.0245332 1.0024297 0.93422693 0.9912916 1.0597293 0.994956
1.0367717 1.0106828 0.98131716 0.97138655 0.9492071 0.9805179 0.96895105 0.9083077
1.0120113 0.93721586 1.0380275 0.90469456 1.0129693 0.9217784 0.95411044 1.0127116

network.5.bias f4 [64]
00000000: b02a ea3c 5373 cbbb 08f5 37bd e2cb bdbc
00000010: 97f7 dbbc 3cd5 02bd f72d 443b 2445 0ebc
00000020: 2494 e43c 542e 1a3d 192f 16bd 67c0 0abd
00000030: 68ea bfbd b596 34bc 9ff5 e1bb 0a58 e6bc
00000040: 864c 91b9 a0c8 a4bb 097b aabd c63a dd3a
00000050: dfc2 403d 3c55 f7bd 5085 2a3d 8ccd 823c
00000060: 3f20 8ebd 1e6d 933d ac0f 33bd 1c35 26be
00000070: c720 5fbd d246 26bc bd24 0abe e8db 06bc
00000080: 9222 4fbd ecf6 1ebd 5c1e 383c 39cb e83c
00000090: e57c 39bd 33fa a73c 8129 9dbd 0ca0 90bd
000000a0: aed6 a8bd 1d58 5abd 82d4 793d fbc5 453d
000000b0: 3d43 92bd 144a 2dbc 1270 a43a 4e87 31bd
000000c0: a5ea 743d 3937 943c 3e78 9dbc f4fb 2bbd
000000d0: e34d 00bc 3b45 843c 76df 4fbd 847f d0bd
000000e0: 6886 fbbc 57d8 60bd 43d7 cebc c37c dfbd
000000f0: 004e 2abd f6ba b3bd ff30 aabd 6fed a1bd
0.028584808 -0.006208816 -0.044911414 -0.023168508 -0.026851458 -0.031941637 0.0029934624 -0.008683477
0.02790267 0.03764184 -0.03666601 -0.033874895 -0.09370881 -0.0110222595 -0.0068957354 -0.028118152
-0.0002771357 -0.005028799 -0.08324248 0.0016878478 0.047060844 -0.12076804 0.041631043 0.015967153
-0.06939744 0.07198547 -0.043716118 -0.16231197 -0.05447462 -0.010148721 -0.13490577 -0.008231141
-0.05057008 -0.0388097 0.011237707 0.028417217 -0.045285124 0.020505046 -0.07673932 -0.070617765
-0.08244072 -0.053306688 0.06099368 0.048284512 -0.07141731 -0.010576744 0.0012545607 -0.043341927
0.059794087 0.018092738 -0.019222375 -0.041988328 -0.00783107 0.016146293 -0.05075022 -0.10180572
-0.030703738 -0.054893818 -0.02524913 -0.10912468 -0.041578293 -0.08775894 -0.083101265 -0.07906615

network.5.running_mean f4 [64]
00000000: fa32 f0be 8262 cfbe ee39 673d 637a 8a3e
00000010: 4911 103e 54ed 013f ad4d 5e3e 91c9 0a3f
00000020: 30bc 57bf b4a7 0bbf 8dfa ca3e 892e 35be
00000030: 9cb3 583f ba2d ed3e 9469 983e 5486 bf3e
00000040: 86c3 e3bd 3554 113e 09ac 1abe 1b35 dd3e
00000050: 1b37 4c3e d2fd f9bc 7bb5 59bc c61a 1b3e
00000060: 3cc3 2b3f ee07 19bf 1ff7 2cbf 2738 b83f
00000070: 8477 803e b929 f8be 2e99 7d3f 004d 5c3f
00000080: 85ca 81be c264 1e3f 50a6 4c3f c158 37bf
00000090: d1e5 a23f a381 3cbe 0daf 1a3f b8ae e8bb
000000a0: efc5 c73e 7945 2e3f 0a7c 833f f80f 75be
000000b0: 7814 a7be 35bd 1f3f 5be5 253f 0b67 113f
000000c0: cf6a 4ebf bc66 133f ff68 0cbe ddd6 abbe
000000d0: c7a6 0abf 5915 32be e0d8 243e 1dae ce3e
000000e0: bd8a 02be d459 6dbe 8f1f 5abe eb4e ce3e
000000f0: 2b1a 0bbf bd79 773f bf74 bc3c 22ff 6e3f
-0.46913892 -0.40504843 0.05645173 0.270465 0.14069094 0.5075276 0.21709318 0.54213816
-0.84271526 -0.5455277 0.3964428 -0.17693533 0.8464906 0.4632395 0.2976805 0.37407172
-0.111212775 0.14192279 -0.15104689 0.4320458 0.19942896 -0.030516539 -0.013287897 0.15146932
0.6709478 -0.59777725 -0.67564577 1.4392136 0.25091183 -0.48469332 0.9906186 0.8605499
-0.25349823 0.61872494 0.7994127 -0.716198 1.2726384 -0.18408827 0.60423356 -0.007100906
0.390182 0.68074757 1.0272229 -0.23931873 -0.32632804 0.6239808 0.64803094 0.56797856
-0.80631727 0.57578635 -0.13711928 -0.33562365 -0.5416073 -0.17390956 0.16098356 0.40367213
-0.12748237 -0.23178798 -0.21301101 0.40294585 -0.54336804 0.9667013 0.023004888 0.9335805

network.5.running_var f4 [64]
00000000: fa19 323f 6aa3 a83f c90b 393f 6586 043f
00000010: b8db c63e e7eb 973f 1623 133f 756e 2d3f
00000020: d43b cd3f 5628 343f e943 983f 3d5f 133f
00000030: ce70 333f c500 f53e a5de 1e3f cafa 083f
00000040: f683 673f 23f2 693f 159a 003f e4df 813f
00000050: d56b 7c3f 0f37 743f 1f69 553f 0620 493f
00000060: b074 2d3f 5fec 543f 7376 6e3f 88c0 783f
00000070: c976 723f f456 bb3f cab1 223f 2b60 a03f
00000080: bdb2 b73e c3c6 3b3f de3d 853f e38a 1f3f
00000090: 9a62 693f 0028 cb3f b5ec 383f ce12 453f
000000a0: ee94 143f 05b6 883f 30b7 853f 552c 473f
000000b0: b252 293f 1278 183f e40d a03f 7e47 5e3f
000000c0: 9533 af3f e0bc 563f 41f1 0f3f 1998 033f
000000d0: 0bf9 a33e e698 8e3f ca97 7f3f ab7e 353f
000000e0: b69a 593f 967b 903f 3884 283f d429 333f
000000f0: 8ec3 8f3f 2cc4 613f 308e ce3e a9cb 743f
0.6957089 1.317487 0.7228361 0.5176757 0.38839507 1.1868867 0.5747541 0.6774667
1.6033883 0.7037405 1.1895725 0.575672 0.70094 0.4785215 0.6205848 0.53507674
0.9043573 0.91385096 0.5023511 1.0146451 0.9860204 0.9539651 0.8336353 0.7856449
0.67756176 0.83173174 0.9314949 0.9716878 0.947125 1.4635911 0.63552535 1.2529348
0.35878554 0.7335016 1.0409505 0.623213 0.9116608 1.5871582 0.72236186 0.7698182
0.5803975 1.0680548 1.0446529 0.7780202 0.6614181 0.5955821 1.2504239 0.8682784
1.3687617 0.8388195 0.562275 0.5140396 0.32025942 1.1140411 0.99840987 0.70896405
0.85001695 1.1287715 0.6582675 0.699857 1.1231554 0.8818996 0.40342855 0.9562326

network.8.weight f4 [32, 64]
00000000: 97a4 06bd 4dd0 703d c6f2 4fbd 8566 2bbe
00000010: 1fe3 973d 07cc cbbd 7896 e1bd 8b61 0cbe
00000020: b939 143e 2af1 cc3b 1a82 36be 455a 543d
00000030: a815 223c f3c3 cbbd 1951 2ebe 7cd5 873d
00000040: 9acf c93d f16b 893d 6e03 21bd 6964 ebbd
00000050: 2f0e 853b 9279 c5bd 8e43 e4bd 10fe 38be
00000060: ae0b 23bd c070 743d 868f b93d 50d1 42bc
00000070: 7180 27bd 68df 333d 703f 1d3d a53d 103c
00000080: faac 03bd 26a8 8fbd b882 48be 7f39 34be
00000090: 8f90 91bd 8871 163d 21b7 0fbe 5451 373d
000000a0: c580 d1bd a40d 093d f04d 98bd bf53 e33d
000000b0: 9c56 acbc 8fb2 a8bd 147b f9bd 07ae 47bd
000000c0: 0dae 3bbd 2206 50bd d109 093e 272d 653c
000000d0: d4cb ec3d 914c 653d 6888 edbb 64f6 25bd
000000e0: a3e1 dabc 6ae2 0cbe 42e3 bf3d a082 35bc
000000f0: 5fd4 99bd 8936 74bb c914 d2bb d98c 013d
00000100: ff5b 9bbd c681 473e 469e 8ebd 364c 7f3d
00000110: e6ec 323e 77cd 7b3d d68c 26be 3d8f 96bd
00000120: 4edf c03d f86d 34be 5bb7 373c 89ce a53d
00000130: f740 ddbd 47f3 ef3d 3c6d 8e3d b97e 0f3e
00000140: 1f9b 523c d73c c33d a58e e23d 7c7c 47be
00000150: c064 523d 2803 29bc 6aa9 3f3e 4970 fd3d
00000160: 8ae4 843a 1374 983d 3dea efbc 9a1b 943d
00000170: 8b09 033d 26fb 71bd bbd1 ab3d 8ced a93d
00000180: 5c0b 8e3d 80d3 053e c897 12bd 35c7 643d
00000190: bd33 a53d 87a9 283e a52f b53d 32a9 d83d
000001a0: cdf8 563c 2565 04bd 4b9a f8bb 61f4 9b3d
000001b0: 5d36 b53d 7374 8f3d 25b3 7dbd e36d ed3d
000001c0: c535 a63d 9a5b 32bd ee4d cc3d 9afc ec3d
000001d0: 5092 d0bd c541 953d f08a aa3d a23e 2fbc
000001e0: 951b bf3d bd13 983d cf48 c13c 4ae2 febc
000001f0: 6b75 0fbd 6f1b 713d 4d23 283e 1ff1 ec3b
00000200: 48ab cd3d d722 c83d 3636 023b 49ee 8d3d
00000210: 8306 7f3d 4545 cd3c b7a4 d2bd f9e2 15be
00000220: 4416 2fbe 12c8 eabd f6be 9e3d 3539 e33c
00000230: bf4d 723d 9bb5 82bc 5e85 393d 687f cd3d
00000240: da6c e8bd 53c8 d23d 6083 803d e6f4 293d
00000250: b26d d23d b5c0 8bbd a5f6 b33d 3708 5eba
00000260: f235 393a 019d a0bd 7297 273e 92b3 e63d
00000270: 6baa d7bd 38c0 8a3c 3081 953d 2cb8 1a3d
00000280: 90db 673d 5bba 163e 41ce 3c3d 23d8 1cbb
00000290: 30b8 5d3b 097e dbbd 5ebc b03d 8d3a 873d
000002a0: 8d80 02be b8bd 123e ea61 893d 756f ab3c
000002b0: 6abb 6fbd a54d ccbc 58fb 7ebc c6bf 213e
000002c0: 5d70 5bbd f50b 0f3c aa38 27bd 0363 f1bc
000002d0: 6c39 45bd f203 e4bc 2a74 9fbd ae42 433c
000002e0: de59 06be b350 9abd 571c 6cbd fb07 b9bb
000002f0: 6e2b 71bd 4011 ee3d 8947 1c3d 2684 993d
00000300: 8a26 df3d 6ba4 75bd f2de bcbd 1728 cbba
00000310: a6bc e63d 962d c5bc d364 873d 276d 313e
00000320: 316d 83bd 0ee3 3dbd 9ca0 bcbd 00cd d53c
00000330: bfa0 3c3c 392a 26be 358d 263e e93a 943c
00000340: 6c42 0fbe 0987 c53c f248 c9bd b32a 3bbd
00000350: 93ea d1bd 5afe 31bc d9d3 233d 66df 523d
00000360: 71b4 dbbd b437 26be 66e6 e6bd f860 e3bc
00000370: 413d 8e3d 26b3 babd cf0b 47bd 6a4d 43bd
00000380: 55b1 eb3d cd92 c13c 57e1 a63d 79e4 a7bc
00000390: 6b52 4cbe d54d 6ebd 96b9 b7bd 1832 a5bd
000003a0: 6645 a83d a68d b93d 7e7c c83d 64ec 0f3e
000003b0: 9510 08bc bb80 ab3d 7bd6 a13d 5f4d 1dbe
000003c0: 60d5 29bc 7f00 49be 2c0e b43d ce78 8a3d
000003d0: bd99 8e3d 31f0 ab3c 7f59 513d 44a1 483d
000003e0: 7c08 f43d 0294 1cbc 151c b63d e0e0 ad3b
000003f0: d836 293c 7027 033d 734c 15bd 0d6f d0bd
-0.03287181 0.0587924 -0.050768636 -0.16738327 0.07416367 -0.099510245 -0.11015028 -0.13709085
0.14475144 0.006254335 -0.17823067 0.0518439 0.009892859 -0.09949484 -0.17023124 0.06632516
0.0985405 0.06710041 -0.03930991 -0.11493761 0.0040605287 -0.09642328 -0.111456975 -0.18065667
-0.03980606 0.05967784 0.09060578 -0.011890724 -0.040893976 0.04391423 0.038390577 0.00880376
-0.032147385 -0.07014494 -0.19581115 -0.17600058 -0.071076505 0.036729366 -0.14034702 0.044755295
-0.10229639 0.033460274 -0.074367404 0.11099958 -0.021037392 -0.08237182 -0.121816784 -0.04874995
-0.045820285 -0.0507871 0.13382651 0.013987816 0.11562315 0.055981223 -0.007248927 -0.04051818
-0.02671892 -0.13758245 0.09369518 -0.011078507 -0.0751121 -0.003726395 -0.006411169 0.031628463
-0.07585906 0.19483098 -0.06963782 0.06232854 0.17473182 0.061475243 -0.16264662 -0.07351539
0.09417592 -0.17620075 0.011213149 0.08096034 -0.10803407 0.11716323 0.069544286 0.14013185
0.012854367 0.09533089 0.110623635 -0.19481081 0.051365614 -0.010315694 0.1871697 0.12374932
0.0010138911 0.074440144 -0.029286498 0.07231827 0.031991523 -0.059077404 0.08389612 0.082972616
0.069357604 0.13068962 -0.03578928 0.05585404 0.08066509 0.1647092 0.08846978 0.105791464
0.013120842 -0.03232302 -0.0075867525 0.07614971 0.088482596 0.07004633 -0.061938424 0.11593225
0.081157245 -0.04354439 0.099758014 0.115716174 -0.10184157 0.07287935 0.083272815 -0.010696085
0.09331433 0.0742564 0.023594288 -0.031113762 -0.035024088 0.058864053 0.16419716 0.0072308923
0.10042435 0.0977227 0.0019868738 0.06930215 0.06226207 0.025057444 -0.10285323 -0.14637364
-0.17098337 -0.11463942 0.07751267 0.02773724 0.059156176 -0.015955737 0.045293204 0.100340664
-0.11348887 0.10292115 0.06275058 0.04149332 0.10274829 -0.06823865 0.08787278 -0.0008469852
0.00070652284 -0.07842446 0.16366366 0.11264719 -0.105305515 0.01693736 0.07300031 0.037773296
0.056605875 0.14719526 0.046095137 -0.0023932538 0.0033831708 -0.10717399 0.08629678 0.066029646
-0.1274435 0.14330184 0.06708129 0.02092717 -0.05852834 -0.024939368 -0.015562855 0.15795812
-0.053573955 0.008730878 -0.040825523 -0.029466158 -0.048150465 -0.027833913 -0.077858284 0.011917753
-0.13120219 -0.075349234 -0.057644214 -0.0056467033 -0.05887931 0.11624384 0.03815416 0.074959084
0.108960226 -0.059971254 -0.09222211 -0.0015499619 0.112664506 -0.024069589 0.066110276 0.17326795
-0.06417311 -0.046359114 -0.09210321 0.026098728 0.011512934 -0.16227044 0.16264804 0.018094497
-0.13990182 0.024112241 -0.09828366 -0.045695018 -0.102498196 -0.010863865 0.039996956 0.05148258
-0.10727776 -0.16232187 -0.11274414 -0.0277562 0.06945277 -0.09116201 -0.048595246 -0.04768125
0.11508433 0.02362957 0.08148449 -0.020494686 -0.19953315 -0.058179695 -0.089709446 -0.08066195
0.08216362 0.090602204 0.0978937 0.1405502 -0.008304735 0.08374163 0.07902237 -0.15361546
-0.010365814 -0.19629095 0.087917656 0.06761323 0.06962917 0.020988556 0.05111074 0.04898192
0.11915681 -0.009556772 0.08892075 0.005306348 0.010328017 0.032020032 -0.03644986 -0.10177431

network.8.bias f4 [32]
00000000: 9804 543d 76fd 8ebd 72aa c9bb c11a 023d
00000010: cf92 4dbd 9dd3 8abd 8ee4 113d 274a d23d
00000020: 7ea8 cd3d bc92 433d caa0 f23b 1c2f 6b3d
00000030: 0a12 31bd bb76 c23d 0b30 843d 715e 00be
00000040: a98d e33d 0389 6d3b 3dde c1bd c5e3 4dbd
00000050: a93c f73d f4e3 dcbd cbe7 043d 4e16 2ebd
00000060: 6d81 cfbd fa6f 503d 3a7f 943d f85e fd3d
00000070: 2834 cebd 4fa9 8a3d f925 b83d c32f 80bb
0.051762193 -0.069819376 -0.006154352 0.031763796 -0.050188836 -0.06778643 0.035618357 0.1026805
0.10041903 0.04774736 0.0074044215 0.057417974 -0.043230094 0.09495302 0.06454476 -0.12536027
0.11111004 0.0036244995 -0.09466217 -0.050266046 0.12072117 -0.10785666 0.032447618 -0.04250174
-0.10132108 0.05088804 0.07250829 0.123716295 -0.10068542 0.06770574 0.08991618 -0.0039119436

network.9.weight f4 [32]
00000000: 60d0 843f 14d5 823f 2ba6 893f e800 883f
00000010: 9148 6e3f ee39 823f e670 773f e2a1 853f
00000020: 421f 643f f245 863f d289 893f 7626 833f
00000030: 89c3 7e3f 078d 773f 6c01 783f 073f 713f
00000040: e6cd 6b3f 3cdb 853f 4e94 883f bc9f 773f
00000050: 924d 8d3f 74c2 713f c03d 7a3f 183a 863f
00000060: 9409 6e3f 0483 813f 9d46 723f 8d4d 8b3f
00000070: b8b5 7a3f 0b73 843f 9a5a 8a3f e36e 783f
1.0376091 1.0221276 1.0753835 1.0625277 0.9307948 1.0173929 0.96656644 1.0440028
0.89110196 1.0490096 1.0745184 1.0246112 0.9951711 0.96699566 0.9687717 0.942368
0.9211105 1.045753 1.0670259 0.9672811 1.1039298 0.94437337 0.97750473 1.0486479
0.92983365 1.0118108 0.94639 1.0883042 0.9793353 1.0347608 1.0808899 0.970442

network.9.bias f4 [32]
00000000: 2f8a c13d 5ec8 cebc 75cf 9c3d 3e8d 133e
00000010: f497 36bd d4ed 333d ce0f 1d3d bd49 143d
00000020: 6872 cdbd 32c9 ab3d 827f a0bc 1324 f6bc
00000030: 9312 863c 5e61 74bd de38 b5bd 06d3 f3bc
00000040: e481 d4bd d4f0 dd3c 115a 703d 6607 9cbd
00000050: e11a c43d 132a babd ddd5 a8bd 2fdb de3c
00000060: d07c 203c ca09 a3bc fed4 14bd 86f4 1c3e
00000070: d490 abb9 6543 543d f056 963d ddf2 84bc
0.094501846 -0.025242027 0.07656757 0.14409348 -0.044578508 0.043927982 0.03834515 0.036203135
-0.10031587 0.08387984 -0.01959205 -0.030046498 0.016366279 -0.05966317 -0.08848737 -0.02976371
-0.10376337 0.027092375 0.058679644 -0.07618599 0.09575439 -0.09090056 -0.08243916 0.027204124
0.009795383 -0.019902129 -0.036335938 0.15327653 -0.00032723567 0.051822085 0.07340801 -0.016229087

network.9.running_mean f4 [32]
00000000: b10b 21bf 9695 643f aa2c 623e 051c 52bd
00000010: ba1a 0dbe a745 0abf af9c eabd a6ce 3bbd
00000020: bf45 1dbf 4e17 c4bd f4f7 99be 3f2c 4b3c
00000030: 3063 e33a 2b86 bdbe 3c4b 043f a4ce 28bf
00000040: f801 7f3e e5f8 6d3e 248e 5fbe 9d00 af3e
00000050: b639 e13e 6cbf ce3e bb24 d33e 0720 99be
00000060: bc74 2f3d b0b6 3d3f 3790 00be 9db7 d03b
00000070: f622 cdbe 2dd6 64be a0dd 29be 1f6a 56be
-0.62908465 0.8929075 0.2208735 -0.051296253 -0.13779727 -0.5401253 -0.11455666 -0.045851372
-0.6143455 -0.095747575 -0.30071986 0.012400686 0.0017348286 -0.37016425 0.516773 -0.6594031
0.24903095 0.23239477 -0.21831566 0.34180155 0.43989342 0.40380418 0.4123896 -0.29907247
0.042835936 0.74106884 -0.12555014 0.0063695447 -0.40065736 -0.22347327 -0.1658845 -0.2093892

network.9.running_var f4 [32]
00000000: 968d 4c3f d5a4 f83e f3b7 c83f 13e1 323f
00000010: 1a8d 273f e2df 8b3f 94a2 483f 5fd6 0e3f
00000020: e0ef ce3e c86a b83f c2e1 723f 4a99 4c3f
00000030: 9c67 6a3f 0226 4e3f ffd8 6e3f 8fe5 e13e
00000040: d7d3 773f c208 b63f f0de 733f ae89 763f
00000050: a828 713f 5e8b 163f 0d30 103f 3c03 7d3f
00000060: 8fe0 2f3f f562 a13f a853 843f 711d db3f
00000070: 5c84 8b3f 051c 863f f589 ad3f 53ca 433f
0.79903543 0.48563257 1.5681137 0.69874686 0.6544968 1.0927699 0.78373075 0.55795854
0.40417385 1.4407587 0.9487573 0.799214 0.91564345 0.80526745 0.9329986 0.44120452
0.96807617 1.4221423 0.9526205 0.9630383 0.9420266 0.5880641 0.5632332 0.9883306
0.68702024 1.2608324 1.033803 1.711836 1.0899768 1.0477301 1.3557726 0.764806
