ai-layer/model/results/10000_v2/dnn_oud_risk_model.pth (torch, 65493 bytes, 25 tensors)

network.0.weight f4 [128, 11]
0.019593313 0.23495144 0.13759546 -0.30114517 -0.0107855 -0.17739518 0.13309164 0.07753035
0.050370887 -0.1881628 0.044256948 0.10546971 0.036668774 0.10667082 -0.10011241 0.06683748
-0.20615876 0.018523742 -0.2709761 0.118978895 0.24366544 -0.21142891 0.30769384 -0.2774122
0.124348275 -0.09522585 -0.034692492 0.24497263 0.13122265 -0.25616926 0.052776333 -0.16458249
0.17588155 0.28079683 0.11681336 0.059955325 0.12602416 0.22561254 0.13632026 -0.3089567
-0.12876967 0.20102257 -0.1482155 0.118097976 -0.0049006594 -0.2566538 -0.19083738 0.074789435
-0.08759305 -0.21761422 -0.07489141 -0.12007592 -0.03735951 -0.16792674 -0.21183455 0.07954236
0.047783762 -0.09090465 -0.09493646 -0.16310057 -0.2635897 -0.028081836 -0.06568986 -0.24683414
0.25608066 0.2929053 0.27959472 0.21908033 0.20448093 0.26191738 0.053639203 0.297143
0.13381281 -0.17998235 0.09552539 0.12196746 -0.24935135 -0.1572783 -0.004308241 0.1629902
-0.10496364 0.17761597 -0.10457997 0.23206808 0.027666025 -0.27819636 -0.24168298 -0.18056542
-0.09234366 0.091751926 0.050924677 0.29892725 -0.20893593 0.29392886 2.2255042e-05 -0.024584144
0.03551622 0.004170937 0.1897971 -0.021553501 -0.14114863 -0.17751329 0.09008382 0.2402414
-0.19828223 -0.10876989 0.112041116 0.19599436 0.11648627 0.01726579 0.0055518104 -0.020957362
-0.20404913 -0.0054377 -0.21164085 0.066499904 0.30496714 0.10419887 0.24868312 0.11764202
-0.17361587 -0.10373474 0.224486 0.023786714 -0.19996102 0.21970353 -0.13283731 -0.22967404
-0.23907487 0.24648422 0.21716481 0.24258235 -0.16174473 -0.23723762 0.14468895 -0.04626269
-0.18365943 -0.1448714 0.24487594 0.023239944 -0.014996884 -0.13987505 -0.21452045 -0.13700657
-0.13997237 -0.2896731 -0.07390013 0.27167118 0.09495075 0.04674439 -0.09120315 -0.12178551
-0.2888481 0.14157625 0.26637334 0.037707463 -0.12848845 0.21787228 -0.2682882 0.01823765
-0.26147 0.08460762 0.112617575 0.16048655 -0.3093609 -0.21289498 0.13893515 -0.18905562
-0.2148983 0.25609258 -0.10726861 -0.029415023 -0.112405695 0.29041067 0.15882081 -0.26171166
-0.10992561 0.1329609 -0.28181 0.21337605 -0.04507179 0.25568542 -0.20112966 0.21440662
0.15586185 -0.02630376 0.021606246 0.16223668 0.1623749 0.042019207 0.2351303 -0.18227346
-0.28043002 -0.25726166 -0.06885254 -0.1927127 0.23481947 0.08976064 0.25179616 0.13538538
0.06210544 0.14123106 -0.12889794 0.130596 0.26322335 0.17363346 -0.27180046 -0.10396859
0.25433993 0.13452362 -0.021744763 0.2517397 -0.10900678 -0.01647407 -0.24129295 0.10499142
0.07524265 0.1921397 0.2876279 -0.119025536 0.1384145 0.14439069 0.062510125 0.03255108
-0.29740706 0.11368433 0.28860256 -0.03564484 0.0633405 -0.04197494 0.00048761535 -0.116092615
-0.18037733 -0.001119604 -0.28628504 -0.13206099 0.048537824 0.24103998 -0.27018192 0.20270221
0.06317479 0.16227427 -0.035422068 -0.29290932 0.04764827 -0.103642516 0.26165432 0.10885375
-0.27071348 0.016583558 -0.20864528 0.20801203 0.20031981 0.23750693 -0.071072124 0.052282196
00000000: 2882 a03c 1c97 703e d3e5 0c3e b32f 9abe
00000010: aab5 30bc 15a7 35be 2d49 083e 3bc8 9e3d
00000020: b451 4e3d c0ad 40be c646 353d 8100 d83d
00000030: ff31 163d 3b76 da3d bc07 cdbd 17e2 883d
00000040: 481b 53be 1abf 973c 61bd 8abe 35ab f33d
00000050: 6f83 793e d280 58be 0c8a 9d3e f908 8ebe
00000060: 4faa fe3d c505 c3bd b719 0ebd 1bda 7a3e
00000070: 3b5f 063e 9e28 83be ff2b 583d 5088 28be
00000080: 4b1a 343e 9ac4 8f3e d83b ef3d b793 753d
00000090: 7a0c 013e f906 673e 8a97 0b3e 932f 9ebe
000000a0: 32dc 03be dcd8 4d3e cec5 17be 5add f13d
000000b0: b695 a0bb 2068 83be e06a 43be 342b 993d
000000c0: fc63 b3bd 43d6 5ebe ab60 99bd 5dea f5bd
000000d0: 4906 19bd fdf4 2bbe 28eb 58be 1be7 a23d
000000e0: e8b8 433d 382c babd 0c6e c2bd d603 27be
000000f0: 3bf5 86be e10b e6bc 6888 86bd 17c2 7cbe
00000100: 011d 833e aff7 953e 0a27 8f3e 9856 603e
00000110: 7363 513e 091a 863e c8b4 5b3d 2123 983e
00000120: 3a06 093e 4b4d 38be d1a2 c33d 13ca f93d
00000130: f655 7fbe 900d 21be 252c 8dbb e7e6 263e
00000140: 2df7 d6bd f6e0 353e 062e d6bd 41a3 6d3e
00000150: dca3 e23c c16f 8ebe be7b 77be 24e6 38be
00000160: ac1e bdbd 6fe8 bb3d 6596 503d fe0c 993e
00000170: 4df3 55be d87d 963e 57b0 ba37 b064 c9bc
00000180: 7579 113d 5bac 883b 2c5a 423e f890 b0bc
00000190: 4489 10be 0bc6 35be de7d b83d d701 763e
000001a0: 7f0a 4bbe c0c2 debd d075 e53d bfb2 483e
000001b0: 5b90 ee3d fc70 8d3c f6eb b53b c6ae abbc
000001c0: 41f2 50be bc2e b2bb 61b8 58be 1a31 883d
000001d0: a724 9c3e 3866 d53d caa6 7e3e 4dee f03d
000001e0: 5cc8 31be e172 d4bd a8df 653e 5bdc c23c
000001f0: 95c2 4cbe f6f9 603e 8106 08be ac2f 6bbe
00000200: 0bd0 74be 5c66 7c3e 7460 5e3e 8267 783e
00000210: 69a0 25be 6bee 72be 5729 143e f27d 3dbd
00000220: 3811 3cbe 2b59 14be c2c0 7a3e b261 be3c
00000230: 7eb5 75bc 683b 0fbe 40ab 5bbe 734b 0cbe
00000240: eb54 0fbe 0850 94be f458 97bd 7c18 8b3e
00000250: 8a75 c23d 0c77 3f3d b8c8 babd ae6a f9bd
00000260: e6e3 93be 5df9 103e 1662 883e 2473 1a3d
00000270: 7a92 03be e919 5f3e 125d 89be 2067 953c
00000280: 65df 85be c346 ad3d 0ba4 e63d 9656 243e
00000290: 8d64 9ebe 2401 5abe 0445 0e3e cc97 41be
000002a0: 4d0e 5cbe 911e 833e a5af dbbd c6f7 f0bc
000002b0: f534 e6bd b5b0 943e eca1 223e 12ff 85be
000002c0: ae20 e1bd e726 083e 6649 90be 407f 5a3e
000002d0: 339d 38bd 33e9 823e eff4 4dbe 698d 5b3e
000002e0: 409a 1f3e fc7a d7bc 95ff b03c 5f21 263e
000002f0: 9b45 263e 551c 2c3d ffc5 703e e5a5 3abe
00000300: 8694 8fbe cdb7 83be 8f02 8dbd 7a56 45be
00000310: 8474 703e 6dd4 b73d 6deb 803e 77a2 0a3e
00000320: 4662 7e3d e09e 103e d2fd 03be f5ba 053e
00000330: 36c5 863e f8cc 313e 6e29 8bbe 7ced d4bd
00000340: d838 823e 8fc0 093e 1322 b2bc 07e4 803e
00000350: f23e dfbd a1f4 86bc 8015 77be be05 d73d
00000360: d218 9a3d 45c0 443e f743 933e a9c3 f3bd
00000370: 88bc 0d3e 27db 133e 4f05 803d 4854 053d
00000380: bd45 98be 54d3 e83d b7c3 933e 5300 12bd
00000390: aab8 813d eaed 2bbd a0a6 ff39 f7c1 edbd
000003a0: d6b4 38be adbf 92ba f493 92be ff3a 07be
000003b0: 99cf 463d 2fd3 763e 4955 8abe 2b91 4f3e
000003c0: c961 813d 3a2b 263e bb16 11bd 36f8 95be
000003d0: d52a 433d 8742 d4bd 8ef7 853e b7ee de3d
000003e0: f59a 8abe 3eda 873c 1ca7 55be 1b01 553e
000003f0: a320 4d3e 0435 733e 438e 91bd db25 563d

network.0.bias f4 [128]
-0.026617285 0.16901204 0.028732212 0.2766505 -0.07877745 0.17757483 -0.10659369 0.07387529
0.06385505 -0.21211796 -0.11176294 0.021088172 0.27392206 -0.099937186 0.10296089 -0.11400827
-0.27441272 -0.09719764 -0.014685872 0.26306367 -0.23564048 0.2729826 0.17490928 -0.15001778
-0.2454018 -0.0746669 0.28570977 0.12799257 0.18289231 0.033675224 0.18779677 -0.03612367
0.19615552 -0.16616786 0.12364988 -0.11917191 0.018810106 0.07529346 0.09286973 0.13089691
0.13686585 0.17110181 -0.25832194 0.00093384046 -0.15761305 -0.09288588 0.106138326 -0.22423361
0.08397244 -0.23440118 0.059440903 0.108268596 -0.12379871 0.084917784 0.226158 0.15642978
0.2500195 0.126645 -0.120776705 -0.014027768 0.26417658 -0.22960739 0.2790709 -0.023799911
0.2510842 0.2660746 -0.11290217 -0.21840182 -0.15064333 0.25695714 0.082774974 -0.2797942
0.07641034 0.15596807 -0.21672194 -0.27454376 -0.26802588 0.19138767 -0.18005052 -0.01065981
-0.24478683 -0.0440988 -0.07740465 0.10723234 -0.03203496 0.18737105 -0.26447412 -0.08172555
-0.13201953 -0.20850569 0.1789608 0.2124233 -0.20394903 -0.025841204 -0.16826922 -0.19233334
-0.029832669 0.29337403 0.1353617 0.053756014 -0.12031429 0.21574488 -0.13909268 0.0026056133
0.21359521 -0.049386915 -0.055346914 -0.028825697 -0.11864978 -0.15247388 0.07501508 -0.08943993
-0.17509818 0.17334203 -0.20362945 -0.06229738 -0.018744234 -0.03032929 -0.17361102 -0.18216959
0.07473861 0.30154195 0.11200099 -0.25378087 -0.12989119 -0.040916845 -0.10125339 0.10735381
00000000: 7e0c dabc 7e11 2d3e d15f eb3c 22a5 8d3e
00000010: 1256 a1bd 2dd6 353e cb4d dabd ee4b 973d
00000020: 70c6 823d 7335 59be f8e3 e4bd 1ac1 ac3c
00000030: 833f 8c3e deab ccbd 29dd d23d 2b7d e9bd
00000040: d37f 8cbe 8e0f c7bd 039d 70bc 48b0 863e
00000050: bd4b 71be 60c4 8b3e 6b1b 333e 439e 19be
00000060: 9c4a 7bbe f6ea 98bd 8d48 923e 7c10 033e
00000070: 1f48 3b3e 08ef 093d cc4d 403e 6af6 13bd
00000080: fedc 483e e827 2abe 263c fd3d 6710 f4bd
00000090: a717 9a3c 7533 9a3d 7c32 be3d d709 063e
000000a0: 9026 0c3e 5035 2f3e c642 84be f9cc 743a
000000b0: 5165 21be f43a bebd 0d5f d93d 7f9d 65be
000000c0: bef9 ab3d dd06 70be 4e78 733d edbb dd3d
000000d0: 2e8a fdbd 60e9 ad3d f695 673e 212f 203e
000000e0: 8e02 803e 3aaf 013e c759 f7bd b9d4 65bc
000000f0: 2742 873e 331e 6bbe 62e2 8e3e 08f8 c2bc
00000100: 1c8e 803e ee3a 883e 4139 e7bd baa4 5fbe
00000110: 3f42 1abe e38f 833e ed85 a93d 2f41 8fbe
00000120: 067d 9c3d 18b6 1f3e 5bec 5dbe 0091 8cbe
00000130: b03a 89be 21fb 433e 2a5f 38be 7ca6 2ebc
00000140: 66a9 7abe f1a0 34bd 5486 9ebd a19c db3d
00000150: 1737 03bd 32de 3f3e 2769 87be ba5f a7bd
00000160: 2130 07be 8482 55be 8041 373e 7e85 593e
00000170: 04d8 50be efb0 d3bc c44e 2cbe 08f3 44be
00000180: a463 f4bc 1f35 963e 429c 0a3e 442f 5c3d
00000190: 5767 f6bd 3aec 5c3e 506e 0ebe f0c2 2a3b
000001a0: b4b8 5a3e ef49 4abd 72b3 62bd de23 ecbc
000001b0: a8fe f2bd 1d22 1cbe 82a1 993d 482c b7bd
000001c0: f04c 33be 9380 313e 3d84 50be 8a2b 7fbd
000001d0: 828d 99bc 2275 f8bc 16c7 31be aa8a 3abe
000001e0: 8e10 993d b563 9a3e c660 e53d 91ef 81be
000001f0: 3202 05be 6c98 27bd f05d cfbd 50dc db3d

network.1.weight f4 [128]
0.99282444 1.0172809 1.0218722 0.98749185 1.0150596 0.9908563 0.9787784 0.98242366
0.9724292 1.0021416 1.0092484 0.9957313 0.99877656 0.9882694 0.9958166 0.997365
1.0213025 0.99697316 0.9751648 0.99221855 0.98668826 0.9935397 0.98972666 1.035946
1.0029876 0.99092495 0.9944877 1.0067838 0.99593806 1.0139915 1.0180151 1.0132306
1.0606699 0.9819488 1.0341477 1.0210636 1.0204484 1.021956 1.0200591 0.9769319
0.9952815 0.9803883 1.0025499 1.0074226 0.9971087 0.992908 1.0084299 1.0006379
1.0177149 0.995486 1.0042864 0.9944244 0.98377854 0.9846725 1.003373 0.9956653
0.9982014 0.99108535 1.0126538 1.003112 1.0200135 0.9819203 0.986758 1.0049499
1.0129507 0.99871 0.98482794 1.0133985 0.99520326 1.0204471 1.042219 0.9899369
0.97737324 0.9842341 0.9895436 0.99757886 1.0447115 0.99795836 0.98329633 0.9874388
0.99455744 0.99651366 1.0141041 1.0301678 1.0126021 0.9733558 0.9905432 0.99205756
0.9857213 0.9961198 1.0050899 0.990001 0.9790816 1.0049669 0.9770675 0.9889445
1.0083667 1.0214405 0.99770474 1.0113326 1.0160061 1.023879 1.0220113 0.99687916
0.99707633 1.0074221 1.039281 0.9746567 1.0151399 0.98206055 0.999432 0.9867079
1.0008241 0.98802745 1.0123873 0.98978883 1.0007666 1.0182498 1.0080533 0.9767208
0.98502874 1.0159327 0.99457794 0.99449086 0.9987137 0.99372226 1.0048776 1.0007216
00000000: be29 7e3f 4336 823f b5cc 823f 44cc 7c3f
00000010: 79ed 813f c2a8 7d3f 3991 7a3f 1e80 7b3f
00000020: 1ff1 783f 2d46 803f 0d2f 813f 3fe8 7e3f
00000030: d2af 7f3f 39ff 7c3f d6ed 7e3f 5053 7f3f
00000040: 0aba 823f a239 7f3f 66a4 793f 0902 7e3f
00000050: 9a97 7c3f 9e58 7e3f ba5e 7d3f e199 843f
00000060: e661 803f 42ad 7d3f bf96 7e3f 4bde 803f
00000070: ccf5 7e3f 79ca 813f 524e 823f 8ab1 813f
00000080: 08c4 873f ff60 7b3f f45e 843f 36b2 823f
00000090: 0e9e 823f 74cf 823f 4c91 823f 3618 7a3f
000000a0: c5ca 7e3f bafa 7a3f 8e53 803f 39f3 803f
000000b0: 8442 7f3f 382f 7e3f 3b14 813f e714 803f
000000c0: 7b44 823f 2cd8 7e3f 758c 803f 9992 7e3f
000000d0: e9d8 7b3f 7f13 7c3f 876e 803f ece3 7e3f
000000e0: 208a 7f3f c5b7 7d3f a49e 813f f965 803f
000000f0: cd8f 823f 215f 7b3f 2c9c 7c3f 33a2 803f
00000100: 5ea8 813f 75ab 7f3f af1d 7c3f 0bb7 813f
00000110: a4c5 7e3f 039e 823f 6f67 853f 816c 7d3f
00000120: 2235 7a3f c4f6 7b3f bb52 7d3f 5461 7f3f
00000130: 1bb9 853f 337a 7f3f 4fb9 7b3f cac8 7c3f
00000140: 519b 7e3f 851b 7f3f 2ace 813f 8adc 833f
00000150: f29c 813f d92d 793f 3d94 7d3f 7cf7 7d3f
00000160: 3b58 7c3f b501 7f3f c9a6 803f b570 7d3f
00000170: 17a5 7a3f c1a2 803f 1821 7a3f 772b 7d3f
00000180: 2912 813f 90be 823f 9469 7f3f 5973 813f
00000190: 7d0c 823f 780e 833f 44d1 823f 7933 7f3f
000001a0: 6540 7f3f 35f3 803f 2907 853f 1a83 793f
000001b0: 1bf0 813f 5268 7b3f c7da 7f3f e498 7c3f
000001c0: 011b 803f 5eef 7c3f e895 813f cd62 7d3f
000001d0: 1f19 803f 0256 823f e407 813f 600a 7a3f
000001e0: d82a 7c3f 150a 823f a99c 7e3f f496 7e3f
000001f0: b3ab 7f3f 9564 7e3f d49f 803f a517 803f

network.1.bias f4 [128]
0.002301277 0.03501018 0.006281961 -0.0048135207 0.004403151 -0.0017604799 -0.010822892 -0.021258641
-0.027446806 0.00015230334 0.017978953 -0.007828093 0.0071641686 -0.013062567 -0.022126177 -0.00520329
0.03959616 0.0040060957 -0.03787905 -0.004579832 -0.015492713 -0.010596333 -0.017252227 0.019820372
0.005942297 -0.009083012 0.012486445 0.005747767 0.0075300494 0.005574941 0.01751725 0.003168494
0.050128788 -0.008751036 0.033409763 0.009178019 0.01904054 0.015078963 0.020189235 -0.021491572
-0.013103303 -0.019916654 -0.0013564411 0.014465861 0.004544055 0.0070526204 0.002651019 0.0015438383
0.024797687 0.003964746 0.00801435 -0.010096055 0.0012175612 -0.0033214567 -0.0035254336 -0.0059941052
0.0063571385 -0.0066829035 0.009212315 0.008814597 0.019447647 -0.018730737 0.00053324696 0.005777519
0.015854446 0.0032072393 -0.0071805073 0.03113935 -0.00048312655 0.006710239 0.039798666 -0.011020229
-0.033896055 -0.0008175974 -0.027452681 0.0029870078 -0.011450908 -0.011286195 -0.017336188 -0.005124003
-0.0065590986 -0.006623325 0.008601277 0.03194379 0.010160755 -0.03636725 -0.005259011 -0.02059345
-0.00960709 0.006421776 0.0058604493 0.00038462388 -0.018173628 0.0050189043 -0.019646907 -0.032889947
0.007138648 0.009038826 -0.012344407 0.027116146 0.012807761 0.020037793 0.012088509 1.4805213e-05
0.002851232 0.010389105 -0.018402928 -0.026110664 0.006365145 -0.0051743193 -0.0008597168 -0.0036455712
0.016109128 -0.012450787 0.0132678775 -0.0034963721 -0.0020137576 0.020610241 0.0058759935 -0.018599654
-0.00943828 0.025434097 0.0033889709 -0.018879957 -0.03412995 0.006537036 -0.0030648534 0.0020909114
00000000: 05d1 163b d666 0f3d e9d8 cd3b bdba 9dbb
00000010: 4f48 903b e7bf e6ba 8052 31bc 9a26 aebc
00000020: 20d8 e0bc 9eb3 1f39 9948 933c 6741 00bc
00000030: 67c1 ea3b 6104 56bc f541 b5bc 5c80 aabb
00000040: 952f 223d 9145 833b 1027 1bbd 6a12 96bb
00000050: 26d5 7dbc 3e9c 2dbc 8b54 8dbc 555e a23c
00000060: 9ab7 c23b ead0 14bc f293 4c3c c457 bc3b
00000070: a2be f63b ffad b63b 5680 8f3c 82a6 4f3b
00000080: d853 4d3d 8160 0fbc add8 083d 675f 163c
00000090: e8fa 9b3c c10d 773c e563 a53c 180f b0bc
000000a0: 3caf 56bc 4028 a3bc 9cca b1ba 3802 6d3c
000000b0: 4ce6 943b ab19 e73b b8bc 2d3b 9e5a ca3a
000000c0: 8524 cb3c b3ea 813b 9f4e 033c ed69 25bc
000000d0: 9396 9f3a ccac 59bb f60a 67bb 336a c4bb
000000e0: 8b4f d03b 42fc dabb 40ef 163c 196b 103c
000000f0: ac50 9f3c 3471 99bc 99c9 0b3a 5851 bd3b
00000100: 2fe1 813c 8c30 523b 764a ebbb f317 ff3c
00000110: 264c fdb9 91e1 db3b ed03 233d 318e 34bc
00000120: 97d6 0abd 0854 56ba 72e4 e0bc adc1 433b
00000130: 979c 3bbc bce9 38bc 9f04 8ebc 41e7 a7bb
00000140: b5ed d6bb 7a08 d9bb 5fec 0c3c 7ed7 023d
00000150: 4c79 263c d3f5 14bd c853 acbb 98b3 a8bc
00000160: 0e67 1dbc c36d d23b 0309 c03b 58a7 c939
00000170: dce0 94bc 9f75 a43b 8df2 a0bc 9cb7 06bd
00000180: 52eb e93b 9617 143c 3240 4abc ae22 de3c
00000190: a5d7 513c 4c26 a43c e20e 463c e863 7837
000001a0: bcdb 3a3b 1137 2a3c bdc1 96bc 08e6 d5bc
000001b0: b592 d03b 568d a9bb 9e5e 61ba 89ea 6ebb
000001c0: 4af7 833c 63fe 4bbc 8361 593c 6423 65bb
000001d0: 3ff9 03bb cfd6 a83c 688b c03b 4d5e 98bc
000001e0: 04a3 1abc 2b5b d03c 7f19 5e3b 24aa 9abc
000001f0: d9cb 0bbd a234 d63b b5db 48bb ac07 093b

network.1.running_mean f4 [128]
-0.04604984 0.15900749 0.041611068 0.3308961 -0.097563684 0.15040788 -0.050405517 0.07258105
0.095888935 -0.23399167 -0.15195255 0.0194281 0.24057996 -0.10202612 0.117322244 -0.13872777
-0.25551564 -0.08195106 0.0020857616 0.23430194 -0.23848131 0.23137286 0.18752846 -0.16384214
-0.21851426 -0.089682885 0.2973615 0.14388406 0.1939914 0.020209238 0.17838033 -0.06485773
0.19441839 -0.13613415 0.14700712 -0.10290458 0.035613183 0.05650112 0.1326006 0.17974761
0.116810374 0.20517915 -0.25513995 0.008604023 -0.16731021 -0.05210623 0.08885596 -0.22332312
0.09262129 -0.2632357 0.018196031 0.12537219 -0.100396626 0.13315476 0.21852772 0.10748445
0.25007465 0.13297239 -0.12997665 -0.025325254 0.2592216 -0.21481101 0.22797212 -0.059404694
0.234409 0.23431982 -0.1153366 -0.2294176 -0.13074721 0.26902542 0.09511511 -0.24640514
0.08871848 0.12892716 -0.18947536 -0.2835146 -0.2566763 0.17037787 -0.20027946 0.0016820529
-0.22420907 -0.07378992 -0.06692307 0.15030107 -0.021216776 0.21108463 -0.27675506 -0.06972985
-0.1364317 -0.23411703 0.1447942 0.17717451 -0.17235726 -0.050570358 -0.20466076 -0.17605284
-0.016637882 0.26125926 0.15449426 0.02966083 -0.11387958 0.21929075 -0.1200117 0.0010619975
0.27291104 -0.03330957 -0.06844692 -0.017422784 -0.11287216 -0.19112651 0.06779556 -0.062167294
-0.19709407 0.19661425 -0.19158831 -0.012218043 -0.016325183 -0.094633855 -0.19149727 -0.17155561
0.069392115 0.272022 0.10855597 -0.2428679 -0.12544969 -0.060484394 -0.09845207 0.082712375
00000000: c29e 3cbd dcd2 223e 5e70 2a3d 376b a93e
00000010: 78cf c7bd 8604 1a3e 0476 4ebd 60a5 943d
00000020: 6b61 c43d 839b 6fbe 7399 1bbe ae27 9f3c
00000030: 985a 763e 12f3 d0bd a546 f03d a70e 0ebe
00000040: f2d2 82be f5d5 a7bd 46b1 083b d9ec 6f3e
00000050: 7234 74be 02ed 6c3e 7607 403e 3cc6 27be
00000060: 34c2 5fbe a9ab b7bd c43f 983e 5856 133e
00000070: aea5 463e d88d a53c 55a9 363e 21d4 84bd
00000080: 9d15 473e c066 0bbe 0989 163e a3bf d2bd
00000090: 21df 113d b86d 673d 74c8 073e c20f 383e
000000a0: 473a ef3d 7c1a 523e b4a1 82be e3f7 0c3c
000000b0: 5e53 2bbe 586d 55bd 1dfa b53d d1ae 64be
000000c0: 3bb0 bd3d d4c6 86be d80f 953c 9161 003e
000000d0: bf9c cdbd b959 083e bbc5 5f3e cf20 dc3d
000000e0: c909 803e ea29 083e 9918 05be e876 cfbc
000000f0: b2b8 843e 6bf7 5bbe 8671 693e 5652 73bd
00000100: ea08 703e 89f1 6f3e 9835 ecbd 73ec 6abe
00000110: 99e2 05be b3bd 893e b6cb c23d a151 7cbe
00000120: 09b2 b53d 7b05 043e d405 42be d328 91be
00000130: 136b 83be 8977 2e3e 0f16 4dbe 5478 dc3a
00000140: 1097 65be 2b1f 97bd f60e 89bd 86e8 193e
00000150: cece adbc 9226 583e d7b2 8dbe 86ce 8ebd
00000160: c0b4 0bbe 60bc 6fbe ee44 143e 3c6d 353e
00000170: 6c7e 30be dd22 4fbd 9792 51be 3247 34be
00000180: 2b4c 88bc c6c3 853e be33 1e3e 45fb f23c
00000190: b239 e9bd c18d 603e b2c8 f5bd b932 8b3a
000001a0: ffba 8b3e 9e6f 08bd e62d 8cbd 3aba 8ebc
000001b0: 8529 e7bd abb6 43be 66d8 8a3d 22a3 7ebd
000001c0: 07d3 49be 3f55 493e ba2f 44be 302e 48bc
000001d0: 64bc 85bc 65cf c1bd dc17 44be 46ac 2fbe
000001e0: 741d 8e3d 7846 8b3e 9852 de3d 5db2 78be
000001f0: e275 00be 7cbe 77bd 3da1 c9bd 1b65 a93d

network.1.running_var f4 [128]
0.09090836 0.050552297 0.10652329 0.42367998 0.69774956 0.36910978 1.385427 0.31486112
0.47223076 0.2501468 0.43068922 0.24156691 0.28454086 0.72594553 0.36507037 0.4475365
0.13806753 0.44808102 0.6415332 0.3498037 0.44220006 0.3363019 0.37788475 0.076188706
0.6881117 0.66393286 0.68496525 0.23248494 0.12137904 0.07708195 0.2749521 1.1253293
0.053253338 0.114729695 0.21940209 0.09738164 0.86167175 0.20965979 0.7982716 0.63469076
0.2965984 0.52899736 0.34652042 0.25306574 0.38715175 0.22155641 0.4052666 0.1451693
0.22800085 0.20762666 0.32358646 0.25489315 0.44158122 0.56561315 0.18324631 0.63359976
0.11341469 0.2142391 0.20779416 0.09532484 0.26379064 0.6982696 0.2809562 0.43012333
0.09636675 0.33515286 0.8683064 0.80386424 0.19104528 0.59452087 0.44513816 0.43944123
0.26732284 0.50311375 0.43578103 0.104234695 0.22813003 0.42842653 0.3683953 0.30045444
0.09239205 0.42968524 0.19776061 0.4794255 0.50675493 0.42358044 0.3129493 0.44336703
0.31872478 0.32436866 0.5497575 0.1231391 0.54517907 0.9512864 0.27497002 0.17679103
0.29230487 0.33865163 0.40651387 0.2656571 0.25254914 0.094826475 0.22434768 0.13305597
0.54555124 0.2269945 0.14473921 0.22010246 0.45735767 0.536304 0.06917942 0.2774396
0.120099075 0.4322256 0.07950383 0.43143395 0.34873968 0.6581324 0.098425865 0.1230145
0.35514465 0.1916984 0.4713391 0.14684463 0.3212 0.103940375 0.08460673 0.32654583
00000000: 2a2e ba3d ed0f 4f3d e228 da3d 95ec d83e
00000010: b79f 323f f5fb bc3e ac55 b13f 7a35 a13e
00000020: 3bc8 f13e 3e13 803e 4c83 dc3e 515d 773e
00000030: 57af 913e 91d7 393f 81ea ba3e 8123 e53e
00000040: 9361 0d3e e06a e53e 853b 243f 7819 b33e
00000050: 0c68 e23e c32f ac3e 1c7a c13e d308 9c3d
00000060: 1728 303f 81f7 293f e259 2f3f 8810 6e3e
00000070: 9395 f83d 24dd 9d3d 86c6 8c3e ca0a 903f
00000080: 2c20 5a3d 67f7 ea3d f1aa 603e 0670 c73d
00000090: 8596 5c3f 0eb1 563e 875b 4c3f 187b 223f
000000a0: bfdb 973e 5f6c 073f 206b b13e d591 813e
000000b0: c138 c63e afdf 623e 1b7f cf3e 43a7 143e
000000c0: 0e79 693e 159c 543e 20ad a53e 5b81 823e
000000d0: ef16 e23e 06cc 103f eca4 3b3e 9833 223f
000000e0: f645 e83d 7f61 5b3e fec7 543e ab39 c33d
000000f0: 910f 873e ccc1 323f 7ed9 8f3e 2039 dc3e
00000100: ee5b c53d 2899 ab3e 5449 5e3f 0cca 4d3f
00000110: 60a1 433e 8532 183f 26e9 e33e 71fe e03e
00000120: 8ade 883e 10cc 003f b11e df3e 0079 d53d
00000130: eb9a 693e b95a db3e 4f9e bc3e 2ad5 993e
00000140: 0b38 bd3d b4ff db3e c281 4a3e 4277 f53e
00000150: b1ba 013f 89df d83e e43a a03e 0101 e33e
00000160: e52f a33e a613 a63e e8bc 0c3f 5a30 fc3d
00000170: db90 0b3f 8187 733f dfc8 8c3e b508 353e
00000180: fca8 953e bf63 ad3e 9622 d03e 3504 883e
00000190: 1f4e 813e 6234 c23d 66bb 653e d33f 083e
000001a0: 3fa9 0b3f 3f71 683e 8436 143e 8a62 613e
000001b0: c92a ea3e 384b 093f f1ad 8d3d 900c 8e3e
000001c0: 81f6 f53d ad4c dd3e e7d2 a23d e9e4 dc3e
000001d0: 028e b23e 5d7b 283f 8093 c93d 07ef fb3d
000001e0: 85d5 b53e 964c 443e 5c53 f13e 705e 163e
000001f0: 5474 a43e b1de d43d 4b46 ad3d 0431 a73e

network.4.weight f4 [64, 128]
-0.0022514514 -0.011676126 -0.055376966 -0.05762903 -0.06941851 -0.007076142 0.05112058 0.066506416
0.0019504095 -0.08306091 -0.09385076 -0.047602963 -0.03672741 0.07405642 -0.059669264 0.059732422
0.005783986 0.013861342 0.0017336142 0.024188152 -0.015264746 -0.037030485 -0.06682735 0.012094215
-0.06151815 0.017713169 -0.06869285 0.09435748 0.040350657 -0.037535287 -0.08055222 0.006531677
0.0036057022 0.07481359 0.09579074 0.1209657 -0.065211736 0.018840468 0.014576378 -0.05622823
-0.06527093 0.007504013 0.024166966 0.0662205 0.04413307 -0.02141908 0.043350123 -0.0030116297
0.07331447 -0.07246163 -0.04789312 -0.07118169 -0.006496493 0.022487009 -0.018751768 0.050705846
-0.06538135 -0.06775838 0.014261028 -0.09518236 -0.08421889 -0.02278142 -0.009766096 -0.09844027
0.040856138 -0.032173827 0.011697078 0.014356321 -0.06232409 0.033095453 0.08252457 0.08335189
-0.011811762 0.053512312 -0.052493807 -0.057008233 -0.011663269 0.026543288 0.017211266 -0.03009606
0.011258501 0.08346386 0.0942274 -0.054227483 -0.04257461 -0.03589293 -0.0854131 -0.052125737
0.036247253 0.017246155 0.057637002 0.00012545404 -0.030906543 0.06925498 0.0688672 -0.07487849
-0.07287711 -0.047957994 -0.07700081 0.054342166 -0.036192715 0.030186161 -0.06177223 0.0076287664
0.054656576 -0.06865907 -0.0041390657 0.04612797 -0.030044027 -0.03487982 -0.053825878 0.040976956
0.037553586 0.087321736 -0.031252354 0.03940225 0.032287583 -0.09716628 -0.0063806185 0.043452255
0.056388196 -0.046945468 0.0583731 -0.052482482 -0.052406143 -0.0009484431 -0.0061339447 -0.075044
-0.08533113 -0.0021503514 0.019055465 0.07297745 -0.003346821 0.044091973 0.032031335 0.08116281
0.05970356 0.07944226 -0.0033904565 -0.07969382 -0.06495944 -0.028444994 -0.08110357 -0.06191734
-0.014877983 -0.07524332 -0.06788739 -0.035143238 -0.016793625 0.06154595 0.026873631 -0.08938734
-0.042120438 -0.010177058 0.0017616273 0.0076159844 0.015934024 -0.027169934 -0.043945994 -0.008606479
-0.0670092 -0.023734456 0.10102182 0.06024138 -0.03985017 -0.06593406 -0.068505034 0.020942427
-0.07181097 0.066498265 -0.02316846 0.01702904 0.072704084 0.07167106 0.0044424 0.057094634
0.09080352 -0.07392244 0.01267509 0.01939614 0.05608671 0.018657118 -0.09186509 0.037201528
0.0486887 -0.019521331 -0.06615675 -0.08219606 -0.026912734 -0.016033104 -0.048222493 -0.038241692
0.038553495 0.011464797 -0.04520765 0.006414292 -0.104648545 0.037253596 0.06295256 0.015557366
0.0011122401 0.043512553 0.046954036 -0.08027664 0.00017216368 0.06833235 0.043949284 -0.055759083
0.03355303 0.079960026 0.08418803 0.03602041 0.0019012218 0.021244718 0.03352046 -0.011273076
0.028586846 0.008469879 0.0711163 -0.044313535 0.044862896 0.005322582 -0.088104926 -0.07805348
0.01554864 -0.07390812 0.05195296 -0.050364554 0.104939096 -0.021730337 -0.063525796 0.026933366
6.49507e-05 0.06629627 -0.0015845444 0.06303979 -0.04032904 -0.005241329 0.07665053 -0.03193983
-0.052050844 -0.058206834 0.013127473 0.059543267 -0.057224285 0.03704445 0.002950616 0.0061535765
-0.0167244 -0.07655572 0.010559957 0.064783834 -0.10327223 -0.02923139 0.025409427 0.05332477
00000000: 168d 13bb 394d 3fbc f5d2 62bd 6b0c 6cbd
00000010: 4b2b 8ebd fbde e7bb d063 513d 8434 883d
00000020: e2a4 ff3a d71b aabd d434 c0bd 53fb 42bd
00000030: 7b6f 16bd e4aa 973d c267 74bd fca9 743d
00000040: 9787 bd3b af1a 633c 713a e33a 3b26 c63c
00000050: fc18 7abc 47ad 17bd c7dc 88bd d026 463c
00000060: 75fa 7bbd 351b 913c d6ae 8cbd 7f3e c13d
00000070: bb46 253d 9abe 19bd 90f8 a4bd ae07 d63b
00000080: a54d 6c3b de37 993d ef2d c43d ddbc f73d
00000090: bb8d 85bd 5357 9a3c c3d1 6e3c 934f 66bd
000000a0: c4ac 85bd 39e4 f53b cdf9 c53c 9d9e 873d
000000b0: e1c4 343d 1177 afbc e68f 313d c35e 45bb
000000c0: e625 963d c366 94bd 942b 44bd b5c7 91bd
000000d0: 88e0 d4bb ad36 b83c 4f9d 99bc efb0 4f3d
000000e0: a8e6 85bd e8c4 8abd 16a7 693c f8ee c2bd
000000f0: f47a acbd 1aa0 babc fa01 20bc 0d9b c9bd
00000100: c458 273d b4c8 03bd 1aa5 3f3c c636 6b3c
00000110: 8c47 7fbd 198f 073d a402 a93d 65b4 aa3d
00000120: 1f86 41bc ba2f 5b3d bf03 57bd 7781 69bd
00000130: 4c17 3fbc 4f71 d93c a4fe 8c3c 038c f6bc
00000140: 9375 383c 1aef aa3d 4cfa c03d a31d 5ebd
00000150: b762 2ebd 7704 13bd 10ed aebd cc81 55bd
00000160: 0078 143d cf47 8d3c c714 6c3d 508c 0339
00000170: b82f fdbc 8ed5 8d3d 3f0a 8d3d e559 99bd
00000180: 9840 95bd 9a6f 44bd 9ab2 9dbd e495 5e3d
00000190: d03e 14bd f848 f73c e104 7dbd bbfa f93b
000001a0: 93df 5f3d 209d 8cbd 00a1 87bb aff0 3c3d
000001b0: e41e f6bc 24de 0ebd 8678 5cbd 74d7 273d
000001c0: cad1 193d bdd5 b23d 7802 00bd 4164 213d
000001d0: fc3f 043d 1dff c6bd 8214 d1bb fefa 313d
000001e0: 4ff7 663d e449 40bd a218 6f3d dff7 56bd
000001f0: d3a7 56bd f0a0 78ba 42ff c8bb abb0 99bd
00000200: 16c2 aebd e9ec 0cbb 351a 9c3c 3475 953d
00000210: 5756 5bbb c999 343d 4a33 033d b038 a63d
00000220: b88b 743d a0b2 a23d 6c32 5ebb 8336 a3bd
00000230: 7409 85bd 7a05 e9bc a119 a6bd 099d 7dbd
00000240: c9c2 73bc 2b19 9abd 8b08 8bbd 5bf2 0fbd
00000250: c992 89bc 9b17 7c3d 1726 dc3c b610 b7bd
00000260: 7b86 2cbd adbd 26bc 67e6 e63a 828f f93b
00000270: 1288 823c 7b93 debc b700 34bd 3002 0dbc
00000280: 1f3c 89bd c36e c2bc 87e4 ce3d aabf 763d
00000290: ef39 23bd 7008 87bd 5e4c 8cbd 748f ab3c
000002a0: a111 93bd 3e30 883d c8cb bdbc 7c80 8b3c
000002b0: e1e5 943d 47c8 923d 8d91 913b 10dc 693d
000002c0: 32f7 b93d a664 97bd 2eab 4f3c a7e4 9e3c
000002d0: 2ebb 653d d0d6 983c c423 bcbd a160 183d
000002e0: cd6d 473d 33eb 9fbc 317d 87bd 6856 a8bd
000002f0: 1878 dcbc db57 83bc f384 45bd 52a3 1cbd
00000300: 45ea 1d3d d8d6 3b3c a82b 39bd fb2e d23b
00000310: fa51 d6bd 3a97 183d 46ed 803d 53e4 7e3c
00000320: 96c8 913a 383a 323d e052 403d 1468 a4bd
00000330: d686 3439 d5f1 8b3d 2a04 343d a363 64bd
00000340: e76e 093d 15c2 a33d c66a ac3d 238a 133d
00000350: 6b32 f93a 6709 ae3c c04c 093d b5b2 38bc
00000360: f62e ea3c 3fc5 0a3c 6ca5 913d 1c82 35bd
00000370: 28c2 373d 0e69 ae3b 5b70 b4bd 81da 9fbd
00000380: b9bf 7e3c 245d 97bd a1cc 543d 104b 4ebd
00000390: 4fea d63d d203 b2bc d019 82bd 5da3 dc3c
000003a0: 2436 8838 57c6 873d 7db0 cfba 011b 813d
000003b0: 1030 25bd 74bf abbb f4fa 9c3d 57d3 02bd
000003c0: 4433 55bd 4a6a 6ebd 9d14 573c a4e3 733d
000003d0: 0364 6abd ecbb 173d 1f5f 413b f1a3 c93b
000003e0: 9c01 89bc 3fc9 9cbd ab03 2d3c 63ad 843d
000003f0: 6480 d3bd ab76 efbc 6e27 d03c 136b 5a3d

network.4.bias f4 [64]
-0.058258627 -0.026621742 0.051590625 -0.01785573 -0.08622733 -0.07439396 0.01785588 -0.082212135
-0.048109647 0.06569357 0.08107765 0.018269157 0.0028138917 -0.03870829 -0.08608723 -0.013045682
-0.04661865 0.06387661 -0.045201957 -0.0031094998 0.08582654 -0.05287947 0.05374686 -0.008872064
0.001189295 -0.07295123 0.08553118 0.009029324 0.03724447 -0.019084122 0.0581653 -0.059833564
0.08664161 0.053212576 -0.0027174803 -0.05300778 -0.054706607 -0.03704159 0.06730018 0.04741392
0.05696588 0.007367911 -0.058629554 -0.018683704 0.04379911 -0.08393611 -0.025839856 -0.08123603
-0.050883565 -0.016500877 0.016042883 -0.016350575 -0.027815428 0.08170862 0.0825527 0.03968167
-0.08594078 0.02023623 0.023153719 -0.032792434 0.009213505 0.08840895 0.081050254 -0.036074024
00000000: 99a0 6ebd d715 dabc b150 533d 2e46 92bc
00000010: f497 b0bd dc5b 98bd 7f46 923c d65e a8bd
00000020: 9f0e 45bd 5a8a 863d 0a0c a63d 33a9 953c
00000030: 4569 383b 958c 1ebd 804e b0bd 8ebd 55bc
00000040: 33f3 3ebd bdd1 823d b025 39bd c0c8 4bbb
00000050: d3c5 af3d 2598 58bd ab25 5c3d 225c 11bc
00000060: 1ee2 9b3a 7467 95bd f92a af3d bbef 133c
00000070: a88d 183d 4e56 9cbc bd3e 6e3d 0a14 75bd
00000080: 2871 b13d 6ef5 593d c117 32bb b01e 59bd
00000090: 0914 60bd ecb8 17bd add4 893d 1935 423d
000000a0: 0e55 693d 846e f13b 8b25 70bd 910e 99bc
000000b0: b266 333d b2e6 abbd 1bae d3bc 135f a6bd
000000c0: 496b 50bd d92c 87bc 5d6c 833c a4f1 85bc
000000d0: 2edd e3bc d956 a73d 6411 a93d 3f89 223d
000000e0: b801 b0bd 73c6 a53c deac bd3c 5c51 06bd
000000f0: 3ef4 163c c00f b53d adfd a53d 5bc2 13bd

network.5.weight f4 [64]
1.0375664 1.0000854 0.9949205 0.9910873 1.0016786 1.0128298 1.0097753 0.98640335
1.0153445 0.970193 0.9981392 0.9878185 0.9980598 0.99374795 1.0072737 1.0055573
1.0200293 0.997949 1.0281537 0.9918049 1.0273166 1.0299746 0.9993295 0.9972977
0.97894007 0.97911257 1.0036077 0.9929065 1.0067254 1.0039521 0.9906487 0.99602985
1.007873 0.965474 1.0167906 1.0318207 0.99637014 1.0270501 0.9887595 0.98583645
1.0127841 0.99616003 1.0268583 1.003383 1.0202429 1.0028433 0.98563415 0.9838256
0.9703085 0.9876193 0.9592158 0.99705744 1.0211508 1.041916 0.99223036 0.99828684
0.9912415 0.98423856 1.0017 1.0144523 0.9708386 0.97937757 0.99499273 1.008648
00000000: face 843f cc02 803f 1cb3 7e3f e6b7 7d3f
00000010: 0137 803f 68a4 813f 5140 813f ee84 7c3f
00000020: cff6 813f 925e 783f 0d86 7f3f ace1 7c3f
00000030: d980 7f3f 4466 7e3f 58ee 803f 1ab6 803f
00000040: 5290 823f 9679 7f3f 8a9a 833f ede6 7d3f
00000050: 1c7f 833f 35d6 833f 0fd4 7f3f e74e 7f3f
00000060: d19b 7a3f 1fa7 7a3f 3876 803f 1f2f 7e3f
00000070: 61dc 803f 8181 803f 279b 7d3f d0fb 7e3f
00000080: fc01 813f 4e29 773f 3226 823f b312 843f
00000090: 1d12 7f3f 6176 833f 581f 7d3f c75f 7c3f
000000a0: e9a2 813f 5804 7f3f 1870 833f db6e 803f
000000b0: 5297 823f 2b5d 803f 8552 7c3f ffdb 7b3f
000000c0: 2366 783f 9ed4 7c3f 2b8f 753f 283f 7f3f
000000d0: 12b5 823f 815d 853f cf02 7e3f ba8f 7f3f
000000e0: 01c2 7d3f 0ff7 7b3f b537 803f 93d9 813f
000000f0: e188 783f 7db8 7a3f d8b7 7e3f 611b 813f

network.5.bias f4 [64]
0.037200235 -0.0065220804 0.0008280509 -0.034541927 0.011259386 0.015915321 0.01296521 0.007398075
0.013612787 -0.03353642 -0.008812438 -0.012868143 -0.009261285 -0.043224335 -0.03467659 0.0261348
0.009481119 -0.024070991 0.03185466 0.008484659 0.027207848 0.050613925 -0.032207906 0.026780993
-0.018618861 -0.016912952 -0.005048997 -0.010384119 0.015479054 0.0062596626 0.0129216 -0.020703547
0.007170727 -0.02410258 0.015905153 -0.01598236 -0.0007842663 0.02434699 0.0068192207 -0.0150987
0.015638007 -0.0015825138 -0.0016732146 -0.00018294796 0.02203206 0.020576399 -0.0060221013 -0.01395767
-0.02895709 -0.0073585245 -0.021864992 -0.061846577 0.023675432 0.045799118 -0.0057844315 -0.0003359721
-0.0338014 0.004711987 0.012829233 0.024440914 -0.011113233 -0.01692253 0.013031129 0.0004622831
00000000: 465f 183d 2db7 d5bb 8e11 593a d67b 0dbd
00000010: 4a79 383c d960 823c 086c 543c 8d6b f23b
00000020: 2b08 5f3c 7c5d 09bd 0b62 10bc e7d4 52bc
00000030: a5bc 17bc 000c 31bd 0a09 0ebd a618 d63c
00000040: b256 1b3c 8730 c5bc 087a 023d 3d03 0b3c
00000050: fee2 de3c 8c50 4f3d 70ec 03bd d063 db3c
00000060: 9586 98bc 088d 8abc 0e72 a5bb 2722 2abc
00000070: dc9b 7d3c db1d cd3b 1eb5 533c 7c9a a9bc
00000080: 6bf8 ea3b c672 c5bc 864b 823c 70ed 82bc
00000090: 3897 4dba 5773 c73c c573 df3b 8a60 77bc
000000a0: 471b 803c 5a6c cfba c44f dbba b8d5 3fb9
000000b0: 947c b43c d68f a83c 0c55 c5bb b6ae 64bc
000000c0: 6b37 edbc c71f f1bb 361e b3bc d652 7dbd
000000d0: fbf2 c13c db97 3b3d 548b bdbb 6925 b0b9
000000e0: 5673 0abd 0367 9a3b b431 523c 5038 c83c
000000f0: 4714 36bc 1ea1 8abc 8480 553c 965e f239

network.5.running_mean f4 [64]
-0.34152904 -0.06535766 -0.090023234 -0.22728166 -0.15644503 -0.64778864 0.19222881 0.15584692
0.025060005 0.0022547063 0.028069898 0.120527185 0.3192181 0.30860072 0.416769 -0.083193436
0.13544479 0.007192325 -0.35104656 -0.22823036 -0.03360101 -0.10817538 -0.06871411 -0.17481144
-0.35427785 0.09847682 -0.36244366 -0.30729896 0.23137236 -0.22228584 0.24023491 0.0929112
-0.20767249 0.27774647 -0.114212185 0.5900355 -0.21547307 0.5581885 -0.14080974 0.05890099
-0.15247507 -0.00014664046 -0.31453007 -0.48456028 -0.10018627 -0.044213902 -0.40210783 -0.0926036
-0.057658274 -0.007778887 0.361686 -0.040016912 -0.24983124 -0.18959574 -0.5509894 0.30245835
-0.12730685 -0.028275684 -0.20464936 0.1696491 -0.06063199 -0.034580253 0.60345256 -0.38732857
00000000: e5dc aebe 3dda 85bd 1a5e b8bd 86bc 68be
00000010: 2033 20be 7ad5 25bf a1d7 443e 5696 1f3e
00000020: a44a cd3c b2c3 133b d8f2 e53c f5d6 f63d
00000030: 8e70 a33e ea00 9e3e bf62 d53e 5261 aabd
00000040: 0ab2 0a3e 98ad eb3b 60bc b3be 38b5 69be
00000050: 36a1 09bd 0e8b ddbd fcb9 8cbd c501 33be
00000060: e863 b5be 37ae c93d 3792 b9be 4a56 9dbe
00000070: e0ec 6c3e e69e 63be 2400 763e 3a48 be3d
00000080: 19a8 54be c934 8e3e 14e8 e9bd 910c 173f
00000090: f9a4 5cbe 71e5 0e3f 6e30 10be 2a42 713d
000000a0: 6d22 1cbe 80c3 19b9 160a a1be 4918 f8be
000000b0: 762e cdbd a319 35bd 14e1 cdbe f5a6 bdbd
000000c0: 152b 6cbd 09e6 febb e82e b93e c6e8 23bd
000000d0: c3d3 7fbe 6325 42be a40d 0dbf d2db 9a3e
000000e0: ba5c 02be 68a2 e7bc 9a8f 51be 7eb8 2d3e
000000f0: 4059 78bd 06a4 0dbd de7b 1a3f ee4f c6be

network.5.running_var f4 [64]
0.6446979 0.49612355 0.26305464 0.22636552 0.28839752 0.3117066 0.13921139 0.29045457
0.5312949 0.30602863 0.20475896 0.2873881 0.31139922 0.28771225 0.24134749 0.25594583
0.33483806 0.20500518 0.3480035 0.19473514 0.50590396 0.7652728 0.19053783 0.35760203
0.2093942 0.14439549 0.40153527 0.17899999 0.349013 0.33992392 0.3217227 0.39958602
0.43805036 0.16454704 0.25169256 0.3344048 0.22396658 0.42185938 0.1744072 0.25476056
0.4468166 0.21710028 0.2684859 0.37689683 0.4524019 0.28523526 0.1902427 0.1449839
0.17916806 0.24028935 0.51215523 0.32189518 0.3371693 0.34110075 0.34373042 0.2906361
0.45093024 0.33033496 0.35699528 0.36240104 0.28545275 0.3323954 0.37126172 0.25088942
00000000: ec0a 253f e803 fe3e 19af 863e 5dcc 673e
00000010: d7a8 933e 0298 9f3e 6e8d 0e3e 76b6 943e
00000020: f102 083f c9af 9c3e 55ac 513e 8824 933e
00000030: b86f 9f3e 054f 933e cc23 773e 550b 833e
00000040: e56f ab3e e1ec 513e 842d b23e a668 473e
00000050: ec82 013f ebe8 433f 591c 433e 9d17 b73e
00000060: 6f6b 563e 69dc 133e 0896 cd3e c64b 373e
00000070: d5b1 b23e 820a ae3e d6b8 a43e 8a96 cc3e
00000080: 2348 e03e 057f 283e d9dd 803e 1b37 ab3e
00000090: 7f57 653e f4fd d73e cd97 323e fa6f 823e
000000a0: 25c5 e43e 894f 5e3e fc76 893e 9ff8 c03e
000000b0: 39a1 e73e 5b0a 923e fbce 423e a976 143e
000000c0: d577 373e 690e 763e 9b1c 033f 72cf a43e
000000d0: 74a1 ac3e c2a4 ae3e 6ffd af3e 41ce 943e
000000e0: 54e0 e63e aa21 a93e 16c8 b63e a18c b93e
000000f0: dd26 923e bb2f aa3e 0416 be3e 9474 803e

network.8.weight f4 [32, 64]
-0.019898096 0.031285264 0.05812901 -0.0274832 -0.03853555 0.0134110525 0.08503799 0.0099614
0.042104006 -0.013782974 0.10932661 0.048225448 0.02209537 0.105689995 -0.021887904 0.047579583
0.13635322 0.028275128 -0.04125272 -0.0132270325 -0.03899676 0.04560766 0.12876326 -0.035168152
-0.04342309 -0.10490362 -0.042769082 0.019685386 0.12685092 0.027192248 -0.02630694 -0.0029413227
-0.007401415 -0.023181612 -0.0026652527 0.015079204 -0.05361459 0.0043677627 0.098903224 0.06254745
-0.03313857 0.0019066177 0.0448128 -0.10597149 -0.081254676 0.02297241 -0.059792202 0.033559132
0.10805576 -0.104183674 -0.056501914 0.049616605 -0.033501815 -0.11388239 0.08256623 -0.0783676
0.13044463 0.08836656 -0.085508354 -0.001513132 -0.035531234 0.10212183 0.06141768 0.04682846
0.0033701677 -0.063532405 0.10726681 -0.025534399 0.09370884 -0.08963799 0.0048390096 0.081048764
0.10295685 0.051813416 -0.020355707 -0.029948134 -0.054431945 0.012866052 0.05925589 0.07420561
-0.078072615 0.037297953 0.13342015 0.11497016 -0.009951689 0.024250653 0.0044717253 -0.034813017
-0.06396877 0.06360799 -0.052232035 -0.09568486 0.10047956 0.08819882 0.060806856 -0.00791626
-0.12577777 -0.067234226 0.14020921 -0.064816944 0.027743934 0.02912464 -0.13574702 0.051062435
-0.10023309 0.02813014 -0.11570967 -0.029852964 -0.047754463 -0.03337218 0.020720072 -0.07964847
-0.0765845 0.06874661 -0.052270237 -0.011560984 0.11841688 -0.048461527 0.06833734 -0.01831805
-0.030102946 0.091664225 0.003994358 -0.053744804 0.08306675 0.091001146 0.0935586 -0.0019468185
0.018461458 -0.046637155 0.033833295 0.09281252 0.027221361 -0.078514725 -0.0027614906 -0.053598765
0.10497049 -0.07422031 0.043764878 -0.094435476 0.048894458 0.010921713 0.08386751 -0.06291853
0.07878215 0.10581814 0.11091967 -0.06832482 -0.11513652 0.010265472 0.11852902 -0.0073086154
0.0102759125 -0.10456174 0.12642846 0.09153069 -0.09100888 0.012356119 -0.0767996 0.034929086
-0.06955973 0.00126186 -0.10277338 0.14801317 -0.11199833 0.06958926 -0.09961072 0.0490195
0.022973666 0.06698155 -0.044543166 -0.06492056 -0.10198345 0.04125132 -0.036081187 0.042975213
-0.058088593 0.077012815 -0.06369868 0.12418968 0.053729102 0.116446726 -0.07280917 -0.026986202
0.029971216 0.10248705 -0.09515784 0.034922536 -0.102757804 -0.099511154 0.024061453 0.08825196
0.11704091 0.06690064 -0.040133093 0.11814609 0.095713735 0.03939126 -0.042786334 -0.0012630306
0.008084783 -0.008795764 0.100005776 -0.08054716 0.07900036 0.024422362 -0.0007103341 -0.08047057
0.13045551 0.12548071 0.060306877 -0.098992445 0.00013187237 0.10002088 0.054064196 -0.042317677
0.058655284 -0.053083703 -0.038395964 0.0112876 -0.059781943 -0.01758756 0.098559074 0.022935655
0.05357174 -0.054012436 -0.10332993 0.10154695 -0.059468415 0.014334494 -0.048796978 0.0629049
-0.08043074 -0.06352319 0.060320124 -0.0424836 0.11639679 -0.09420947 0.0026763962 -0.03327894
0.0240719 -0.042740222 -0.012486121 0.11019669 -0.08190522 -0.13384117 -0.08066676 0.009932437
-0.06391294 -0.09266273 -0.019776968 -0.054548208 0.014780041 0.06790682 -0.0033605003 -0.058516726
00000000: 5501 a3bc fa24 003d af18 6e3d 7324 e1bc
00000010: 74d7 1dbd 08ba 5b3c 6628 ae3d 2435 233c
00000020: 4075 2c3d fcd1 61bc a1e6 df3d 0c88 453d
00000030: 5901 b53c ff73 d83d 434e b3bc cfe2 423d
00000040: 2ea0 0b3e 3ea1 e73c 9df8 28bd 32b6 58bc
00000050: 11bb 1fbd 19cf 3a3d 84da 033e 7b0c 10bd
00000060: 69dc 31bd b6d7 d6bd a22e 2fbd 3f43 a13c
00000070: 35e5 013e 47c2 de3c a781 d7bc 35c3 40bb
00000080: 9287 f2bb 5de7 bdbc 85ab 2ebb c40e 773c
00000090: f99a 5bbd 731f 8f3b c68d ca3d e118 803d
000000a0: 4fbc 07bd 79e7 f93a a08d 373d 9507 d9bd
000000b0: da68 a6bd a330 bc3c abe8 74bd 4d75 093d
000000c0: 574c dd3d 405e d5bd 8d6e 67bd c83a 4b3d
000000d0: 3339 09bd 2c3b e9bd 7c18 a93d 317f a0bd
000000e0: 4793 053e 87f9 b43d 011f afbd 4954 c6ba
000000f0: 3389 11bd 4025 d13d 1b91 7b3d 33cf 3f3d
00000100: 08de 5c3b 471d 82bd b4ae db3d 842d d1bc
00000110: 6cea bf3d 1f94 b7bd 8e90 9e3b e5fc a53d
00000120: 0adb d23d 4e3a 543d 03c1 a6bc ca55 f5bc
00000130: 08f4 5ebd 22cc 523c 4eb6 723d 1cf9 973d
00000140: 89e4 9fbd bdc5 183d 4b9f 083e 7a75 eb3d
00000150: 690c 23bc 4ea9 c63c 8d87 923b 1898 0ebd
00000160: 0f02 83bd e844 823d 42f1 55bd 6df6 c3bd
00000170: 3ac8 cd3d 95a1 b43d 9c10 793d 33b3 01bc
00000180: e3cb 00be 19b2 89bd 0193 0f3e bfbe 84bd
00000190: 3f47 e33c cc96 ee3c 4401 0bbe d826 513d
000001a0: 0247 cdbd 2e71 e63c 31f9 ecbd 348e f4bc
000001b0: 2f9a 43bd 44b1 08bd 24bd a93c bd1e a3bd
000001c0: 56d8 9cbd 06cb 8c3d 5119 56bd 486a 3dbc
000001d0: 8d84 f23d 987f 46bd 73f4 8b3d bc0f 96bc
000001e0: 749a f6bc 74ba bb3d 1ae3 823b 8323 5cbd
000001f0: e61e aa3d cf5e ba3d a79b bf3d 642c ffba
00000200: 7c3c 973c 9a06 3fbd c894 0a3d 7e14 be3d
00000210: 55ff de3c 54cc a0bd 20fa 34bb 618a 5bbd
00000220: c5fa d63d d100 98bd cd42 333d 6367 c1bd
00000230: 8e45 483d fcf0 323c bbc2 ab3d 6edb 80bd
00000240: 8958 a13d 2eb7 d83d da29 e33d e2ed 8bbd
00000250: b2cc ebbd 8330 283c 58bf f23d 1c7d efbb
00000260: 4d5c 283c 7724 d6bd 7676 013e 7174 bb3d
00000270: dd62 babd 5271 4a3c 1c49 9dbd cd11 0f3d
00000280: 5575 8ebd ff64 a53a da7a d2bd c490 173e
00000290: 615f e5bd d084 8e3d b500 ccbd acc8 483d
000002a0: 4533 bc3c 9f2d 893d e572 36bd 12f5 84bd
000002b0: b3dc d0bd 25f7 283d dec9 13bd c706 303d
000002c0: 4eee 6dbd e5b8 9d3d 7474 82bd 2957 fe3d
000002d0: 0c13 5c3d 9f7b ee3d f91c 95bd 2b12 ddbc
000002e0: 3286 f53c bbe4 d13d 1de2 c2bd ef0a 0f3d
000002f0: af72 d2bd 81cc cbbd 861c c53c 72bd b43d
00000300: 25b3 ef3d 3403 893d 9962 24bd 94f6 f13d
00000310: 9005 c43d bb58 213d b940 2fbd 468c a5ba
00000320: 0a76 043c 1c1c 10bc d4cf cc3d e9f5 a4bd
00000330: f1ca a13d 6811 c83c b735 3aba c1cd a4bd
00000340: 2196 053e 047e 003e 5804 773d 8dbc cabd
00000350: 3847 0a39 bfd7 cc3d 6b72 5d3d 4d55 2dbd
00000360: 8640 703d 4c6e 59bd 1645 1dbd a0ef 383c
00000370: e9dd 74bd c913 90bc 57d9 c93d 8ee3 bb3c
00000380: 0a6e 5b3d 253c 5dbd a49e d3bd d9f7 cf3d
00000390: 2795 73bd 3adb 6a3c 57df 47bd 49d4 803d
000003a0: dfb8 a4bd 7218 82bd 3c12 773d 4903 2ebd
000003b0: 7161 ee3d e5f0 c0bd 7a66 2f3b 7f4f 08bd
000003c0: 6f32 c53c 5f10 2fbd 9692 4cbc cdae e13d
000003d0: edbd a7bd a90d 09be 9d34 a5bd a9bb 223c
000003e0: cae4 82bd f5c5 bdbd 4f03 a2bc f16d 5fbd
000003f0: fc27 723c bb12 8b3d d73b 5cbb 3caf 6fbd

network.8.bias f4 [32]
0.06866248 -0.05898424 0.07021423 0.08157282 -0.005694023 -0.047820162 -0.070656665 0.10909354
0.07181404 -0.026903907 0.002012663 -0.017148962 -0.07189055 0.072926484 0.019834401 -0.05848434
-0.069731236 0.05378841 -0.1158254 0.10385251 0.066247456 -0.10155236 0.020057112 -0.032300167
0.08138087 0.096782655 0.1192192 0.02842061 0.11965016 -0.01776659 0.058213446 0.01725822
00000000: ea9e 8c3d 7599 71bd 7acc 8f3d a70f a73d
00000010: ed94 babb 13df 43bd 71b4 90bd 6f6c df3d
00000020: 3d13 933d 9565 dcbc e2e6 033b fb7b 8cbc
00000030: 5a3b 93bd 7b5a 953d c17b a23c 468d 6fbd
00000040: 40cf 8ebd 3c51 5c3d de35 edbd a0b0 d43d
00000050: bfac 873d affa cfbd d04e a43c 2e4d 04bd
00000060: 03ab a63d fc35 c63d 3229 f43d 57d2 e83c
00000070: 250b f53d 3d8b 91bc 3971 6e3d 1c61 8d3c

network.9.weight f4 [32]
1.005975 1.0083386 0.9886624 1.0385365 1.0283401 0.9945991 0.9261883 1.0183694
0.9998332 0.9867562 1.0444416 1.0248787 0.9986303 1.0481186 1.0114447 0.94342214
0.9743823 0.99464357 0.9735655 0.9995957 1.0103174 0.9342542 0.98487335 1.0312042
1.0156076 1.026886 1.034093 1.0732199 0.98913115 0.9368468 1.0275615 0.97884345
00000000: cac3 803f 3d11 813f fb18 7d3f c4ee 843f
00000010: a6a0 833f 0c9e 7e3f ad1a 6d3f ee59 823f
00000020: 12f5 7f3f 0e9c 7c3f 43b0 853f 3a2f 833f
00000030: 3ca6 7f3f c028 863f 0577 813f 1d84 713f
00000040: 1e71 793f f6a0 7e3f 973b 793f 81e5 7f3f
00000050: 1552 813f 492b 6f3f a920 7c3f 80fe 833f
00000060: 6eff 813f 0071 833f 295d 843f 455f 893f
00000070: b337 7d3f 31d5 6f3f 2387 833f 7c95 7a3f

network.9.bias f4 [32]
-0.03877882 0.040337738 -0.11771124 -0.041747075 0.019836726 -0.007198331 -0.0356537 -0.0030770835
0.035627853 -0.0026716623 0.038262084 0.037088353 0.010198819 0.0538873 -0.0296351 -0.040672656
-0.0017383298 -0.010166569 0.017661938 0.031396545 -0.0031484177 -0.027473498 0.014563365 0.041798312
-0.017481778 0.032451797 -0.040619258 0.05592363 0.011542827 -0.038368013 -0.03610748 0.026772484
00000000: 8ad6 1ebd 2f39 253d 9712 f1bd fbfe 2abd
00000010: a180 a23c fadf ebbb 9d09 12bd e5a8 49bb
00000020: 83ee 113d 0e17 2fbb b4b8 1c3d f5e9 173d
00000030: f318 273c eeb8 5c3d 4fc5 f2bc 5f98 26bd
00000040: abd8 e3ba ae91 26bc c5af 903c aa99 003d
00000050: af55 4ebb 1a10 e1bc 2e9b 6e3c b534 2b3d
00000060: f235 8fbc 2dec 043d 6160 26bd 2d10 653d
00000070: 201e 3d3c c727 1dbd 70e5 13bd f851 db3c

network.9.running_mean f4 [32]
0.30825564 0.13013579 0.15225242 0.13039744 -0.23548143 0.012223793 -0.76129806 0.30099916
0.02712412 -0.21767506 -0.21909176 -0.37519452 -0.05175179 -0.08679456 0.56346107 -0.5339692
0.14492534 0.006070231 -0.10853841 0.12204163 0.4199812 0.46560386 -0.26445788 -0.34630448
0.13475525 -0.115168266 0.2238627 -0.2526688 -0.110407986 -0.14992645 0.03258834 -0.15941171
00000000: afd3 9d3e 5142 053e 0fe8 1b3e e886 053e
00000010: 0b22 71be 4e46 483c 6ee4 42bf 901c 9a3e
00000020: 6733 de3c 36e6 5ebe 9759 60be 7f19 c0be
00000030: aff9 53bd 59c1 b1bd fc3e 103f 35b2 08bf
00000040: 4f67 143e cae8 c63b 6349 debd f6f0 f93d
00000050: c707 d73e a163 ee3e 0667 87be d24e b1be
00000060: 48fd 093e 57dd ebbd 433c 653e ce5d 81be
00000070: 951d e2bd 5286 19be 5a7b 053d d33c 23be

network.9.running_var f4 [32]
0.28555435 0.2936591 0.38627514 0.39374802 0.3492225 0.3118172 0.22355266 0.3516304
0.43880293 0.29922667 0.28076446 0.47777587 0.29595083 0.44195896 0.5430019 0.19318017
0.22654599 0.16936764 0.26080245 0.29736528 0.538169 0.40339103 0.24429262 0.31324047
0.30800158 0.337635 0.3346853 0.5218725 0.35100418 0.23200679 0.33369306 0.2472255
00000000: 2e34 923e 7c5a 963e dbc5 c53e 5799 c93e
00000010: 4bcd b23e 81a6 9f3e fdea 643e e608 b43e
00000020: c7aa e03e 3d34 993e 5cc0 8f3e 0a9f f43e
00000030: de86 973e 7248 e23e 2c02 0b3f 06d1 453e
00000040: acfb 673e b66e 2d3e e687 853e 4340 983e
00000050: 72c5 093f 4589 ce3e d827 7a3e 0e61 a03e
00000060: 62b2 9d3e 7fde ac3e df5b ab3e 7099 053f
00000070: d2b6 b33e 3093 6d3e d1d9 aa3e ae28 7d3e
