ai-layer/model/results/1000_v3/dnn_oud_risk_model.pth (torch, 70613 bytes, 25 tensors)

network.0.weight f4 [128, 19]
-0.038669836 0.074310325 0.17692581 -0.116583176 0.22901055 0.19853693 -0.11392359 0.06073563
-0.22254838 -0.049555853 -0.0027626795 0.15236539 -0.014620762 0.057374377 -0.08913054 -0.06557111
-0.12011265 0.13220133 -0.15714051 -0.12118731 0.15582082 0.02405101 -0.04515946 -0.085220195
-0.21812306 -0.027944399 0.09269628 0.06480967 0.16714944 -0.16996235 0.2077253 0.0029070666
0.045416832 -0.11588986 -0.14608477 0.19823928 -0.21127135 -0.101171285 -0.038389716 0.1273984
0.12608953 0.08938322 0.03228162 0.027006064 0.07653936 -0.19482243 -0.05208786 0.15948746
-0.070169985 -0.20558478 -0.21896748 -0.09954001 -0.027323695 0.21863188 0.14402188 0.022476578
-0.21232389 -0.040041924 -0.19629037 -0.21517938 0.12106245 0.21057887 -0.022132989 -0.015001314
-0.119512096 -0.15248413 -0.13491982 0.14905463 0.002832006 0.11070858 0.09078503 -0.17942691
0.091261886 -0.20849858 0.08267048 -0.016501065 -0.1604529 -0.10021242 -0.08452656 -0.18182616
-0.15755191 0.19557527 0.07131124 -0.031573363 0.01716522 0.069404535 0.12612243 0.091597855
-0.036709435 -0.18263197 -0.16556023 0.10051863 0.19500622 0.057288226 0.118427485 -0.14828962
-0.12862152 0.21524873 0.033701725 0.12106786 -0.21865775 0.11085615 0.16852073 0.18382995
0.20494601 -0.1358921 0.1591374 0.22283414 0.17299955 -0.06424694 -0.21259023 -0.014158107
0.17393811 0.1663961 0.05154477 0.023078555 0.17943932 0.012498921 0.16195577 0.006904238
-0.13591853 0.16459616 0.14152122 -0.21999012 -0.06386806 0.16078487 0.10178643 -0.16400555
-0.007831009 -0.19190703 -0.10025481 0.17323916 0.11278455 -0.18497436 -0.19993266 -0.089472786
-0.07450569 -0.23328231 -0.19877023 -0.0690464 0.17550857 0.18482779 0.015089667 -0.031560548
-0.14262404 -0.1121771 -0.052612673 -0.10150438 -0.21499823 0.044297334 -0.14837588 0.21529104
-0.04279762 -0.12105112 0.079573154 0.15084016 0.007923543 0.040695965 -0.20021012 -0.1783044
0.2245349 0.1092356 0.077874444 0.050857093 -0.11499165 -0.04954521 0.115309775 -0.2255543
-0.0655616 0.1494621 0.074057326 -0.03834911 0.17190437 0.11390611 0.110553876 0.12907244
-0.032693814 0.06987715 -0.08157351 -0.21164577 -0.18746021 0.04058075 -0.15458766 -0.13941453
0.1639934 0.12056568 0.14662507 -0.011924802 -0.032988105 0.1764074 -0.2020864 0.101535425
-0.1747633 -0.034165394 -0.10308367 -0.2015112 0.11431666 0.008880646 0.016835475 0.006380647
-0.19829977 0.04108562 -0.040862534 -0.028803019 -0.0038088972 -0.10189803 0.18254288 0.21355808
0.1965043 0.15989645 -0.021950278 0.1538031 -0.008836622 -0.10296303 0.18281634 -0.09086429
0.17564829 0.06447057 -0.14751624 -0.1016204 -0.15803008 -0.07558372 -0.061954614 -0.19742993
0.20763704 0.055661187 -0.13042733 -0.11325904 0.070108995 -0.08159347 0.07839822 -0.10722106
0.0012507243 0.17325959 -0.15923986 -0.21306086 0.03094133 -0.010427561 -0.087402806 0.026573544
-0.009851941 0.050449453 0.065335795 0.15189612 0.09850918 -0.14801158 0.13568065 0.071529865
-0.08788671 0.04341456 0.15198678 0.021990389 0.03957485 -0.16058555 -0.06777453 -0.13050805
00000000: 4364 1ebd 0330 983d 0a2c 353e 29c3 eebd
00000010: be81 6a3e 444d 4b3e c550 e9bd edc5 783d
00000020: b9e3 63be 14fb 4abd 120e 35bb ac05 1c3e
00000030: ec8b 6fbc 6501 6b3d 138a b6bd 254a 86bd
00000040: 9ffd f5bd c95f 073e 71e9 20be 0d31 f8bd
00000050: 7e8f 1f3e a006 c53c 20f9 38bd ed87 aebd
00000060: a75b 5fbe a7eb e4bc 8cd7 bd3d efba 843d
00000070: 3929 2b3e 9c0a 2ebe f1b5 543e 7c84 3e3b
00000080: 0007 3a3d aa57 edbd 3f97 15be 3dff 4a3e
00000090: 8457 58be e432 cfbd 893e 1dbd ba74 023e
000000a0: 9d1d 013e 8d0e b73d bb39 043d d23b dd3c
000000b0: abc0 9c3d 887f 47be 145a 55bd ae50 233e
000000c0: 48b5 8fbd d184 52be 0339 60be a2db cbbd
000000d0: f1d5 dfbc 09e1 5f3e 797a 133e cd20 b83c
000000e0: 6f6b 59be 0003 24bd 5800 49be fc57 5cbe
000000f0: 97ef f73d fda1 573e 3e50 b5bc 12c8 75bc
00000100: c2c2 f4bd cd24 1cbe 6c28 0abe c7a1 183e
00000110: 2d99 393b 2ebb e23d 80ed b93d b0bb 37be
00000120: 83e7 ba3d a780 55be 244f a93d 3e2d 87bc
00000130: c44d 24be 2b3c cdbd 431c adbd a330 3abe
00000140: 4a55 21be e244 483e a10b 923d 1253 01bd
00000150: 139e 8c3c f723 8e3d 3d26 013e a897 bb3d
00000160: a25c 16bd e003 3bbe 9f88 29be b6dc cd3d
00000170: b6af 473e 0fa7 6a3d 1c8a f23d 3cd9 17be
00000180: 5cb5 03be 2a6a 5c3e d20a 0a3d 6df2 f73d
00000190: d1e7 5fbe 8d08 e33d b390 2c3e eb3d 3c3e
000001a0: 5edd 513e 4c27 0bbe eaf4 223e a22e 643e
000001b0: cb26 313e e693 83bd 41b1 59be 68f7 67bc
000001c0: d51c 323e bd63 2a3e 9c20 533d 3d0f bd3c
000001d0: f1be 373e 46c8 4c3c bcd7 253e f23c e23b
000001e0: 3a2e 0bbe e58b 283e f0ea 103e 1745 61be
000001f0: 42cd 82bd caa4 243e 6775 d03d 12f1 27be
00000200: a24d 00bc 4783 44be 6552 cdbd 9b65 313e
00000210: 96fb e63d eb69 3dbe 26bb 4cbe 823d b7bd
00000220: 7096 98bd 8fe1 6ebe 6c8a 4bbe 3368 8dbd
00000230: 85b8 333e 7f43 3d3e a73a 773c a245 01bd
00000240: 090c 12be 1bbd e5bd 6380 57bd 87e1 cfbd
00000250: 7f28 5cbe 1f71 353d d9ef 17be 4175 5c3e
00000260: 8f4c 2fbd a6e9 f7bd 40f7 a23d d875 1a3e
00000270: c0d1 013c d0b0 263d e203 4dbe 6e95 36be
00000280: 7aec 653e eab6 df3d a37c 9f3d 874f 503d
00000290: be80 ebbd ebef 4abd 8827 ec3d b5f7 66be
000002a0: 2945 86bd 980c 193e 5eab 973d f513 1dbd
000002b0: b307 303e 9b47 e93d 126a e23d 912b 043e
000002c0: f3e9 05bd c01b 8f3d 0310 a7bd abb9 58be
000002d0: 92f5 3fbe 0038 263d 3a4c 1ebe afc2 0ebe
000002e0: e3ed 273e 24eb f63d e224 163e 3f60 43bc
000002f0: 891e 07bd 24a4 343e bdef 4ebe cef1 cf3d
00000300: 27f5 32be 03f1 0bbd 881d d3bd f458 4ebe
00000310: da1e ea3d 2180 113c 8dea 893c bf14 d13b
00000320: 180f 4bbe 6549 283d 795f 27bd 4ff4 ebbc
00000330: b19e 79bb eaaf d0bd 85ec 3a3e f8ae 5a3e
00000340: 6c38 493e e5bb 233e 12d1 b3bc 8f7e 1d3e
00000350: 7bc7 10bc 48de d2bd 3534 3b3e 0f17 babd
00000360: 25dd 333e 2509 843d 7f0e 17be 5b1e d0bd
00000370: a3d2 21be a3cb 9abd 1fc4 7dbd 122b 4abe
00000380: ce9e 543e fcfc 633d be8e 05be 5bf4 e7bd
00000390: 4e95 8f3d 7a1a a7bd 3f8f a03d b796 dbbd
000003a0: 58ef a33a f66a 313e c60f 23be a02c 5abe
000003b0: ac78 fd3c 5cd8 2abc 3e00 b3bd c3b0 d93c
000003c0: 096a 21bc 16a4 4e3d c6ce 853d a88a 1b3e
000003d0: 2ebf c93d 5990 17be deef 0a3e 407e 923d
000003e0: f3fd b3bd 77d3 313d 6ca2 1b3e 3025 b43c
000003f0: 3d19 223d 8a70 24be 5fcd 8abd e7a3 05be

network.0.bias f4 [128]
-0.09819781 0.061914977 0.1592142 0.10566041 0.13828444 0.16264103 0.083592534 -0.17867717
-0.0895432 0.07667682 -0.19049507 -0.22057857 0.22129971 -0.1763593 -0.19756332 -0.19501734
0.027031433 -0.08337773 -0.2123882 -0.20598415 0.18749414 0.17224368 -0.0061907778 0.112407275
-0.045777064 -0.18231472 0.08415171 0.043250475 -0.012281384 0.021402694 0.10109158 0.11917017
0.11781058 -0.09281646 0.07505417 -0.16815273 0.22268404 -0.066748604 -0.11531906 -0.13123915
-0.07925602 0.20297895 -0.20615885 -0.065493956 -0.174711 0.16290222 -0.10534371 -0.09062622
-0.18515031 -0.03501731 -0.1560554 0.024666646 0.15106168 0.16172437 0.12691624 -0.098368905
0.11036387 0.1884019 -0.13691683 0.143456 0.16593303 0.030774549 -0.029317694 -0.21868926
-0.22706094 0.030911913 0.07872394 -0.19943489 -0.21411061 0.009429517 0.0101426635 0.074623585
0.13111009 0.07817165 0.1766635 -0.116959006 -0.09681012 0.12744166 -0.097301885 -0.055193324
-0.051196173 -0.064586796 -0.07400119 -0.03310511 -0.07761188 -0.14486599 -0.22065438 0.14960366
-0.00923768 -0.034501143 0.14586334 -0.21381485 -0.16636266 -0.029625114 0.12694748 0.09076389
0.12963808 0.092217654 0.061561972 0.08584251 0.20883225 0.14303169 -0.07768014 0.10339696
-0.16312025 0.18779552 -0.0892466 0.051126223 0.06909034 -0.01736315 -0.044465862 0.13196795
0.12927543 0.15550005 0.09670747 0.054295827 0.072937995 -0.01805114 0.11810368 0.1388626
0.2286306 -0.03184582 0.17045386 -0.16603762 -0.20454599 0.07054083 -0.1379156 -0.12576012
00000000: ef1b c9bd 8f9a 7d3d 0c09 233e 7c64 d83d
00000010: 709a 0d3e 5f8b 263e 9032 ab3d 26f7 36be
00000020: 6d62 b7bd bd08 9d3d 2411 43be 59df 61be
00000030: 649c 623e 8897 34be 0a4e 4abe a0b2 47be
00000040: 0671 dd3c f1c1 aabd 4b7c 59be 82ed 52be
00000050: 77fe 3f3e a660 303e 02dc cabb c935 e63d
00000060: bb80 3bbd b6b0 3abe bb57 ac3d 6927 313d
00000070: dc37 49bc b454 af3c 1a09 cf3d 7d0f f43d
00000080: ac46 f13d 8e16 bebd 00b6 993d 3b30 2cbe
00000090: 4907 643e 7eb3 88bd 662c ecbd 8e63 06be
000000a0: fb50 a2bd b7d9 4f3e 4e1b 53be b221 86bd
000000b0: 71e7 32be d7cf 263e 71be d7bd 3d9a b9bd
000000c0: 0b98 3dbe 506e 0fbd fdcc 1fbe b511 ca3c
000000d0: eaaf 1a3e 139b 253e 55f6 013e a375 c9bd
000000e0: 7406 e23d 6dec 403e ed33 0cbe 21e6 123e
000000f0: 59ea 293e e81a fc3c a92b f0bc 14f0 5fbe
00000100: aa82 68be fb3a fd3c 043a a13d a938 4cbe
00000110: d03f 5bbe 437e 1a3c 6a2d 263c 40d4 983d
00000120: b941 063e 7518 a03d 47e7 343e 3488 efbd
00000130: 6244 c6bd 1180 023e 3646 c7bd 6512 62bd
00000140: 14b3 51bd 1546 84bd f08d 97bd 3999 07bd
00000150: faf2 9ebd c057 14be 39f3 61be b431 193e
00000160: a359 17bc 1251 0dbd 335d 153e 48f2 5abe
00000170: f95a 2abe 5eb0 f2bc 85fe 013e 6be2 b93d
00000180: d8bf 043e 9cdc bc3d 6828 7c3d 33ce af3d
00000190: 1fd8 553e e676 123e c416 9fbd c9c1 d33d
000001a0: ff08 27be 784d 403e ecc6 b6bd bb69 513d
000001b0: 3c7f 8d3d 2a3d 8ebc d621 36bd 9b22 073e
000001c0: c760 043e 683b 1f3e 910e c63d 4d65 5e3d
000001d0: 8460 953d fcdf 93bc 58e0 f13d ff31 0e3e
000001e0: 241e 6a3e c370 02bd 758b 2e3e c405 2abe
000001f0: 8174 51be b677 903d bf39 0dbe 43c7 00be

network.1.weight f4 [128]
0.99854356 0.99671006 0.9998676 0.9979225 1.0042948 0.9938355 1.0079571 1.0027322
1.0008092 0.99335045 0.9986054 1.0070851 1.001499 1.0032519 1.0060847 0.99586713
1.0009446 1.000136 1.0004677 0.99628055 0.9987509 0.9914755 0.99699646 0.99880314
1.0000937 1.0062444 0.99933803 1.0068855 1.0004262 0.9966173 0.99513984 1.0051072
1.0016943 1.004523 0.9975767 1.0008987 0.99922425 1.0034316 0.99402124 0.9961547
1.0025352 1.0035152 1.0059882 0.9963485 1.0002267 0.9999902 1.0038624 1.0032512
1.0021316 0.9978009 0.9946575 1.0005856 0.9945925 0.99511623 1.0056766 1.0018101
1.0037055 1.0008291 0.9978993 0.99991167 0.99768543 0.9964104 0.9969797 0.99461204
0.9923793 1.00216 1.0036153 1.0007048 0.99655235 1.004767 0.99853027 0.9989575
0.9988439 0.9996225 1.0019761 0.9976428 1.0007484 0.9981394 1.0035462 1.0020524
0.9986141 0.9990939 1.007419 1.0042639 0.99584055 0.9981821 1.0011668 1.0000314
0.9983743 1.0032295 1.0037543 0.9964695 1.0032136 0.9974067 1.0070002 1.0047807
0.99881643 1.0004361 0.9962949 0.9996459 1.0040306 0.99967515 0.9995228 0.99365985
0.9999406 0.9980679 0.99392897 1.0038811 0.99261415 1.0043699 0.9976921 0.9932389
0.99325037 1.0020763 0.9963577 1.0018514 1.0009891 1.0000123 1.003349 0.99690866
1.0001941 0.9988055 0.99972653 0.99908245 0.9980418 1.004443 0.99706686 0.99863803
00000000: 8da0 7f3f 6428 7f3f 53f7 7f3f d977 7f3f
00000010: bb8c 803f 016c 7e3f bd04 813f 8759 803f
00000020: 841a 803f 374c 7e3f 9aa4 7f3f 2ae8 803f
00000030: 1f31 803f 8f6a 803f 62c7 803f 26f1 7e3f
00000040: f41e 803f 7504 803f 530f 803f 3e0c 7f3f
00000050: 24ae 7f3f 57d1 7d3f 293b 7f3f 90b1 7f3f
00000060: 1203 803f 9ecc 803f 9ed4 7f3f a0e1 803f
00000070: f70d 803f 5022 7f3f 7cc1 7e3f 5aa7 803f
00000080: 8537 803f 3694 803f 3061 7f3f 731d 803f
00000090: 29cd 7f3f 7270 803f 2d78 7e3f ff03 7f3f
000000a0: 1353 803f 3073 803f 39c4 803f b210 7f3f
000000b0: 6e07 803f 5cff 7f3f 907e 803f 896a 803f
000000c0: d945 803f e16f 7f3f e0a1 7e3f 3013 803f
000000d0: 9d9d 7e3f f0bf 7e3f 03ba 803f 503b 803f
000000e0: 6c79 803f 2b1b 803f 5476 7f3f 36fa 7f3f
000000f0: 5068 7f3f c114 7f3f 103a 7f3f e59e 7e3f
00000100: 920c 7e3f c746 803f 7776 803f 1817 803f
00000110: 0e1e 7f3f 349c 803f ae9f 7f3f aebb 7f3f
00000120: 3cb4 7f3f 43e7 7f3f c140 803f 8565 7f3f
00000130: 8618 803f 1086 7f3f 3474 803f 4143 803f
00000140: 2ca5 7f3f 9ec4 7f3f 1bf3 803f b88b 803f
00000150: 68ef 7e3f dd88 7f3f 3c26 803f 0701 803f
00000160: 7595 7f3f d369 803f 057b 803f a018 7f3f
00000170: 4e69 803f 0c56 7f3f 62e5 803f a79c 803f
00000180: 6fb2 7f3f 4a0e 803f 2f0d 7f3f cbe8 7f3f
00000190: 1384 803f b6ea 7f3f bae0 7f3f 7e60 7e3f
000001a0: 1bfc 7f3f 6181 7f3f 2172 7e3f 2d7f 803f
000001b0: f61b 7e3f 318f 803f c068 7f3f e844 7e3f
000001c0: a845 7e3f 0944 803f 4c11 7f3f ab3c 803f
000001d0: 6920 803f 6700 803f bd6d 803f 6835 7f3f
000001e0: 5c06 803f b8b1 7f3f 14ee 7f3f dec3 7f3f
000001f0: ab7f 7f3f 9791 803f c63f 7f3f bea6 7f3f

network.1.bias f4 [128]
-0.0048137465 -0.0027519849 0.0011266886 -0.004460397 0.0062388526 -0.0049362155 3.541341e-05 -2.7369426e-05
-0.0025758913 -0.0047046193 -0.002155614 0.0041519543 -0.0009792651 0.0040525934 0.0021489817 -7.734226e-05
0.0010880863 1.2129409e-05 -0.00056036474 -0.0044718487 -0.0048635993 -0.0052121044 0.0009027009 -0.0044642575
0.0029880952 0.0034202042 -0.0013719768 0.0017688221 0.00032818379 -0.0042867083 -0.0016856863 0.005589782
0.005082598 0.0010004065 -0.0021635618 7.550219e-05 -0.0029690764 0.0007588385 -0.0050502215 -0.0033805994
-0.00080720976 0.0045750435 0.004368353 -0.0015922656 -0.00051068317 -0.0008014412 0.002815332 0.001859535
-0.00057422917 -0.003673341 -0.0020772817 0.0030327765 -0.00208554 -0.003164021 0.0009761567 0.0010702168
0.0020629433 -0.00043851646 -0.0007164617 0.0005138701 -0.0014539413 -0.0024218909 -0.003256314 -0.0038229143
-0.005262455 0.0018611359 0.0035614083 0.0005107835 -2.0011012e-05 0.0014294547 0.00036538765 -0.00077811774
0.002134425 -0.0011454961 0.0035205611 0.000117213836 -0.0031242382 -0.001359285 0.0028904893 0.003412917
-0.0012431107 -0.00472191 0.004581833 0.0020691568 -0.0027098402 -0.0029484 -0.0007366664 0.0016058454
-0.00030793442 0.0041514593 0.002246358 -0.0025562216 0.0029320698 0.0008131765 0.0005070118 0.0051348023
-0.0010769102 9.803979e-05 -0.005332948 -0.0036483093 0.0019231908 -0.0019197213 0.0013628032 -0.006617712
-0.0008260707 -0.0041116914 -0.001786283 0.002409683 -0.0062945974 0.00067679776 -7.3658164e-05 -0.005008661
-0.007117284 0.0017087415 -0.007452987 0.0032038079 0.0028427404 -0.0004270359 -0.0010541932 0.0023150735
-0.0045452625 2.2643266e-05 -0.0011164899 0.00015346702 0.0007267687 0.0045336667 -0.0044178325 -0.0030965381
00000000: a2bc 9dbb a55a 34bb 65ad 933a 8628 92bb
00000010: 4a6f cc3b fabf a1bb dc88 1438 6597 e5b7
00000020: 49d0 28bb 3529 9abb 3445 0dbb 1e0d 883b
00000030: af5a 80ba 9ecb 843b eed5 0c3b cf32 a2b8
00000040: 1e9e 8e3a 6a7f 4b37 71e5 12ba 9688 92bb
00000050: d45e 9fbb 4dca aabb 3ba3 6c3a e848 92bb
00000060: ebd3 433b 8125 603b e7d3 b3ba d2d7 e73a
00000070: 1510 ac39 8477 8cbb 3ff2 dcba 7d2a b73b
00000080: ec8b a63b 1220 833a 8bca 0dbb ee56 9e38
00000090: d694 42bb caec 463a 547c a5bb 0c8d 5dbb
000000a0: ee9a 53ba 3fea 953b 6724 8f3b 91b3 d0ba
000000b0: 5edf 05ba cf17 52ba 6f81 383b a4bb f33a
000000c0: de87 16ba 6fbc 70bb 0123 08bb 8cc1 463b
000000d0: 8ead 08bb 775b 4fbb c4e4 7f3a 8446 8c3a
000000e0: 7232 073b afe8 e5b9 eed0 3bba 3db5 063a
000000f0: 2d92 beba 96b8 1ebb e267 55bb dc89 7abb
00000100: ac70 acbb 5cf1 f33a 8466 693b 1ae6 053a
00000110: 52dd a7b7 8a5c bb3a 8091 bf39 99fa 4bba
00000120: b6e1 0b3b 7924 96ba 37b9 663b b3d0 f538
00000130: 05c0 4cbb 092a b2ba 5d6e 3d3b 3fab 5f3b
00000140: e0ef a2ba 41ba 9abb 3323 963b b19a 073b
00000150: 9397 31bb f239 41bb d81c 41ba 3b7b d23a
00000160: 4272 a1b9 f708 883b a237 133b 4886 27bb
00000170: f827 403b 5a2b 553a fce8 043a d841 a83b
00000180: 1c27 8dba b69a cd38 03c0 aebb 7918 6fbb
00000190: 9313 fc3a 289f fbba 16a0 b23a 64d9 d8bb
000001a0: ab8c 58ba 5ebb 86bb b621 eaba c6eb 1d3b
000001b0: e942 cebb 216b 313a ed78 9ab8 b21f a4bb
000001c0: 1b38 e9bb daf7 df3a 3038 f4bb faf6 513b
000001d0: 454d 3a3b cae3 dfb9 db2c 8aba 7db8 173b
000001e0: 6df0 94bb 0bf2 bd37 2f57 92ba fdeb 2039
000001f0: 9f84 3e3a 278f 943b 77c3 90bb 4aef 4abb

network.1.running_mean f4 [128]
-0.10218772 0.047231026 0.15684868 0.11507663 0.13933682 0.1551032 0.06551735 -0.18588853
-0.103575274 0.08756996 -0.19065297 -0.22878483 0.21792883 -0.18340026 -0.20131522 -0.17501834
0.03377083 -0.06511151 -0.21375072 -0.19377491 0.19194652 0.15166244 -0.0024089466 0.106326506
-0.04342552 -0.17847611 0.082398415 0.04327727 0.0016950646 0.02258649 0.11571205 0.11278328
0.112393364 -0.089766726 0.06754631 -0.17700854 0.21856567 -0.06726895 -0.10661768 -0.12867531
-0.08857835 0.20906296 -0.20395346 -0.067036696 -0.17199682 0.16476403 -0.113104425 -0.088662736
-0.19251409 -0.023772571 -0.14972854 0.011020304 0.1649454 0.17313248 0.13172215 -0.09655871
0.12267104 0.16839366 -0.15480544 0.13170265 0.16553262 0.037660923 -0.015129189 -0.21476896
-0.22461942 0.042743757 0.07441676 -0.20657372 -0.20326652 0.0017020646 0.013293374 0.06688885
0.14006221 0.07981434 0.17533995 -0.10869067 -0.102566764 0.12114258 -0.09535057 -0.04820745
-0.059681073 -0.054335438 -0.0831982 -0.044400755 -0.07984959 -0.14964786 -0.22456266 0.13913688
-0.022560041 -0.048555467 0.13922237 -0.21327436 -0.17808321 -0.016503992 0.11035693 0.09046595
0.12256404 0.08148215 0.057470966 0.08097971 0.21036498 0.13855235 -0.075843945 0.105766445
-0.15741017 0.19696157 -0.07966443 0.05405801 0.06675563 -0.019033698 -0.033031896 0.14653844
0.15332985 0.14998707 0.09431443 0.064271845 0.07495289 -0.01714607 0.12723559 0.1425537
0.23215859 -0.02937283 0.17881554 -0.1604309 -0.21611561 0.070915446 -0.12520273 -0.103481255
00000000: cc47 d1bd 5275 413d f19c 203e 4cad eb3d
00000010: 50ae 0e3e 60d3 1e3e f62d 863d 9059 3ebe
00000020: 461f d4bd e157 b33d 883a 43be 9246 6abe
00000030: bc28 5f3e 47cd 3bbe 9425 4ebe 0238 33be
00000040: 4853 0a3d 2f59 85bd 78e1 5abe ee6c 46be
00000050: a18d 443e 664d 1b3e 6bdf 1dbb b6c1 d93d
00000060: f5de 31bd 71c2 36be 80c0 a83d 8243 313d
00000070: ee2c de3a 4d07 b93c 70fa ec3d ecfa e63d
00000080: 7e2e e63d 9ed7 b7bd b855 8a3d ba41 35be
00000090: aecf 5f3e 4ec4 89bd 5f5a dabd 76c3 03be
000000a0: 9168 b5bd 9a14 563e 2dd9 50be 894a 89bd
000000b0: ef1f 30be e7b7 283e 4ba3 e7bd cf94 b5bd
000000c0: 6a22 45be b2be c2bc 7052 19be 818e 343c
000000d0: 72e7 283e a449 313e 2ce2 063e 93c0 c5bd
000000e0: f43a fb3d 636f 2c3e 5185 1ebe 0fdd 063e
000000f0: 6281 293e 5742 1a3d 6be0 77bc 65ec 5bbe
00000100: a202 66be 1414 2f3d d067 983d 1088 53be
00000110: 1925 50be d017 df3a 74cc 593c 05fd 883d
00000120: 786c 0f3e b375 a33d 518c 333e 3799 debd
00000130: 860e d2bd 9a19 f83d 2947 c3bd 2d75 45bd
00000140: 2474 74bd d68e 5ebd d163 aabd 91dd 35bd
00000150: 2f88 a3bd 4a3d 19be c1f3 65be e679 0e3e
00000160: d6cf b8bc 19e2 46bd 4f90 0e3e 9864 5abe
00000170: 725b 36be 6133 87bc d002 e23d 3646 b93d
00000180: db02 fb3d 1de0 a63d ad66 6b3d b1d8 a53d
00000190: eb69 573e abe0 0d3e 1254 9bbd 149c d83d
000001a0: 2230 21be 4bb0 493e 1b27 a3bd ef6b 5d3d
000001b0: 2db7 883d 8fec 9bbc 744c 07bd 2c0e 163e
000001c0: 8002 1d3e 3696 193e ed27 c13d f5a0 833d
000001d0: e780 993d ea75 8cbc 0c4a 023e 99f9 113e
000001e0: fbba 6d3e 4a9f f0bc 6c1b 373e ff47 24be
000001f0: 694d 5dbe 1e3c 913d 2535 00be fbed d3bd

network.1.running_var f4 [128]
0.20578246 0.48739192 0.17366685 0.4013298 0.24737516 0.34117433 0.41026428 0.82527864
0.3863466 0.31829533 0.16962855 0.23917148 0.12990655 0.38610378 0.13256624 0.3705918
0.4453374 0.39099184 0.17793503 0.29333323 0.55237377 0.6637255 0.31864017 0.4103
0.287275 0.20430769 0.25067642 0.14782204 0.39995286 1.6217982 0.27967355 0.31320536
0.2676814 0.3401837 0.15776351 0.30757585 0.24475466 0.15644105 0.16375971 0.3763174
0.38102913 0.11630644 0.31455973 0.52714676 0.2827584 0.24238844 0.37450483 0.19309784
0.56859285 0.24359374 0.13590658 0.39126417 0.32964733 0.5993893 0.37417918 0.21828017
0.24711218 0.50138146 0.32709837 0.48720577 0.13580395 0.2989419 0.4729348 0.36643025
0.46225595 0.37377045 0.27891392 0.3122123 0.7580276 0.3767485 0.1701562 0.340504
0.21160704 0.39904085 0.20365678 0.276369 0.32891616 1.1701121 0.3509596 0.20502724
0.19221722 0.3759481 0.5205649 0.40150362 0.1909472 0.2521016 0.3379508 0.3186609
0.30353794 0.3783011 0.24830462 0.5072381 0.33219007 0.6285072 0.406698 0.16643235
0.45703244 0.4050741 0.30155298 0.26653242 0.4394594 0.27984998 0.47406396 0.5814009
0.2742872 0.48637328 0.27688777 0.29728606 0.51624006 0.46036276 0.20917144 0.13426942
0.6253099 0.10269555 0.43167943 0.3346078 0.20952961 0.18447702 0.42222396 0.12088478
0.40522322 0.15538304 0.31854045 0.21938531 0.21514611 0.17688642 0.32974702 0.45801806
00000000: a3b8 523e 6f8b f93e b9d5 313e 197b cd3e
00000010: ea4f 7d3e 67ae ae3e 290e d23e 7645 533f
00000020: 39cf c53e 9bf7 a23e 1bb3 2d3e 5ee9 743e
00000030: 3906 053e 65af c53e 72bf 073e 35be bd3e
00000040: 4403 e43e 1530 c83e 9a34 363e c62f 963e
00000050: 5e68 0d3f eae9 293f ce24 a33e d712 d23e
00000060: b515 933e 0936 513e a958 803e a95e 173e
00000070: 9fc6 cc3e 1597 cf3f 5f31 8f3e 745c a03e
00000080: 890d 893e 8f2c ae3e c28c 213e 957a 9d3e
00000090: f7a0 7a3e 1532 203e a0b0 273e adac c03e
000000a0: 4016 c33e 1232 ee3d f90d a13e 17f3 063f
000000b0: b6c5 903e ad34 783e 19bf bf3e 71bb 453e
000000c0: 4d8f 113f a370 793e 182b 0b3e c753 c83e
000000d0: 89c7 a83e 9471 193f 6a94 bf3e d684 5f3e
000000e0: fa0a 7d3e 895a 003f 7079 a73e 0973 f93e
000000f0: 3110 0b3e ea0e 993e 8324 f23e bf9c bb3e
00000100: d0ac ec3e d75e bf3e cecd 8e3e 4ada 9f3e
00000110: 190e 423f 2ee5 c03e 6d3d 2e3e 8a56 ae3e
00000120: 84af 583e 154f cc3e 678b 503e 3d80 8d3e
00000130: b367 a83e 3cc6 953f fab0 b33e a9f2 513e
00000140: 97d4 443e 457c c03e be43 053f e291 cd3e
00000150: aa87 433e 7613 813e e307 ad3e 8627 a33e
00000160: 5369 9b3e afb0 c13e 9143 7e3e 5bda 013f
00000170: d114 aa3e d9e5 203f b83a d03e 3e6d 2a3e
00000180: 2800 ea3e df65 cf3e 2765 9a3e f076 883e
00000190: d300 e13e 7f48 8f3e 83b8 f23e b0d6 143f
000001a0: 5f6f 8c3e eb05 f93e 3cc4 8d3e e135 983e
000001b0: 4f28 043f abb4 eb3e 0a31 563e ec7d 093e
000001c0: 4f14 203f 0b52 d23d 1605 dd3e b751 ab3e
000001d0: ee8e 563e 8be7 3c3e bd2d d83e 7192 f73d
000001e0: 6b79 cf3e bb1c 1f3e bc17 a33e 8ba6 603e
000001f0: 434f 5c3e b721 353e 9ad4 a83e 5881 ea3e

network.4.weight f4 [64, 128]
0.008113086 -0.0086527355 -0.08376126 0.026166325 0.06092503 -0.08492585 -0.06327196 -0.07827316
0.02861629 0.04567261 0.07565294 -0.0039510536 -0.054877862 -0.03742422 0.056945372 0.07272187
0.008035072 -0.043024216 -0.06693035 0.036958892 0.07117077 -0.0309879 -0.0705505 0.057044063
-0.05511794 -0.014116936 -0.0045009083 -0.073659696 0.028617153 -0.011808889 -0.04836621 0.047266677
0.02797211 -0.034673262 -0.03473292 -0.0851002 0.034393508 -0.057753433 -0.084273875 0.07813198
0.08226281 0.028851464 -0.023501193 0.090605676 0.02703538 -0.026346758 -0.07843957 0.037258938
-0.034111258 -0.08098492 -0.00071757066 0.014204413 0.062045466 -0.076520674 -0.060659017 -0.044527985
-0.0034892077 0.02112923 -0.06685128 0.043838397 0.07559753 0.0705821 -0.048883803 -0.057679776
-0.018807143 0.045585833 0.016635554 0.07956222 -0.06933057 0.063507356 -0.03371222 -0.041386854
0.08660303 0.014971298 0.011832241 -0.061145637 -0.052310456 -0.081290714 0.061974265 0.034591496
-0.062087424 0.034520973 0.08850036 0.046098225 -0.03704557 0.07116778 -0.031274542 -0.023787469
-0.050654355 0.08501703 0.004034406 -0.07406631 0.025201261 0.07377 -0.037568703 -0.04026361
0.006168758 -0.0052501797 -0.028384281 -0.024517713 -0.010140405 0.027860738 0.083100185 -0.028143289
-0.009377009 0.067088924 0.070182145 0.02212989 -0.013219154 0.035242613 -0.06855222 0.05178853
0.051462885 -0.02488697 -0.059368577 0.016639331 -0.054405216 0.014239006 -0.075840645 0.05849112
-0.022801165 0.066064365 0.064038545 -0.012152454 0.015881212 0.020120876 -0.011222866 -0.087683395
-0.061252914 -0.03132026 -0.0843315 -0.028326206 0.044080433 -0.0486771 -0.03894063 -0.022324502
-0.064408466 0.04181772 -0.07901686 -0.06940251 0.047663745 -0.08367311 -0.0032590427 0.08326994
0.058405448 -0.026776792 0.035453223 -0.01266791 0.08168474 -0.05040168 -0.005649798 -0.08624041
0.038724005 0.059188172 0.045027263 -0.01605101 -0.049582053 -0.031589743 -0.0014760116 -0.038749892
0.025662038 -0.009440571 -0.0580829 -0.07979601 0.031049252 0.07087984 0.059233796 -0.019703623
0.08044723 0.041479815 -0.079450786 0.00045841382 0.01728979 0.054081917 0.08007802 0.013660117
-0.07042908 0.035978597 -0.03366335 -0.08527539 -0.079720676 0.0068109776 0.08487543 0.04650298
-0.06834343 -0.01877804 0.06810476 -0.04120321 -0.0137034515 -0.047235057 -0.06392327 -0.01694907
0.08278633 0.018863805 -0.045075282 0.08902885 -0.05714926 -0.034182455 -0.004998234 0.05957477
-0.060826562 -0.009511016 0.037770323 0.03302913 -0.034013573 -0.043495957 0.037544332 -0.041797165
0.0019451192 -0.017265067 0.056661326 0.02573123 0.0103631625 0.05360281 -0.03998127 -0.03622188
-0.010999814 0.07222506 -0.07662954 -0.012252685 0.059521805 -0.0010684752 -0.06482239 0.089575
0.0496743 -0.027069392 0.07944771 0.08342794 -0.007919792 0.069532685 0.00079743 -0.06538654
0.029130828 -0.058857054 0.05226253 -0.08760324 -0.014674595 -0.06311995 0.035668187 0.05817148
0.012702741 0.04433577 0.033103365 0.050697435 0.07102107 -0.049237475 0.06977038 -0.061263423
-0.013127043 0.080503464 -0.028157922 -0.07901263 0.07953189 -0.04406997 0.058619846 0.0040130466
00000000: c0ec 043c 34c4 0dbc 068b abbd c35a d63c
00000010: 868c 793d 9bed adbd bb94 81bd ae4d a0bd
00000020: b66c ea3c 3413 3b3d eeef 9a3d d777 81bb
00000030: 9cc7 60bd 244a 19bd 8d3f 693d 34ef 943d
00000040: 89a5 033c 293a 30bd c812 89bd 3562 173d
00000050: fbc1 913d 56da fdbc c87c 90bd 09a7 693d
00000060: 59c3 61bd b94a 67bc 5b7c 93bb e5da 96bd
00000070: 856e ea3c 127a 41bc a61b 46bd b49a 413d
00000080: c425 e53c 8d05 0ebd 1b44 0ebd 0349 aebd
00000090: 35e0 0c3d dd8e 6cbd c897 acbd a903 a03d
000000a0: 6779 a83d e859 ec3c 9385 c0bc 788f b93d
000000b0: 4d79 dd3c 28d5 d7bc eda4 a0bd d49c 183d
000000c0: 3fb8 0bbd 6cdb a5bd 5a1b 3cba a0b9 683c
000000d0: 6323 7e3d dfb6 9cbd 9775 78bd fa62 36bd
000000e0: 31ab 64bb 3517 ad3c 53e9 88bd e48f 333d
000000f0: e1d2 9a3d 598d 903d 623a 48bd a141 6cbd
00000100: 7011 9abc 36b8 3a3d 4947 883c 84f1 a23d
00000110: 30fd 8dbd 2510 823d d315 0abd 4385 29bd
00000120: ee5c b13d 2d4a 753c 04dc 413c d973 7abd
00000130: 7d43 56bd bf7b a6bd bad8 7d3d d0af 0d3d
00000140: 624f 7ebd dd65 0d3d ad3f b53d 7ed1 3c3d
00000150: 18bd 17bd 6ac0 913d bc19 00bd f0dd c2bc
00000160: f17a 4fbd 691d ae3d 0d33 843b 14b0 97bd
00000170: e072 ce3c ba14 973d a4e1 19bd 75eb 24bd
00000180: 4b23 ca3b b309 acbb 2786 e8bc 5fd9 c8bc
00000190: f123 26bc 343c e43c 6e30 aa3d c18c e6bc
000001a0: 07a2 19bc eb65 893d a8bb 8f3d be49 b53c
000001b0: 2795 58bc 8f5a 103d 1b65 8cbd 3620 543d
000001c0: bfca 523d c2df cbbc 772c 73bd 354f 883c
000001d0: 01d8 5ebd b84a 693c 5752 9bbd 6294 6f3d
000001e0: 82c9 babc c14c 873d a426 833d 161b 47bc
000001f0: 5119 823c 89d4 a43c 1de0 37bc 5a93 b3bd
00000200: 56e4 7abd ac49 00bd feb5 acbd 5c0c e8bc
00000210: af8d 343d a461 47bd 3680 1fbd e0e1 b6bc
00000220: 96e8 83bd 0f49 2b3d 97d3 a1bd e722 8ebd
00000230: 0f3b 433d cf5c abbd aa95 55bb 6e89 aa3d
00000240: 8d3a 6f3d 015b dbbc 6637 113d 118d 4fbc
00000250: 544a a73d fe71 4ebd f121 b9bb d09e b0bd
00000260: 109d 1e3d 4c6f 723d 826e 383d 687d 83bc
00000270: 8d16 4bbd 3f64 01bd bb76 c1ba 35b8 1ebd
00000280: 3239 d23c a0ac 1abc 56e8 6dbd 176c a3bd
00000290: 005b fe3c 7329 913d 239f 723d 7e69 a1bc
000002a0: 84c1 a43d bde6 293d 18b7 a2bd 4357 f039
000002b0: 51a3 8d3c 0085 5d3d f2ff a33d afce 5f3c
000002c0: 1f3d 90bd 4b5e 133d 95e2 09bd dda4 aebd
000002d0: 9844 a3bd 9f2e df3b 2bd3 ad3d e979 3e3d
000002e0: a4f7 8bbd 67d4 99bc 827a 8b3d b2c4 28bd
000002f0: 7184 60bc 8c79 41bd 34ea 82bd c7d8 8abc
00000300: e18b a93d 4488 9a3c dca0 38bd c254 b63d
00000310: 5815 6abd e702 0cbd 3ac8 a3bb ad04 743d
00000320: 4625 79bd 18d4 1bbc 0eb5 1a3d 8e49 073d
00000330: d151 0bbd d128 32bd 16c8 193d 8133 2bbd
00000340: 5ff3 fe3a 786f 8dbc b515 683d 4dca d23c
00000350: 41ca 293c 9f8e 5b3d 66c3 23bd 655d 14bd
00000360: 9038 34bc bbea 933d f3ef 9cbd 7cbf 48bc
00000370: 23cd 733d 140c 8cba 9ac1 84bd 1973 b73d
00000380: 4777 4b3d a1c0 ddbc 7bb5 a23d 45dc aa3d
00000390: 04c2 01bc 2767 8e3d 9f0a 513a 61e9 85bd
000003a0: c6a3 ee3c 1814 71bd 3c11 563d 5469 b3bd
000003b0: b66d 70bc 0845 81bd ce18 123d 3845 6e3d
000003c0: 281f 503c 6d99 353d 6597 073d 1da8 4f3d
000003d0: 7f73 913d 3cad 49bd c6e3 8e3d 5bef 7abd
000003e0: cf12 57bc 00df a43d 71ab e6bc 60d1 a1bd
000003f0: 9ee1 a23d b682 34bd 5d1b 703d e07f 833b

network.4.bias f4 [64]
-0.05575065 -0.04374252 -0.008930366 -0.023075903 0.048500184 0.069234185 -0.03807138 0.02927522
-0.0068672337 -0.08627763 0.026466463 0.037865944 -0.037579764 -0.0432418 -0.07457373 -0.08684671
0.07572781 0.050538283 0.0064855954 -0.01472824 -0.017805256 0.048325878 0.0013252869 0.0490498
0.06671587 0.024329027 -0.057227265 0.02100374 0.040670108 -0.060808696 -0.033541318 0.056153137
-0.075514354 0.027565116 0.058028094 0.08274086 0.018259607 -0.069347635 0.049101163 -0.00038872164
0.055408586 -0.0723085 0.050782524 -0.046679404 -0.080325656 0.029159244 0.009236468 0.018443996
-0.051115964 0.06935698 -0.028556943 -0.057230316 0.05882478 0.03715284 -0.07636823 0.08619587
-0.049620945 0.06619429 -0.0026593332 -0.04190359 0.07416302 0.0755537 0.043930776 -0.014700671
00000000: cb5a 64bd 5b2b 33bd ab50 12bc ad09 bdbc
00000010: 21a8 463d a7ca 8d3d bcf0 1bbd 96d2 ef3c
00000020: 8806 e1bb 53b2 b0bd 32d0 d83c 5219 1b3d
00000030: 3ded 19bd 501e 31bd 1dba 98bd b0dc b1bd
00000040: 2f17 9b3d 3b01 4f3d 1e85 d43b b74e 71bc
00000050: 54dc 91bc 5bf1 453d 40b5 ad3a 71e8 483d
00000060: 54a2 883d ab4d c73c 2367 6abd 0910 ac3c
00000070: b395 263d 8a12 79bd 9f62 09bd d500 663d
00000080: 45a7 9abd 3dd0 e13c deae 6d3d 0a74 a93d
00000090: 2c95 953c 2206 8ebd 4d1e 493d 56cd cbb9
000000a0: 1df4 623d 7b16 94bd 5601 503d e732 3fbd
000000b0: c781 a4bd 5edf ee3c 8e54 173c dd17 973c
000000c0: f95e 51bd 080b 8e3d 40f0 e9bc 566a 6abd
000000d0: 41f2 703d 942d 183d f266 9cbd 7687 b03d
000000e0: 553f 4bbd df90 873d 3548 2ebb 19a3 2bbd
000000f0: c8e2 973d e6bb 9a3d c2f0 333d 15db 70bc

network.5.weight f4 [64]
0.99815035 0.99899614 0.99958897 0.9974469 0.99920803 0.98987323 1.0022513 0.99927175
1.0022634 0.9978673 1.0051491 1.0038431 1.0051079 0.99869984 0.9924711 0.9978926
0.9975612 0.99891734 0.99794066 0.9957465 0.99932945 0.99328154 0.9967214 0.9986736
1.0041963 1.0021895 0.9981095 1.0004506 1.0005512 1.0002171 1.0048755 0.99760824
1.0122536 1.0088671 0.99632263 1.0034258 1.001462 0.9917361 1.0063735 0.9998641
0.9969662 1.000273 1.0004117 1.0029205 0.99721533 1.001148 0.9937515 1.0043885
0.9948711 1.0066344 0.9938679 1.003092 0.9963448 0.9970718 0.99867296 1.0009359
0.9961434 0.9972212 0.9971966 0.997453 1.0120938 0.9956008 1.0019441 0.9949792
00000000: c886 7f3f 36be 7f3f 10e5 7f3f ae58 7f3f
00000010: 19cc 7f3f 5568 7d3f c549 803f 46d0 7f3f
00000020: 2b4a 803f 3b74 7f3f baa8 803f ee7d 803f
00000030: 60a7 803f cbaa 7f3f 9612 7e3f e475 7f3f
00000040: 2c60 7f3f 0cb9 7f3f 0a79 7f3f 3ee9 7e3f
00000050: 0ed4 7f3f b347 7e3f 2229 7f3f 13a9 7f3f
00000060: 8189 803f bf47 803f 1b84 7f3f c40e 803f
00000070: 1012 803f 1d07 803f c39f 803f 4163 7f3f
00000080: 8791 813f 8f22 813f 000f 7f3f 4270 803f
00000090: e82f 803f 6be2 7d3f d9d0 803f 18f7 7f3f
000000a0: 2d39 7f3f f208 803f 7e0d 803f b35f 803f
000000b0: 8149 7f3f 9e25 803f 8066 7e3f cd8f 803f
000000c0: dfaf 7e3f 65d9 803f 206e 7e3f 5265 803f
000000d0: 7410 7f3f 1940 7f3f 08a9 7f3f ab1e 803f
000000e0: 4103 7f3f e349 7f3f 4748 7f3f 1459 7f3f
000000f0: 4a8c 813f b2df 7e3f b43f 803f f5b6 7e3f

network.5.bias f4 [64]
-2.0787735e-05 -0.0018678105 -0.0007344361 -0.0028999199 0.0010605047 -0.00853178 0.0031385892 0.00014712234
0.0021611808 -0.00097270584 0.006471933 0.0031367647 0.0023996504 -0.00046284293 -0.007646698 -0.0028077257
0.00037985743 -0.001047785 -0.00189057 -0.0036070922 -0.0002278405 -0.007232329 0.002211623 -0.0027281777
0.0043047145 0.0021447323 -0.004468234 0.0026058268 -0.00019327187 0.00080569804 0.00050738803 0.0018158115
0.0032626577 0.0018732442 -0.0025655522 -0.0021625708 -0.0016322798 -0.00957101 -0.0030306997 0.0052248845
-0.00087529916 0.0019140509 -0.007463295 0.0042879516 -0.0014620076 0.0005572801 -0.0041335076 -0.00025596615
-0.0076902364 -0.003095269 -0.0066743935 0.00010362382 -0.002787308 -0.0027726947 -0.0014042367 -0.00016130455
-0.004626268 -0.00021253365 -0.0053758495 -0.0019821771 0.0037571806 -0.0029423218 0.0015624941 -0.0038862224
00000000: 5261 aeb7 52d1 f4ba 2c87 40ba 950c 3ebb
00000010: a200 8b3a e1c8 0bbc cab0 4d3b da44 1a39
00000020: 99a2 0d3b 2ffd 7eba 8212 d43b 2e92 4d3b
00000030: 7443 1d3b baa9 f2b9 2791 fabb d201 38bb
00000040: 9a27 c739 d555 89ba 01cd f7ba f764 6cbb
00000050: 78e8 6eb9 2cfd ecbb e0f0 103b 3acb 32bb
00000060: 900e 8d3b a38e 0c3b 436a 92bb 85c6 2a3b
00000070: 06a9 4ab9 7b35 533a 3c02 053a 8600 ee3a
00000080: 50d2 553b a587 f53a d322 28bb ebb9 0dbb
00000090: 39f2 d5ba bacf 1cbc b49e 46bb 8235 ab3b
000000a0: 5574 65ba e4e0 fa3a a88e f4bb f281 8c3b
000000b0: d6a0 bfba 6f16 123a 6072 87bb 3233 86b9
000000c0: 61fe fbbb ffd9 4abb dfb4 dabb 9d50 d938
000000d0: 45ab 36bb 19b6 35bb 5d0e b8ba dc23 29b9
000000e0: f397 97bb 91db 5eb9 e527 b0bb 6ae7 01bb
000000f0: 083b 763b f8d3 40bb 9acc cc3a feaf 7ebb

network.5.running_mean f4 [64]
-0.14283846 -0.040794764 -0.195688 -0.09714242 -0.089426845 -0.12693167 -0.09576551 0.15732789
0.50652415 -0.2660848 -0.2816905 0.059892647 0.35058364 -0.2736237 0.071523 0.15409836
0.4204427 0.12564424 0.07621414 -0.10017391 0.1727418 -0.29228732 0.1717826 0.39917606
-0.10662925 -0.05742373 0.3191275 -0.24680524 -0.07756388 -0.45438957 0.11604687 -0.66868347
0.32453638 0.06466729 0.24647869 0.18261398 0.3813053 -0.05737415 0.22961628 -0.172026
0.4555543 0.18080692 -0.116464004 0.108264044 -0.3835591 -0.15053003 -0.28741613 0.32417235
-0.00743403 0.13990471 0.16581565 0.12237574 -0.013642088 -0.031952593 0.006356236 -0.16644375
0.2394116 0.10597788 0.061163884 -0.08512491 0.31043002 -0.23689403 0.22728354 0.011840606
00000000: 3f44 12be 6918 27bd 6f62 48be 9bf2 c6bd
00000010: 6c25 b7bd 60fa 01be b520 c4bd 901a 213e
00000020: 91ab 013f 443c 88be bd39 90be fe51 753d
00000030: b37f b33e 6818 8cbe a77a 923d f6cb 1d3e
00000040: 4444 d73e e2a8 003e 2916 9c3d fb27 cdbd
00000050: 3ae3 303e afa6 95be c7e7 2f3e ce60 cc3e
00000060: 7060 dabd 2535 6bbd ae64 a33e 83ba 7cbe
00000070: d0d9 9ebd c0a5 e8be fba9 ed3d d72e 2bbf
00000080: a229 a63e 4970 843d e964 7c3e 29ff 3a3e
00000090: 733a c33e 2801 6bbd 8820 6b3e 9527 30be
000000a0: 6a3e e93e 7325 393e ae84 eebd 8ab9 dd3d
000000b0: dc61 c4be 8b24 1abe 3528 93be ebf9 a53e
000000c0: 2a99 f3bb 2e43 0f3e 94cb 293e 22a0 fa3d
000000d0: 1083 5fbc b9e0 02bd f947 d03b 3b70 2abe
000000e0: 5128 753e ee0a d93d fb86 7a3d f855 aebd
000000f0: aff0 9e3e 5994 72be 04bd 683e 1aff 413c

network.5.running_var f4 [64]
0.20944986 0.26814494 0.3076431 0.28022707 0.100616835 0.1736349 0.18310222 0.15032703
0.26242557 0.18885024 0.30341032 0.15952154 0.19028416 0.21838193 0.14376187 0.115783416
0.2196764 0.17340362 0.16318314 0.14447868 0.25157714 0.20711946 0.17999385 0.16329788
0.14607735 0.21604213 0.16387394 0.23168604 0.20135628 0.23855512 0.19109796 0.28422445
0.31949437 0.21677434 0.19895878 0.24403311 0.18179853 0.16515867 0.15214744 0.20684366
0.24403603 0.26590002 0.20253156 0.15451433 0.1584911 0.26589316 0.11487946 0.14110126
0.15715593 0.18033767 0.23763429 0.25106695 0.1971033 0.2545403 0.14041947 0.17328985
0.24639578 0.137783 0.11845684 0.112606 0.26158857 0.14168476 0.19732077 0.14930026
00000000: 067a 563e 4b4a 893e 6583 9d3e ec79 8f3e
00000010: 3310 ce3d 59cd 313e 267f 3b3e 54ef 193e
00000020: a55c 863e f561 413e 9958 9b3e 9d59 233e
00000030: dad9 423e 839f 5f3e 5036 133e db1f ed3d
00000040: daf2 603e b890 313e 7b19 273e 38f2 133e
00000050: b8ce 803e 2017 543e 4f50 383e 8f37 273e
00000060: 4d95 153e 263a 5d3e 92ce 273e 1b3f 6d3e
00000070: 5730 4e3e cb47 743e 2faf 433e de85 913e
00000080: c494 a33e 18fa 5d3e dabb 4b3e d1e3 793e
00000090: 6529 3a3e 5b1f 293e 8acc 1b3e d3ce 533e
000000a0: 95e4 793e 0c24 883e 6f64 4f3e 0139 1e3e
000000b0: 7e4b 223e 2623 883e ec45 eb3d d97c 103e
000000c0: 7ced 203e 70aa 383e 6756 733e d98b 803e
000000d0: 73d5 493e 1b53 823e 1fca 0f3e e572 313e
000000e0: 2d4f 7c3e fd16 0d3e 8099 f23d f99d e63d
000000f0: f0ee 853e cf15 113e 750e 4a3e 2be2 183e

network.8.weight f4 [32, 64]
-0.07857306 0.049553324 0.0648131 0.12858583 -0.032315545 0.055351242 -0.06690563 -0.04838646
0.032696523 0.11318538 -0.071871065 0.06104893 0.05780202 -0.080448546 0.0068978625 -0.021209653
0.04473193 -0.098591365 0.100401424 -0.10908975 0.06422426 -0.119508855 0.006389494 -0.044337854
-0.12513971 -0.09494878 0.11403121 -0.09169982 -0.04914576 0.032729335 0.04731312 0.027618507
0.10896336 0.12625524 -0.09142102 0.116063185 -0.09714891 0.026236821 0.0949808 -0.11575741
-0.030957552 0.0147269545 -0.09965635 -0.027702129 0.059817106 -0.016795153 -0.046711665 0.09128254
0.11500009 0.08144344 -0.10965986 0.09938942 -0.11734037 0.10781942 0.038233094 -0.0936598
-0.038593486 -0.102189586 -0.028595205 -0.021170447 0.001682801 -0.049760103 -0.06428795 0.088560395
0.07847636 -0.04864151 0.08615944 0.050717417 -0.012897119 -0.047904387 0.00822803 0.11587832
-0.12228361 0.07973172 -0.0072747557 0.09753505 -0.1295507 0.002113256 0.006133168 0.10237074
-0.07564867 0.034534108 0.10914941 0.07685944 -0.11637324 -0.10215101 0.10112477 0.11693285
-0.0064615784 -0.05631837 0.06763022 0.028321277 -0.015220592 0.10687679 -0.019261379 0.015408299
-0.12565462 0.05956237 0.11814197 0.016908297 -0.029950453 0.024905179 -0.09071428 -0.011731765
0.11085037 0.05586007 -0.032649413 0.12622125 -0.077940494 -0.087777585 0.015125566 0.042886227
-0.045985155 0.10250555 -0.049996104 -0.07572785 0.09556296 -0.06331245 0.10888282 -0.07456517
-0.09695367 -0.018840857 0.098062366 -0.025913602 0.08678462 0.064802304 0.023021873 -0.102817655
-0.018904084 -0.0879983 -0.11176766 -0.05090715 -0.1171391 -0.06301274 -0.012711423 -0.050998397
0.0027823523 0.013198931 -0.069390036 -0.12060274 0.06576365 0.10471407 0.10700647 0.08551514
-0.07275676 0.091840856 -0.0021835237 0.05470209 -0.007907652 -0.08514626 -0.10708808 0.10153344
0.046929356 -0.11628908 0.0054670135 0.05479115 -0.105779625 0.0020652995 -0.01485532 -0.12378634
0.07681942 0.0997445 0.092325374 -0.09659047 0.08685233 0.0013057467 0.043614607 0.0013858357
0.12066865 -0.056858383 0.103543386 -0.006738174 0.044647366 0.08512668 -0.11303132 0.03807047
-0.040783606 0.099445835 -0.08492976 -0.1166461 0.028287841 0.116834514 0.01089675 -0.020475155
0.098652996 -0.045224942 0.12032429 -0.0576406 0.12395182 0.07307801 -0.0899292 -0.10734405
0.106376596 -0.095841065 0.097272836 -0.064613976 0.038626626 0.11369989 -0.016787171 0.1251973
0.068213835 0.03533975 -0.020675102 0.036121458 -0.022709988 0.10234754 -0.11377268 -0.054760072
0.103573404 -0.058692276 -0.022132425 0.05804295 -0.003923409 -0.009654886 0.11797237 0.08640699
-0.08169564 0.001113286 -0.029648405 0.028968537 0.10168149 -0.017511988 0.10401272 -0.009601894
0.045213293 -0.040477514 -0.08839701 0.122387074 0.10406867 -0.07199661 -0.019589314 -0.031000856
0.120100856 -0.0505565 0.06904707 0.038146142 -0.105759874 0.11885112 0.033764746 -0.021828292
0.088627726 0.04256876 -0.09933414 -0.059399683 0.01546011 0.08348346 0.030854555 0.1137207
0.09456645 0.057824157 -0.09055111 0.05624452 -0.0065915906 0.0794019 -0.09282859 -0.04759712
00000000: eaea a0bd 6df8 4a3d bbbc 843d 01ac 033e
00000010: 4e5d 04bd fcb7 623d d205 89bd e130 46bd
00000020: caec 053d bdcd e73d 2331 93bd 710e 7a3d
00000030: d0c1 6c3d 35c2 a4bd 7707 e23b debf adbc
00000040: d438 373d 45ea c9bd 439f cd3d 726a dfbd
00000050: 0288 833d 0fc1 f4bd f65e d13b 9c9b 35bd
00000060: a024 00be 8274 c2bd 3289 e93d 1dcd bbbd
00000070: 104d 49bd 320f 063d 67cb 413d 3540 e23c
00000080: 2f28 df3d 0e49 013e f23a bbbd 89b2 ed3d
00000090: 02f6 c6bd 9aee d63c 4b85 c23d 3912 edbd
000000a0: b19a fdbc 5349 713c a118 ccbd 93ef e2bc
000000b0: c802 753d fd95 89bc bb54 3fbd 57f2 ba3d
000000c0: 2b85 eb3d d1cb a63d 5995 e0bd ae8c cb3d
000000d0: 2650 f0bd 6ed0 dc3d 4e9a 1c3d b6d0 bfbd
000000e0: 3414 1ebd c648 d1bd 7e40 eabc a56d adbc
000000f0: 6f91 dc3a 40d1 4bbd 67a9 83bd 275f b53d
00000100: 37b8 a03d 523c 47bd 5c74 b03d 11bd 4f3d
00000110: 704e 53bc 6437 44bd dcce 063c 9d51 ed3d
00000120: d46f fabd 624a a33d 1361 eebb 75c0 c73d
00000130: f0a8 04be 8d7e 0a3b bef8 c83b c0a7 d13d
00000140: b1ed 9abd a373 0d3d ba89 df3d 7b68 9d3d
00000150: 1855 eebd 8c34 d1bd 811a cf3d 7d7a ef3d
00000160: a6bb d3bb 17ae 66bd b681 8a3d 0602 e83c
00000170: ca5f 79bc 38e2 da3d 0aca 9dbc 1773 7c3c
00000180: 9bab 00be acf7 733d 6bf4 f13d 4583 8a3c
00000190: a75a f5bc f205 cc3c 69c8 b9bd 9736 40bc
000001a0: 8505 e33d 87cd 643d 64bb 05bd 2540 013e
000001b0: 449f 9fbd bcc4 b3bd 39d1 773c 78a9 2f3d
000001c0: ee5a 3cbd 6eee d13d b7c8 4cbd 3417 9bbd
000001d0: 83b6 c33d f5a9 81bd f5fd de3d a0b5 98bd
000001e0: a58f c6bd 2458 9abc ecd4 c83d c348 d4bc
000001f0: 23bc b13d 12b7 843d 5e98 bc3c 1092 d2bd
00000200: bddc 9abc 7438 b4bd 71e6 e4bd 0484 50bd
00000210: a0e6 efbd d30c 81bd 9343 50bc b2e3 50bd
00000220: 2058 363b 5440 583c 5d1c 8ebd 92fe f6bd
00000230: 18af 863d 5574 d63d 3526 db3d 9022 af3d
00000240: 7f01 95bd 0f17 bc3d 7319 0fbb 4c0f 603d
00000250: 198f 01bc 2a61 aebd ff50 dbbd c4f0 cf3d
00000260: ff38 403d f828 eebd a224 b33b af6c 603d
00000270: fda2 d8bd fa59 073b ba63 73bc b183 fdbd
00000280: 8053 9d3d d846 cc3d 1615 bd3d 39d1 c5bd
00000290: a2df b13d 9725 ab3a 3ba5 323d eea4 b53a
000002a0: 2021 f73d 56e4 68bd 8e0e d43d e6cb dcbb
000002b0: 28e0 363d e656 ae3d f77c e7bd c8ef 1b3d
000002c0: b60c 27bd 42aa cb3d a7ef adbd 27e4 eebd
000002d0: e7bb e73c ef46 ef3d 4888 323c 83bb a7bc
000002e0: 950a ca3d ca3d 39bd 956c f63d 8d18 6cbd
000002f0: 74da fd3d eca9 953d cd2c b8bd 33d7 dbbd
00000300: f9db d93d 5248 c4bd fb36 c73d 5554 84bd
00000310: f436 1e3d 7ddb e83d 4085 89bc b933 003e
00000320: b2b3 8b3d 6ac0 103d d55e a9bc 18f4 133d
00000330: 4c0a babc 969b d13d a701 e9bd 194c 60bd
00000340: 4b1e d43d 5067 70bd 0f4f b5bc 72be 6d3d
00000350: f18f 80bb 872f 1ebc 7f9b f13d 26f6 b03d
00000360: 0b50 a7bd aeeb 913a 36e1 f2bc 6d4f ed3c
00000370: 633e d03d 4d75 8fbc 9f04 d53d 4351 1dbc
00000380: 9331 393d c0cb 25bd 7e09 b5bd 13a6 fa3d
00000390: f421 d53d f572 93bd c579 a0bc 82f5 fdbc
000003a0: 70f7 f53d 5514 4fbd 8d68 8d3d 213f 1c3d
000003b0: a298 d8bd 3768 f33d e74c 0a3d 3fd1 b2bc
000003c0: 7482 b53d 955c 2e3d b36f cbbd 154d 73bd
000003d0: 674c 7d3c 60f9 aa3d b1c2 fc3c 66e6 e83d
000003e0: 0eac c13d 06d9 6c3d dc72 b9bd a760 663d
000003f0: 45fe d7bb 779d a23d ea1c bebd 33f5 42bd

network.8.bias f4 [32]
-0.0070308205 -0.07568509 0.02263939 0.048638046 -0.013786842 0.10963427 0.1012022 -0.017173808
-0.100057244 -0.05728318 0.02398649 0.0802451 0.05472908 0.06832953 0.08501626 -0.028758502
-0.10856035 0.090983614 -0.042579845 -0.029814374 -0.023313334 -0.00067101466 -0.0023513904 -0.02299726
-0.04735296 0.06969007 0.06609861 -0.028160332 -0.11373659 0.04794014 -0.1031698 0.07607428
00000000: cc62 e6bb c900 9bbd 3e76 b93c b038 473d
00000010: 35e2 61bc ef87 e03d 1943 cf3d 16b0 8cbc
00000020: d0ea ccbd c5a1 6abd 517f c43c 8b57 a43d
00000030: 9a2b 603d 5af0 8b3d 011d ae3d f396 ebbc
00000040: e454 debd 9e55 ba3d 3468 2ebd 463d f4bc
00000050: 9bfb bebc 08e7 2fba c919 1abb c064 bcbc
00000060: 2df5 41bd abb9 8e3d b55e 873d 7fb0 e6bc
00000070: bbee e8bd e15c 443d b04a d3bd d5cc 9b3d

network.9.weight f4 [32]
1.0138057 0.99113816 1.016308 1.0044379 0.99767065 1.0049388 0.99896634 0.9962161
0.9861688 0.9874531 0.99320185 1.0001698 1.0061855 0.9959907 1.0013827 0.9936874
0.99187475 1.0003052 0.9970986 0.99614733 0.9974614 0.99333185 1.0068563 1.0029681
0.99381286 0.9995646 0.99819016 0.99806386 0.99543595 0.99474674 0.99976355 1.0000702
00000000: 63c4 813f 3bbb 7d3f 6116 823f 6c91 803f
00000010: 5867 7f3f d6a1 803f 42bc 7f3f 0508 7f3f
00000020: 8f75 7c3f bac9 7c3f 7a42 7e3f 9005 803f
00000030: b0ca 803f 3ff9 7e3f 4f2d 803f 4c62 7e3f
00000040: 81eb 7d3f 000a 803f db41 7f3f 8303 7f3f
00000050: a159 7f3f ff4a 7e3f abe0 803f 4261 803f
00000060: 856a 7e3f 77e3 7f3f 6489 7f3f 1d81 7f3f
00000070: e4d4 7e3f b9a7 7e3f 81f0 7f3f 4d02 803f

network.9.bias f4 [32]
0.002671 -0.0049419007 0.00076633773 0.0008745779 0.004238993 0.0059500868 0.0028214718 -0.0053712707
-0.015846875 -0.013603337 -0.00770563 -0.002019498 -0.0017391755 -0.0016442379 0.00035785316 -0.0014608288
-0.0076243356 -0.0063611474 -0.006345321 -0.003896324 -0.0026623653 -0.0028682265 0.0014971358 0.0072596674
-0.004620276 -0.0012088225 0.005752331 -0.0036902176 -0.003496911 -0.004082258 0.0016545925 0.00033393706
00000000: f20b 2f3b abef a1bb 0ee4 483a ee43 653a
00000010: 40e7 8a3b f2f8 c23b 71e8 383b 7c01 b0bb
00000020: 4ed1 81bc 88e0 5ebc 827f fcbb 8e59 04bb
00000030: 0cf5 e3ba 7883 d7ba 3d9e bb39 4879 bfba
00000040: 90d5 f9bb 2c71 d0bb 69ec cfbb 7859 7fbb
00000050: 147b 2ebb dbf8 3bbb 8b3b c43a 81e2 ed3b
00000060: af65 97bb 5a71 9eba 0d7e bc3b 94d7 71bb
00000070: 6e2c 65bb 76c4 85bb e9de d83a 4614 af39

network.9.running_mean f4 [32]
-0.053178847 0.19416498 0.029059863 0.51540744 0.03995356 0.106064424 0.14191255 -0.037469164
-0.018187527 0.018402537 0.07452716 0.039623626 0.40159476 0.021140091 0.061588623 0.032167803
-0.1244404 0.6732477 -0.15911715 -0.29832584 0.43069533 0.016130747 -0.072716095 -0.22971588
-0.008616669 0.17696519 0.032458518 0.20609483 0.0740666 -0.14593337 -0.1497576 0.13548523
00000000: 10d2 59bd 2fd3 463e f30e ee3c bef1 033f
00000010: 58a6 233d 4e38 d93d 8651 113e 4479 19bd
00000020: 02fe 94bc ebc0 963c b2a1 983d 624c 223d
00000030: d49d cd3e fc2d ad3c 5a44 7c3d 63c2 033d
00000040: 9cda febd f659 2c3f 9bef 22be 2abe 98be
00000050: 1984 dc3e a124 843c 2dec 94bd a43a 6bbe
00000060: ee2c 0dbc 5d36 353e 39f3 043d 860a 533e
00000070: 3bb0 973d 8f6f 15be 0e5a 19be a4bc 0a3e

network.9.running_var f4 [32]
0.2669258 0.17037076 0.44894478 0.22997104 0.22902015 0.22883882 0.1398325 0.19273938
0.17247686 0.2397667 0.20168085 0.14003174 0.26719752 0.17195922 0.18154223 0.2756162
0.25938088 0.27316582 0.1242665 0.17211564 0.18594615 0.20538278 0.24526428 0.21284887
0.19462557 0.23522447 0.22295505 0.20837867 0.17802674 0.17489924 0.23907396 0.26342282
00000000: 80aa 883e ac75 2e3e 17dc e53e 877d 6b3e
00000010: 4284 6a3e b954 6a3e 4030 0f3e 795d 453e
00000020: c69d 303e 6785 753e 6d85 4e3e 7b64 0f3e
00000030: 1dce 883e 1416 303e 35e6 393e 911d 8d3e
00000040: 92cd 843e 64dc 8b3e 6f7f fe3d 153f 303e
00000050: ab68 3e3e dd4f 523e 8f26 7b3e 0ef5 593e
00000060: ed4b 473e afde 703e 544e 643e 3861 553e
00000070: a44c 363e c918 333e cecf 743e 5bdf 863e
