ai-layer/model/results/1000_v3/dnn_eligibility_model.pth (torch, 68737 bytes, 25 tensors)

network.0.weight f4 [128, 16]
000000 e9 5e 40 3e c7 ef 9d 3e 62 78 8f bd 6a 07 3d 3e
       0.18786205 0.30846998 -0.07005383 0.1845986
000010 90 0d 46 bd 99 a9 20 3d 8b 42 0f be 64 79 c1 3d
       -0.048352778 0.03922424 -0.13990228 0.094469815
000020 2a e4 5f 3e 3d 4c 21 be 82 bd 74 3e 1b f5 de 3c
       0.21864381 -0.15751739 0.23900416 0.027216485
000030 72 5c 53 3e 8c 98 80 3b 58 37 e4 3d 4e 5c 33 bd
       0.20640734 0.003924435 0.111433685 -0.0437892
000040 db f8 53 3e f7 29 3e bb 95 bf 09 bd cc da a3 3d
       0.207004 -0.0029016712 -0.033629972 0.080007166
000050 b0 cc 0d be 29 cf 30 bd 83 bf c2 bd cb b1 31 3e
       -0.13847613 -0.043166313 -0.09509184 0.17352979
000060 e5 94 54 be 05 7c a3 bd ac c2 3c bd bf 59 04 be
       -0.20759924 -0.07982639 -0.04608409 -0.1292486
000070 29 0a 45 3d e1 da 86 be bc 99 65 3e 0e 0e 62 be
       0.048105393 -0.26338866 0.22421926 -0.22075674
000080 12 c2 44 3e 41 80 95 3d 14 e9 9c bd ac 77 fb 3d
       0.19214657 0.07299853 -0.076616436 0.12278685
000090 f5 48 ab 3c ec 0f 83 3e ec 41 4f 3d 09 84 b8 bd
       0.020908812 0.25598085 0.050599977 -0.09009559
0000a0 ca 53 c8 3d 61 5a 5a bd 34 98 e4 3d 19 55 3e 3e
       0.097816065 -0.05330885 0.11161843 0.1858715
0000b0 78 8a 1a 3e e2 7b 12 be d6 61 09 3e 1a e5 cd 3c
       0.15091884 -0.1430507 0.13416228 0.025133658
0000c0 60 be c1 3d 2e 8d 1e be f6 fa 5d be 3b a2 c8 bd
       0.09460139 -0.15483543 -0.21677765 -0.09796568
0000d0 b0 84 77 be 11 5a 27 3e f1 a3 3c 3d 4d 3b b9 3d
       -0.2417171 0.16342951 0.046054784 0.09044514
0000e0 8c a1 b9 3d 70 14 79 38 69 98 55 3e 4b 71 2f be
       0.09064016 5.938526e-05 0.20858921 -0.17133062
0000f0 40 ee ea 3c 02 e8 4f be b7 45 f0 3c 72 38 f5 bd
       0.02867806 -0.20303348 0.029330118 -0.11973657
000100 dc 42 80 3d 05 51 88 bc 3c 49 34 3e 70 b5 33 be
       0.062627524 -0.016640196 0.17606062 -0.17549682
000110 d3 64 06 be db 73 41 be a8 ed 16 3e f3 54 7d 3d
       -0.13124399 -0.18891852 0.14739096 0.061848592
000120 89 8f 5f 3e 5d 24 27 be 91 13 73 be ee 46 87 be
       0.21832098 -0.16322465 -0.23737933 -0.26421303
000130 53 5d 21 be 71 ca 1d 3e ec 5f bc 3d b7 e0 7f 3e
       -0.15758257 0.15409257 0.09197983 0.24988066
000140 a6 99 1a be 62 a1 43 be a2 c6 13 3e ec 1d 01 be
       -0.15097675 -0.19104531 0.14431241 -0.1260907
000150 85 55 f8 3d 52 07 98 bd 48 eb 07 3e 83 4e 49 be
       0.121256866 -0.07423271 0.13273346 -0.19658856
000160 96 04 0f be c1 eb 8a 3d 68 07 15 3b 1f c5 a6 bd
       -0.13966593 0.06783248 0.002274001 -0.081430666
000170 bd 9a c9 3d fa ef 10 3e d7 ac 3e be 48 4c 22 be
       0.09843967 0.14154044 -0.1862062 -0.15849411
000180 f2 24 6b 3e 65 41 d0 bd 59 78 8c bd 91 40 5d be
       0.22963312 -0.10168723 -0.06858892 -0.21606661
000190 78 7c 4d be 22 6d 64 3d a1 d5 1a bd 72 82 31 be
       -0.20067012 0.05576814 -0.03780139 -0.17334917
0001a0 43 79 b0 3c 43 5a 1a be 6b a4 7f be a7 3c cb bd
       0.021542197 -0.15073495 -0.24965064 -0.09923678
0001b0 e5 40 83 be f4 7e 60 be c2 5f 76 3e 71 ee 88 b9
       -0.25635448 -0.21923429 0.24059966 -0.00026117594
0001c0 ba 68 ca 3d c2 be 85 be b7 e7 24 be f9 4d 89 bd
       0.09883256 -0.261221 -0.16104017 -0.06704325
0001d0 52 7e 8b bb 99 f5 25 be 8f 44 da bc 61 b6 36 be
       -0.004257002 -0.1620697 -0.02664402 -0.1784301
0001e0 cb 59 56 bc 3d 9c 1b bc 04 61 70 bb 4b 84 1b be
       -0.013082932 -0.009497699 -0.003667892 -0.15187185
0001f0 b6 bb 21 be 0a 7f 3c be 9e 07 f1 bd a0 64 82 be
       -0.15794262 -0.18407837 -0.11769031 -0.25467396
000200 34 72 81 3e 9c f4 9f bc 69 cd 80 3e db ee fa 3d
       0.25282443 -0.019525819 0.25156716 0.12252589
000210 87 c2 47 be 74 7d 33 3e d7 82 7f bd 72 fd eb bd
       -0.195078 0.17528325 -0.062380638 -0.1152295
000220 07 67 47 be a8 58 59 be 4b 17 b4 3d 06 e4 82 bc
       -0.19472896 -0.21225226 0.08793505 -0.01597787
000230 8f ef e8 3d 02 b9 1a be 90 c4 38 3e 5c b6 4e be
       0.11373817 -0.15109637 0.18043733 -0.20186752
000240 30 e7 83 bc b9 1f 7d 3d 5b fb d7 3d fe 5d 65 3e
       -0.01610145 0.06179783 0.10545989 0.22399136
000250 06 1d 78 3e 5f 5c 39 be ba 72 a0 3d e9 ff a2 bd
       0.24229822 -0.18101643 0.07834382 -0.07958967
000260 d9 a7 c9 bc 11 19 3d be be 59 58 3e 27 0a 4b be
       -0.024616169 -0.18466593 0.21127984 -0.19828092
000270 03 fb ef 3d 20 3e a3 3d 9d c4 d3 3d fa 7f 23 be
       0.117177986 0.07970834 0.103402354 -0.15966788
000280 31 2a 78 3e 1d 3b 94 3c 33 ae 42 3d ac d6 79 be
       0.24234845 0.018094594 0.04752941 -0.24398297
000290 08 5d ca 3d f9 4a 29 bd 96 7e d7 bd f9 c4 52 3e
       0.098810256 -0.041331265 -0.10522191 0.20582952
0002a0 90 2d 8e 3c 70 25 05 be 60 9a fe bd 65 2f f0 3b
       0.01735571 -0.13002563 -0.124317884 0.0073298686
0002b0 e4 35 11 3e 44 f6 84 bd 21 c2 19 be e6 d6 b5 bd
       0.14180714 -0.06492284 -0.1501546 -0.08878879
0002c0 1a 70 8a be 90 60 c5 3c c2 05 18 3e e8 43 68 be
       -0.27038652 0.024093896 0.14845946 -0.22682154
0002d0 a3 58 4b 3d a0 b6 03 3e 5a 50 88 3d 4e be 45 bd
       0.049645077 0.12862635 0.06655951 -0.04827719
0002e0 22 14 10 3e 47 a9 a0 3d e9 7e b0 3d 3a 3e 0a bd
       0.1407018 0.07844787 0.08617956 -0.03375075
0002f0 89 88 96 bd 67 ce 7d 3d bd aa b9 bd 0c 18 ec bd
       -0.07350261 0.06196442 -0.09065769 -0.11528024
000300 a6 cd 12 3e 2d 4a 64 3e ed 68 82 3c c4 a6 64 bd
       0.14336261 0.22293921 0.015919173 -0.055823103
000310 38 07 15 3c 34 7f 1c bd 93 26 40 3d 9d 1e 39 3d
       0.009095959 -0.038207248 0.046911787 0.04519521
000320 a6 95 81 be 78 0c a5 bd 1c f0 6b 3e be 50 c3 3d
       -0.25309485 -0.08059019 0.23040813 0.09536885
000330 5e d6 f3 3b 1c da 24 be a3 ee e0 bd b6 eb 67 be
       0.007441326 -0.16098827 -0.10983016 -0.2264851
000340 ff 18 db bd ac 5b 32 3d 86 19 0f 3e 2f aa 10 3e
       -0.10698127 0.043544456 0.1397458 0.1412742
000350 0f a8 50 be 6a 67 02 be 6e af 58 bd d4 96 80 3e
       -0.2037661 -0.12734762 -0.052901678 0.25115073
000360 16 e6 3c 3c 57 f0 9a bd af b3 c3 3d d3 25 cc bd
       0.011529466 -0.075653724 0.09555756 -0.09968152
000370 ee c1 2d be 63 85 51 3e c6 d1 93 bd 24 12 b1 bd
       -0.1696851 0.20461039 -0.072177455 -0.08646038
000380 85 81 99 be 76 2c 1a 3e 34 b5 47 3e 44 f2 ba 3d
       -0.29981628 0.15056023 0.19502717 0.0912824
000390 70 ce 23 be f6 56 6b be 09 97 41 be 75 eb 4d 3e
       -0.15996718 -0.22982392 -0.18905272 0.20109351
0003a0 11 02 56 3e 2b 24 28 3e a6 b2 e9 3d 4f e5 f6 3d
       0.20899226 0.16420047 0.114110276 0.12055456
0003b0 77 26 9e bc 37 88 18 be 87 d2 3c be 90 1a 85 be
       -0.01930545 -0.14895712 -0.18439685 -0.25996828
0003c0 da 61 ea 3d 89 89 22 be d1 f8 45 bc 18 78 22 be
       0.11444445 -0.15872778 -0.012083248 -0.15866125
0003d0 20 44 2a bd 42 e5 22 be be db c7 bd 5a 4d 9c 3d
       -0.041568875 -0.15907767 -0.09758709 0.07631941
0003e0 ae 1c af bd 0c c9 56 3e 6f e5 a3 bd 06 60 07 be
       -0.08550392 0.20975131 -0.08002745 -0.13220224
0003f0 38 f5 33 bd aa f7 07 be b9 98 5d bd f5 ca 81 be
       -0.04393503 -0.1327807 -0.054100726 -0.25350156

network.0.bias f4 [128]
000000 c7 5d f1 3d e6 4d 5b 3d 76 47 49 bd 83 e3 ec 3d
       0.11785465 0.053541087 -0.049140416 0.11566832
000010 90 ed b9 3d b1 87 66 be e0 e0 16 be f5 bb 03 3c
       0.090785146 -0.225127 -0.1473422 0.008040418
000020 e2 12 c2 3d 5c a1 f7 3d c0 ea 15 be f6 78 7c be
       0.09476258 0.12091324 -0.14640331 -0.24655518
000030 e0 2f 23 bc 67 02 f4 bc bb 6b 94 3d 21 0e 8c bd
       -0.009960145 -0.029786302 0.072471105 -0.068386324
000040 c6 e8 43 3e 25 4c 8b 3c e5 a0 3a 3e c4 80 32 be
       0.19131765 0.017004082 0.18225439 -0.17431933
000050 80 f3 ce 3d 2c d9 ed 3c 62 91 00 be 4f 2b fe 3d
       0.10105038 0.02903422 -0.12555459 0.12410604
000060 5b b4 7b be 81 b7 51 3e 7d 93 a3 3c 28 71 db 3c
       -0.24580519 0.20480157 0.019967789 0.026787356
000070 f8 82 ea 3d 16 b5 ab 3c 2b e2 dd 3d af 6b 24 3e
       0.114507616 0.020960372 0.10834154 0.16056703
000080 29 02 47 be 07 ea 29 3e 97 eb 1e bd 2a 3a 6e bd
       -0.19434418 0.1659318 -0.038798895 -0.05816094
000090 cc a7 58 3d b0 1c 49 3e a1 d7 0a be 19 45 2c be
       0.0528944 0.1963985 -0.13558818 -0.16823234
0000a0 58 64 1f 3e 70 7e ef bd 42 b9 a5 3d 1d 3c 17 bd
       0.15565622 -0.11694038 0.08091976 -0.036922563
0000b0 09 82 8b 3d d9 09 44 3e 46 a4 01 be 46 24 f2 bd
       0.068119116 0.19144382 -0.12660322 -0.11823325
0000c0 4a ce fb 3d cc e5 50 3c 2d 4f d4 bc 18 a9 60 be
       0.12295206 0.0127501 -0.02591666 -0.21939504
0000d0 6f 67 59 3e 61 94 2a bc 3c 94 34 bd 4b b6 d1 bd
       0.21230863 -0.010411353 -0.04408668 -0.10239848
0000e0 be 08 38 bd ff b4 f4 3d f5 df 96 bb c3 21 5b 3e
       -0.044930212 0.11948585 -0.0046043345 0.21399598
0000f0 d6 4e 86 bc 8f aa 13 bd 46 ac 0e 3e ae fb d9 bb
       -0.016395014 -0.03605133 0.13932905 -0.006652317
000100 16 29 4f bd ae 46 ab 3d c6 e4 48 3e 52 5a 7b 3d
       -0.050576292 0.083630905 0.1961852 0.061365433
000110 16 68 2f 3e f9 d1 27 3e d6 f5 90 3d d3 be ab 3d
       0.1712955 0.16388692 0.070781395 0.08386006
000120 0c 95 a2 3d 78 4e d9 3c 0a d1 58 3e 12 0a 6d 3e
       0.07938585 0.026526675 0.21173492 0.23148373
000130 6c 31 b5 3d 68 a8 23 bc 85 b2 66 3e e6 f6 45 be
       0.08847317 -0.009988882 0.22529037 -0.19332466
000140 a6 a5 3b 3e 34 88 08 3e 8b 6a 25 3e 0c af 94 bc
       0.18324909 0.13333207 0.16153924 -0.018149875
000150 26 2c 40 be 86 06 36 3e 75 62 df bd d4 61 84 3d
       -0.18766841 0.17775926 -0.10907451 0.06463972
000160 0f f0 0e 3e 29 00 70 be a4 bb 81 3c ad 09 b8 bd
       0.13958763 -0.23437561 0.015836544 -0.089862205
000170 2c 9d 35 3e c4 04 23 be 62 13 1b 3e 0f 59 1e 3e
       0.17735738 -0.15919787 0.15144113 0.1546366
000180 b7 4b 0e 3e 1a 2d 76 3e 53 7c 27 3d 3b 01 66 be
       0.1389607 0.24040642 0.04089005 -0.22461407
000190 95 95 38 3e cc e2 d5 3c 18 77 9b 3b e9 3b 75 be
       0.18025811 0.026109122 0.0047444217 -0.23948635
0001a0 cf fa 64 bd 7e 29 f7 bd 63 2e 78 3e 92 b5 34 3e
       -0.055903252 -0.12068461 0.24236445 0.17647389
0001b0 2f e4 3b 3e b3 b3 30 3e b8 94 20 be ec 34 d9 bd
       0.18348764 0.1725605 -0.15681732 -0.10605797
0001c0 84 d2 c7 bd d7 b3 cc bd 1c ba 47 3e 97 4e ae 3d
       -0.097569495 -0.09995239 0.19504589 0.085110836
0001d0 d1 ce 4c 3e db 07 28 bc 05 a2 65 be 12 ca 94 bd
       0.20000769 -0.010255779 -0.22425087 -0.07265104
0001e0 37 7d 36 3e 21 f6 1b 3e ea 5a 99 3d 56 35 98 bd
       0.17821203 0.1523061 0.074880436 -0.07432048
0001f0 80 be 6e be 74 41 08 be 4c ee 04 3e d5 db d3 bd
       -0.23314857 -0.13306218 0.12981528 -0.10344664

network.1.weight f4 [128]
000000 44 bb 7f 3f 98 21 84 3f 8e fa 71 3f 1c f8 7f 3f
       0.9989512 1.0322752 0.9452294 0.9998796
000010 04 3f 85 3f a8 9f 7b 3f 35 da 77 3f 20 34 79 3f
       1.0409856 0.9829049 0.9681733 0.9734516
000020 35 09 83 3f 14 89 80 3f dd 60 7a 3f db ce 7c 3f
       1.0237185 1.0041833 0.9780405 0.98753136
000030 2d 48 88 3f 8c e0 76 3f c6 b1 7c 3f df 9d 85 3f
       1.0647026 0.9643638 0.9870876 1.0438803
000040 7b c4 79 3f 83 91 7b 3f 4f a3 7f 3f 11 ba 80 3f
       0.9756543 0.9826891 0.99858564 1.0056783
000050 c8 03 81 3f 64 2c 87 3f 30 ac 80 3f 09 5f 80 3f
       1.0079279 1.0560422 1.0052547 1.0029002
000060 93 66 80 3f d4 65 7e 3f 3e 73 7e 3f 7d 98 82 3f
       1.0031303 0.9937413 0.99394596 1.0202786
000070 67 b5 83 3f 0b d5 78 3f 36 4b 7b 3f 85 14 81 3f
       1.0289735 0.9720008 0.9816164 1.0084387
000080 96 b4 7f 3f 96 1a 76 3f bd 7b 83 3f 3b 77 7b 3f
       0.9988493 0.96134317 1.0272137 0.98228806
000090 46 eb 77 3f 2f 06 7e 3f bf 37 7f 3f 47 c4 80 3f
       0.96843374 0.99228185 0.99694437 1.0059899
0000a0 aa 52 74 3f 92 e1 80 3f 76 c6 83 3f 4a 9b 75 3f
       0.95438635 1.0068839 1.029494 0.9594008
0000b0 e8 99 79 3f ce 7b 79 3f 67 f3 79 3f ff 36 76 3f
       0.9750047 0.97454536 0.9763703 0.9617767
0000c0 89 44 87 3f ed 10 76 3f 65 a5 7b 3f 92 51 78 3f
       1.056779 0.96119577 0.9829925 0.96999466
0000d0 09 1c 7f 3f e9 0e 83 3f ba 1a 83 3f ca 74 83 3f
       0.99652153 1.0238925 1.0242531 1.0270016
0000e0 55 c2 7b 3f b4 92 85 3f 2a aa 7c 3f 9e 17 7b 3f
       0.983434 1.0435395 0.9869715 0.9808291
0000f0 6a 6a 7c 3f c2 f4 7b 3f 30 e8 7b 3f dc 5c 7b 3f
       0.98599875 0.98420346 0.98401165 0.9818857
000100 63 9c 80 3f ed 90 7b 3f fc 4c 80 3f ec cb 84 3f
       1.0047725 0.98268014 1.0023494 1.0374732
000110 00 37 7f 3f 8d 9f 84 3f 1d 91 7e 3f e1 d8 84 3f
       0.996933 1.0361191 0.99440175 1.0378686
000120 ce 00 81 3f d5 3d 85 3f 9a a3 7e 3f 39 c5 82 3f
       1.007837 1.0409495 0.99468386 1.0216438
000130 7f 6d 80 3f 5b 2c 78 3f 49 0f 7e 3f 7f 8e 89 3f
       1.0033416 0.9694268 0.99242073 1.0746611
000140 2a d1 76 3f 8a d5 81 3f 8f cc 7e 3f 6e d1 7f 3f
       0.9641291 1.0143292 0.9953088 0.9992894
000150 d0 ec 82 3f 44 aa 7d 3f 35 d0 80 3f c0 f6 7c 3f
       1.022852 0.9908793 1.006354 0.9881401
000160 41 be 7f 3f f0 97 80 3f 7e f3 74 3f c8 43 79 3f
       0.9989968 1.0046368 0.9568404 0.9736905
000170 5a 4a 83 3f ec f4 7f 3f 8e c9 75 3f d3 0b 7b 3f
       1.0257065 0.99983096 0.96010673 0.9806492
000180 b1 ac 76 3f 71 e5 7c 3f 26 3e 84 3f f8 13 81 3f
       0.96357256 0.987876 1.0331466 1.0084219
000190 86 92 7d 3f 78 55 84 3f 67 ff 80 3f 1e 7b 81 3f
       0.990517 1.0338583 1.0077943 1.0115697
0001a0 12 33 81 3f 0b ac 80 3f 2a a5 83 3f bd ed 81 3f
       1.009371 1.0052503 1.0284779 1.0150677
0001b0 46 aa 84 3f ef 98 7e 3f e3 26 7c 3f da aa 7e 3f
       1.0364463 0.9945211 0.98496836 0.9947945
0001c0 ea 0c 78 3f 28 a2 77 3f 9b 07 7b 3f 45 4c 7d 3f
       0.96894705 0.96731806 0.9805848 0.98944503
0001d0 b9 36 77 3f 1d 9d 87 3f 94 f9 7d 3f 4a 0b 80 3f
       0.96567875 1.0594822 0.9920895 1.0003445
0001e0 45 e4 82 3f 22 21 77 3f 13 64 78 3f 45 ed 83 3f
       1.0225912 0.9653493 0.970277 1.0306784
0001f0 3c a3 81 3f 8e a7 80 3f 8b 15 80 3f e0 ed 82 3f
       1.012794 1.0051134 1.0006574 1.0228844

network.1.bias f4 [128]
000000 23 3c 1a bc 52 65 17 bb 89 73 27 bd 58 53 fc bc
       -0.009413752 -0.0023101163 -0.040881667 -0.03080146
000010 b0 11 76 bd 48 f8 77 bd 45 48 a6 bd 32 58 cc bb
       -0.060075462 -0.060539514 -0.08119253 -0.0062360996
000020 95 bf e0 3c ab 97 80 bb 5a f8 1f bd 01 70 70 3c
       0.027435103 -0.00392433 -0.039055206 0.014675141
000030 2c 2d 56 3c dd 0a 42 ba b1 6b 21 3d 08 51 01 39
       0.013072293 -0.00074021315 0.039409343 0.00012332585
000040 35 9e d4 bc b6 ba 2f bd d7 70 9c bd fd 3b 87 3b
       -0.025954345 -0.04290267 -0.0763871 0.004127024
000050 7d 98 5c bc 86 1e 5b bb 13 72 3b 3d 77 22 81 3c
       -0.01346409 -0.0033434941 0.045763087 0.015763504
000060 26 de df 3c d6 e5 62 bc 3c 2e 04 bb ad 31 c9 3c
       0.027327608 -0.0138487425 -0.002016916 0.02455982
000070 79 eb 94 3b 48 1f 38 bd ae 4d 1a bd 9f 4e b0 bc
       0.004544672 -0.044951707 -0.037671737 -0.021521864
000080 01 1a 30 3c 30 d6 5f 3c da 39 45 bd 54 f8 62 bd
       0.010748387 0.013661906 -0.048150875 -0.055412605
000090 5b d7 24 bd 9a d0 e6 3a 3c 89 24 bd dd e6 c4 bc
       -0.04024444 0.0017609776 -0.04016994 -0.024035865
0000a0 6f 12 7a bd 9e bc 2b bd 21 c2 c0 bc 69 ea b6 bc
       -0.061052736 -0.041927926 -0.023530068 -0.022328572
0000b0 be 0a ec bc b2 45 4d 3c 53 0e 1c bd 03 08 f0 bc
       -0.028813716 0.012528824 -0.0380996 -0.029300695
0000c0 54 a4 77 3a 38 6c bb bc be af ee bc d7 7d 7e bc
       0.0009446789 -0.022878751 -0.029136535 -0.015532932
0000d0 8a a9 86 bc c1 96 27 bc 19 dd ae 3c 13 7d 4f 3d
       -0.016438264 -0.010228814 0.021345662 0.05065639
0000e0 2a 34 9c bc 06 c4 8c 3d 81 78 5c bc a0 02 d4 3c
       -0.019067843 0.06873326 -0.013456465 0.025880158
0000f0 94 4e 6b bc 15 95 04 bd 97 33 2a bd da f2 f4 bc
       -0.014361996 -0.03236874 -0.041553106 -0.029900957
000100 86 c2 82 3d e0 6f b6 bc 5e 4d b0 bc 77 5b ba 3c
       0.06384759 -0.022270143 -0.021521267 0.022748692
000110 d3 cf 36 bd 78 6b 4b 3c 07 b0 49 bc 7c 8f 09 bd
       -0.04463179 0.012415759 -0.012310035 -0.033584103
000120 60 05 72 bc 71 eb aa ba 39 13 55 bd 89 d8 90 3b
       -0.014771789 -0.0013040138 -0.052020285 0.0044203443
000130 4f c2 4e bc d7 99 0f bd 6a b0 50 3d ae 12 6f bc
       -0.012619569 -0.035058822 0.05094949 -0.014591856
000140 c7 9d a5 bc c3 6f d0 3b 80 f3 70 3a 00 8b b0 bc
       -0.020216836 0.0063609793 0.0009191558 -0.021550655
000150 c6 35 36 bc fc e1 cb 3a da bf 11 bc 7c 1a f1 bd
       -0.011121219 0.001555502 -0.008895839 -0.117726296
000160 43 fa 40 3d eb d0 15 bd f0 da 9a bc fb 39 71 bd
       0.04711367 -0.036576193 -0.018903226 -0.058893185
000170 54 00 55 3a 0e 87 d9 bc 1c b2 4d bd 20 a8 27 bd
       0.0008125354 -0.026553657 -0.050218686 -0.04093182
000180 2b 64 15 bd 82 cf c4 bc a1 8b 97 bc e1 c4 dd 3c
       -0.03647248 -0.024024729 -0.018499197 0.027071418
000190 04 f0 fe bc c5 f7 af 3c de d9 df bc dd 65 31 bc
       -0.031120308 0.02148045 -0.027325567 -0.010827509
0001a0 41 d1 02 3d 4a c7 09 bd a1 91 c5 bc 07 18 6d 3d
       0.03193784 -0.033637322 -0.024117293 0.057884242
0001b0 d8 3f c0 3b 79 8a e5 bb 99 03 7e bc 17 c1 a4 bc
       0.005866986 -0.0070050326 -0.015503787 -0.020111604
0001c0 08 41 b9 bc f2 33 f5 bb 64 fe bb 3b b2 42 a3 3a
       -0.022614017 -0.007482999 0.005737113 0.001245579
0001d0 5f 0a 2d bd 97 30 06 3d 3c d7 87 3c b4 6a 7d bd
       -0.04224622 0.032761183 0.016582124 -0.06186934
0001e0 3d c3 02 3d 2c a5 a4 bc 95 c7 21 bd 62 5d 3e ba
       0.031924475 -0.020098291 -0.039496977 -0.000726184
0001f0 2a cb c8 bc c1 f7 16 bd 81 42 0a 3d 50 9a ae bc
       -0.024510939 -0.03685737 0.03375483 -0.021313816

network.1.running_mean f4 [128]
000000 12 9b 10 3e d5 4e 2d 3d d7 c8 12 bd 0a d7 dc 3d
       0.14121655 0.04231151 -0.035836067 0.10783203
000010 e7 b4 c7 3d a6 34 73 be 4e 6b 21 be 42 eb 5d bc
       0.09751301 -0.23750553 -0.1576359 -0.013544859
000020 91 6a bc 3d 7b 9c 07 3e 42 94 1e be c3 99 7b be
       0.092000134 0.13243286 -0.15486243 -0.24570374
000030 fc f9 97 bc 19 89 f6 bc b3 16 81 3d 03 86 b6 bd
       -0.018551819 -0.03009467 0.06303158 -0.089122795
000040 3e 44 3a 3e d0 f7 02 3d 2e 43 2b 3e a8 f7 2c be
       0.18190095 0.031974614 0.16724846 -0.16891348
000050 7b bd a8 3d 97 a5 05 3d 71 4b 04 be c0 08 02 3e
       0.082392655 0.032628622 -0.12919404 0.1269865
000060 79 10 6b be 37 8a 4f 3e d4 35 e4 3c e4 99 c7 3c
       -0.22955503 0.20267569 0.027857699 0.024365373
000070 1d 22 cb 3d af ce ab 3c 52 38 de 3d de 6b 2e 3e
       0.09918616 0.020972578 0.10850586 0.17033336
000080 6a 73 5a be 17 35 28 3e f5 f4 a5 bc 9f ac 76 bd
       -0.2133309 0.16426502 -0.020258406 -0.060223218
000090 93 94 66 3d cc 5f 32 3e f7 dd 01 be a8 1d 38 be
       0.056294035 0.17419356 -0.12682329 -0.17980063
0000a0 cd 52 20 3e bc 95 f7 bd f9 60 b7 3d 02 e1 0d bd
       0.15656586 -0.120891064 0.08954043 -0.034638412
0000b0 38 7e 5f 3d 08 53 59 3e 04 57 ff bd 5e b5 00 be
       0.05456373 0.2122308 -0.12467769 -0.12569186
0000c0 d8 da 04 3e 62 15 49 3c 65 56 b9 bc 47 f0 4b be
       0.12974107 0.0122731645 -0.022624204 -0.19915877
0000d0 7a cc 53 3e 97 ba d8 bb 77 69 1d bd 69 e4 a8 bd
       0.2068347 -0.00661404 -0.038430657 -0.08246691
0000e0 16 b3 3b bd c0 09 02 3e 0c 4c a8 bc 88 2f 56 3e
       -0.045825087 0.12699032 -0.020544074 0.20916569
0000f0 de bb 3e bc 18 3f 03 bd fc b4 fe 3d 27 cf f0 bc
       -0.011641471 -0.032042593 0.12436864 -0.029395653
000100 7c 24 81 bd 69 c1 b4 3d f8 6c 40 3e e0 1e 94 3d
       -0.06305787 0.088259526 0.18791568 0.072324514
000110 0c ab 29 3e ac 76 38 3e b0 0c 4b 3d b1 e7 cb 3d
       0.16569155 0.1801402 0.049572647 0.09956301
000120 7a e7 ad 3d 6a b1 9a 3c 28 0f 5b 3e b3 f3 79 3e
       0.08491416 0.018883426 0.213925 0.2440937
000130 a4 f8 b8 3d e1 d2 81 bc 54 83 5e 3e 5e 73 3a be
       0.090317994 -0.015847625 0.21729785 -0.18208072
000140 46 19 42 3e 09 80 05 3e 88 d3 16 3e c6 3a fe bb
       0.18954954 0.13037123 0.1472913 -0.007758471
000150 d0 16 41 be 93 69 31 3e 46 47 d9 bd a1 dc 6c 3d
       -0.18856359 0.1732543 -0.106092975 0.057827596
000160 dd 26 07 3e f8 bf 71 be b0 36 19 3a 80 46 ab bd
       0.13198419 -0.23608387 0.0005844636 -0.08363056
000170 c1 64 47 3e 1a 31 30 be 33 87 1c 3e 75 c3 20 3e
       0.19472028 -0.17206231 0.1528595 0.15699561
000180 cb 1d 0a 3e 30 6e 7d 3e 38 49 12 3d 8b d5 54 be
       0.13487928 0.24749064 0.035714358 -0.20784585
000190 4f 42 39 3e 7d fe e1 3c 98 dd 0d bc 2d 4f 75 be
       0.18091701 0.02758717 -0.008658789 -0.23955984
0001a0 27 24 79 bd b1 3e ec bd ca a7 85 3e 9f b3 39 3e
       -0.060825493 -0.11535395 0.26104575 0.18134926
0001b0 c4 41 3a 3e 46 13 46 3e 38 49 25 be a1 7c 02 be
       0.1818915 0.1934329 -0.16141212 -0.12742855
0001c0 38 2f dd bd 1e 6d dc bd 5b 52 46 3e a3 6d ca 3d
       -0.10800022 -0.10763 0.19367354 0.09884193
0001d0 4d 84 43 3e 7b 92 9c bc 3a 72 61 be fd bc 89 bd
       0.19093437 -0.019112816 -0.2201623 -0.067255
0001e0 e0 e2 32 3e dc de 17 3e 58 15 93 3d 26 4f a7 bd
       0.17469358 0.14831108 0.07181805 -0.08169393
0001f0 41 1f 6f be 00 b4 1d be b5 8d 0e 3e 45 65 e0 bd
       -0.23351766 -0.15400696 0.13921244 -0.10956816

network.1.running_var f4 [128]
000000 f5 ad cf 3e 88 f9 ce 3e 4e 90 d8 3e 7d 4d 2f 3e
       0.40562406 0.40424752 0.42297596 0.17119403
000010 b9 59 a7 3e f9 4d d9 3e 80 df 94 3f 8c ba 4e 3f
       0.3268564 0.424423 1.1630707 0.807534
000020 e8 35 bb 3e db 96 8e 3e df f9 7d 3d 55 fc 9c 3e
       0.36564565 0.2784947 0.062005874 0.30661264
000030 59 18 a5 3d 8f 52 0b 3e ba e3 0c 3f 0e 1e 99 3e
       0.080612846 0.13605712 0.55034983 0.29905742
000040 8b d6 95 3e 63 90 a3 3e f6 3a e5 3e 3c 5e 09 3f
       0.29265246 0.31946096 0.44771546 0.53659415
000050 e2 d6 77 3f ee 9c b4 3d 19 85 98 3e 40 2d a5 3e
       0.9681226 0.088189945 0.29789045 0.32261086
000060 88 9c 9e 3e 87 0f 99 3e 00 4f d4 3e 47 5d 81 3e
       0.309788 0.2989466 0.41466522 0.25266477
000070 55 ba 29 3e df af a5 3e 5c d6 1b 3e e5 e4 98 3e
       0.16574986 0.32360741 0.1521849 0.29862133
000080 03 04 99 3e fa 72 82 3e 3c 18 d6 3e d6 00 69 3f
       0.29885873 0.25478345 0.41815364 0.910169
000090 0e b0 89 3e 3a df a9 3e 66 c2 f0 3e 87 35 07 3f
       0.26892132 0.3317812 0.47023314 0.5281605
0000a0 70 bc e4 3e bc 7a e8 3d 17 d6 38 3f 41 a2 9f 3e
       0.44675016 0.11351535 0.72201675 0.31178477
0000b0 9b 90 80 3e 26 2f 11 3e 39 a3 db 3e 47 62 73 3e
       0.25110325 0.14178142 0.42897967 0.23767959
0000c0 e8 a1 c6 3d 21 30 aa 3e fe c3 b0 3e dd 2b 61 3e
       0.0969885 0.33239844 0.3452453 0.21989389
0000d0 47 26 3d 3f 35 60 77 3e 67 3f 7b 3e 6f 6e f6 3e
       0.7388653 0.24157794 0.24535905 0.4813113
0000e0 88 60 2d 3e 8d 91 f9 3d 11 1f c4 3e 25 c6 33 3f
       0.16931355 0.12185965 0.38304952 0.7022422
0000f0 ba 58 13 3e fd 13 8c 3e 92 56 d2 3e f5 d3 5f 3e
       0.14389315 0.27359 0.41081673 0.21858199
000100 fa f4 00 3e 29 6d 62 3e 35 a7 01 3f a6 26 63 3e
       0.12593451 0.22111954 0.5064576 0.22182712
000110 83 a1 17 3f b6 ea 1c 3e 6f 3d e6 3e 75 69 33 3e
       0.5923082 0.1532391 0.44968745 0.17520697
000120 c3 dc 82 3e 34 1f 62 3e 8f c7 cb 3e fd 12 f1 3e
       0.25559053 0.22082216 0.3980069 0.470848
000130 eb 60 65 3e 08 2e 91 3e 3c 77 e0 3e f6 26 60 3e
       0.22400253 0.28355432 0.4384097 0.21889862
000140 84 7d ca 3e f4 c8 91 3e 73 0a b1 3e f5 72 89 3e
       0.39548886 0.28473628 0.34578285 0.26845518
000150 f7 41 df 3d 85 23 d6 3e 26 a3 de 3e 48 d8 14 3f
       0.10901254 0.41823974 0.43483847 0.5814252
000160 fd a4 39 3e 8c 5d 96 3e a9 93 ad 3e 14 69 82 3e
       0.18129344 0.29368246 0.33901718 0.25470793
000170 48 da 24 3e ff 4f d1 3e 2b 0f 0a 3f 27 d9 46 3e
       0.16098893 0.40881345 0.53929394 0.19418775
000180 b8 2d 53 3e d5 f2 0e 3e 9b 62 dd 3d 29 45 5a 3e
       0.20622909 0.1395982 0.10809823 0.21315445
000190 b2 3c 89 3e d1 b5 4d 3e 65 17 24 3f 0e 89 00 3e
       0.2680412 0.20088889 0.640982 0.12552282
0001a0 15 83 41 3e 52 e8 87 3e 54 be 83 3e b5 35 97 3e
       0.1889766 0.26544434 0.25731146 0.29533163
0001b0 8f 38 39 3e db c4 a8 3f 52 06 3e 3e 09 07 ec 3e
       0.18087982 1.3185076 0.18557099 0.46099117
0001c0 1d 4e 96 3e 42 07 95 3e 38 1c e9 3d 4f db dc 3e
       0.2935647 0.291071 0.113823354 0.4313607
0001d0 2e 96 59 3f 3f ed d9 3d 4a de 82 3e f8 94 67 3f
       0.8499478 0.10640954 0.25560218 0.90461683
0001e0 27 b4 5d 3e 24 4f e0 3e f8 63 70 3e db be 6f 3e
       0.21650754 0.4381038 0.23475635 0.2341265
0001f0 b7 88 a0 3e 11 8f c1 3e 8f 9a 61 3e af 3a 84 3e
       0.31354305 0.37804464 0.22031616 0.25826022

network.4.weight f4 [64, 128]
000000 01 1c 51 3d aa 45 b5 3c 1d 8c 1a bb 1d 8e b8 3c
       0.051052097 0.022127945 -0.002358205 0.022528702
000010 eb dd 70 bd 7e 96 67 bc e3 9f 52 bd c0 24 9d bd
       -0.058805387 -0.014135001 -0.05142201 -0.07673025
000020 dd 03 36 3d 9e 66 61 3c 8f 6f 0b bd 54 28 2b 3d
       0.044437278 0.013757376 -0.034041937 0.041786507
000030 f8 e9 5f bd ce 11 d2 bd 40 5e 96 bd e9 5e 5f bd
       -0.05466649 -0.10257302 -0.073421955 -0.054533873
000040 48 76 a6 bc 43 ab 7d bc 8d 25 b9 3c 7b db 3c bd
       -0.020320073 -0.0154827265 0.022600913 -0.04610775
000050 76 e1 a4 3c 29 61 88 3b 02 8c 85 3c f3 69 a8 3c
       0.02012704 0.004161973 0.016302112 0.020558333
000060 94 99 12 3c ee ac 62 bd 86 5e c4 bd 4c 31 1a 3c
       0.008947749 -0.0553407 -0.095883414 0.009411167
000070 11 59 8d bd a9 7b a2 3c 0a 18 01 3d cf 88 36 3d
       -0.06901754 0.019834356 0.031517066 0.044564065
000080 26 16 27 3d fe a9 85 3c 24 56 47 3d 13 12 29 bb
       0.040792607 0.01631641 0.048666134 -0.0025798127
000090 28 3c 68 bc cc 0d cf 3c 6e 17 53 bd 92 07 dc 3c
       -0.014174499 0.025275134 -0.051536016 0.026859079
0000a0 ee 00 11 bd 4d b5 c9 bd 5a cb 9a bc 49 c0 cf 3c
       -0.035401277 -0.098490335 -0.018895794 0.025360243
0000b0 0b 90 cf 3d f2 c9 9e 3c 30 08 cb bb d7 8a 1a bd
       0.10134896 0.019383404 -0.0061960444 -0.037730064
0000c0 5f 63 4b bd c8 1f e0 bc 78 8b 3d bc d8 c4 84 3d
       -0.049655315 -0.027358904 -0.0115688965 0.064828575
0000d0 7b d0 b2 3c 4e a1 de bc 17 41 92 bc f3 c9 09 bc
       0.021827927 -0.027176525 -0.017853303 -0.008409965
0000e0 f0 9e 81 3c 4d 06 5a bb 0a d2 0d b9 53 14 b0 bd
       0.015822858 -0.0033267916 -0.00013525054 -0.085976265
0000f0 21 84 4e 3d 9f de b6 3d 71 b8 8a bd f0 11 8d bd
       0.050418977 0.0892918 -0.06773461 -0.06888187
000100 42 20 af 3c fe 75 36 bd 25 78 03 3d 80 3a 91 bd
       0.021377686 -0.04454612 0.032097 -0.07091236
000110 00 69 5c 3d eb 0a ba bd 20 c8 8e bd 4a 89 2b bd
       0.053811073 -0.09084114 -0.069717646 -0.041878976
000120 9f 4e 92 3d e5 03 82 bc c4 69 e5 bd 06 aa 71 bd
       0.07143902 -0.015870998 -0.11201814 -0.059000038
000130 49 b3 76 bc 53 ad 93 bd 41 c3 13 bd 28 04 d0 3d
       -0.015057393 -0.07210793 -0.03607488 0.10157043
000140 4d 9b 65 bc f8 69 40 bd e8 ad 96 3c 87 a2 ba bd
       -0.014014077 -0.04697606 0.018393472 -0.09113031
000150 1e fa 6c bd 2c 04 67 bd 37 f9 82 3d d7 58 41 3b
       -0.057855718 -0.056400463 0.0639519 0.0029502416
000160 72 79 10 3d 51 a4 a9 3b ab 7b 59 bd f7 8e 66 bd
       0.03527207 0.0051770587 -0.053096455 -0.056288686
000170 ed 43 33 3d 02 f9 5b 3d 66 4d 79 3c 08 aa 80 3d
       0.04376595 0.05370427 0.015216207 0.06282431
000180 97 2b 7a 3d e8 5c 80 3d 1b ca 39 3d d8 fa 06 be
       0.061076727 0.062677205 0.04535876 -0.13181627
000190 43 34 f3 bd 44 c2 08 be 8a d9 a1 3b 86 16 e9 bd
       -0.118752025 -0.13355356 0.0049392628 -0.11381249
0001a0 17 d7 a7 bd 5a f0 a7 bc f4 a2 4c bd 3a 48 11 bd
       -0.08195322 -0.02050035 -0.04996009 -0.03546927
0001b0 27 89 a8 3d 8f a3 68 bc 9d ea ad 3c 83 12 88 bd
       0.08229285 -0.014199152 0.021230036 -0.06644156
0001c0 d0 2b b0 bc f1 34 d0 3d 84 e0 b4 3d 7e 98 3e 3c
       -0.021505266 0.10166348 0.088318855 0.011633037
0001d0 aa 63 22 bd ef de 34 3b 32 50 b8 3c b0 6b 24 3d
       -0.03964583 0.00275987 0.022499178 0.04014176
0001e0 32 bd e4 3c 8a 83 fd bc 20 38 c1 bd f4 61 40 bd
       0.027922247 -0.030946512 -0.09434533 -0.046968415
0001f0 b6 fc 2a bd f8 52 91 bc ce 3e 10 bd 2b 10 ac bd
       -0.04174491 -0.017739758 -0.035216145 -0.08401521
000200 3d a1 cb 3c 00 5c 7a bd 1f 10 27 bd 71 7f cf bd
       0.024857158 -0.061122894 -0.04078686 -0.101317294
000210 5f d6 de bc c5 74 8b 3d 7d f7 c4 3c a7 7d 78 3a
       -0.02720183 0.068093814 0.024043793 0.0009479173
000220 52 4c 13 3d 16 c0 f7 3c 25 8e 35 3d c7 3d c7 bd
       0.035961457 0.03024296 0.044325013 -0.0972858
000230 62 95 62 bd 54 34 67 bd ef 70 24 3c 98 ff ba bd
       -0.055318244 -0.05644639 0.010036691 -0.09130782
000240 7b b5 01 bd 36 c2 c4 bc 04 d5 c8 3d 26 7f 9c 3d
       -0.031667214 -0.024018388 0.098062545 0.07641439
000250 77 5f 8e 3d fb d6 97 bc 7a 65 90 3c b3 61 eb 3b
       0.06951802 -0.018535128 0.017626513 0.0071832775
000260 28 ba a6 bd 26 d5 15 bd c2 57 3b bc 6b b5 02 bc
       -0.08140975 -0.036580227 -0.011434497 -0.007977824
000270 56 1f cb bd 82 67 39 3d 05 02 a5 3d 29 62 b1 bc
       -0.09918086 0.04526473 0.08057026 -0.021653252
000280 7c 23 98 3c 98 6e 25 3b c3 89 70 bc fd ce 44 3c
       0.018571608 0.002524292 -0.014681282 0.0120122405
000290 92 f1 a4 3d 75 5f da 3c 0d 01 d4 bc 30 17 d5 bc
       0.080538884 0.026656846 -0.025879407 -0.026012033
0002a0 ad 43 04 3d ae 59 5d 3d 01 ba 6c 3d 32 1b 9f 3b
       0.032291103 0.054040603 0.057794575 0.004855537
0002b0 b0 c4 a4 b9 c5 68 1f bd 99 56 ff bc f9 40 95 bb
       -0.0003142706 -0.038918275 -0.031169223 -0.0045548645
0002c0 bb 75 9f 3c 19 12 64 3d 40 18 aa 3c 18 fa d1 bb
       0.019465318 0.05568132 0.020763516 -0.0064079873
0002d0 b9 17 92 3d 10 11 ec 3c 92 99 f1 3b 73 71 02 3d
       0.07133431 0.02881673 0.0073730433 0.031846475
0002e0 49 70 28 bb a4 d3 aa bd 68 19 d1 3c 7d 5f d0 bb
       -0.0025701693 -0.083411485 0.02552481 -0.0063590393
0002f0 9d 76 8f 3d 67 24 a5 3d 49 9e 15 3d c3 ed bf 3d
       0.070050456 0.08063584 0.036527906 0.09371521
000300 6e 5a 4e bd 00 f0 af 3d ea d7 a7 3d f4 60 33 3c
       -0.05037921 0.08590698 0.08195479 0.010948408
000310 2a b2 91 bd 36 79 2b bd f3 cb a1 bc 65 15 1c bc
       -0.0711406 -0.041863643 -0.01975057 -0.009526585
000320 3b 42 68 bd da d6 92 3c da 1f 35 bd be bb e5 bc
       -0.056703787 0.017924715 -0.04421983 -0.028043624
000330 33 c5 09 bd c3 ae d1 bb 14 f0 c1 bd 55 5e f2 bb
       -0.03363533 -0.006399007 -0.094696194 -0.007396499
000340 a0 e3 4b bc 93 40 4b 3d 23 4d 8c 3d 5d 73 5f bd
       -0.012444407 0.04962213 0.0685065 -0.05455338
000350 a1 4d 82 3d c7 4b 2b bd f6 0a d0 bc 2d 83 e1 3c
       0.06362463 -0.041820314 -0.025395852 0.02752837
000360 2d 06 04 bd 7f e8 61 bd d9 2a 98 bd e6 63 a5 bd
       -0.032232452 -0.055153366 -0.074300475 -0.08075695
000370 a5 4d 9e 3d 36 63 6e 3d 2b 8f c1 bc 94 35 23 bd
       0.07729653 0.058200084 -0.023627838 -0.039846018
000380 a7 f7 2f bd 5b cf a3 bd 54 26 e4 bc 3a 9c 85 3d
       -0.04296079 -0.07998534 -0.027850308 0.065239385
000390 97 60 40 3d ef 4a 70 bd 87 29 8a 3d 32 12 a8 bd
       0.046967115 -0.058665212 0.06746202 -0.082065955
0003a0 df cb 9f bd b4 33 4c 3c 2f fa 43 bd c7 71 84 3c
       -0.07802557 0.012463499 -0.047846016 0.016167535
0003b0 04 93 01 3e 18 9c 48 bc 69 41 1c bd 04 08 40 3d
       0.12653738 -0.012244247 -0.038148317 0.046882644
0003c0 d9 f7 44 bd 9e 1d dc 3d a2 a3 7f bd 7c 57 0b 3d
       -0.04808793 0.107478365 -0.06241191 0.03401898
0003d0 99 7e 92 bd 87 39 46 bd 35 2e 70 3a aa 91 5c 3d
       -0.07153053 -0.048394706 0.0009162159 0.053849854
0003e0 bb 07 a6 3d 58 e9 83 3d a1 26 fc 3c 9f 5d 29 bd
       0.08106943 0.06440991 0.030780138 -0.04134905
0003f0 b1 1b 42 3d d7 ac 6f bc 2a 75 96 3b 38 b0 9f bd
       0.04738969 -0.014628611 0.0045916038 -0.07797283

network.4.bias f4 [64]
000000 32 a7 cb bc 1c 98 b6 3d 55 17 ad 3d c8 f8 a5 3d
       -0.024859998 0.08915731 0.08451716 0.08104092
000010 e0 7a 5f bd e2 86 79 bd c8 ac a5 bd a1 ae 94 bc
       -0.054560542 -0.06091965 -0.08089596 -0.018149676
000020 91 ca 69 bd 8e 4a 2a 3d af 04 15 3c 30 6d 8f 3d
       -0.057077948 0.041575007 0.009095355 0.07003248
000030 2b 79 a6 bd 64 7f 9b bd e3 c4 96 bc 01 d3 bf 3c
       -0.0812858 -0.07592657 -0.01840443 0.023416044
000040 69 05 99 3d d3 af 8d bb e2 04 93 3d 6c 10 c1 bc
       0.07471735 -0.0043239384 0.07178666 -0.0235674
000050 cc e4 50 bc c8 eb 07 bd c5 65 12 bd b6 03 0d bd
       -0.012749862 -0.033183843 -0.035741586 -0.034427367
000060 32 f0 9b bd 99 2b 31 bc 61 4e f2 bc 75 f9 69 bd
       -0.07614173 -0.010813617 -0.02957839 -0.057122666
000070 6d d0 85 bd 0e 0c b0 bd 6c 31 a7 bc a1 da 9a bd
       -0.06533895 -0.08596049 -0.020409308 -0.075612314
000080 4a 17 a1 3d 39 fa b8 bc 62 1d cb 3c bd 8f 83 bd
       0.0786577 -0.022580253 0.024794284 -0.064239
000090 c1 00 13 3c 64 44 a8 bd 6f da 1f 3d ef b0 24 3d
       0.008972348 -0.082161695 0.039026674 0.0402078
0000a0 3b c0 b0 bd b5 5d 28 3d f9 ce 30 3c 75 26 66 bd
       -0.08630415 0.04110499 0.010791534 -0.05618902
0000b0 53 cc 1e bd 7d 7b ae 3d 66 59 36 bd f2 c9 9b 3d
       -0.038769078 0.08519647 -0.04451885 0.076068774
0000c0 2f fc 8d 3c 3f 37 24 3d 55 74 30 bd 12 39 f1 3c
       0.017332165 0.04009175 -0.043079693 0.029446159
0000d0 44 90 9c 3c 47 4e 92 3d 1e 8e b2 bd b7 79 ff bc
       0.01911176 0.071438365 -0.08718513 -0.031185968
0000e0 b0 f1 11 3b b1 f5 7f bd 22 96 52 3c 89 dc 6b 3d
       0.00222693 -0.06249017 0.012853177 0.057583366
0000f0 fc cd 57 3d 5a c2 3c bd f1 d7 19 3d d3 0e 83 bd
       0.052686676 -0.046083786 0.037559453 -0.06399312

network.5.weight f4 [64]
000000 e9 05 76 3f bf 2d 77 3f 27 12 80 3f 80 2b 7d 3f
       0.9610277 0.9655418 1.000554 0.988945
000010 57 2c 8c 3f dc 55 81 3f 7b 6c 7e 3f 5f 33 78 3f
       1.0951031 1.0104327 0.9938428 0.96953386
000020 98 f4 74 3f 47 e3 7a 3f 28 c0 80 3f 36 f4 7f 3f
       0.9568572 0.9800305 1.0058641 0.9998201
000030 6f 2a 84 3f 84 38 82 3f e6 1c 73 3f 90 f5 84 3f
       1.032545 1.0173497 0.9496597 1.038744
000040 f1 3e 73 3f 93 dc 8b 3f 47 4c 85 3f 9b 82 80 3f
       0.95017916 1.0926689 1.0413903 1.0039858
000050 3c 7f 7c 3f f2 b3 7f 3f 8a ae 80 3f 7d b0 83 3f
       0.98631644 0.9988395 1.0053265 1.0288235
000060 ae 61 7d 3f ae 17 71 3f ca a6 81 3f c6 0a 7e 3f
       0.9897717 0.9417676 1.0129025 0.9923519
000070 1c de 78 3f 56 31 81 3f 6c 42 7c 3f 20 ea 86 3f
       0.9721391 1.0093181 0.9853885 1.0540199
000080 f7 7e 7a 3f a9 f8 75 3f 7a c9 74 3f 1e e6 7b 3f
       0.9784998 0.9608255 0.9561993 0.98398006
000090 6b 5c 81 3f f2 13 72 3f 84 e6 85 3f da d0 79 3f
       1.0106329 0.94561684 1.0460973 0.9758431
0000a0 05 ad 80 3f 89 75 81 3f 6e 2a 80 3f 7d 89 77 3f
       1.0052801 1.0113994 1.0012949 0.96694165
0000b0 4d 0f 88 3f f3 31 81 3f 43 54 79 3f 49 6e 79 3f
       1.062967 1.0093368 0.973942 0.97433907
0000c0 f4 5b 77 3f 30 c6 78 3f 98 42 74 3f e9 1e 83 3f
       0.96624684 0.9717741 0.95414114 1.0243808
0000d0 2e 8d 80 3f 73 48 7b 3f 2a f5 83 3f e4 5f 85 3f
       1.0043085 0.98157424 1.0309193 1.0419888
0000e0 9f 4f 86 3f 4a d6 76 3f 04 9d 83 3f d6 58 79 3f
       1.0493048 0.9642073 1.0282292 0.9740118
0000f0 cc 1c 72 3f 56 8f 81 3f 2e 89 7d 3f ba 18 7c 3f
       0.9457519 1.0121868 0.99037445 0.9847523

network.5.bias f4 [64]
000000 84 7d 0a bd 6a a7 02 bd c7 3f d8 bb 76 43 11 bb
       -0.033811107 -0.03189794 -0.0065993997 -0.0022165454
000010 fb f9 67 3d 93 0b fb 3c fb 9a 75 ba a9 c8 4c bc
       0.056634884 0.030645167 -0.0009369102 -0.012499013
000020 a1 85 fb bb a2 e8 e7 bc 8f d7 7c bc 30 10 14 3c
       -0.007675842 -0.02830917 -0.015432253 0.0090370625
000030 08 07 0e 3d df 0a 45 bc 4b a1 17 bd 99 59 39 3c
       0.034674674 -0.012026518 -0.037019055 0.011312866
000040 7a 25 06 bd c2 cc 86 3d 01 34 db 3a 37 84 8a bb
       -0.032750584 0.06582023 0.0016723872 -0.004227187
000050 7c dd 56 bc e9 4c 5c bc 8d f7 12 3d ca 6c f9 3c
       -0.013114329 -0.013446071 0.035880614 0.030447382
000060 66 8d 23 3c 4f 1b 55 bd db ff fc bc 01 60 97 bc
       0.0099824425 -0.052027997 -0.03088372 -0.018478395
000070 f9 b8 93 bb 17 28 98 3b c2 1e 47 bd 52 d6 60 3b
       -0.0045081344 0.004643451 -0.048613317 0.0034307432
000080 55 b3 80 bc 5d 41 06 bd 54 13 cb bc f3 cb 1b bc
       -0.015710512 -0.03277718 -0.02478949 -0.0095090745
000090 09 70 75 bc 46 fa 6c bd c0 0a fd 3c b1 86 0b bd
       -0.014980325 -0.057855867 0.030888915 -0.034064
0000a0 36 f1 ec bc 76 14 2c bd 6d 21 3e b9 cb dc c6 bc
       -0.028923612 -0.0420117 -0.00018132264 -0.024275204
0000b0 fd ec c3 3c 63 5b 92 3c 03 b4 1f 3a fa 7b bf bc
       0.023916716 0.017865842 0.00060921925 -0.023374546
0000c0 7f 36 20 bd e4 93 80 bc 2f 13 bd bc 9d c4 1e bc
       -0.03911447 -0.01569552 -0.023080437 -0.009690431
0000d0 1e 8a 0f 3d 69 98 32 bc f2 c6 8e 3c 2c 6a 1e 3c
       0.03504383 -0.010900595 0.017428849 0.009668868
0000e0 18 f0 65 3c ee 45 1f bd 17 9d cf bc e6 2d 11 bd
       0.014034294 -0.03888505 -0.025343461 -0.035444163
0000f0 ad 73 27 bd bc 08 4f 3a 35 8b e4 bb 35 26 c3 bc
       -0.0408818 0.0007897725 -0.0069746026 -0.02382193

network.5.running_mean f4 [64]
000000 bc 32 23 bf 4c 73 51 3d e2 34 e9 3e d4 28 c5 bd
       -0.6374929 0.051135346 0.4554816 -0.09626928
000010 0f 34 1c 3e b3 26 b4 be e2 6f 70 3d b1 fe a0 bd
       0.15254234 -0.35185775 0.05870045 -0.078610785
000020 ea a5 90 be 77 5c ef 3c 27 7a 30 bd b4 7f 0c bf
       -0.28251582 0.029218895 -0.043085244 -0.5488236
000030 bb 01 10 bf 7e 83 0f bc a4 87 04 3e 60 76 c4 bd
       -0.5625264 -0.0087593775 0.12942368 -0.09592891
000040 00 df 44 3d 82 9f be be ba 92 01 bf c5 89 8a 3e
       0.048064232 -0.3723107 -0.5061451 0.27058235
000050 92 89 1a 3e 71 74 d4 be cb 1d 9f 3c f7 44 7b 3e
       0.15091541 -0.41495088 0.019423386 0.24538027
000060 0e 28 91 bc 6e cd 27 bf f1 5d 02 3f 62 f1 98 3d
       -0.017719295 -0.65547836 0.50924593 0.07467915
000070 b0 23 82 be d6 70 98 be 15 c0 7a be cb 30 0e bf
       -0.25417852 -0.29773587 -0.24487336 -0.555432
000080 e8 cb 23 be 35 8c 03 3f 63 e4 78 3e 93 f3 8d 3e
       -0.15995753 0.51385814 0.24305873 0.27724895
000090 c8 88 4f be 2e 66 84 3e aa 45 9b 3d 5c 51 7d 3e
       -0.20267022 0.25859207 0.07581647 0.24738067
0000a0 d2 e6 61 bd 19 d6 d6 3e 39 0d 28 be ef c0 06 bf
       -0.055151768 0.4196022 -0.16411294 -0.52638143
0000b0 96 5b 1f bf 67 f0 ba bd b8 f4 e3 3e d0 85 23 bc
       -0.62249124 -0.09127884 0.44522643 -0.009980634
0000c0 72 cf b1 3e dd 3e 8f bd 22 1f f8 be f0 1c bd 3e
       0.3472858 -0.06994412 -0.48461252 0.3693614
0000d0 0a 56 71 be de 5c 5d 3e c7 94 ad 3e a5 bb 20 3e
       -0.23567978 0.21617457 0.3390257 0.1569658
0000e0 fe c8 2e bf f2 11 f0 3e df 64 16 3f 0b e1 33 3e
       -0.6827544 0.4688869 0.5874767 0.17566316
0000f0 57 bb 22 be 9a f0 07 3d d5 cd 26 bf 3e ee 0e bf
       -0.15891777 0.03318844 -0.65157825 -0.5583228

network.5.running_var f4 [64]
000000 b0 0f 38 3f d5 8c a6 3e a7 79 f3 3e b5 4b 3d 3e
       0.7189894 0.3252932 0.4755375 0.18485911
000010 e5 a6 cb 3e 5e d7 be 3e 4a 8e e6 3e ff 6d 35 3e
       0.39775768 0.37273687 0.45030433 0.17717741
000020 9c 7c 8f 3e ea a5 80 3e f3 63 fd 3e e4 40 9e 3e
       0.28024757 0.25126582 0.49490318 0.30908883
000030 50 e1 9f 3e 5e 17 e6 3e 3d 7b be 3e a8 01 09 3f
       0.31226587 0.44939703 0.37203398 0.5351815
000040 69 09 07 3f ed e8 f0 3e ba 0f c5 3e 95 9c ba 3e
       0.52748734 0.47052708 0.3848856 0.36447588
000050 c9 c8 9f 3e 79 86 94 3e e0 0d d1 3e 07 2c 05 3f
       0.31207874 0.29008844 0.40830898 0.52020305
000060 c3 71 e3 3e 38 9d b6 3e a9 8f 0d 3f fb 78 b6 3e
       0.4442273 0.35666823 0.55297333 0.35639176
000070 72 24 5d 3f 52 d5 d6 3e cc 5b 5f 3e 77 35 86 3e
       0.86383736 0.41959625 0.21812361 0.26212665
000080 6f 88 e0 3e f5 11 9e 3e eb 68 53 3f 4d 46 b0 3e
       0.4385409 0.30873075 0.8258197 0.34428635
000090 ae 9a 8d 3e 6a 63 68 3e c2 23 b6 3e d4 bc 8d 3e
       0.27657074 0.22694173 0.35574156 0.27683127
0000a0 03 b0 e5 3e 3d 67 8d 3e a1 db aa 3e 0f 94 8c 3e
       0.4486085 0.27617827 0.3337069 0.2745671
0000b0 42 f0 c5 3e fb 25 c1 3e ec a1 92 3e 1c c6 cc 3e
       0.38659865 0.3772429 0.28639162 0.39994895
0000c0 b4 52 8e 3e f0 71 02 3f 39 49 9a 3e 73 e1 00 3f
       0.27797472 0.50955105 0.3013399 0.5034401
0000d0 00 dc c0 3e 3c 06 a4 3e 5b 69 a6 3e 39 4e c7 3e
       0.37667847 0.32036006 0.32502255 0.38926867
0000e0 19 56 c1 3e c4 03 99 3e cf 80 a7 3e 20 b0 c0 3e
       0.37761 0.29885685 0.3271546 0.37634373
0000f0 65 a0 cd 3e 11 12 c0 3e 4a 45 ae 3e 27 1d 03 3f
       0.40161434 0.37513784 0.34037238 0.5121636

network.8.weight f4 [32, 64]
000000 e8 82 37 3d e4 8b 92 bd da 26 f5 bd 69 f3 af 3b
       0.044802576 -0.07155588 -0.11970301 0.005369593
000010 fe d4 4d bd 08 04 b7 3c 06 b3 ef 3d 5c d8 aa 3d
       -0.050251953 0.02234079 0.11704068 0.083420485
000020 8b b6 93 3d 1b 22 ff bd 34 be 96 bc 71 5c a9 bc
       0.07212552 -0.12457677 -0.018401243 -0.020673962
000030 21 0d e4 bd a1 18 fb 3d bd 43 82 3d cf 18 d7 bd
       -0.11135317 0.12260557 0.06360576 -0.10502779
000040 15 1e 40 bc 38 20 75 bd 00 b9 9b 3d 75 ae 11 3d
       -0.011725922 -0.05984518 0.07603645 0.035566766
000050 83 05 51 bd 79 b8 b7 3d 82 9b de bc 76 8f a3 bc
       -0.051030647 0.08970732 -0.027173761 -0.019965868
000060 46 a3 c6 3d b6 34 6e bd d0 6f cf bd d3 49 8a 3d
       0.09699111 -0.058155738 -0.101287484 0.06752362
000070 f9 13 93 bd 99 98 06 3d b5 f3 82 bc ea 6e c8 3d
       -0.07181544 0.032860372 -0.01598535 0.0978678
000080 d7 50 bc 3c 2e 53 ab bd 38 2b ac bd 40 f1 9c 3d
       0.022987766 -0.08365475 -0.08406681 0.07663202
000090 a1 12 4a bd 5c 43 5f 3c b0 6a 83 3d 91 10 a0 bd
       -0.049334172 0.0136269 0.064168334 -0.0781566
0000a0 ce 31 d2 bd 7d 75 e4 3b 6c 3b b3 bd d1 c8 d4 bd
       -0.10263406 0.0069720135 -0.08751568 -0.10389865
0000b0 18 2f f6 3d a9 fd ba bd 88 4b bd bd 54 ef e8 bd
       0.12020701 -0.09130413 -0.09242922 -0.11373773
0000c0 8f f4 6b 3c 83 23 9d 3c e2 87 28 3d dc c6 29 3d
       0.014401569 0.019181972 0.041145213 0.041449413
0000d0 37 30 82 3c 1b 08 99 bd 57 71 d2 3d 79 d4 0a bd
       0.015892131 -0.07472249 0.10275524 -0.033894036
0000e0 70 2f 99 3d c2 74 cd bd c8 58 17 be 1e 55 12 bd
       0.07479751 -0.100320354 -0.14779961 -0.035725705
0000f0 e2 7a c9 bd 05 2c 2b 3d 92 2e 8c bd 08 0b 3d 3c
       -0.09837891 0.041790027 -0.0684482 0.011538275
000100 89 2a b9 3d 97 b3 44 bd 8e bf 2e 3d 99 df 3f bc
       0.09041316 -0.048022833 0.04266315 -0.011711025
000110 47 63 01 3d 60 3e 94 3d 4d d1 8a bc 9c c8 74 3d
       0.03158882 0.072384596 -0.016945506 0.05976163
000120 02 ff 0c 3a 60 45 c6 bc 22 b3 24 bd 59 4c fe bd
       0.00053785753 -0.024203002 -0.040209897 -0.12416906
000130 a7 d5 08 3e d8 65 3a bd e5 8d d2 bd 6d 95 c6 bd
       0.13362752 -0.045507282 -0.102809705 -0.096964695
000140 48 67 19 3d 53 bf 2a bd 6f 10 e5 3d ce 8f 0e 3d
       0.037452012 -0.041686367 0.11184775 0.03480511
000150 51 bb 5f 3d 89 47 99 bd 70 97 aa 3d 1c 16 1f 3c
       0.054622 -0.074843474 0.08329666 0.009709861
000160 3c 14 bc bd 86 4f 29 bb 7a 9c e6 3b 8c 65 12 bb
       -0.09183547 -0.0025834753 0.0070376964 -0.0022338359
000170 3d cd 9e 3d c1 ac 5e 3d 04 15 00 3e 83 68 96 3d
       0.0775399 0.05436397 0.12508017 0.07344153
000180 63 aa d1 3d 73 ad 52 3d c6 f5 a7 bd 20 f5 c9 3d
       0.10237577 0.051434945 -0.082011744 0.09861207
000190 f5 68 e8 3c 1e 9a 81 3d 61 fa d7 bd 1e 16 ad 3d
       0.02837036 0.06328224 -0.10545803 0.08451484
0001a0 f8 e4 44 3c 52 98 22 3d e2 ce 0b be 6a a6 74 3c
       0.012017481 0.039696045 -0.13653138 0.014932254
0001b0 c6 2e 0b bb ae 1f da 3d bf 9e 06 be 96 d3 33 bd
       -0.0021237596 0.10650574 -0.13146494 -0.043902956
0001c0 66 a3 82 bd c6 e4 d3 bd 09 9b 04 3d dc 4e a0 bd
       -0.06378822 -0.103463694 0.032374416 -0.07827541
0001d0 2f 2c 89 3d ae 13 59 3c 81 7f ad bd e0 aa 0c bd
       0.066978805 0.013249321 -0.08471585 -0.034342647
0001e0 30 aa db 3c df a0 80 bd 5a 15 c5 bd 27 12 80 bd
       0.02681455 -0.06280684 -0.09623213 -0.06253462
0001f0 fc 29 81 bb 2c 5a 98 bd 82 c1 bb 3d b3 ea a8 3d
       -0.0039417725 -0.07439074 0.09167768 0.0824789
000200 24 16 b9 3d 98 51 be 3d 91 36 5e bd eb 46 54 bd
       0.09037426 0.092929065 -0.054251257 -0.051825445
000210 14 80 1b 3e cc 84 84 bd 4d c3 ea bd 28 19 91 bd
       0.15185577 -0.064706415 -0.11463032 -0.07084876
000220 6d 0a bc 3d f7 c0 8b bd 0c 55 4f 3b 23 a6 ae bd
       0.09181676 -0.068239145 0.0031636385 -0.08527782
000230 6b 2c 1c 3d f5 53 f4 bc 11 6f 84 3d 60 27 0e 3d
       0.038128298 -0.02982519 0.06466497 0.03470552
000240 ee 30 5e 3d 35 72 2e 3e c1 59 4e bd 56 87 e2 bd
       0.05424588 0.17035754 -0.050378565 -0.110609695
000250 2e 84 42 bd 3a 4e a1 3d 7f 76 d7 bd 85 16 f1 bc
       -0.047489338 0.07876249 -0.10520648 -0.029429683
000260 b4 e7 73 bd 63 75 65 bc fb 5e 52 3d f5 f0 4d bd
       -0.05954714 -0.014005038 0.05136011 -0.050278623
000270 8d 29 d3 bd b6 d5 07 3e a6 01 c8 bc f7 f1 9a bd
       -0.103106596 0.13265118 -0.024414849 -0.075656824
000280 fb 2d f4 3c 10 75 e1 bd 61 28 82 bd e6 e0 99 bb
       0.029807081 -0.11008656 -0.06355358 -0.0046959994
000290 83 f8 77 3a 3e 35 e5 bd 2a 85 27 3e 8c e9 ce bd
       0.00094593334 -0.11191796 0.16359392 -0.10103139
0002a0 b3 12 02 bd d6 de 2f 3d 29 7f 32 bb 4d 67 ef 3c
       -0.031756114 0.042937122 -0.0027236438 0.029224062
0002b0 89 36 13 be 4d e3 f7 bd d6 ff a1 3c 37 64 22 bb
       -0.14376272 -0.12103901 0.019775312 -0.002477897
0002c0 7f fb 9f 3d 94 17 13 3d b2 2a ae bd 03 24 cd bc
       0.07811641 0.035911158 -0.08504237 -0.025041586
0002d0 b2 5b 0f be c6 bd c6 bd fe f1 a9 bc 5a 22 f8 3c
       -0.13999823 -0.09704165 -0.020745274 0.030289818
0002e0 2b f4 06 be 14 e2 f0 bb 4c 16 c3 3d 2d 48 18 be
       -0.1317908 -0.0073511694 0.09525737 -0.14871283
0002f0 9d e9 9d 3d eb 9b ef 3b a9 71 01 bd a2 b4 17 be
       0.07710574 0.007312288 -0.031602535 -0.14815
000300 ac 90 0f bd 5a 95 88 3d e2 fd a4 bc 5f 06 a8 bc
       -0.03505008 0.066691115 -0.020140592 -0.02051085
000310 d1 7a 9e bd d4 f6 f9 3d 61 10 01 3e ba d4 bf bd
       -0.07738269 0.12205282 0.12603904 -0.09366746
000320 85 72 f1 bc e4 66 7d 3d f1 10 4e 3b eb 1c 9e bd
       -0.029473552 0.061865702 0.0031443203 -0.077203594
000330 e3 9b 7f 3d f9 d9 00 3e 14 f5 26 3c 52 5a ed bd
       0.062404525 0.1258315 0.010190267 -0.11589493
000340 31 21 ac bc 56 64 8e 3c ca d5 4e bb aa 2c e1 3d
       -0.02101192 0.017381828 -0.0031560534 0.10994847
000350 31 b4 4c 3d 16 43 9b bb aa c1 73 3d 1c 01 2f bd
       0.04997653 -0.004738222 0.059510864 -0.042725667
000360 2c 55 c4 bd 9c 7b ea bd 4c f4 8d bd 8e ec ce bb
       -0.09586558 -0.11449358 -0.069313616 -0.0063148206
000370 16 52 51 bd 5c e8 66 3c 60 84 21 3d f5 01 00 3e
       -0.051103674 0.014093485 0.039432883 0.12500747
000380 58 b9 bf 3c 44 d8 3e 3d 29 39 3a 3d 06 da 06 3d
       0.023403808 0.046592966 0.04546467 0.032922767
000390 bd e4 4a bd 1b a3 f3 bd af 8c e6 bd ad 06 bc 3a
       -0.049534548 -0.11896344 -0.11257302 0.0014345251
0003a0 c4 d1 81 bd 97 ba aa 3d 76 06 b8 3c a2 1d e8 3d
       -0.06338838 0.083363704 0.022464018 0.11333777
0003b0 2e ba 6a 3a d2 c7 11 3d 7b 55 b8 3d ba e1 3f 3d
       0.00089541345 0.035590954 0.09000679 0.04684613
0003c0 ba cb 29 3d 35 12 6e bd d1 49 f2 bd b4 4a c4 3d
       0.041454054 -0.058122832 -0.118304856 0.09584561
0003d0 28 e1 b9 3d f5 bf d5 bb 05 ad c7 3d a7 e8 fb bd
       0.09076148 -0.006523127 0.09749798 -0.12300234
0003e0 b4 68 90 3c ee 8b 46 bd 49 54 86 3d 8a 89 8e bd
       0.017628051 -0.04847329 0.06559045 -0.06959827
0003f0 33 e2 25 bd 09 75 15 3e 23 b8 c2 bc 99 89 89 bd
       -0.040498924 0.14595427 -0.023769444 -0.06715698

network.8.bias f4 [32]
000000 5d 91 ee bb 05 6e a7 bd bc 2e 61 bd 5e 24 b3 3c
       -0.0072805122 -0.081752814 -0.05497621 0.021867927
000010 c6 51 56 bd 21 25 39 3d 47 ee 9a 3c 0b 51 e2 bd
       -0.05232408 0.045201425 0.018912448 -0.11050614
000020 85 3b 8d 3d 4b 44 60 bd e4 b4 3a bd 47 b3 3b bd
       0.06896118 -0.05475263 -0.045582667 -0.04582527
000030 a7 15 44 3d a6 dd fc bd 89 fc b8 bd ea bd 40 3d
       0.04787221 -0.123469636 -0.09032542 0.047056116
000040 2c 14 1c bd f3 6e d2 bc 62 c1 e9 bd 9a 92 4a 3c
       -0.038105175 -0.02568767 -0.11413838 0.012364054
000050 e5 11 79 3d 55 25 39 bd 39 9c 1a 3c 20 6b 7c 3b
       0.06080808 -0.04520162 0.00943666 0.0038516
000060 dc 16 d4 bc f5 1c d8 3d f3 21 16 3d 34 f9 c5 3c
       -0.025889806 0.10552398 0.03665347 0.02416668
000070 9a 8d ad bb 8d 00 88 ba 39 73 8c 3d 6c ea a3 3b
       -0.0052964212 -0.0010376141 0.068579145 0.0050023105

network.9.weight f4 [32]
000000 a4 1e 7b 3f 41 c8 80 3f fd 2f 87 3f 1c f7 8a 3f
       0.9809363 1.0061113 1.056152 1.0856662
000010 0a 09 75 3f 6e 15 88 3f 04 c5 72 3f a0 f4 74 3f
       0.9571692 1.063154 0.9483187 0.9568577
000020 14 85 81 3f ec c4 6b 3f 06 a6 82 3f 1a 06 85 3f
       1.0118737 0.92097354 1.0206916 1.0392487
000030 a5 dd 81 3f e3 13 74 3f 37 e1 77 3f d9 83 81 3f
       1.0145766 0.95342845 0.96828026 1.0118362
000040 f1 0b 80 3f f6 45 7c 3f 27 0c 7f 3f 9d d0 73 3f
       1.0003644 0.9854425 0.9962792 0.95240194
000050 f4 2b 85 3f cc f4 81 3f 21 e1 72 3f 32 5e 71 3f
       1.0404038 1.0152831 0.9487477 0.94284356
000060 fc 52 81 3f 5d 8b 88 3f a1 28 83 3f 6e 4e 80 3f
       1.010345 1.066753 1.0246774 1.0023935
000070 81 8e 79 3f 7a cb 7c 3f 36 4c 83 3f 53 14 83 3f
       0.9748307 0.9874798 1.0257633 1.0240577

network.9.bias f4 [32]
000000 f4 ae 21 bd 7f 1d e7 3c 29 cc 5f 3d cb e0 9e 3d
       -0.03947349 0.028212307 0.05463806 0.077577196
000010 54 6e 04 bd eb 9f 22 3d fd 8e 5e bd 9f 43 66 bd
       -0.03233178 0.03970329 -0.054335583 -0.056216832
000020 60 1e 23 3d 77 55 96 bd 82 7d 6a 3b ab 49 89 3d
       0.03982389 -0.0734052 0.0035780375 0.06703504
000030 4f 38 fc 3c de d9 99 bc b1 1d 15 bd bf 7e cc 3c
       0.030788569 -0.018780645 -0.03640527 0.024962781
000040 45 c2 2a bc 8e 22 dd 3c af da 10 3c cb 38 8e bd
       -0.010422294 0.026994016 0.008841201 -0.06944426
000050 e3 88 92 3d 65 2e 6d 3d ec 0c 49 bd 45 62 0b bd
       0.07155015 0.057905573 -0.04908459 -0.034029264
000060 82 49 e2 ba 67 b6 b5 3d c6 47 54 3d ff 9f 7f 3c
       -0.0017264339 0.08872681 0.05182626 0.015602111
000070 b5 7f 9f ba 20 3e 1b 3c d8 19 0d 3d 05 5d 4a 3c
       -0.0012168797 0.009475261 0.034448475 0.012351279
