ai-layer/model/results/1000/dnn_eligibility_model.pth (torch, 64129 bytes, 25 tensors)

network.0.weight f4 [128, 8]
0.24835967 0.29973665 -0.068631195 0.33262143 -0.067714445 0.064763 -0.15278007 0.25095335
0.32970402 -0.26490498 0.27989322 0.07015672 0.23233798 0.031119244 0.20612961 -0.07413253
0.2651178 0.06502224 -0.13629217 0.10424653 -0.15640174 -0.07391672 -0.1833377 0.22810017
-0.29135233 -0.14352535 -0.10636191 -0.19572206 0.022838965 -0.3520192 0.3188115 -0.31265184
0.3141219 0.033416007 -0.1250558 0.24780881 0.031419124 0.22579312 0.05617273 -0.079242356
0.06346382 -0.08954462 0.15215503 0.34410846 0.20580354 -0.14488474 0.18616822 0.07966101
0.1925537 -0.20167975 -0.3423626 -0.16004471 -0.25995606 0.30858302 0.105731405 0.1233977
0.10966439 0.0078631835 0.26158217 -0.24066009 -0.012906753 -0.293519 0.083711326 -0.1234756
0.08780609 -0.07783758 0.2974768 -0.21610813 -0.2140177 -0.21692783 0.3171702 0.12150609
0.3701458 -0.2997457 -0.34652704 -0.27595028 -0.2333627 0.1747364 0.11967296 0.25154388
-0.21295881 -0.23367788 0.18102796 -0.1250536 0.2053288 -0.079397276 0.20163961 -0.28185546
-0.18838125 0.07394092 0.02046511 -0.091230065 0.17187996 0.2567425 -0.2920572 -0.18448718
0.35564566 -0.10215147 -0.105080105 -0.32123378 -0.16473225 0.06386011 -0.06210671 -0.27529338
0.0052471836 -0.25174838 -0.29871348 -0.23206872 -0.33770365 -0.27269405 0.2984573 0.03938466
0.077434 -0.31822792 -0.25927553 -0.09967071 0.012015435 -0.33701345 -0.17135322 -0.19261216
0.0099800695 -0.12244382 -0.03841918 -0.24923307 -0.254074 -0.24842174 -0.10126527 -0.260719
0.27114105 -0.0578298 0.3403164 0.12345449 -0.2819714 0.2590251 -0.08732707 -0.11963055
-0.28095794 -0.3281731 0.1106907 -0.10640626 0.123162225 -0.34508365 0.22355469 -0.29091823
-0.05115091 0.06593813 0.14969538 0.30741778 0.35522395 -0.24589448 0.11487849 -0.1348886
-0.04328879 -0.30465242 0.2929366 -0.24364027 0.18463895 0.15736161 0.10124569 -0.17930709
0.31494084 0.060122356 0.052718144 -0.32605788 0.16691898 -0.027181763 -0.187085 0.281767
0.12447057 -0.14129601 -0.15101725 -0.020335011 0.22678897 -0.06451434 -0.21974842 -0.13671933
-0.28651452 0.10312402 0.2557177 -0.35300282 0.06354141 0.16501416 0.029445328 -0.15203126
0.23698413 0.13407633 0.09690089 -0.051767193 -0.13518174 -0.015915485 -0.04710769 -0.11814148
0.1853016 0.33798614 -0.0006420958 -0.05320557 0.026156886 -0.008400157 0.08123095 0.13914645
-0.36511222 -0.13593845 0.2847113 0.16126178 -0.016110556 -0.2063587 -0.1430697 -0.308431
-0.099235855 0.13564608 0.1963874 0.14466375 -0.36959937 -0.2583585 -0.03691128 0.2940218
0.018089263 -0.063403614 0.15428366 -0.116126955 -0.1922857 0.31989214 -0.055708997 -0.08864715
-0.3428633 0.21760893 0.23795418 0.13983046 -0.28521118 -0.35588413 -0.29725784 0.26604924
0.13714331 0.30918658 0.17204623 0.07798141 0.006419842 -0.2443457 -0.30963635 -0.3797786
0.12611373 -0.18685098 -0.042886112 -0.18934277 -0.056238726 -0.30067873 -0.21931289 0.07802069
-0.14731233 0.21841943 -0.10251105 -0.24180564 -0.058135036 -0.17389092 -0.122523665 -0.32720023
00000000: ff51 7e3e 1577 993e 838e 8cbd 5b4d aa3e
00000010: dfad 8abd 77a2 843d 6172 1cbe f57c 803e
00000020: f7ce a83e a0a1 87be 2a4e 8f3e 54ae 8f3d
00000030: 02ea 6d3e c9ed fe3c a413 533e ccd2 97bd
00000040: 85bd 873e 612a 853d 2d90 0bbe 347f d53d
00000050: c727 20be a661 97bd e1bc 3bbe 1793 693e
00000060: 222c 95be 4ff8 12be 46d4 d9bd 5d6b 48be
00000070: c818 bb3c dc3b b4be 433b a33e e713 a0be
00000080: 96d4 a03e 39df 083d a10e 00be 98c1 7d3e
00000090: 57b1 003d 5036 673e 6015 663d d149 a2bd
000000a0: 52f9 813d 2b63 b7bd 87ce 1b3e fc2e b03e
000000b0: 2abe 523e aa5c 14be e2a2 3e3e 5025 a33d
000000c0: cc2c 453e 2385 4ebe 274a afbe c3e2 23be
000000d0: f618 85be 98fe 9d3e b589 d83d efb7 fc3d
000000e0: b997 e03d 95d4 003c 19ee 853e 996f 76be
000000f0: d976 53bc 1f48 96be d870 ab3d c6e0 fcbd
00000100: aed3 b33d 4f69 9fbd e14e 983e 734b 5dbe
00000110: 7527 5bbe 5422 5ebe 2264 a23e 2fd8 f83d
00000120: c083 bd3e 4578 99be fe6b b1be 5b49 8dbe
00000130: a2f6 6ebe 19ee 323e 1917 f53d 5cca 803e
00000140: e011 5abe 4149 6fbe 655f 393e 0d0e 00be
00000150: b741 523e 0a9b a2bd 9d7a 4e3e 5c4f 90be
00000160: 04e7 40be 566e 973d 72a6 a73c d4d6 babd
00000170: 4d01 303e c173 833e 8588 95be 35ea 3cbe
00000180: 3017 b63e ca34 d1bd 3d34 d7bd c178 a4be
00000190: 92af 28be 17c9 823d 9b63 7ebd 41f3 8cbe
000001a0: 91f0 ab3b 2ae5 80be f9f0 98be 6ca3 6dbe
000001b0: 7ee7 acbe 8e9e 8bbe 65cf 983e cf51 213d
000001c0: b895 9e3d c5ee a2be c3bf 84be 2820 ccbd
000001d0: 63dc 443c 078d acbe 3877 2fbe 1f3c 45be
000001e0: 7283 233c d3c3 fabd 6e5d 1dbd f436 7fbe
000001f0: fd15 82be 4562 7ebe 2a64 cfbd f67c 85be
00000200: 00d3 8a3e f1de 6cbd f43d ae3e b5d5 fc3d
00000210: 8e5e 90be f09e 843e 89d8 b2bd dd00 f5bd
00000220: b8d9 8fbe 4e06 a8be ceb1 e23d 86eb d9bd
00000230: 7a3c fc3d ceae b0be 85eb 643e 3cf3 94be
00000240: 9e83 51bd 920a 873d bf49 193e dd65 9d3e
00000250: eadf b53e c3cb 7bbe 6a45 eb3d 3d20 0abe
00000260: 964f 31bd 67fb 9bbe c9fb 953e d67c 79be
00000270: fe11 3d3e 6723 213e e659 cf3d 479c 37be
00000280: ed3f a13e dc42 763d fbee 573d 0ff1 a6be
00000290: cfec 2a3e 4aac debc 3693 3fbe c443 903e
000002a0: 6dea fe3d e7af 10be 44a4 1abe 9c95 a6bc
000002b0: 5e3b 683e 1820 84bd bb05 61be 2700 0cbe
000002c0: 08b2 92be b032 d33d 6eed 823e c9bc b4be
000002d0: 0022 823d 79f9 283e 5437 f13c 15ae 1bbe
000002e0: f8ab 723e 4e4b 093e f973 c63d d609 54bd
000002f0: 156d 0abe 3161 82bc fef3 40bd 29f4 f1bd
00000300: b4bf 3d3e 850c ad3e 5252 28ba 15ee 59bd
00000310: f746 d63c d0a0 09bc 6a5c a63d 687c 0e3e
00000320: fdef babe 7333 0bbe aec5 913e cf21 253e
00000330: 49fa 83bc b24f 53be dd80 12be abea 9dbe
00000340: 2b3c cbbd cee6 0a3e c719 493e bc22 143e
00000350: 213c bdbe 9147 84be 4830 17bd 068a 963e
00000360: ef2f 943c c1d9 81bd 89fc 1d3e f8d3 edbd
00000370: 8be6 44be e7c8 a33e 1e2f 64bd a38c b5bd
00000380: c78b afbe e0d4 5e3e 43aa 733e b72f 0f3e
00000390: 3307 92be 7236 b6be 2e32 98be 9b37 883e
000003a0: 4c6f 0c3e b44d 9e3e e32c 303e b8b4 9f3d
000003b0: 8a5d d23b c235 7abe a888 9ebe 5772 c2be
000003c0: f523 013e dd55 3fbe 59a9 2fbd 12e3 41be
000003d0: 945a 66bd 90f2 99be 8f93 60be 50c9 9f3d
000003e0: 0bd9 16be 58a9 5f3e 50f1 d1bd e69b 77be
000003f0: 011f 6ebd 7610 32be b0ed fabd ca86 a7be

network.0.bias f4 [128]
0.1980736 -0.052765332 0.14807753 -0.20746133 0.054589305 -0.21418834 0.17589042 -0.15441108
-0.08847425 -0.30653766 0.00018119956 0.3377581 0.17143366 -0.18882422 0.0043403357 -0.038861077
-0.28504923 0.27705547 0.004941349 0.07213426 -0.14347228 -0.16255409 0.058907565 0.12853141
0.081481 -0.17120044 0.3431836 -0.0489149 -0.21541366 -0.16561547 0.34888998 0.00025857906
-0.046639524 -0.1475052 -0.092674606 -0.2981716 -0.28051382 0.20582956 0.3033111 0.338235
-0.2555949 0.19240065 -0.2184416 0.21128404 0.2561104 0.27092928 0.25495964 0.22174194
0.008068693 0.16173802 -0.1274729 0.15385391 -0.11285623 -0.0060353046 -0.30905682 -0.09174397
-0.1870732 -0.119354255 -0.22627112 -0.31784683 0.022900982 0.22939773 0.32377458 0.20650877
-0.18256286 -0.35112727 0.13471569 0.1991007 -0.30183443 0.12634489 0.29879704 0.020569757
-0.21123242 0.29278252 0.15077594 0.2347773 -0.24078935 0.20584443 -0.24252501 0.34997544
-0.15168451 0.21276344 0.07059921 0.0935154 -0.053900942 0.1451804 -0.14803648 -0.33506748
-0.13561352 0.27706087 -0.09349703 0.11125102 -0.13044585 0.2669089 0.21098927 0.12336892
-0.1794291 -0.2865508 0.012484435 -0.20664535 0.29096866 -0.33985528 0.15829916 0.35341457
0.17754877 0.11979377 -0.3416089 0.33973312 -0.060047884 -0.32999602 0.34922412 -0.14535727
-0.024250098 0.32392153 -0.24437426 -0.25007468 0.056800466 -0.04743852 0.0831268 -0.29696643
0.011728705 -0.15783855 -0.17511769 -0.3229794 0.18738241 0.06664255 -0.30024183 0.27996063
00000000: ced3 4a3e 7620 58bd a3a1 173e be70 54be
00000010: 0999 5f3d 3054 5bbe 9e1c 343e f01d 1ebe
00000020: fd31 b5bd 81f2 9cbe 6300 3e39 a1ee ac3e
00000030: 4e8c 2f3e 235b 41be 6039 8e3b cb2c 1fbd
00000040: f9f1 91be 37da 8d3e 0aeb a13b 20bb 933d
00000050: 66ea 12be 9474 26be 0f49 713d bd9d 033e
00000060: 83df a63d 2b4f 2fbe c3b5 af3e fd5a 48bd
00000070: 6695 5cbe 1a97 29be b5a1 b23e e591 8739
00000080: 1609 3fbd 9a0b 17be 2fcc bdbd f3a9 98be
00000090: 829f 8fbe fcc4 523e 984b 9b3e 232d ad3e
000000a0: 56dd 82be ad04 453e 28af 5fbe d85a 583e
000000b0: e720 833e 3eb7 8a3e 128a 823e 5210 633e
000000c0: 8d32 043c a79e 253e 4288 02be e18b 1d3e
000000d0: 2b21 e7bd cec3 c5bb b23c 9ebe 43e4 bbbd
000000e0: 1e90 3fbe 0170 f4bd 9eb3 67be d2bc a2be
000000f0: d79a bb3c 3de7 6a3e c8c5 a53e 0977 533e
00000100: c2f1 3abe f4c6 b3be e9f2 093e 0ee1 4b3e
00000110: 0b8a 9abe 8e60 013e edfb 983e e881 a83c
00000120: 504d 58be 97e7 953e 0265 1a3e 7669 703e
00000130: 7c91 76be e2c8 523e 7a58 78be fb2f b33e
00000140: 2f53 1bbe a9de 593e 5296 903d 0185 bf3d
00000150: 3cc7 5cbd 2caa 143e e096 17be f78d abbe
00000160: 45de 0abe ecda 8d3e 5f7b bfbd 93d7 e33d
00000170: 9993 05be 49a8 883e 920d 583e d8a8 fc3d
00000180: 43bc 37be c9b6 92be 848b 4c3c d79a 53be
00000190: d8f9 943e 8301 aebe 2d19 223e c1f2 b43e
000001a0: 58cf 353e 7056 f53d 5de7 aebe 80f1 ad3e
000001b0: c5f4 75bd 3df5 a8be 81cd b23e 89d8 14be
000001c0: 24a8 c6bc 0bd9 a53e 3f3d 7abe ca09 80be
000001d0: 9ba7 683d e54e 42bd 623e aa3d fc0b 98be
000001e0: c129 403c 6ea0 21be 0d52 33be 8e5d a5be
000001f0: 2de1 3f3e e47b 883d 4cb9 99be 0057 8f3e

network.1.weight f4 [128]
1.0119249 1.0172417 1.0018214 0.9807064 1.0132442 0.95286983 1.0295135 1.0071343
0.97828007 1.0230901 0.9550966 1.0230967 0.97697806 0.9817088 0.95796525 0.9814067
0.9946872 1.0137151 1.0132041 1.0063553 0.97841406 0.98006505 0.97651845 1.0350324
1.0128908 1.01752 1.058378 1.0409961 1.0561025 0.9489171 1.0164796 0.96651465
0.98607373 0.9983525 1.0266922 0.9820556 1.0038713 0.9712736 1.0134995 1.0160205
1.006099 1.012276 0.9969756 1.0016491 0.97685874 1.0083842 1.0066339 0.9612287
0.9882009 1.0122447 1.0098103 0.99519837 0.99657 0.96932113 0.99703056 0.9753652
1.0050247 0.9899651 0.9936651 1.0528091 1.0039741 1.037185 0.97107935 0.9898178
1.0079222 1.0236351 1.0041938 1.003591 1.0195204 0.9913071 1.0270869 0.95777637
1.0136132 1.0116353 1.0105106 1.0336689 1.0094167 0.9832837 0.96586806 1.0190924
1.0486381 0.9786187 0.97436196 0.9940953 1.0118581 0.9804236 1.0256015 0.9917422
1.0204915 1.0214114 0.99478614 0.9916454 0.97985834 1.0128212 0.9928304 0.9916712
0.976214 0.93846744 0.9731596 0.9993022 0.9998133 1.0063443 0.97825646 0.99354476
0.9848011 0.9786919 1.0180254 0.98763317 1.0065973 1.0463767 0.9833268 1.0209922
0.97221005 0.99659055 0.98867005 1.0480574 1.0007704 0.9831531 0.99468565 1.0183493
1.0168786 1.0285249 1.0388677 0.9781432 0.98877203 0.9569532 0.99287987 1.0511461
00000000: c186 813f fa34 823f af3b 803f 930f 7b3f
00000010: fcb1 813f 47ef 733f 19c7 833f c7e9 803f
00000020: 9070 7a3f 9ef4 823f 3681 743f d5f4 823f
00000030: 3c1b 7a3f 4551 7b3f 363d 753f 783d 7b3f
00000040: d2a3 7e3f 6bc1 813f acb0 813f 40d0 803f
00000050: 5879 7a3f 8be5 7a3f 1dfd 793f f17b 843f
00000060: 68a6 813f 183e 823f ee78 873f 5c3f 853f
00000070: 5e2e 873f 3bec 723f 011c 823f 816d 773f
00000080: 546f 7c3f 0894 7f3f a66a 833f ff67 7b3f
00000090: db7e 803f 63a5 783f 5aba 813f f60c 823f
000000a0: dac7 803f 4392 813f cb39 7f3f 0a36 803f
000000b0: 6a13 7a3f bc12 813f 61d9 803f 1613 763f
000000c0: bcfa 7c3f 3c91 813f 7741 813f 52c5 7e3f
000000d0: 361f 7f3f 6e25 783f 653d 7f3f 89b1 793f
000000e0: a6a4 803f 5a6e 7d3f d660 7e3f 73c2 863f
000000f0: 3982 803f 7ac2 843f a898 783f b364 7d3f
00000100: 9803 813f 7a06 833f 6c89 803f ab75 803f
00000110: a57f 823f 4dc6 7d3f 9577 833f d530 753f
00000120: 14be 813f 447d 813f 6958 813f 434f 843f
00000130: 9134 813f 7bb8 7b3f 2143 773f 9f71 823f
00000140: c639 863f c186 7a3f c96f 793f 087d 7e3f
00000150: 9184 813f 0bfd 7a3f e946 833f d1e2 7d3f
00000160: 779f 823f 9cbd 823f 4eaa 7e3f 79dc 7d3f
00000170: ffd7 7a3f 20a4 813f 222a 7e3f 2ade 7d3f
00000180: 29e9 793f 673f 703f fd20 793f 45d2 7f3f
00000190: c4f3 7f3f e4cf 803f 046f 7a3f f358 7e3f
000001a0: ed1b 7c3f 8d8b 7a3f a84e 823f 87d5 7c3f
000001b0: 2ed8 803f acef 853f 4ebb 7b3f dfaf 823f
000001c0: c2e2 783f 8f20 7f3f 7b19 7d3f bf26 863f
000001d0: 3f19 803f ecaf 7b3f b8a3 7e3f 4559 823f
000001e0: 1429 823f b4a6 833f 9ef9 843f 9867 7a3f
000001f0: 2a20 7d3f e3fa 743f 602d 7e3f f58b 863f

network.1.bias f4 [128]
0.005202399 0.03251224 -0.04742278 -0.011782713 -0.02067723 0.010981562 0.011262928 0.01184359
-0.018890686 0.055263497 -0.02018001 0.03119782 -0.034008753 -0.037074186 -0.021700656 -0.03534859
-0.0023797965 -0.010848227 -0.0076547666 0.015903205 0.010924412 0.0059095323 -0.010849102 0.016577804
0.017048808 0.016335042 0.05043072 0.013611973 0.030803107 -0.04261065 -0.019071247 -0.0556253
-0.025441019 -0.005163253 0.008690289 -0.004271044 -0.008952995 0.008952334 0.013413644 -0.0004460647
0.011754866 -0.0043808282 0.005259518 0.0017302826 0.00089448376 -0.008814036 -0.0140848635 -0.05840193
-0.018818198 -0.00858708 0.00868139 0.00086047064 -0.009466477 -0.017614933 -0.018082496 -0.0351454
-0.0041156155 -0.013705167 -0.000107179905 0.0037462912 -0.025916064 -0.040790264 -0.033855606 -0.04182209
0.010045597 0.02047572 -0.020390468 -0.0013459324 0.035082374 -0.014525095 0.0023211476 -0.046861865
0.0074113617 -0.028492218 -0.012099239 0.02652449 -0.035447598 -0.025969828 -0.039035656 0.013985193
0.0017741651 -0.002402856 -0.015718793 -0.037221666 -0.036845326 -0.019726396 0.015253647 0.0130265225
0.006503504 0.023573544 0.0011917938 -0.006646853 -0.018994482 0.0039511006 -0.014038755 -0.021430392
-9.7712706e-05 -0.040683564 -0.0032299482 0.0074951774 -0.020084808 0.01115685 -0.020417277 -0.0054704295
0.0029324393 -0.0076299165 -0.019677784 -0.012151154 0.025658801 0.007554576 0.0029122813 0.00023986766
-0.031537004 -0.0086594 -0.0021460268 0.044204496 -0.009646319 -0.012397632 0.0014432593 -0.010064715
0.022879532 0.025759421 0.017820425 -0.0061077606 -0.029148774 -0.05913036 -0.016941477 -0.015062731
00000000: e378 aa3b 8e2b 053d 643e 42bd 480c 41bc
00000010: 4b63 a9bc 02ec 333c 2588 383c 9e0b 423c
00000020: a4c0 9abc fa5b 623d 8c50 a5bc 9292 ff3c
00000030: c34c 0bbd 1adb 17bd 93c5 b1bc afc9 10bd
00000040: 5cf6 1bbb c3bc 31bc d6d4 fabb 7047 823c
00000050: 4efc 323c c0a4 c13b 6fc0 31bc 2dce 873c
00000060: f1a9 8b3c 11d1 853c 7190 4e3d c104 5f3c
00000070: cc56 fc3c 8188 2ebd 4e3b 9cbc 5bd7 63bd
00000080: af69 d0bc 8130 a9bb b761 0e3c 1df4 8bbb
00000090: 95af 12bc cfac 123c e7c4 5b3c cadd e9b9
000000a0: 7b97 403c 0d8d 8fbb 0958 ac3b a6ca e23a
000000b0: ca7b 6a3a bf68 10bc 33c4 66bc dd36 6fbd
000000c0: 9f28 9abc d3b0 0cbc 643c 0e3c 3591 613a
000000d0: 4819 1bbc 314d 90bc be21 94bc 9ff4 0fbd
000000e0: 49dc 86bb a38b 60bc c6c5 e0b8 5684 753b
000000f0: ed4d d4bc b113 27bd 2dac 0abd a44d 2bbd
00000100: 4a96 243c b2bc a73c e909 a7bc ff69 b0ba
00000110: 89b2 0f3d aafa 6dbc 651e 183b 3af2 3fbd
00000120: 02db f23b 8368 e9bc e33b 46bc e349 d93c
00000130: 8031 11bd adbe d4bc dae3 1fbd 2722 653c
00000140: 1a8b e83a 3c79 1dbb b3c4 80bc bf75 18bd
00000150: 20eb 16bd 4099 a1bc 6fea 793c 326d 553c
00000160: 581b d53b 4e1d c13c f735 9c3a d8cd d9bb
00000170: 519a 9bbc 3c78 813b ce02 66bc ca8e afbc
00000180: 1ceb ccb8 cfa3 26bd 8aad 53bb 1b9a f53b
00000190: e588 a4bc 38cb 363c 2242 a7bc 4a41 b3bb
000001a0: 2b2e 403b 6104 fabb 4e33 a1bc a215 47bc
000001b0: 6832 d23c 608c f73b f9db 3e3b fc84 7b39
000001c0: f22c 01bd 28e0 0dbc 5ba4 0cbb c60f 353d
000001d0: 980b 1ebc 701f 4bbc bf2b bd3a 79e6 24bc
000001e0: db6d bb3c 6c05 d33c 24fc 913c 9c23 c8bb
000001f0: 69c9 eebc ad32 72bd dac8 8abc acc9 76bc

network.1.running_mean f4 [128]
0.19873413 -0.02443828 0.13605067 -0.2140569 0.07658436 -0.19251344 0.1837601 -0.1697806
-0.09744479 -0.3019803 0.011311329 0.33758402 0.16087157 -0.20334636 -0.0123277595 -0.06877672
-0.2838784 0.27626014 0.020746093 0.08764605 -0.15106264 -0.16133572 0.05449493 0.11881177
0.08073216 -0.18432513 0.31652337 -0.04896766 -0.25747347 -0.19060867 0.32500637 -0.026259435
-0.022817016 -0.16079287 -0.09794781 -0.31961375 -0.29698017 0.19318438 0.30934367 0.35609493
-0.2849141 0.17852575 -0.23385704 0.20869905 0.25654626 0.29147723 0.23317209 0.2165301
0.004239112 0.15027747 -0.1660442 0.1772012 -0.13711607 -0.007953209 -0.3174291 -0.09318685
-0.19342707 -0.12531878 -0.18682241 -0.3308482 0.018633842 0.236313 0.30803534 0.19316733
-0.17530102 -0.3477837 0.1498892 0.19054943 -0.28277293 0.13374262 0.2577159 0.024318371
-0.22114299 0.29900616 0.14111884 0.20123187 -0.23995103 0.20029315 -0.25703186 0.30934325
-0.15957795 0.22378209 0.061820764 0.088281214 -0.060414124 0.1445646 -0.12280803 -0.33433717
-0.13639155 0.2727431 -0.08744392 0.106987886 -0.10607446 0.26464 0.1956476 0.11585848
-0.2053694 -0.2921045 0.020912291 -0.23061083 0.28122938 -0.31416386 0.17453845 0.35698608
0.1757769 0.11142254 -0.36692768 0.35653907 -0.08009395 -0.3117715 0.38919544 -0.14636986
0.008727621 0.3075529 -0.2471276 -0.24740474 0.026075467 -0.07499988 0.06283057 -0.3114482
0.017859448 -0.1384972 -0.16443843 -0.32474396 0.17981225 0.051790785 -0.31695846 0.25270298
00000000: f680 4b3e ca32 c8bc de50 0b3e bb31 5bbe
00000010: 43d8 9c3d 3e22 45be 9c2b 3c3e f7da 2dbe
00000020: 2291 c7bd 299d 9abe 2753 393c d0d7 ac3e
00000030: 84bb 243e 073a 50be 5ffa 49bc cfda 8cbd
00000040: 8258 91be f871 8d3e b6f3 a93c c67f b33d
00000050: 2ab0 1abe 3135 25be 1336 5f3d 9653 f33d
00000060: e756 a53d babf 3cbe 5a0f a23e 5092 48bd
00000070: 90d3 83be eb2e 43be 3c67 a63e 071e d7bc
00000080: c0ea babc e3a6 24be dd98 c8bd 6aa4 a3be
00000090: c90d 98be 20d2 453e 4b62 9e3e 1352 b63e
000000a0: 43e0 91be 74cf 363e 3878 6fbe 34b5 553e
000000b0: 085a 833e 813c 953e aac4 6e3e 11ba 5d3e
000000c0: 40e8 8a3b 56e2 193e 7e07 2abe 3b74 353e
000000d0: 2868 0cbe 2d4e 02bc 1186 a2be bfd8 bebd
000000e0: bf11 46be 9153 00be 604e 3fbe ef64 a9be
000000f0: 00a6 983c 09fc 713e cfb6 9d3e a8cd 453e
00000100: 1c82 33be b510 b2be 8e7c 193e 641f 433e
00000110: 9dc7 90be d3f3 083e 57f3 833e 5237 c73c
00000120: 4f73 62be 5617 993e 7581 103e ba0f 4e3e
00000130: b9b5 75be a619 4d3e ae99 83be 3d62 9e3e
00000140: 6768 23be 2227 653e c537 7d3d c8cc b43d
00000150: cd74 77bd be08 143e c782 fbbd 3e2e abbe
00000160: 3aaa 0bbe fca4 8b3e cc15 b3bd 771c db3d
00000170: 913d d9bd e57e 873e d857 483e 3647 ed3d
00000180: 5b4c 52be b98e 95be 4150 ab3c 3f25 6cbe
00000190: 4cfd 8f3e 16da a0be 35ba 323e e1c6 b63e
000001a0: dcfe 333e 8031 e43d f2dd bbbe 4a8c b63e
000001b0: 4c08 a4bd 84a0 9fbe a044 c73e fbe1 15be
000001c0: 4cfe 0e3c 9377 9d3e 040f 7dbe ab57 7dbe
000001d0: 389c d53c 8999 99bd 50ad 803d 2376 9fbe
000001e0: fa4d 923c 36d2 0dbe 8c62 28be d744 a6be
000001f0: b420 383e 9322 543d 6148 a2be 4962 813e

network.1.running_var f4 [128]
0.46304777 0.49294722 0.16849661 0.6703188 0.2882526 0.34150654 0.33966282 0.38195032
0.2664644 0.51537955 0.2830447 0.17303903 0.56488734 0.8539695 0.6770704 0.9026872
0.13236153 0.54916525 0.2560327 0.2875201 0.2417814 0.10162603 0.24191014 0.14035435
0.18081638 0.38034838 0.14269072 0.02312378 0.43401676 0.56211895 0.4051789 0.6057008
0.34586245 0.5218167 0.35815397 0.27602705 0.7076261 0.20813926 0.39301106 0.7932553
0.61626476 0.340656 0.280745 0.19922474 0.3328256 0.14292158 0.27500242 0.3132101
0.16952828 0.28229678 0.6116839 0.19528931 0.2523913 0.23695451 0.22300938 0.5012059
0.38692865 0.20499854 0.6100991 0.22934681 0.3273941 0.35908103 0.17315586 0.5209159
0.3547626 0.10592349 0.12846486 0.32188195 0.57175505 0.27265778 0.907545 0.6169497
0.10968548 0.19817832 0.30016682 0.6339676 0.25283423 0.2735517 0.3193572 0.6961509
0.2582133 0.31456515 0.25223982 0.12090586 0.3179865 0.20665962 0.8273201 0.29336193
0.113782465 0.38232434 0.17657068 0.2812495 0.8676623 0.14048006 0.2575586 0.41882104
0.26953065 0.07544313 0.35521594 0.41070253 0.20275319 0.25681582 0.39562482 0.15634115
0.37246165 0.591777 0.2204326 0.51291215 0.2460609 0.10589216 0.744005 0.15940285
0.35492486 0.22634919 0.22709392 0.21575569 0.47962847 0.31133208 0.47556496 0.42383894
0.22280367 0.202847 0.6304951 0.18702416 0.45676866 0.30633566 0.17188059 0.31565717
00000000: 9914 ed3e 9463 fc3e 608a 2c3e 039a 2b3f
00000010: d895 933e f2d9 ae3e 49e8 ad3e fe8e c33e
00000020: 066e 883e eaef 033f 3ceb 903e 2531 313e
00000030: 759c 103f bf9d 5a3f 7c54 2d3f 8216 673f
00000040: c889 073e 1896 0c3f b816 833e d635 933e
00000050: 8b95 773e 4f21 d03d 4bb7 773e 0db9 0f3e
00000060: ee27 393e 06bd c23e 841d 123e 156e bd3c
00000070: 7237 de3e 07e7 0f3f 9c73 cf3e 350f 1b3f
00000080: e214 b13e c795 053f f55f b73e 6b53 8d3e
00000090: fc26 353f 7522 553e bf38 c93e c812 4b3f
000000a0: 87c3 1d3f 776a ae3e cfbd 8f3e 9201 4c3e
000000b0: 1e68 aa3e 095a 123e 1ecd 8c3e 135d a03e
000000c0: d298 2d3e 3489 903e 5197 1c3f ecf9 473e
000000d0: 6f39 813e 34a4 723e 925c 643e 084f 003f
000000e0: 831b c63e 23eb 513e 742f 1c3f e4d9 6a3e
000000f0: 33a0 a73e 78d9 b73e c54f 313e bf5a 053f
00000100: 72a3 b53e 6aee d83d 4b8c 033e b6cd a43e
00000110: 8a5e 123f cd99 8b3e de54 683f 6af0 1d3f
00000120: c8a2 e03d 42ef 4a3e 77af 993e b34b 223f
00000130: 7d73 813e f80e 8c3e c982 a33e f236 323f
00000140: 8934 843e af0e a13e 9425 813e 7e9d f73d
00000150: 20cf a23e 949e 533e 40cb 533f 8933 963e
00000160: c806 e93d 04c0 c33e f2ce 343e efff 8f3e
00000170: 1e1f 5e3f 01da 0f3e b9de 833e b66f d63e
00000180: ecff 893e ee81 9a3d ddde b53e 9a47 d23e
00000190: 889e 4f3e 5d7d 833e 568f ca3e e517 203e
000001a0: 4bb3 be3e b37e 173f 15b9 613e 364e 033f
000001b0: 63f7 7b3e fddd d83d 1d77 3e3f 803a 233e
000001c0: b6b8 b53e 15c8 673e 4f8b 683e 0fef 5c3e
000001d0: dd91 f53e eb66 9f3e 407d f33e 6b01 d93e
000001e0: a526 643e 20b7 4f3e 2068 213f 4383 3f3e
000001f0: 95dd e93e 07d8 9c3e 7701 303e d19d a13e

network.4.weight f4 [64, 128]
0.045828138 0.02574951 -0.0372412 0.028201487 0.109525725 0.085202 -0.07422203 0.077415116
-0.0062964223 0.020277482 0.06927868 0.043804567 -0.06757004 0.07925654 -0.06318282 -0.0049414127
-0.06418835 -0.02261921 -0.00023716554 0.0138895055 0.016387561 -0.018284895 0.07598211 0.04150643
0.065524876 0.009853041 0.06796271 -0.0435436 -0.032608252 -0.026023133 -0.074007735 -0.08291172
0.015443101 -0.0488499 -0.01840158 -0.02590286 0.03426551 0.03491916 0.015011524 0.09348448
0.008437097 -0.069317885 -0.12284391 -0.05081034 -0.021458648 -0.033898003 -0.039346687 -0.007015658
-0.073317096 -0.045341346 -0.08185026 0.11136385 -0.04063649 -0.039953463 0.03613799 0.0044595157
0.08365102 0.03468682 0.11401307 -0.08027498 0.06548408 0.078786515 -0.024081651 0.07501513
0.0721558 0.04639981 0.06438173 -0.014822101 -0.06493656 0.055762857 -0.0031243889 -0.07711162
0.07311701 -0.01791269 0.066768855 0.04551891 0.024559585 -0.07973499 0.007423853 -0.0026110413
0.023454558 0.057375576 0.09059135 -0.026368348 -0.03137616 -0.011555239 0.047738504 0.046891052
-0.04885978 -0.021468043 0.025201328 -0.0013049894 0.089260094 0.010616428 -0.061791174 -0.03090757
-0.05011593 0.017369848 0.0013662154 -0.094065614 6.427591e-05 0.0054686293 -0.0213476 0.0845685
-0.01822676 0.04614104 -0.003199868 -0.06531322 0.039201014 0.08604811 -0.033421423 -0.02814459
0.093176946 0.0846261 -0.032759212 0.07608728 -0.041374963 -0.10576152 0.0063414723 0.047553692
0.005571235 0.062699005 -0.047526777 0.093931586 0.06528317 0.026638057 0.005060551 0.005180188
-0.09719474 -0.052455924 0.0009479216 -0.067640625 -0.079978526 0.053378277 0.06414833 -0.09820779
-0.022902735 0.061353553 0.053925823 0.07566148 0.066759005 -0.06391053 0.035588488 0.05207185
-0.08578605 -0.08745332 -0.0023450821 0.018064657 -0.030326527 0.019619392 -0.003413915 0.0074875522
-0.060151026 0.029134342 0.03934123 -0.05745468 0.021736212 -0.0070021935 -0.002041651 0.067676954
0.006067846 -0.040286705 0.059697736 -0.04027915 -0.03962232 0.004844564 -0.064263 -0.00032970923
-0.093176164 0.033104885 0.014491599 0.013608263 -0.0742157 -0.08314892 0.051756684 0.07704154
-0.07941455 0.014756361 -0.08825998 -0.00982434 0.113114044 0.04694947 -0.056359135 0.047512494
0.038664464 -0.013575955 0.07013805 -0.03353403 -0.013202755 -0.059575807 -0.013890883 -0.01067277
-0.02903805 -0.06173656 -0.04298242 0.03155914 -0.08881148 -0.023014212 0.0127096325 -0.05047071
0.035622355 -0.02269516 0.055153757 -0.018097311 -0.07062333 0.06116356 0.015472519 -0.057227697
-0.08114552 0.02301318 -0.095305644 0.048904404 0.058718264 -0.04199283 -0.0753777 -0.05235917
0.08554417 0.06987741 -0.0017949966 0.10098179 -0.055461675 -0.084791645 0.02688699 0.025588466
0.08264065 0.012672534 0.07050241 0.039668795 0.05147025 -0.093451485 0.08594274 -0.07647809
0.080330074 -0.007131285 -0.0744472 0.0029435835 0.0037899564 -0.09340004 -0.037877828 0.027209092
0.037068818 -0.008079141 0.035705052 0.017479071 0.003925522 0.0119383205 -0.061485913 -0.10443272
0.012568377 -0.12075693 -0.06147822 0.03329129 -0.06201575 -0.050219815 -0.01778014 0.003473807
00000000: 49b6 3b3d a3f0 d23c 3b8a 18bd ce06 e73c
00000010: 064f e03d 637e ae3d b801 98bd d18b 9e3d
00000020: 3852 cebb f61c a63c fbe1 8d3d 6b6c 333d
00000030: 2962 8abd 4151 a23d ff65 81bd 93eb a1bb
00000040: 2f75 83bd ec4b b9bc a4af 78b9 cf90 633c
00000050: 353f 863c 34ca 95bc 829c 9b3d a502 2a3d
00000060: e831 863d a66e 213c 0930 8b3d c65a 32bd
00000070: 3b90 05bd 772e d5bc 5e91 97bd 9fcd a9bd
00000080: 0f05 7d3c d516 48bd e9be 96bc 3c32 d4bc
00000090: fe59 0c3d 6507 0f3d e5f2 753c cb74 bf3d
000000a0: c03b 0a3c 89f6 8dbd 9695 fbbd 811e 50bd
000000b0: 0cca afbc a2d8 0abd fe29 21bd 9be3 e5bb
000000c0: 4627 96bd d9b7 39bd 1ca1 a7bd bb12 e43d
000000d0: 7372 26bd 3ea6 23bd 6e05 143d 2121 923b
000000e0: 3a51 ab3d c413 0e3d af7f e93d 3567 a4bd
000000f0: 841c 863d d35a a13d e246 c5bc 88a1 993d
00000100: 6cc6 933d ba0d 3e3d 92da 833d 66d8 72bc
00000110: 76fd 84bd 9867 643d 8cc2 4cbb b2ec 9dbd
00000120: 5fbe 953d a2bd 92bc 1cbe 883d 0972 3a3d
00000130: 2f31 c93c 194c a3bd cb43 f33b 011e 2bbb
00000140: c623 c03c a702 6b3d f587 b93d 6f02 d8bc
00000150: 4a84 00bd 2f52 3dbc 7389 433d d510 403d
00000160: 3121 48bd c0dd afbc 0473 ce3c 2e0c abba
00000170: ffcd b63d 87f0 2d3c be18 7dbd df31 fdbc
00000180: 5d46 4dbd 364b 8e3c 9512 b33a 79a5 c0bd
00000190: decb 8638 3032 b33b 29e1 aebc 4032 ad3d
000001a0: 4950 95bc 63fe 3c3d e0b4 51bb f0c2 85bd
000001b0: 3e91 203d fe39 b03d e7e4 08bd 7c8f e6bc
000001c0: 8ed3 be3d 7350 ad3d 862e 06bd a6d3 9b3d
000001d0: cb78 29bd 7f99 d8bd 20cc cf3b a9c7 423d
000001e0: e88e b63b 5668 803d 70ab 42bd 345f c03d
000001f0: 2fb3 853d 0e38 da3c fbd2 a53b 91be a93b
00000200: 090e c7bd 06dc 56bd f17d 783a 2b87 8abd
00000210: c8cb a3bd 2ea3 5a3d 3360 833d 2a21 c9bd
00000220: 849e bbbc dd4d 7b3d 53e1 5c3d 68f4 9a3d
00000230: f2b8 883d 86e3 82bd 3cc5 113d 4b49 553d
00000240: 99b0 afbd ba1a b3bd f3af 19bb 55fc 933c
00000250: 566f f8bc d9b8 a03c fdbb 5fbb 245a f53b
00000260: ec60 76bd 25ab ee3c 4524 213d 9955 6bbd
00000270: 2410 b23c a872 e5bb 38cd 05bb 379a 8a3d
00000280: c8d4 c63b ac03 25bd 9d85 743d c0fb 24bd
00000290: 044b 22bd 26bf 9e3b 529c 83bd d3dc acb9
000002a0: 25d3 bebd fd98 073d 2c6e 6d3c 31f5 5e3c
000002b0: 67fe 97bd fb49 aabd d1fe 533d f4c7 9d3d
000002c0: 18a4 a2bd aac4 713c a6c1 b4bd 45f6 20bc
000002d0: 56a8 e73d 164e 403d d6d8 66bd 769c 423d
000002e0: a15e 1e3d af6d 5ebc 8aa4 8f3d fb5a 09bd
000002f0: 5e50 58bc c305 74bd 9696 63bc d8dc 2ebc
00000300: 34e1 edbc 7adf 7cbd 560e 30bd 2844 013d
00000310: cbe2 b5bd 4d88 bcbc 103c 503c 60ba 4ebd
00000320: bfe8 113d 33eb b9bc e8e8 613d d040 94bc
00000330: f7a2 90bd a486 7a3d 7380 7d3c 9767 6abd
00000340: 9f2f a6bd 2386 bc3c 9b2f c3bd fc4f 483d
00000350: 9082 703d ac00 2cbd a05f 9abd 9276 56bd
00000360: c831 af3d e31b 8f3d 1746 ebba 8acf ce3d
00000370: c82b 63bd 3ea7 adbd 1b42 dc3c e79e d13c
00000380: 803f a93d 76a0 4f3c 9163 903d bf7b 223d
00000390: 78d2 523d 7e63 bfbd bf02 b03d 8ba0 9cbd
000003a0: 1884 a43d 8ead e9bb c677 98bd 23e9 403b
000003b0: eb60 783b 8548 bfbd c825 1bbd 9ae5 de3c
000003c0: 79d5 173d 605e 04bc 763f 123d 4530 8f3c
000003d0: aaa1 803b f298 433c a7d8 7bbd d2e0 d5bd
000003e0: 98eb 4d3c 694f f7bd 96d0 7bbd 735c 083d
000003f0: 3a04 7ebd 4bb3 4dbd a8a7 91bc cfa8 633b

network.4.bias f4 [64]
0.034310933 0.024425484 0.05868349 0.03158543 -0.02165629 -0.016946346 0.07481413 -0.002849726
-0.07517428 -0.063537166 -0.066618085 0.009864616 0.06459091 0.05364989 0.020761907 0.030927712
-0.04257957 0.084040456 0.034996852 -0.055331696 -0.058036912 -0.08001019 -0.024073947 0.065693505
0.0050130635 -0.040907677 0.024298094 -0.059697423 0.02890446 0.060597125 0.04386741 -0.026691845
-0.027983747 0.03825499 0.05183926 -0.02229667 -0.0022393074 -0.011250755 -0.009807399 -0.07515106
-0.07183139 0.076351434 -0.0442983 0.06651937 0.05569649 -0.01314064 -0.04075877 0.001975958
-0.014232341 -0.053282723 0.085046835 -0.0073726573 -0.011942771 -0.06009398 0.012268955 0.012334283
0.08769835 -0.0305223 0.04934108 0.0036729835 0.047754154 0.0035072076 -0.013860298 0.035247758
00000000: 9f89 0c3d f417 c83c 195e 703d b95f 013d
00000010: 8868 b1bc 10d3 8abc 2738 993d 78c2 3abb
00000020: f9f4 99bd c61f 82bd 106f 88bd 339f 213c
00000030: 3d48 843d fdbf 5b3d e014 aa3c 1d5c fd3c
00000040: ea67 2ebd 671d ac3d dc58 0f3d 7da3 62bd
00000050: 1db8 6dbd 62dc a3bd ba36 c5bc 518a 863d
00000060: a044 a43b cf8e 27bd cc0c c73c 4985 74bd
00000070: 0cc9 ec3c b134 783d 50ae 333d dba8 dabc
00000080: 2c3e e5bc 44b1 1c3d 6755 543d 82a7 b6bc
00000090: 58c1 12bb 1655 38bc 36af 20bc cde8 99bd
000000a0: 561c 93bd 245e 9c3d 2272 35bd 4f3b 883d
000000b0: 0122 643d d74b 57bc abf2 26bd 137f 013b
000000c0: c42e 69bc fc3e 5abd 092d ae3d 5596 f1bb
000000d0: 9dab 43bc 1b25 76bd ba03 493c bc15 4a3c
000000e0: 319b b33d e709 fabc df19 4a3d 70b6 703b
000000f0: dc99 433d 2ed9 653b 4e16 63bc f45f 103d

network.5.weight f4 [64]
1.0223058 0.99553907 0.9851345 0.99316794 0.983122 1.032901 0.9605984 1.0028005
1.0272974 1.0127403 0.9787635 0.98478734 0.9870735 1.0306467 0.98556155 0.96711403
1.0535525 0.9755429 0.979196 1.004767 1.0289981 0.99236995 0.97610074 0.996858
0.9682281 1.0039355 0.99070954 0.9906984 1.0477058 1.0065616 0.96225953 0.98077077
1.0136403 0.96075696 1.0490623 0.98394454 1.0203173 1.0259072 0.9711845 1.0507247
1.017965 1.0133325 1.0069469 1.0089127 0.96960235 0.97834605 0.99056375 0.9847868
1.0207789 0.9713129 1.0193228 0.94450134 1.003935 1.0095356 0.9680526 1.0209975
0.9921361 1.027022 0.9946672 1.0277325 0.9996326 0.9734102 0.99978065 1.0381043
00000000: ebda 823f a6db 7e3f c631 7c3f 4140 7e3f
00000010: e2ad 7b3f 1a36 843f c7e9 753f c45b 803f
00000020: 7b7e 833f 79a1 813f 3f90 7a3f 061b 7c3f
00000030: d9b0 7c3f 3bec 833f c34d 7c3f c994 773f
00000040: cfda 863f 2ebd 793f 97ac 7a3f 349c 803f
00000050: 36b6 833f f50b 7e3f bde1 793f 1632 7f3f
00000060: ccdd 773f f580 803f 249f 7d3f 699e 7d3f
00000070: 391b 863f 03d7 803f a456 763f cb13 7b3f
00000080: f7be 813f 2bf4 753f ac47 863f cae3 7b3f
00000090: c299 823f ed50 833f 8c9f 783f 267e 863f
000000a0: ad4c 823f e1b4 813f a3e3 803f 0d24 813f
000000b0: dc37 783f e374 7a3f 9695 7d3f fd1a 7c3f
000000c0: e2a8 823f f6a7 783f 2b79 823f d7ca 713f
000000d0: f180 803f 7638 813f 4cd2 773f 0cb0 823f
000000e0: a2fc 7d3f 7575 833f 82a2 7e3f bd8c 833f
000000f0: ece7 7f3f 6931 793f a0f1 7f3f 9ae0 843f

network.5.bias f4 [64]
0.038752932 -0.010894705 -0.026614923 -0.032281402 -0.047141664 -0.00851935 -0.037585936 0.00059025333
0.00030722696 0.022814497 -0.03093094 -0.041325994 0.003375039 -0.019228263 0.0062412866 -0.03496643
0.055848792 -0.015197891 -0.043239616 -0.004233758 0.0035342558 0.013596456 -0.0017631914 0.010004801
-0.025214233 0.016555192 -0.025110349 0.01689062 0.017458074 -0.05152742 -0.048349228 -0.0075764935
0.01534004 -0.014132591 -0.0040974645 -0.011355339 0.021833861 -0.0017136751 -0.05639761 0.042224225
0.008105856 0.028212678 -0.00969846 0.003238474 -0.01328575 -0.0034916168 -0.0027688723 -0.016870547
-0.01769852 -0.018554034 -0.0027396497 -0.04345645 0.0005336771 0.02957229 -0.03657426 -0.013076064
0.00067121204 0.020099241 -0.01152165 -0.012277303 0.008821618 -0.0144678615 0.011987947 0.017220344
00000000: 65bb 1e3d b47f 32bc 8a07 dabc 8139 04bd
00000010: 9e17 41bd be94 0bbc b6f3 19bd 3bbb 1a3a
00000020: 4e13 a139 78e5 ba3c e262 fdbc 7245 29bd
00000030: c22f 5d3b 9784 9dbc b583 cc3b f638 0fbd
00000040: b4c1 643d 9300 79bc 061c 31bd 56bb 8abb
00000050: f99e 673b abc3 5e3c e31a e7ba 2deb 233c
00000060: 148e cebc c19e 873c 38b4 cdbc 335e 8a3c
00000070: 3c04 8f3c 6a0e 53bd d709 46bd 3c44 f8bb
00000080: cb54 7b3c 628c 67bc 0644 86bb be0b 3abc
00000090: eddc b23c 659d e0ba 2e01 67bd 4ff3 2c3d
000000a0: 6dce 043c 461e e73c 4ae6 1ebc 943c 543b
000000b0: 79ac 59bc 9cd3 64bb f875 35bb 1a34 8abc
000000c0: 7dfc 90bc a1fe 97bc b28b 33bb 64ff 31bd
000000d0: 77e6 0b3a 9641 f23c e4ce 15bd fd3c 56bc
000000e0: 47f4 2f3a 2aa7 a43c 4dc5 3cbc be26 49bc
000000f0: 8c88 103c 9c0a 6dbc 1869 443c ae11 8d3c

network.5.running_mean f4 [64]
0.4128033 -0.36023566 -0.25358838 0.12790501 0.022670088 0.22713642 -0.53411585 0.58683705
-0.26221925 -0.55309266 0.26634076 -0.02299168 0.12751509 0.46776578 -0.22591127 0.13463603
-0.5401752 -0.15983847 -0.32532132 -0.31492165 0.11976437 -0.17301382 0.5032245 -0.27967077
0.1668727 -0.91482484 0.31723186 0.121961355 0.31136534 0.3772779 0.38205612 0.40150183
0.063801244 -0.22029905 0.8034936 -0.24903001 0.11171584 -0.61450106 0.16107075 -0.78850496
-0.028660612 0.082985476 0.2659355 0.52191937 -0.2185206 0.23260258 -0.15719047 0.16876857
0.26315874 0.44919077 -0.40837404 -0.28638434 0.21926339 -0.5552665 0.034972608 0.16285598
0.3561719 0.29715174 -0.024187015 -0.115791254 -0.32156277 0.21595919 0.21268281 0.42038223
00000000: f45a d33e cf70 b8be 56d6 81be 88f9 023e
00000010: 9fb6 b93c 7396 683e d1bb 08bf f43a 163f
00000020: 9a41 86be 7b97 0dbf d15d 883e 0c59 bcbc
00000030: 5193 023e ff7e ef3e 4955 67be 07de 093e
00000040: ec48 0abf b2ac 23be 8490 a6be 693d a1be
00000050: 0647 f53d 892a 31be 52d3 003f 0231 8fbe
00000060: ade0 2a3e f631 6abf 376c a23e e0c6 f93d
00000070: 476b 9f3e 922a c13e dc9c c33e a691 cd3e
00000080: 3aaa 823d 1396 61be c2b1 4d3f b901 7fbe
00000090: 46cb e43d f14f 1dbf bbef 243e 76db 49bf
000000a0: a9c9 eabc 4af4 a93d b328 883e 829c 053f
000000b0: ddc3 5fbe 5f2f 6e3e 8af6 20be abd1 2c3e
000000c0: bebc 863e 55fc e53e 6716 d1be f8a0 92be
000000d0: 9586 603e f225 0ebf 703f 0f3d b8c3 263e
000000e0: 2a5c b63e 4624 983e d923 c6bc f723 edbd
000000f0: e0a3 a4be 6824 5d3e 86c9 593e 573c d73e

network.5.running_var f4 [64]
0.6185207 0.29474536 0.38947827 0.3029971 0.27534175 0.61033887 0.206052 0.4637699
0.3466573 0.30425906 0.30248615 0.2553221 0.47746617 0.28552604 0.27880058 0.29893085
0.399298 0.57100993 0.31669676 0.26120672 0.47051176 0.2605191 0.362988 0.35636267
0.30819434 0.46141714 0.33801648 0.36550832 0.51129544 0.5870636 0.31444424 0.44392344
0.41221914 0.48867366 0.35522142 0.25882965 0.41740686 0.4139248 0.37599424 0.38934338
0.44951218 0.4192027 0.36271995 0.28278735 0.24488357 0.51649165 0.45007414 0.34227505
0.27727288 0.2544573 0.29021218 0.32042444 0.37411848 0.38002047 0.3199688 0.338097
0.21809123 0.3573746 0.29095533 0.24476238 0.47664124 0.30173203 0.47301814 0.4138163
00000000: 5f57 1e3f dde8 963e b269 c73e 7022 9b3e
00000010: 98f9 8c3e 2b3f 1c3f 4cff 523e 4073 ed3e
00000020: 117d b13e d8c7 9b3e 77df 9a3e 94b9 823e
00000030: 7276 f43e 7830 923e f3be 8e3e 770d 993e
00000040: ca70 cc3e b52d 123f 1426 a23e e3bc 853e
00000050: ebe6 f03e c262 853e 90d9 b93e 2b75 b63e
00000060: a6cb 9d3e de3e ec3e 7f10 ad3e e823 bb3e
00000070: 42e4 023f cd49 163f d6fe a03e ef49 e33e
00000080: 630e d33e 6f33 fa3e 95df b53e 5285 843e
00000090: 5ab6 d53e f4ed d33e 5182 c03e 0458 c73e
000000a0: 7626 e63e bca1 d63e 6eb6 b93e 81c9 903e
000000b0: c2c2 7a3e cc38 043f 1e70 e63e ad3e af3e
000000c0: b6f6 8d3e 3a48 823e b196 943e ac0e a43e
000000d0: 758c bf3e 0b92 c23e f3d2 a33e 0d1b ad3e
000000e0: 4f53 5f3e cef9 b63e 19f8 943e fda2 7a3e
000000f0: 520a f43e 9f7c 9a3e 6f2f f23e bbdf d33e

network.8.weight f4 [32, 64]
-0.038549278 0.038255665 -0.1117894 -0.08811914 0.13945833 -0.057864174 -0.06873351 -0.081881404
0.15151303 0.0010365492 -0.0753909 -0.039175272 -0.09480449 -0.101253465 -0.10855143 0.083176345
0.061498504 0.09480412 0.0041941847 -0.010125472 -0.05589124 -0.08518527 -0.102734536 -0.062670484
0.0074894438 0.062045142 0.1010476 0.00674847 -0.05156449 -0.019965202 0.015400036 -0.011758914
-0.065369554 -0.06509538 -0.113871485 -0.1199248 -0.09633573 0.073740855 -0.066882305 0.075387426
-0.08286467 0.09416341 -0.09701899 0.04612465 -0.053459913 -0.026328886 -0.1299691 -0.12954533
-0.113062546 0.004248946 0.13960855 0.056221213 0.051545706 0.041552354 -0.07328426 -0.05734205
-0.028753916 -0.10777035 0.08402136 -0.03751244 -0.03344459 0.023737177 0.018773349 0.061989438
-0.093645066 0.12884812 -0.047259454 0.035817783 0.09920837 -0.021839367 -0.112047985 -0.114773795
0.11895304 -0.13294053 -0.028971974 0.11688013 -0.046288297 0.13033459 0.021820808 0.017642485
-0.017359171 0.013528853 0.08833107 -0.11514982 0.03959814 -0.059782643 0.120366745 0.119954914
-0.058971636 0.08039363 -0.011163344 0.060935862 -0.01791541 -0.07007059 0.05593316 0.08406281
0.1390317 0.077812634 -0.012176902 0.040221103 0.03579527 0.07287549 0.046161868 0.05176128
0.043070026 -0.07476245 -0.05349889 0.12853594 0.122954816 0.053100515 -0.083302304 0.085431516
0.05779872 -0.07765462 0.019990046 0.109460056 -0.07721626 -0.02657109 0.031489406 -0.016284568
0.094600596 0.16465369 0.112252235 -0.11326294 -0.017453885 0.13035992 0.0958543 -0.0013205793
0.042067274 0.083902314 -0.012977144 0.0498553 0.05520242 0.0123329265 -0.044459198 -0.08134756
-0.11532148 -0.10295496 0.012002768 0.023306081 -0.052479677 0.045743477 0.07299103 0.0038920944
-0.070248805 0.08594608 0.037397828 -0.0073815654 0.1168318 -0.10641265 0.05944048 0.03053412
0.01977314 -0.061469942 0.12535858 0.003838064 -0.10149413 0.058317456 0.037010375 -0.06227963
0.11787588 0.07821786 0.05607653 -0.042455018 -0.06608081 -0.099817425 0.09487459 0.062374376
-0.070416644 0.092220195 0.047283508 -0.04573403 -0.043497086 -0.09843701 -0.12541361 0.12504943
-0.0079495795 0.02273466 -0.104607105 -0.065911956 -0.011211972 -0.008926651 -0.091852866 -0.026177468
-0.097827345 -0.061221343 -0.022367548 -0.031157752 -0.05797991 0.06181851 -0.026220404 0.037141323
0.09601098 0.017822754 -0.116207734 -0.022920001 0.07718197 0.022342596 0.029641286 0.11839444
-0.0071250377 0.011951699 0.0066552702 -0.0022493657 0.11427916 -0.17031129 0.053625084 0.11599525
-0.072880946 0.1304303 -0.09305057 0.02591233 -0.10505476 0.025566537 0.033939123 0.024852479
-0.031656977 -0.011366304 -0.11816161 0.056816723 0.17587031 -0.06790739 -0.03871568 0.04560194
0.030924352 0.04748563 0.06703244 0.003083896 -0.027178418 -0.05899559 -0.113895476 -0.0995182
0.06879363 0.08417743 0.10956709 0.12466102 0.001982126 0.07864483 0.06969574 -0.068268515
-0.0427626 -0.11526785 0.11162661 0.03495975 0.12499702 -0.025101013 0.04618499 0.084141344
0.010188217 -0.026128646 0.089679606 -0.013661685 0.10395671 0.008940787 -0.02643009 -0.085778095
00000000: d9e5 1dbd f9b1 1c3d d7f1 e4bd cf77 b4bd
00000010: 2ace 0e3e fc02 6dbd 28c4 8cbd 70b1 a7bd
00000020: 3b26 1b3e d2dc 873a 8b66 9abd 4076 20bd
00000030: db28 c2bd fa5d cfbd 3650 debd 5c58 aa3d
00000040: dbe5 7b3d aa28 c23d 5f6f 893b 4fe5 25bc
00000050: 36ee 64bd 9d75 aebd 7c66 d2bd 6259 80bd
00000060: 026a f53b 0c23 7e3d 0bf2 ce3d 4522 dd3b
00000070: 4935 53bd 108e a3bc 6f50 7c3c 76a8 40bc
00000080: 79e0 85bd ba50 85bd 7435 e9bd 229b f5bd
00000090: ab4b c5bd 7205 973d 97f9 88bd b964 9a3d
000000a0: f4b4 a9bd bfd8 c03d e4b1 c6bd 33ed 3c3d
000000b0: c8f8 5abd adaf d7bc 9f16 05be 88a7 04be
000000c0: 568d e7bd be3a 8b3b 8bf5 0e3e 3748 663d
000000d0: 9721 533d cd32 2a3d 0f16 96bd 7fdf 6abd
000000e0: 558d ebbc b4b6 dcbd 6413 ac3d a5a6 19bd
000000f0: 32fd 08bd 7874 c23c 91ca 993c a3e8 7d3d
00000100: fcc8 bfbd c3f0 033e 2193 41bd abb5 123d
00000110: c22d cb3d 79e8 b2bc 6a79 e5bd 860e ebbd
00000120: a79d f33d 9021 08be a256 edbc d95e ef3d
00000130: cc98 3dbd 6e76 053e 8dc1 b23c f986 903c
00000140: d234 8ebc 1fa8 5d3c ece6 b43d abd3 ebbd
00000150: a931 223d a5de 74bd d782 f63d ecaa f53d
00000160: 3e8c 71bd 6aa5 a43d 75e6 36bc e297 793d
00000170: 57c3 92bc 2b81 8fbd 2b1a 653d 1f29 ac3d
00000180: 535e 0e3e 3b5c 9f3d a181 47bc e2be 243d
00000190: 109e 123d bf3f 953d 3a14 3d3d a303 543d
000001a0: 326a 303d 0e1d 99bd a721 5bbd ed9e 033e
000001b0: bccf fb3d ed7f 593d 669a aabd b8f6 ae3d
000001c0: 5abe 6c3d 6309 9fbd 2ac2 a33c 982c e03d
000001d0: 8f23 9ebd 9dab d9bc 09fb 003d 3767 85bc
000001e0: f5bd c13d fa9a 283e 80e4 e53d 66f6 e7bd
000001f0: 73fb 8ebc 127d 053e 424f c43d 4a17 adba
00000200: bc4e 2c3d fad4 ab3d 169e 54bc 1235 4c3d
00000210: ef1b 623d 0b10 4a3c d91a 36bd 8d99 a6bd
00000220: ab2d ecbd 0dda d2bd 42a7 443c 65ec be3c
00000230: eef4 56bd 835d 3b3d 527c 953d 8212 7f3b
00000240: 9bde 8fbd 8004 b03d 772e 193d 0fe1 f1bb
00000250: 8345 ef3d e0ee d9bd dc77 733d b122 fa3c
00000260: 48fb a13c e8c7 7bbd 005e 003e 0788 7b3b
00000270: 28dc cfbd 49de 6e3d 3198 173d ed18 7fbd
00000280: e968 f13d af30 a03d 81b0 653d 50e5 2dbd
00000290: 6055 87bd 146d ccbd 9c4d c23d 467c 7f3d
000002a0: 9a36 90bd f1dd bc3d 5aac 413d 9b53 3bbd
000002b0: 002a 32bd 5899 c9bd 6d6c 00be f50c 003e
000002c0: f43e 02bc 0a3e ba3c 403c d6bd d9fc 86bd
000002d0: 6bb2 37bc 1741 12bc 5b1d bcbd 2172 d6bc
000002e0: b459 c8bd 3bc3 7abd 263c b7bc 8b3e ffbc
000002f0: 587c 6dbd 6835 7d3d 2ccc d6bc 8021 183d
00000300: 68a1 c43d 0601 923c 52fe edbd bac2 bbbc
00000310: 9511 9e3d d207 b73c 48d2 f23c c978 f23d
00000320: 2679 e9bb 0fd1 433c 7414 da3b 186a 13bb
00000330: 310b ea3d 1566 2ebe faa5 5b3d eb8e ed3d
00000340: 9b42 95bd 858f 053e 4c91 bebd 1846 d43c
00000350: f326 d7bd ea70 d13c c003 0b3d 6d97 cb3c
00000360: bfaa 01bd bc39 3abc b7fe f1bd a7b8 683d
00000370: 5917 343e 0813 8bbd 5594 1ebd 1ac9 3a3d
00000380: 1155 fd3c 4b80 423d 4e48 893d 301b 4a3b
00000390: 46a5 debc 5ca5 71bd 0842 e9bd 33d0 cbbd
000003a0: ade3 8c3d 3765 ac3d b664 e03d 474e ff3d
000003b0: 8ee6 013b 8a10 a13d a4bc 8e3d 5dd0 8bbd
000003c0: d627 2fbd 8d11 ecbd 7e9c e43d f431 0f3d
000003d0: 70fe ff3d a4a0 cdbc 792c 3d3d 4c52 ac3d
000003e0: 7bec 263c be0b d6bc f1a9 b73d 43d5 5fbc
000003f0: 41e7 d43d 617c 123c eb83 d8bc 6dac afbd

network.8.bias f4 [32]
0.05262426 -0.06921951 -0.0050413255 0.028707292 -0.049806844 -0.07032538 0.03558534 0.09885964
0.097451344 0.039923403 0.008615121 0.055800498 -0.039697 0.098818265 0.06650745 -0.12373022
0.11133529 0.0051365783 -0.094551004 -0.045051157 0.12065615 -0.105197065 0.034563925 -0.04273224
-0.09867325 0.04686311 0.0757935 0.12392626 -0.103424266 0.060792647 0.088523015 -0.004441786
00000000: 898c 573d f5c2 8dbd b431 a5bb 8e2b eb3c
00000010: 4302 4cbd c106 90bd efc1 113d ec76 ca3d
00000020: 9294 c73d b986 233d 7026 0d3c 108f 643d
00000030: 5299 22bd 3b61 ca3d 0f35 883d 4566 fdbd
00000040: c203 e43d be50 a83b f5a3 c1bd 9087 38bd
00000050: 921a f73d 8f71 d7bd e792 0d3d 0008 2fbd
00000060: 3315 cabd 88f3 3f3d 9f39 9b3d 0dcd fd3d
00000070: 1ad0 d3bd b601 793d 8e4b b53d 678c 91bb

network.9.weight f4 [32]
1.0378585 1.003277 1.0221714 1.0192205 0.972177 0.9841988 0.9829504 1.0102068
0.98386616 1.026846 1.0474716 1.0250555 1.017396 0.99451274 0.9547083 0.9853578
0.9816209 1.0024012 0.99731255 1.0526884 0.98294395 0.9664193 0.9747604 1.022722
0.97394514 0.999208 1.0064794 1.0118018 0.9956405 0.98897153 0.98219514 0.9938988
00000000: 8cd8 843f 616b 803f 83d6 823f d175 823f
00000010: 98e0 783f 74f4 7b3f a3a2 7b3f 754e 813f
00000020: a7de 7b3f b16f 833f 8d13 863f 0535 833f
00000030: 083a 823f 6398 7e3f c367 743f 6940 7c3f
00000040: 824b 7b3f af4e 803f e04f 7f3f 7ebe 863f
00000050: 37a2 7b3f 4167 773f e689 793f 8ee8 823f
00000060: 7854 793f 18cc 7f3f 51d4 803f b982 813f
00000070: 4ce2 7e3f 3d2d 7d3f 2471 7b3f 2770 7e3f

network.9.bias f4 [32]
0.036208052 -0.01740002 -0.025756028 0.017336708 -0.020792536 0.011725878 -0.02924838 0.039260354
-0.0020604937 0.039198592 0.072344795 0.03783833 -0.014613967 0.0010412879 -0.014465583 -0.011858792
-0.013207065 0.01835846 0.029885499 0.029482195 -0.027933592 -0.036857266 -0.027306162 0.012198555
-0.019436555 -0.03240268 0.017774595 0.039736036 0.013848588 0.01663501 0.009517269 0.0059478553
00000000: e54e 143d 7d8a 8ebc 4efe d2bc b605 8e3c
00000010: 1c55 aabc e61d 403c 4c9a efbc 77cf 203d
00000020: 5909 07bb b48e 203d 8229 943d 5dfc 1a3d
00000030: 6c6f 6fbc d37b 883a 0d01 6dbc 614b 42bc
00000040: 7262 58bc 7b64 963c 6fd2 f43c a584 f13c
00000050: fdd4 e4bc a5f7 16bd 2cb1 dfbc 73dc 473c
00000060: 6939 9fbc acb8 04bd 079c 913c 41c2 223d
00000070: 30e5 623c 2546 883c 52ee 1b3c 3ae6 c23b

network.9.running_mean f4 [32]
-0.42681462 0.5238103 -0.14353935 0.36378312 -0.27284762 -0.30772465 0.414787 -0.13316028
-0.361288 0.06751889 -0.21555878 0.043428447 -0.26942718 -0.17920694 0.06828267 -0.47472894
-0.26336545 0.22252813 -0.1421226 -0.41304454 0.21808645 -0.08812446 -0.09603794 -0.17698455
0.0991795 0.30594707 -0.29849643 -0.02989458 -0.38960454 0.21380386 -0.16067463 0.037580837
00000000: 7287 dabe 6f18 063f fbfb 12be c841 ba3e
00000010: afb2 8bbe 168e 9dbe f65e d43e 2b5b 08be
00000020: befa b8be 5847 8a3d 71bb 5cbe 07e2 313d
00000030: 5cf2 89be 0682 37be c9d7 8b3d ac0f f3be
00000040: d6d7 86be 6ade 633e 9688 11be 937a d3be
00000050: 0e52 5f3e 997a b4bd 8aaf c4bd 703b 35be
00000060: 9f1e cb3d 18a5 9c3e 86d4 98be 7ae5 f4bc
00000070: 3f7a c7be 66ef 5a3e e487 24be 5dee 193d

network.9.running_var f4 [32]
0.44566366 0.33575454 0.24607426 0.24236465 0.46342012 0.3579667 0.3656122 0.48736745
0.28381684 0.37350014 0.5531562 0.51203233 0.47571293 0.5097681 0.45848674 0.41136563
0.4339858 0.22660615 0.37168 0.41761073 0.24442254 0.387624 0.21056747 0.2763135
0.2929629 0.4031959 0.1746381 0.2706303 0.390875 0.3137351 0.4899572 0.32963148
00000000: 072e e43e 05e8 ab3e e4fa 7b3e 702e 783e
00000010: 6745 ed3e 6947 b73e 8631 bb3e 3a88 f93e
00000020: 7150 913e 693b bf3e a59b 0d3f 8d14 033f
00000030: a590 f33e 2a80 023f c6be ea3e 849e d23e
00000040: 6333 de3e 710b 683e d74c be3e 13d1 d53e
00000050: e749 7a3e a776 c63e 009f 573e f778 8d3e
00000060: 3cff 953e b16f ce3e 55d4 323e 0e90 8a3e
00000070: c520 c83e e3a1 a03e acdb fa3e 75c5 a83e
