ai-layer/model/results/1000/dnn_oud_risk_model.pth (torch, 65493 bytes, 25 tensors)

network.0.weight f4 [128, 11]
00000000: 0d28 383e 5c1e 1b3e f6df 27be f781 d9bd
00000010: 9528 403e 2613 f93d 2d2c cdbd b2b5 dfbd
00000020: 348f 143e a327 27be 5e99 5e3d ba3b 54be
00000030: ed5d f1bc 5e3a f73c afe1 093e 9101 6dbe
00000040: ef56 713e cf0c a03b 4ff0 203e cd1c 263e
00000050: d8a0 89be 9707 8b3e 6e43 37be 14e9 cd3d
00000060: 58ea 96be 2506 c93d 24d8 57be cc21 8abe
00000070: c965 d6bd 9662 74be f099 80be 1154 393e
00000080: 5fa9 973e a12e aabd 174a ccbd ce32 1abe
00000090: 5f5f 443c 8b38 f4bd 7449 5abe 8b95 cebb
000000a0: cff7 753e b60e 383e 79c0 5bbe 7ec0 f23d
000000b0: bbab 15be 7ed4 c2bd e3e6 7dbe 51ab 55be
000000c0: 69ec 24bb 92b6 5a3d 90ca 833e c0de 11be
000000d0: 3e88 5ebe 63ec 19be 6baa e5bd 4d50 fabd
000000e0: 360a 0dbe 15de 603e bb69 b93c 68c3 98be
000000f0: 923f 62bd bd36 693e 0053 6cbe 00a4 2c3d
00000100: 868b 85be b0e3 2f3e 610f 8f3d 7f17 383e
00000110: a9ce 943e 0c4d dd3d 001e 743e 74d0 25be
00000120: edab 8e3e 76c3 83be 9062 10bc febf 113d
00000130: 5a4f 4fbe df17 833d 8c98 7a3e 5ab7 743d
00000140: e431 003e f92b 1fbc 0482 623d 0f1b 1d3e
00000150: 851b 973e a303 dfbd bacf 39be c7e7 50bd
00000160: ca5f dcbd a7ef 40be ec81 3ebe dbc1 6dbe
00000170: 682d 22be ed61 823e 0829 8abe ed46 64be
00000180: 42d9 bc3d bbf6 60be 20d4 353e aee8 86bd
00000190: 8a4f db3d d1e4 d03d b34a 3e3e 1e6f 163e
000001a0: 0164 9bbe 66cb 873e ac7a b43d 6074 8ebe
000001b0: df0e 3fbe 5aae 183e 1f22 3ebe 733a 8c3e
000001c0: 031f 073e b2ba 7fbe 5ca4 f2bd 530d 40be
000001d0: f546 b9ba ff6a 6e3e 3b35 4abe d0c4 803e
000001e0: fc4a 813e 9132 c2bd 4863 333d 3b0b 093d
000001f0: e20b 563e 654c 6dbe 269c 6e3e 7d79 5e3e
00000200: 6de8 83be 3fa9 6fbd 98fe 6b3d ee2f 9e3d
00000210: dfd9 523e a0a7 f2bd 81fd c2bd 339b 21bc
00000220: d840 a8bd 59c9 063e 1447 3abe eb51 953c
00000230: 5dd1 893e 273e e0bd bbc6 cdbd dd24 85be
00000240: e12b f5bb e48f 6d3d a849 e7bd c849 a6bd
00000250: 64ff 823d 9bb0 ac3d 964f 763e 7e15 b0bc
00000260: 02a4 893e f9f8 993e a05d 1dbd b692 02bd
00000270: a988 13be 2151 133e ad5e c2bd 2b35 d9bd
00000280: de3b 6e3e 8654 34be f7db 26be ba7e 5b3e
00000290: 4011 e03d 329c 94be e634 7dbe fdc2 8ebb
000002a0: 59f7 3fbe aeb8 8a3e 7423 98bd 669c d3bd
000002b0: 24fa 763e 0193 87bd 870d 21be 4f5c 41be
000002c0: a98a 803e e185 593e 8734 1e3d 156b 6abd
000002d0: c0f9 f83d 67b0 cabc 310a 723d e665 47bc
000002e0: 94ad 823d f138 82be 004a 8fbe 9801 8bbe
000002f0: 0bf3 853e 9085 923e 173f 2b3c 2837 8bbe
00000300: 4d16 a0bd 62f2 20be 574d 3e3e 4cd3 90be
00000310: f09c b2bc e7d9 56be fcd8 843e ec79 423d
00000320: bca6 893e b04d 593e 8438 90be f8d3 903e
00000330: 3f4b 40be 18d8 50be 83e0 29bc 1281 f03d
00000340: 0e5f 5e3d f1c0 54bd 1181 5dbe a027 853e
00000350: 95eb f4bd 128e 1f3e e92f f43c f544 ab3d
00000360: b235 833e 4aaf 18be d44b 3bbe 105b 2b3e
00000370: 5911 213e 8f7e 723e a1d0 40bd caab 3c3e
00000380: c9bc 2bbe 849b c1bd 8e10 873b a709 65be
00000390: 891c 86be 496c b7bc badc ef3d 6f7c 403e
000003a0: ae95 9d3d 1dff 3e3e 2a04 0a3c ce0b 493d
000003b0: d494 01be 05ea cf3d 79a1 833e ec10 953b
000003c0: 8d43 9d3e 6818 053e 5a9b 573e aa83 2bbd
000003d0: 69cd 043d 6da5 823b 55fa 7fbe 26b9 963e
000003e0: ad00 6cbe c0ff e03d f7c3 933d 89fb d43d
000003f0: 40e5 87be f54a 4c3d 1b0f 7d3e b4a1 febd
0.17984028 0.151483 -0.16394028 -0.10620492 0.18765481 0.121618554 -0.100181915 -0.109233275
0.14507753 -0.16323714 0.05434548 -0.20725909 -0.029463733 0.030179199 0.13464998 -0.23145129
0.23568319 0.0048843394 0.1571667 0.16221924 -0.26880527 0.27154228 -0.17896816 0.10054222
-0.29475665 0.09815625 -0.21078545 -0.2697891 -0.10468633 -0.23865733 -0.25117445 0.18098475
0.29621407 -0.08309675 -0.09975069 -0.15058443 0.011985629 -0.11924847 -0.21317083 -0.006304448
0.24020313 0.17974362 -0.21460141 0.11853121 -0.14616291 -0.09513186 -0.24795108 -0.20866133
-0.0025165325 0.05339677 0.2574048 -0.14245129 -0.2173166 -0.1503158 -0.11214145 -0.122223474
-0.13773426 0.21959718 0.022633424 -0.29836583 -0.055236407 0.22774787 -0.23078537 0.04214859
-0.2608301 0.171767 0.06985355 0.17977713 0.2906392 0.10805711 0.23839569 -0.161928
0.27865544 -0.25735062 -0.008812562 0.03558349 -0.20245114 0.064010374 0.24472255 0.05974517
0.12519032 -0.009715074 0.055299774 0.15342353 0.29513183 -0.108893655 -0.18145648 -0.05100229
-0.10760458 -0.1884142 -0.18604249 -0.23218481 -0.15837634 0.25465336 -0.2698443 -0.22292681
0.09221126 -0.2196912 0.177567 -0.06587349 0.1070853 0.10199893 0.18583183 0.14690825
-0.30349734 0.26522368 0.0881246 -0.27823162 -0.18658017 0.1491026 -0.18567704 0.27388343
0.13195424 -0.24973562 -0.11847755 -0.18755083 -0.0014135527 0.23283003 -0.19746868 0.25150156
0.2525252 -0.09482301 0.043795854 0.033457976 0.2090297 -0.23173673 0.23301753 0.21726032
-0.25763264 -0.058511015 0.057615846 0.077239856 0.20590924 -0.11848378 -0.09521008 -0.0098636625
-0.08215493 0.13162746 -0.18191177 0.018227538 0.26917544 -0.109493546 -0.100476705 -0.26004687
-0.0074820374 0.057998553 -0.11293346 -0.081195414 0.06396368 0.08432122 0.24053797 -0.021494623
0.2688294 0.30072764 -0.038419366 -0.031878196 -0.144076 0.14386417 -0.09490714 -0.10605844
0.23265025 -0.17610368 -0.16294847 0.21435061 0.1094079 -0.29025418 -0.2472721 -0.0043567405
-0.187467 0.27094024 -0.07428637 -0.10332565 0.24118859 -0.06619836 -0.15727817 -0.18882869
0.2510579 0.21242477 0.038624313 -0.057231028 0.12157011 -0.024742318 0.05909175 -0.012170291
0.06380764 -0.25434068 -0.27986145 -0.27149653 0.2616199 0.28617525 0.0104520535 -0.27190518
-0.078167535 -0.15717462 0.1858419 -0.28286207 -0.02180335 -0.2098156 0.25946796 0.047479555
0.2688502 0.21221042 -0.28168118 0.2828672 -0.18778704 -0.20394933 -0.010368469 0.11743368
0.05428987 -0.051941816 -0.21631266 0.26006794 -0.11958996 0.1558154 0.029808002 0.08362762
0.25626904 -0.14910617 -0.18290645 0.16733956 0.15729274 0.23681091 -0.047073964 0.18424907
-0.16771235 -0.094534904 0.0041218465 -0.22366963 -0.26193646 -0.022390502 0.11712022 0.18797468
0.07694565 0.18652005 0.008423844 0.049083523 -0.1265443 0.101520576 0.2570913 0.0045491364
0.307156 0.12997591 0.21055356 -0.04187361 0.032422457 0.0039870054 -0.24997838 0.29438132
-0.23047133 0.109862804 0.07215112 0.10399539 -0.2654209 0.049876172 0.24712794 -0.12433186

network.0.bias f4 [128]
00000000: 2d5c 6abe afe9 65be e65c 953d b968 603e
00000010: 939f ef3d 28b0 62bc ca0c 7a3e 997d 863e
00000020: 90d7 bf3c e873 cf3d 366b a5bd b08a 563d
00000030: e801 653e 418c 65be 5864 ae3d ad6e c8bb
00000040: f905 7cbd cfa1 74be 6c4c c4bd 4cf9 aa3d
00000050: 5ca9 6a3d 5f96 88be abd3 40be b08f 873b
00000060: a18c 8b3e 55ae d43c f8e8 92bd 55c0 93be
00000070: 21d6 833d 8e79 90be 82d8 97be e620 2c3e
00000080: 2b03 d7bd 71a7 6c3d cf3f ed3c 7b18 4c3e
00000090: 016f 573e c3c2 eabd 3743 3fbe 556c e2bd
000000a0: c956 5c3c 92e6 4fbe 6689 9f3d b898 3f3e
000000b0: 68aa 383e 6449 4e3b 3a66 843d 9638 b93c
000000c0: 9ca2 7d3e 2b1a ec3d 925c 85be 7d32 34bd
000000d0: f000 553e bad8 81bc 1e73 5d3e 6b14 27be
000000e0: 299f 2d3d 1bd9 73be 7195 cdbd 2700 363e
000000f0: 3200 61be a999 a63c 1b4f 0dbe 223b 823d
00000100: b774 6dbe 55ee 123d 8002 413c 830b 41be
00000110: 01fe 9abd 90c6 68be 19b5 c53d ed1e d73c
00000120: c9bc a93d 0184 3b3e 262b bcbd 8f22 403e
00000130: b1c0 bdbd 856d d13d 3958 30bc 8867 d03b
00000140: 4f52 98bd f03a 9b3d 0426 7a3e ca02 303e
00000150: b3a5 723e efd4 97bd 38ca c2bd 7089 1c3e
00000160: 9844 8c3e e116 8c3e c8b1 963e 3185 783e
00000170: b680 723e 3a78 87be a588 723e 1e16 09bd
00000180: 3192 8ebe 6bad 59be 4917 66be b535 bdbd
00000190: cf48 7b3e 57c2 953e 94e5 a83d d36d 183e
000001a0: 87b0 0fbe 8f6c 36bd 127c 34be efa9 943e
000001b0: 3b7c 40bd b856 4f3e efa0 9abd 2331 563e
000001c0: 8aa9 e9bd 525f 033e 1a1e e1bd 96cb 89be
000001d0: ec61 6e3d 6332 843d 2cbc 573e 9df9 5c3e
000001e0: 4d3c 04be 9baa 4cbe 8c75 723e 3ab5 46be
000001f0: 59bf ddbc 171c 933d f56b c13d 4ae2 97be
-0.22886725 -0.22452424 0.072931096 0.21914949 0.11700358 -0.013835944 0.24418941 0.26267698
0.023418218 0.10129529 -0.080770895 0.052378356 0.22364008 -0.22416784 0.08515233 -0.006116709
-0.061529133 -0.2388985 -0.09584889 0.08348331 0.05729042 -0.26677224 -0.18830745 0.004137002
0.2725573 0.025962034 -0.071733415 -0.28857675 0.06437326 -0.2821774 -0.2965737 0.16809425
-0.10498651 0.057776872 0.02896109 0.19931214 0.21038438 -0.11462929 -0.18677984 -0.11055819
0.013448426 -0.203028 0.077898785 0.18710601 0.18033755 0.003147685 0.06464811 0.02260999
0.24769062 0.11528429 -0.26047188 -0.043993462 0.20801139 -0.015850414 0.21625945 -0.16316383
0.042388115 -0.23813288 -0.10038269 0.17773496 -0.21972731 0.020336943 -0.13799708 0.06358935
-0.23189054 0.035871822 0.011780381 -0.18852048 -0.07567979 -0.22731996 0.09653682 0.026259864
0.08287961 0.18312074 -0.091879174 0.18763183 -0.092652686 0.10225967 -0.010763221 0.006359998
-0.07437574 0.07579601 0.24428564 0.17188564 0.23696022 -0.07413661 -0.095112264 0.15286803
0.27396083 0.27361205 0.2943251 0.24269558 0.23681912 -0.26458913 0.23684938 -0.03346836
-0.2784591 -0.2125756 -0.2246982 -0.092387594 0.24539493 0.29249832 0.082469136 0.14885645
-0.14032184 -0.044537123 -0.17625454 0.290359 -0.046993475 0.20247924 -0.07550227 0.20917182
-0.1140929 0.1282933 -0.109920695 -0.26913136 0.058198854 0.06454923 0.21067876 0.21579595
-0.12913628 -0.19986956 0.23677653 -0.1940507 -0.02706878 0.07183092 0.09444419 -0.29664832

network.1.weight f4 [128]
00000000: 1afd 7f3f c30e 803f b94b 803f 0ea2 803f
00000010: 3c43 803f e8a8 7f3f 679d 803f 4ba2 803f
00000020: 9852 803f 904e 7f3f cf0a 803f 5a4b 803f
00000030: 7b4c 7f3f c9b0 803f 41c0 7e3f e8e6 7e3f
00000040: 0007 803f 10d8 7e3f c8db 7f3f c920 803f
00000050: 376e 803f d3b3 7f3f 00ab 7f3f 24f9 7e3f
00000060: 9def 7e3f cd27 803f b073 7f3f 9968 7f3f
00000070: d8d7 7f3f 6a2a 7f3f a527 813f b282 803f
00000080: dc3c 803f fb25 803f 177f 803f b55a 7f3f
00000090: afa1 7e3f 5a4e 7f3f ae53 7f3f feb2 7e3f
000000a0: 0d3f 803f 0954 803f 7427 7f3f 520e 803f
000000b0: 978a 7f3f cefe 7f3f e614 7f3f a750 803f
000000c0: 194d 7f3f 61d3 7e3f ad78 803f e371 7e3f
000000d0: 92b4 7f3f 318f 7f3f 8a06 803f a11c 803f
000000e0: 14b2 803f ff73 813f 245d 7e3f eef8 803f
000000f0: 5d1f 7f3f 7e03 803f 175b 803f eba0 7f3f
00000100: 5b16 803f 24aa 7d3f b462 803f f58b 7f3f
00000110: 34ad 803f 6247 803f b5e6 803f c281 803f
00000120: 3b29 7f3f 7c1e 803f 567e 7f3f ea18 803f
00000130: c05b 803f d9c5 7f3f b67b 7f3f cbe0 7f3f
00000140: 161c 803f f091 803f d00e 803f ba9d 7d3f
00000150: 1e58 7f3f 5d08 813f 5d6c 7f3f 6051 803f
00000160: 65eb 7f3f b38b 803f 7454 7e3f ce01 7f3f
00000170: 8843 803f a889 803f ed32 803f c7f7 7f3f
00000180: 907a 803f ae66 7f3f c092 803f 5b15 803f
00000190: e8a3 803f 0066 7e3f 4942 813f c123 803f
000001a0: c0c8 7e3f 8cc5 7f3f b197 7d3f 97d8 803f
000001b0: 4d18 7f3f b370 803f c701 803f 77b3 7e3f
000001c0: b49b 7e3f 890c 7f3f 330b 803f de54 803f
000001d0: b643 803f 5b8a 803f 7752 803f f486 803f
000001e0: a540 803f 0098 7f3f 8b75 803f 6ff6 7f3f
000001f0: 54ae 803f c9a2 7f3f f2f2 7e3f e635 7e3f
0.9999558 1.0004505 1.0023109 1.0049455 1.0020518 0.99867105 1.0048035 1.0049528
1.0025206 0.9972925 1.0003299 1.0022995 0.99726075 1.005395 0.99512106 0.99571085
1.0002136 0.99548435 0.99944735 1.0010005 1.0033635 0.99883765 0.998703 0.9959891
0.9958437 1.0012146 0.997859 0.9976898 0.99938726 0.99674094 1.0090224 1.0039885
1.0018573 1.0011591 1.0038785 0.9974778 0.9946546 0.9972893 0.9973706 0.9949187
1.0019242 1.0025645 0.99669576 1.000437 0.99820846 0.99998176 0.99641263 1.0024613
0.99727017 0.9954129 1.0036827 0.9939253 0.99884903 0.9982787 1.0001996 1.0008737
1.0054345 1.0113524 0.9936087 1.0075967 0.9965723 1.0001066 1.0027798 0.99854916
1.0006822 0.9908774 1.0030122 0.9982293 1.0052857 1.0021784 1.0070406 1.0039599
0.9967229 1.0009303 0.9980215 1.0007603 1.0028 0.99911267 0.9979814 0.9995238
1.0008571 1.0044537 1.000452 0.99068797 0.9974383 1.0080677 0.99774724 1.0024834
0.9996856 1.0042633 0.99347615 0.9961213 1.0020609 1.0042009 1.0015541 0.99987453
1.0037403 0.9976605 1.0044785 1.0006517 1.005002 0.9937439 1.0098354 1.0010911
0.9952507 0.9991081 0.9905959 1.0066098 0.99646455 1.0034393 1.0000542 0.9949259
0.99456334 0.996285 1.0003418 1.00259 1.0020664 1.0042223 1.0025166 1.0041184
1.0019728 0.9984131 1.0035871 0.999854 1.0053201 0.99857765 0.99589455 0.9930099

network.1.bias f4 [128]
00000000: d7c2 123b 2bf9 673b 4fb4 0b3b 4967 d33b
00000010: c755 563a 2ca2 e1b9 ff7b bebb 50c4 fa3a
00000020: e13a e4b9 8a08 0cbb 8e0f 36bb 5396 753b
00000030: 7c67 a9bb 8fc8 3dba e1e1 7abb 4713 8cbb
00000040: 2837 8aba 4872 8fbb 8141 6ab8 c2db 053c
00000050: 1803 51ba 11fa 7dbb 2388 e7b8 20f6 20bb
00000060: 4f55 0aba 968d 993b 3751 28bb 9f88 6ebb
00000070: c580 9bb9 1b5a c93a 827b c03b e6bb 0c3b
00000080: b28c 773b ddfa 2c3b 4896 933b e0f1 4fba
00000090: ec3d adba d4cf b83a fbd8 b5bb ec96 bebb
000000a0: 0127 4a3b ac8f 143b 7693 85bb 9b1c 3cbb
000000b0: 12e0 91ba e468 45b9 10cb 9e39 c683 0a3b
000000c0: afc0 b1ba 8b8a 4dbb 04bf 1c3b 7fa0 28bb
000000d0: dd6f 8bbb 5d28 4eba 3c2b abb9 f4b4 65ba
000000e0: 1ea9 ae3b 0231 ab3b e011 a3bb e2c5 983b
000000f0: 4541 41bb 3985 ecba 4560 08bb 995c 50ba
00000100: 3274 7b3a cffe cebb d7d4 0d3b 83ae 0e3b
00000110: 9a95 213c 40e6 68b9 6404 c93b c8b9 5d3b
00000120: ad95 a5bb ed75 643a 640f cab9 b49c 823b
00000130: 0edc 383b 025f 6bb9 ccb2 06bb a828 04bb
00000140: bec4 543b 689f 293b ff14 a138 1635 2abb
00000150: 23dc 4fbb 352c f43b 0dcf 96bb c09d f83a
00000160: 97cb 8ebb 9fa6 3f3b b431 0dbc 1148 293b
00000170: d4e3 5b3b 2710 db3b d918 933b ec4c 80b8
00000180: 6b58 b83b 6089 22ba 90ea 2b3b 2cc5 28bb
00000190: 4011 b83b 25a0 ebbb c2b5 b83a d889 b8b9
000001a0: a15f 47ba da21 ecba c995 debb 1316 113c
000001b0: 025e 5cba eb00 15bb 13c3 fd39 1791 bcba
000001c0: b3c0 07bc 053a 63bb 5626 b939 f356 9e3b
000001d0: a9d0 f83a ed09 f739 8125 213b 43da 723b
000001e0: e12d bb3b 974e 1539 adfc 3938 fc8b bfba
000001f0: 859c 1b3b 7a44 27bb f84c 85bb 5230 b8bb
0.0022393966 0.0035396318 0.002131719 0.0064515215 0.0008176234 -0.00043036172 -0.0058131213 0.0019131992
-0.00043531417 -0.0021367394 -0.0027780267 0.0037473633 -0.005169807 -0.00072396634 -0.0038281607 -0.004274759
-0.0010545002 -0.004377637 -5.5850953e-05 0.00817007 -0.0007973178 -0.0038753788 -0.00011040296 -0.0024560764
-0.0005276994 0.004686068 -0.0025683173 -0.003639735 -0.00029659845 0.0015361937 0.0058740983 0.00214743
0.003777307 0.0026394643 0.004503999 -0.00079324655 -0.0013217307 0.0014100024 -0.0055495477 -0.005816331
0.0030846002 0.0022668643 -0.0040764166 -0.0028703574 -0.00111294 -0.00018826459 0.00030287402 0.0021135672
-0.0013561453 -0.0031363096 0.0023917565 -0.0025730429 -0.0042552785 -0.0007864291 -0.00032647874 -0.0008762621
0.005330219 0.005224348 -0.004976496 0.0046622613 -0.0029488367 -0.0018045075 -0.0020809334 -0.00079483684
0.00095922046 -0.0063169966 0.0021641755 0.0021771498 0.009862328 -0.00022211019 0.0061345566 0.0033832658
-0.005053243 0.0008715082 -0.0003853991 0.0039859656 0.0028207335 -0.0002244674 -0.0020553349 -0.0020165835
0.00324659 0.0025882367 7.680989e-05 -0.0025971583 -0.0031716905 0.007451559 -0.004602319 0.0018967912
-0.004357766 0.00292436 -0.008617807 0.0025830308 0.0033552544 0.006685275 0.004489046 -6.1178434e-05
0.0056257746 -0.000620028 0.002623234 -0.002575229 0.0056172907 -0.0071907216 0.0014092254 -0.00035197916
-0.00076054974 -0.001801546 -0.006792758 0.008855361 -0.0008406342 -0.0022736143 0.00048401262 -0.0014386502
-0.008285689 -0.0034672034 0.00035314512 0.0048321425 0.0018983084 0.00047118907 0.0024589004 0.0037056364
0.0057122563 0.00014239024 4.434276e-05 -0.0014613862 0.0023744416 -0.0025522993 -0.0040680133 -0.0056209946

network.1.running_mean f4 [128]
00000000: c29a 6abe 1709 6cbe 7314 aa3d 7503 5d3e
00000010: 1531 fb3d f550 15bc 6d75 7f3e d7ce 833e
00000020: e46e f73c ba20 c43d 8ab9 b4bd 5e95 683d
00000030: 4264 673e 2cce 75be 9307 af3d 1989 fcbb
00000040: edbb 60bd f7c2 65be 7577 babd b978 883d
00000050: 892f 883d c637 91be b871 3bbe 1623 8b3b
00000060: 8903 873e e1d9 ec3c 88cc 86bd f63e 8ebe
00000070: 95d1 843d 32ff 97be a3f4 96be 2b4a 303e
00000080: 2c19 cebd 76ef 5a3d d74a dd3c cb12 473e
00000090: 63bb 523e 30e5 e2bd f778 3cbe 7b63 e8bd
000000a0: ce32 9f3c 72fb 57be c2d0 a73d c116 423e
000000b0: 3e5c 343e 8368 0d3c 70df 513d 5f2b bd3c
000000c0: d461 7b3e 38c0 f43d 58fc 89be 65a5 33bd
000000d0: 91d7 543e eedf 0ebd 05ae 5d3e f848 2ebe
000000e0: 9925 5c3d d470 81be c530 edbd 5629 383e
000000f0: 04ef 58be 9273 f33c fb4d f1bd 6fce 973d
00000100: cc42 74be 843b 803c 0040 073d 1029 4fbe
00000110: 2484 85bd 5036 63be 5f37 b73d 11fc be3c
00000120: d0fa b53d 43ed 393e c3fa abbd 0aae 443e
00000130: 7b67 b2bd 6c41 ea3d 2c1a 74bc 3457 5e3c
00000140: f7e2 8fbd 9832 b83d 30ca 733e 25ad 2b3e
00000150: 9d72 643e 7c15 5fbd e4f6 9fbd 8224 263e
00000160: 7d3c 8b3e 40f9 953e bce5 983e 0e44 7f3e
00000170: d24e 6f3e 5723 80be 20eb 663e 64f0 ebbc
00000180: 4549 8dbe ea0a 55be ec9c 65be 8b65 b4bd
00000190: e7be 743e 86e8 923e 014c 953d bf67 1c3e
000001a0: e0ac 1bbe acd1 48bd e07e 1cbe 7811 973e
000001b0: 769b 65bd 150d 523e 8fb7 a0bd c618 633e
000001c0: c81c ecbd 05bf 073e d0f2 e1bd be3d 88be
000001d0: 964c 843d 24f6 823d 108c 523e 23c1 6a3e
000001e0: 789e f0bd 1e07 46be 56f7 763e fa68 44be
000001f0: 26c8 d3bc 3f68 7f3d 5244 aa3d d588 9abe
-0.22910598 -0.23050343 0.08304682 0.2158335 0.12265221 -0.00911354 0.24947138 0.25743744
0.030204244 0.095765546 -0.08824451 0.056783073 0.22596839 -0.2400443 0.085463665 -0.007706773
-0.05486672 -0.22437654 -0.09104816 0.06663651 0.066496916 -0.28362864 -0.18305099 0.004246126
0.26369885 0.028912487 -0.0658198 -0.2778241 0.06485287 -0.29686886 -0.29483518 0.17215793
-0.10063395 0.053451024 0.027013225 0.19440763 0.20579295 -0.1107887 -0.1840552 -0.113470994
0.019433405 -0.21092013 0.08194114 0.18953992 0.17613313 0.008630875 0.051238477 0.02309197
0.24549037 0.11950725 -0.26950336 -0.043858904 0.20785357 -0.034881525 0.21648414 -0.17020023
0.053746793 -0.25281394 -0.11581568 0.17984518 -0.21184927 0.029718194 -0.11782452 0.07412421
-0.23853606 0.01565338 0.03302002 -0.20230508 -0.065193444 -0.22188687 0.08946108 0.023313554
0.08885729 0.18156914 -0.083974384 0.19207016 -0.087111436 0.114382595 -0.014898818 0.0135705955
-0.07025712 0.08994025 0.23807597 0.16765268 0.22309346 -0.05446385 -0.078107625 0.16224864
0.27194586 0.29291725 0.29862773 0.24928305 0.23369911 -0.25026962 0.2255063 -0.02880115
-0.27594963 -0.20804945 -0.22423142 -0.0880843 0.23900948 0.28693026 0.07289887 0.15273951
-0.15202665 -0.049028084 -0.15282774 0.29505515 -0.056056462 0.20512803 -0.07847511 0.22177419
-0.11528927 0.13256462 -0.11032641 -0.26609606 0.0645992 0.06394604 0.20561242 0.22925238
-0.117489755 -0.19338652 0.24117789 -0.1918067 -0.025852274 0.062355276 0.08313812 -0.3018252

network.1.running_var f4 [128]
00000000: 5678 2a3e 44cf 803e ab9e 653f a564 173e
00000010: 226e 573f 64d8 003f 86b4 993e e278 933e
00000020: e30c 163f cf22 6f3e 711b 953e 7543 0e3e
00000030: 9bf9 303e b4e0 623e 872b 763e 3547 853e
00000040: 8044 6f3e e94a af3e 23e3 c23e e252 493e
00000050: 3538 533e c483 123f 8512 993e 8bf1 973e
00000060: e690 bd3e 0e89 b03e fc76 e13e f794 593e
00000070: 5254 ed3e b8ad 093f e8fe 293e da43 133f
00000080: 432f f33e c76f 1a3f 0e6e 043e 6f56 753e
00000090: f7bf 2b3f 9d0b b73e 219f 463e 93f1 f73d
000000a0: 4181 013f ad52 ae3e 1abd 973e f03a 9d3e
000000b0: d8f6 093e 7f28 6e3e 3af5 c13e 891b 453e
000000c0: 0dde cf3d bf17 923e 0be3 633e b8b6 2b3f
000000d0: a89f 773e 7ee4 053f 90f6 bf3e 4ce8 6e3e
000000e0: c8ea 7a3f 5cae 8b3e 3335 933e 4d2b 073e
000000f0: 1bbe dd3e c213 ad3e 9fcd aa3e a27e 2a3e
00000100: ab88 a83e bf55 c63e 6bc0 833f e60b 043f
00000110: 1f2d bc3e 73c7 4a3e 16b6 dd3e ec66 b43e
00000120: 985a b53e 8505 fd3e 2f0d ab3e 556f 263e
00000130: cde1 a63e c72d b63e 37dc ff3d c645 313e
00000140: 72ba 433e b066 1c3f 1227 863e cffe 663e
00000150: ff30 433f 735b 913f 1dfe 493f 2775 513e
00000160: 5f0d 003e 7f9e 053f f1a7 c73d fc7c a63e
00000170: 9490 a13f f6d0 3e3e 1334 673e 6978 733e
00000180: 04d1 9c3e e78f 403e f283 723e 8a50 533f
00000190: 2cac 903e 5b00 223e 3137 683f 2eec aa3d
000001a0: 9ba9 123f 94bc e43e 1ba3 b73e c62b 153e
000001b0: e5d5 b33e bb57 653e 6fdd 143f 95c9 983e
000001c0: 5fc2 483e 3243 273e 5945 423e 0b9a 133e
000001d0: 8ef3 6d3e 9397 023e 716a 823e 3bb1 223e
000001e0: 9297 4f3e eece 343f ee9a 8d3e 9f81 393e
000001f0: 02e4 d23e 446a 443e 0d34 823e 875e ee3e
0.16647467 0.2515813 0.89695233 0.14784487 0.84152424 0.50330186 0.3002054 0.28803164
0.58613414 0.23353122 0.291225 0.1389292 0.17282717 0.2215603 0.24040042 0.2603089
0.23365974 0.3423684 0.38063917 0.19660524 0.2062691 0.5723231 0.29896942 0.2967647
0.3702461 0.34479564 0.4403609 0.21248232 0.46353394 0.537807 0.16601145 0.5752541
0.47496995 0.6032681 0.12932608 0.23958753 0.6708979 0.35751048 0.1939664 0.121066235
0.5058785 0.34047452 0.2963646 0.30709028 0.1347307 0.23257636 0.37882406 0.19248785
0.10149775 0.28533742 0.22254579 0.6707568 0.24181998 0.52301776 0.374928 0.23330802
0.980145 0.27281463 0.28751525 0.13200112 0.433091 0.33804137 0.3336 0.16649869
0.3291677 0.38737294 1.0293096 0.51580656 0.36753175 0.19802646 0.43302983 0.35234773
0.3542068 0.49418274 0.33408496 0.16253407 0.32594147 0.355818 0.124931745 0.17311773
0.19114092 0.6109419 0.26201683 0.2255814 0.7624664 1.1356033 0.7890337 0.20454846
0.125051 0.5219497 0.09748829 0.3251723 1.2622247 0.186344 0.22578458 0.23776402
0.30628216 0.18804894 0.23683146 0.8254477 0.28256357 0.15820448 0.90709215 0.08345829
0.5729005 0.44675124 0.35866627 0.1456748 0.35124126 0.22396748 0.5815038 0.29841295
0.19605397 0.16334227 0.18971767 0.14414231 0.2323744 0.12753133 0.25471833 0.1588792
0.20272663 0.7062825 0.27657264 0.18115853 0.4118958 0.19181162 0.25430337 0.46556494

network.4.weight f4 [64, 128]
00000000: 869c a8bd 41db b7bc 3972 833d ba84 1c3d
00000010: d063 ad3b 6b41 5ebd ae45 073d 50ee 3d3c
00000020: 923a 8cbd 170c 6ebd 4154 c43c 74ad 8f3c
00000030: d4e6 a9bd f755 87bd 1057 8a3d 4f51 8abd
00000040: 85e2 b2ba 33d2 4f3d 65f0 2fbd e823 993d
00000050: 2f8b 653c c77b ed3c 4e80 77bd e4df 5fbd
00000060: 3f47 7ebc 5e53 acbd 02e5 f13c 433a a4bd
00000070: 5f83 7dbd bbf8 0e3d f180 9c3d e78d e33c
00000080: 793e 9c3c 39e0 b43d d9c8 b7bd e289 ff3b
00000090: d356 a43c 9e19 8dbd 4e3e 9e3d 5ba7 923d
000000a0: 3203 96bd 51c3 35bd 787a 4abd 09f3 3e3d
000000b0: 9512 183d 51a8 8abc 2c8f 903d 6790 8dbd
000000c0: 20c6 3f3c f135 a53c bb27 6e3d d7ab 873d
000000d0: d61a ebbc 7b3c 723d 4e29 423d 7c09 443d
000000e0: eaca 91ba 637d 4a3c 5525 4dbd 70e4 a7bd
000000f0: f108 89bc fb98 a23c 1251 8cbd 95ef 2c3d
00000100: 86b7 933d 03e4 113c ee7e 83bb 53d5 85bd
00000110: a487 0dbd a375 a9ba 52cb 40bd 0478 2bbd
00000120: 51af 623b ce55 d23a 7017 603d b077 c63c
00000130: 95e0 a03d afa4 03bc dbf8 c0bb cb51 053d
00000140: 876d 94bd 2792 fbbc 155e ccbc aedd cebc
00000150: 5df9 a13d 5f12 ce3c 83dd 2abd b736 61bd
00000160: e75f 4b3c 59f4 9cbd 0ec0 8bbd 2270 813c
00000170: 2df2 bbbc e091 b5bd d750 533a b23b 583d
00000180: 03a8 05bd 54cf 163d 5d63 a33d d95e 563d
00000190: fa4b 74bd b4f5 b73d b600 d2bc dc12 0fbd
000001a0: f252 a73d b44d adbd 09cb 613d 93e9 793c
000001b0: 78cf b63c 8710 003b 74af bbbd 82cd 88bd
000001c0: 2a67 55bd 8993 553d 53d2 e9bc cc9f aa3d
000001d0: be64 8fbd 6dca 823d 51fa cebb b45f 27bd
000001e0: 286d ab3d f818 0e3d 84ea 9abd f9be f13c
000001f0: 830e b6bc 12fd 90bd 7c80 f53c da52 8e3c
00000200: 977d 4cbd 916a 793d 4cef 873c 5656 ecbc
00000210: 8d30 6ebd cec0 b4bd 6215 453c 88d1 83bd
00000220: 5898 0c3d 10af 85bd 9054 88bd 7cc2 92bd
00000230: 2b08 3abd 575c 993d 501a 6cbd 9907 fcbc
00000240: 97b8 06bd 51dc 6cbd 7ca4 ccbb 7b6c 66bd
00000250: 9b68 09bc 71a8 6fb9 454e c3bc 9d6d 80bb
00000260: 71e7 89bd 25c9 023d 7988 953d a784 ab3b
00000270: 9743 953c f9f7 7dbd 444b f0bc a341 78bd
00000280: a0f5 91bd faef a53d 7f33 993d 6827 21bd
00000290: d134 fe3a 1f7b 793d c80a 9dbd f7b0 9dbd
000002a0: 825c 00bd b8d4 ac3d 248b 94bd 0d58 9cbd
000002b0: 5e1c 543d 60ed 8cbd 46bb 973d 084b 813d
000002c0: 2204 9abd ebc8 a7bc 1b66 83bd d5f3 8d3d
000002d0: 72b8 4a3c b328 323d 744a 6fbc a364 a23d
000002e0: 7a77 9cbd 6d6c 34bd ca10 2cbd 08eb 6fbd
000002f0: e1f7 9dbc 61e9 93bd 7529 c239 540b 4dbd
00000300: 5436 47bb 2fcc 93bd 05c4 a9bd 7edd 9c3d
00000310: e393 87bd ae0a 83bd 873b 893d 0124 303c
00000320: 99f4 6e3d e489 56bd e3fb 94bb 28c0 313d
00000330: d40f 8abc 6f71 0fbd b965 ddbc 5eb4 9fbd
00000340: e0e7 52bd 4871 adbd 9fc7 b43c a83a 6cbd
00000350: 4f48 833d 6e48 9a3d 522c eb3c 2c41 8f3d
00000360: 6d18 4e3d e2f3 2bbd 2013 613d c421 87bd
00000370: 1f04 833d 6010 043d 5859 323d 6050 64bd
00000380: 639a 04bb ecb7 3cbd e52c 503c 0e24 92bd
00000390: d151 d9bc 9d4b d4bb c534 9a3d dc53 22bd
000003a0: 14d0 06bd 44a8 b0bd 056a 43bd ae1e 5e3d
000003b0: 5455 acbd b720 88bc 8530 69bd 77d7 12bd
000003c0: 0f3c ad3c 3a2d 073d e13c 3cbd ce2b 313d
000003d0: ac16 78bc 0316 1c3d 54ac 0c3d 6868 96bd
000003e0: 6e4e 31bd 8fee 26bd 8981 7f3d a101 a5bd
000003f0: 88e5 7abc 1ece 813c 2d8e 49bd acd6 9d3c
-0.082329795 -0.022443416 0.064182706 0.038212515 0.0052914396 -0.054261606 0.033025436 0.011592463
-0.06847109 -0.058117 0.023965957 0.017538764 -0.0829598 -0.06608193 0.06754887 -0.0675379
-0.001364783 0.05073757 -0.042953867 0.07477552 0.014010235 0.028989686 -0.060425095 -0.054656878
-0.015519916 -0.084143385 0.029528145 -0.08018925 -0.061892863 0.034905177 0.07641781 0.027777625
0.019072758 0.088318296 -0.089738555 0.0077984193 0.020060932 -0.06889652 0.077267274 0.07160827
-0.07324828 -0.04437572 -0.0494332 0.046618495 0.037127096 -0.016925963 0.07058558 -0.06912308
0.0117049515 0.020167323 0.05814336 0.06624573 -0.02869932 0.05913971 0.047402672 0.047860608
-0.0011123095 0.012358996 -0.05008443 -0.08197868 -0.016727896 0.019848337 -0.068514004 0.04222067
0.07212739 0.00890446 -0.004012934 -0.06534829 -0.034553185 -0.0012928735 -0.0470689 -0.041862503
0.003458936 0.00160473 0.05470985 0.024226993 0.078553356 -0.008034869 -0.005889041 0.032548707
-0.07247453 -0.03070934 -0.024947206 -0.02525219 0.079088904 0.025155244 -0.041715156 -0.05498382
0.012413002 -0.07663793 -0.06823741 0.01580054 -0.022942627 -0.08865714 0.00080610573 0.052791305
-0.03263093 0.036818817 0.079779364 0.052336548 -0.05964277 0.08982411 -0.025635105 -0.034930095
0.081701174 -0.08462086 0.05512527 0.015253442 0.022315726 0.00195411 -0.091643244 -0.066798225
-0.052100338 0.052142654 -0.028542673 0.0833126 -0.07001637 0.06386266 -0.006316461 -0.040862754
0.08370429 0.03469178 -0.075642616 0.029510008 -0.022223717 -0.07079519 0.029968493 0.017373491
-0.04992446 0.060892645 0.016593598 -0.028849762 -0.05815177 -0.08825837 0.012029024 -0.06436449
0.034324974 -0.06527531 -0.06656754 -0.07166001 -0.045417946 0.074883156 -0.05764228 -0.030765342
-0.032890882 -0.057827298 -0.006245194 -0.0562558 -0.008386756 -0.00022855565 -0.023841033 -0.003919317
-0.06733597 0.031930108 0.07301421 0.0052343193 0.018220706 -0.062004063 -0.029332764 -0.06060947
-0.071269274 0.081024125 0.07480525 -0.03934422 0.0019394403 0.060908433 -0.07668072 -0.07699769
-0.031338222 0.084390104 -0.072531015 -0.07633982 0.051784866 -0.06881213 0.074087664 0.06313139
-0.075203195 -0.020481547 -0.064159594 0.06931273 0.012373077 0.043495845 -0.014605153 0.07929351
-0.07639976 -0.044048715 -0.0420082 -0.058573753 -0.019283237 -0.07222248 0.0003703345 -0.05005963
-0.0030397372 -0.07216679 -0.08289341 0.07659434 -0.06620004 -0.06398521 0.06700807 0.0107507715
0.058338735 -0.052377596 -0.004546629 0.043396145 -0.01685325 -0.035020288 -0.027026044 -0.07798074
-0.051490664 -0.08468872 0.022067843 -0.057673126 0.06410276 0.07533346 0.028707657 0.069948524
0.050316263 -0.04198063 0.05494988 -0.06598237 0.063972704 0.03224218 0.043542236 -0.055740714
-0.0020233623 -0.04607384 0.012706016 -0.07135783 -0.02652827 -0.0064787404 0.07529596 -0.039630756
-0.032913283 -0.08625844 -0.04770853 0.054228477 -0.084147125 -0.016617162 -0.056931037 -0.035850015
0.021146802 0.033002116 -0.045956496 0.043254666 -0.015142124 0.03810693 0.034344032 -0.07344133
-0.043287687 -0.04075485 0.062379394 -0.08056951 -0.015313514 0.015845355 -0.049207855 0.019267403

network.4.bias f4 [64]
00000000: c839 aabb d691 ec3c e7e6 6ebd 237c d9bc
00000010: f89f 8e3d 4301 a7bc bc00 d8bc 0f09 9c3d
00000020: 3b9b 363d 0f63 f1bc e761 cf3c ebb5 98bb
00000030: 25f7 463d 4bde 793d 6387 14bd e523 8ebd
00000040: 244c e5ba c8e8 8abd 9a75 a53d d55f 12bd
00000050: b793 7f3c db35 1c3d 237a 323c c751 4cbc
00000060: 49c2 92bd 575f 31bb dfe9 03bd d339 53bc
00000070: 02c1 713d 06c1 443d 0327 773d 738d 0e3d
00000080: 86c9 153d 5784 d13c 4e18 a8bd f648 f53c
00000090: 0e24 17bd 56e4 9fbc cb5b 533d bbba adbd
000000a0: 2891 063d dc95 8f3d 10fe b93c 9134 a8bd
000000b0: 51f8 9fbd c7e8 80bd 7e93 9abd c23f 45bd
000000c0: c77b 6bbc 15d0 3f3c 79ba 513d 2877 89bd
000000d0: 03c3 333c 8571 963b 7627 263d 48bc ac3d
000000e0: eae9 d93c 7ff7 adbd c06d 843d 0e30 42bd
000000f0: 2db0 c8bc 3e82 f6bc c938 3bbd 4f44 71bd
-0.0051948763 0.028878134 -0.058325674 -0.02654845 0.06964105 -0.020386344 -0.026367538 0.07618915
0.044581633 -0.02946618 0.025315238 -0.004660358 0.04857554 0.06100301 -0.036261927 -0.0694044
-0.0017494005 -0.06782681 0.08079071 -0.035735924 0.015599183 0.038137298 0.0108933775 -0.012470669
-0.07165963 -0.0027064884 -0.03220546 -0.012892204 0.059021957 0.048035644 0.06033994 0.034802865
0.03656914 0.0255758 -0.08207761 0.029942017 -0.03689962 -0.019518059 0.051601212 -0.08482882
0.032853276 0.07011005 0.022704154 -0.08213151 -0.078110345 -0.06294399 -0.07547663 -0.048156507
-0.014372773 0.0117073255 0.051203225 -0.067121804 0.010971787 0.0045911693 0.040564977 0.08434349
0.026600797 -0.08494472 0.06466246 -0.04740911 -0.02449807 -0.030091401 -0.04570845 -0.058903035

network.5.weight f4 [64]
00000000: b53e 803f 6688 803f d8e9 7e3f 8710 803f
00000010: fccd 803f da35 7f3f fc71 803f d497 7f3f
00000020: e4f4 7e3f fc2f 803f a118 803f 3a0c 803f
00000030: 8670 7e3f db26 803f 07ce 7f3f c40c 803f
00000040: 62da 7d3f 7d63 7f3f d39d 7f3f af88 803f
00000050: 7814 803f 58df 803f a025 7f3f 4021 803f
00000060: 5f37 803f 241f 803f 92e7 803f be11 803f
00000070: a36b 7f3f ad3f 7f3f a0b0 803f 0002 803f
00000080: 6b53 7f3f 24f7 7f3f ec1f 7f3f 6a2c 803f
00000090: e89c 7e3f 3594 803f 50f2 7e3f 0bd1 803f
000000a0: bd6c 803f 4612 7f3f 8066 803f c8d3 803f
000000b0: 1fd0 7c3f bd48 803f 36a6 7f3f f67c 803f
000000c0: 7da0 7f3f db77 803f da74 7f3f a7cb 7f3f
000000d0: ccd2 7f3f 5a4b 803f efe6 7f3f 3b7c 803f
000000e0: acb6 803f d051 803f 7a97 7f3f 21a7 7e3f
000000f0: 915b 803f 7b52 7f3f 4500 813f b220 7e3f
1.0019137 1.0041625 0.9957557 1.0005044 1.0062861 0.99691546 1.0034785 0.99841046
0.99592423 1.0014644 1.0007516 1.0003731 0.9939045 1.0011858 0.9992375 1.0003896
0.9916135 0.9976118 0.99850196 1.0041713 1.0006247 1.0068159 0.99666786 1.0010147
1.0016898 1.0009503 1.007067 1.0005414 0.99773616 0.99706537 1.0053902 1.000061
0.9973666 0.9998648 0.99658084 1.0013554 0.9945817 1.0045229 0.9958849 1.0063795
1.0033184 0.9963726 1.003128 1.006463 0.9875507 1.0022198 0.9986299 1.0038135
0.9985426 1.0036577 0.99787676 0.99920124 0.99931026 1.0022995 0.9996175 1.0037912
1.0055747 1.0024967 0.9984051 0.9947377 1.0027944 0.9973523 1.0078207 0.9926864

network.5.bias f4 [64]
00000000: bc06 0a3c 6734 a53b 455c 37bb ca4f 67ba
00000010: 04e6 423b a2c8 65bb 959d c739 1e78 89b8
00000020: 24b4 8bbb 52de 1e3c 2459 c73b 5e81 6f3b
00000030: f65b c3bb 04cc c73b 88bb 12bb 01b7 db3a
00000040: a200 8cbb 9865 533a fa45 5b39 6176 3e3b
00000050: 9745 163b ab73 eb3b b99b 57bb e27c 763b
00000060: 3a5b 3a3b 8ba4 ce3b 1925 d93b ae9c 99b9
00000070: 3378 4dbb 1bb4 683a 6c4a ed3b 312f 53ba
00000080: acd5 9a3b c32e 9f3a fd5c 9c3a 369c 103b
00000090: 9960 06bc 9507 ba3b da66 46bb 116a 823b
000000a0: 3c97 643b 4657 65ba 193b d0ba fe63 f73b
000000b0: 0e6f f2bb 0349 f83a 7799 f4ba adb8 f2b9
000000c0: 9ba4 10bb 6cf3 873b 9772 57bb ef0e 063b
000000d0: 1588 163b 444e 833b 6f2f 243b 819e 3e3b
000000e0: 770c 643a 36b1 2b3b 2107 4cbb 272c c2ba
000000f0: 1a26 a23b 686d afba 1ee2 be3b 0c1e a5bb
0.008424457 0.0050416472 -0.002797858 -0.000882384 0.002973915 -0.0035062213 0.00038073646 -6.555043e-05
-0.004263418 0.00969656 0.0060836244 0.0036545615 -0.0059618903 0.0060973186 -0.002238961 0.0016762913
-0.0042725364 0.000806415 0.00020911536 0.0029062259 0.0022929662 0.0071854196 -0.0032899214 0.0037611057
0.0028435723 0.006306236 0.006626737 -0.0002929917 -0.0031352162 0.00088769355 0.007241538 -0.00080560433
0.0047251787 0.0012144673 0.0011929568 0.0022065765 -0.008201742 0.0056771734 -0.0030273707 0.0039799293
0.0034880182 -0.00087486615 -0.0015886753 0.007549762 -0.0073984927 0.0018942658 -0.0018661459 -0.0004629543
-0.0022070769 0.004148891 -0.0032874697 0.0020455678 0.0022969295 0.0040071327 0.0025052687 0.0029086175
0.0008699367 0.0026198155 -0.003113218 -0.0014814184 0.0049483897 -0.0013384046 0.005825295 -0.0050389823

network.5.running_mean f4 [64]
00000000: 6072 f8bd e4b2 21bf 66f6 b5be d349 843e
00000010: b60b 593e 5d92 053b 2ff4 c73d b623 153e
00000020: 06f9 8dbe 45e3 59be a40d b03d cd89 1cbe
00000030: 6585 dd3d 003c 163e 72e1 d3be 1b43 c2be
00000040: 6706 6abd 4ad7 cebc e4f3 593d 9033 df3d
00000050: 6748 c73e 7cc1 9abe 23a3 3bbe fc56 90be
00000060: 0817 333e badb 913d 872a a93d fb48 8c3d
00000070: b9f7 c63d 77e4 56be 909f 1a3e be05 733e
00000080: 6494 96bd fa3e 203e ff49 dbbe d1e5 363e
00000090: cff6 23bd 3a93 de3e a4cf c83e 14fb 153e
000000a0: 7615 2bbe 6497 173e f93f 403d 5165 ddbd
000000b0: 40f7 ee3e f1c8 78be 3551 c7be 91ec 4fbe
000000c0: f647 2dbe dcbc d0be 0e70 5cbe 9971 07be
000000d0: 145c 643e f23c 8b3e 3fed 93bd f111 ec3e
000000e0: 7953 d33c 2a28 483e ba13 483e 7a60 ed3d
000000f0: 3ad2 203e eab6 7b3d 51b1 b3bd 2749 813d
-0.1213119 -0.6316359 -0.3553955 0.25837573 0.21195874 0.0020381429 0.09763371 0.14564404
-0.27729052 -0.21278103 0.08596352 -0.15286942 0.108164586 0.14671326 -0.4138294 -0.37941822
-0.057135012 -0.025249142 0.053211108 0.10898507 0.38922426 -0.30225742 -0.1832395 -0.28191364
0.17489254 0.07121988 0.082600646 0.068498574 0.09715218 -0.2098559 0.15099931 0.23732659
-0.07352522 0.15649024 -0.42829892 0.17861106 -0.040030297 0.434717 0.39220917 0.1464656
-0.16707405 0.14803845 0.04693601 -0.1081034 0.46673012 -0.24295403 -0.38929144 -0.20305087
-0.16921982 -0.40769088 -0.2152712 -0.13226928 0.2230075 0.27194935 -0.072229855 0.46107438
0.025796639 0.19546571 0.19538775 0.11590667 0.15705195 0.061453737 -0.08774055 0.06312781

network.5.running_var f4 [64]
00000000: 86c3 623e 7352 9c3e 9cd3 2e3f f30c 0f3e
00000010: a78f 653e daea 2f3e 2317 6e3e ad38 653e
00000020: 18ef 273e 2505 333e a1ae a73e 8ded 3d3e
00000030: cf71 323e 5099 853e e0ea 993e 44ef 8d3e
00000040: a51d 1a3e 9c6a 5c3e f44d 303e 3361 5a3e
00000050: 0a01 8e3e 0458 3d3e f12b 053e 3ce7 7b3e
00000060: 018e 2f3e 0144 053e 0575 1c3e 3a96 073e
00000070: 5bbe 953e b495 213e c309 453e d1ad 003e
00000080: 2dee 353e 291f 393e b54d 083e dfe6 da3e
00000090: 02a8 c73d 408d 433e 3703 093e 65c4 263e
000000a0: 4ccc 293e 37a1 923e 62e2 723e d4cb 883e
000000b0: d86f 863e abfc 423e 708b 393e 6a73 3d3e
000000c0: fc2e 143e 49dc 1d3e 71da 613e f0d7 373e
000000d0: 229e 183e 6710 ec3d 15d4 343e f7c0 633e
000000e0: 30a1 493e 897c 5c3e 36d0 583e 1185 3e3e
000000f0: a9f9 003e 1c4e 943e 6702 043e 173e 513e
0.22144899 0.30531654 0.6829164 0.13969783 0.2241808 0.17179433 0.23251013 0.22384901
0.16399801 0.17482431 0.3275042 0.1854765 0.17426227 0.2609353 0.30062008 0.27721608
0.15050371 0.21525043 0.17217237 0.21326141 0.27735168 0.18490607 0.13005044 0.24599928
0.17144014 0.13014223 0.15279014 0.132409 0.29246792 0.15779763 0.19242005 0.12566306
0.17766638 0.18078293 0.13310893 0.42754266 0.09748842 0.19096851 0.13380133 0.16285856
0.1658184 0.28638622 0.2371917 0.2671801 0.26257205 0.19041698 0.18119597 0.18501058
0.14471048 0.15416063 0.22055985 0.17953467 0.14904073 0.11526566 0.17659028 0.22241579
0.19690394 0.21531881 0.21173176 0.18605448 0.12595238 0.28965843 0.12891541 0.20433842

network.8.weight f4 [32, 64]
00000000: e1d2 c6bd b0ef da3c 4aca 6f3b 9071 ee3d
00000010: 4009 fd3d 8898 e6bd 16f9 31bd 0424 8fbd
00000020: 680a 9e3c 3f28 98bd 8d3a 3d3c 5bef b0bd
00000030: 335c ac3d 72e7 b23d 88c7 6fbb c0d8 cabc
00000040: 15dd 99bd c680 f8bd 6ae3 a3bd f4fa 963c
00000050: 8d07 e8bd 6e01 ab3d db7f ebbd 0918 d8bd
00000060: 747f 97ba 8fa1 c13d 963f b2bd 3d85 683d
00000070: a82f dfbd d77e 92bd 4a37 31bd 9ea0 a13d
00000080: 9f24 c03d a7aa d0bd ca0f eb3d 1ebd 68bd
00000090: 4f18 b3bd 7885 bd3c 2282 b2bc b443 60bd
000000a0: 123f af3a ee80 dc3c 6382 66bd 0024 223d
000000b0: f4ef 843d d0d2 30bd 54cd 503d e412 cdbd
000000c0: 6f92 103d d909 39bd 0162 bcbd 266e 8cbd
000000d0: 2b2f b63d 952e 913d bff0 853d 64ec c33c
000000e0: bf35 413c 8fb9 aa3d 8693 083d 5a30 1a3d
000000f0: 97dd 7a3d 42db 053e 37aa 60bd 8914 14bd
00000100: 74b1 813c ad72 a6bd 478d f63c 914c f2bc
00000110: 9baa bfbd de4b 7dbd 0111 55bd 6d33 9f3d
00000120: 72c1 96bd cdaf dd3d 7feb c33d 1e31 cd3d
00000130: a195 623b 7dcb 43bd fb22 60bd 9efe 1d3d
00000140: 5217 7cbd b694 7e3d 2e31 a83d 5091 e8bd
00000150: b6a6 b9bd 9886 a13c 7d7e f9bd 327e e3bd
00000160: af88 7cbd d41b c93d f199 c23d af98 02be
00000170: 1a65 cdbd 7ecb 763d fa01 e23d 4be7 99bd
00000180: 3ff1 fb3d a1f6 1a3d f2e0 cabd dfec 5dbd
00000190: 303d f8bd 03a3 c13d c02f 803d 7552 6abd
000001a0: 04f6 013e 8231 a73d 1893 cebd 08b6 593d
000001b0: 2ebf 9a3d 5f59 fcbd 360a dabd bc3e 04bb
000001c0: c0dd d5bb fea4 ad3d 63cf adbd 7d0c 96bc
000001d0: 7567 59bd 399f 01be b2de 9f3d 3034 cfbc
000001e0: 067b 92bd 6a4f a7bd f396 0e3d b531 03bd
000001f0: c0ea b7bd 117f f83d f049 bb3d ce4a 9c3d
00000200: 5370 c73d 7266 f6bd a9d1 f8bd 5301 863d
00000210: a81c c23d f0d4 c73d d651 cbbb a915 debd
00000220: 89a1 d73d 1f06 a3bc 29e7 323d 35f8 f73c
00000230: ba21 763d 05a3 6b3d 83bf a0bd b0ce 023c
00000240: 95c8 d83c 5508 de3d 527d f4bc 6c41 d43d
00000250: 8ccf 053d 7b7c a03d 726b be3c a078 f5bc
00000260: fc0a e53d 903c d23d 4b60 473d 47e5 003d
00000270: 0e5a 92bd deac 97bd 1027 6b3d e28a 6ebd
00000280: 643b 0f3c e84d e33d 60bc 053d 068e 22bd
00000290: 2ddd 183c a45f 3a3d 0639 293d fd29 993d
000002a0: e604 87bc e603 aebd 8844 2f3d f323 02be
000002b0: 85f2 71bd 8b15 b33a 55a6 ddbd 135b 94bd
000002c0: 9178 b13d 9474 96bc c19b b7bc f997 fabc
000002d0: 6ef4 5c3d 76a3 89bd b7fa 6f3d 89bc f63d
000002e0: 9a30 fe3d 3312 06be e35e a33d 1a71 11bd
000002f0: 08dc a4bd 0dda f73d 8a76 293d ea7b d5bc
00000300: c072 85bd 5487 193d 8fe9 b8bd aea8 d5bd
00000310: fdae 61bd 9a95 e43d 722c 873d 7bb7 7dbd
00000320: 1f48 243d 6716 d4bd 2155 8b3d 48f1 f63c
00000330: bbc8 c1bd c529 f3bd e69f c83d 2cdd e53c
00000340: ddac 803d 030b 95bd 2e0d 8bbd 40f4 423d
00000350: 4dab 2bbb c201 e3bd e0c2 3cbd 364a 6dbd
00000360: 5abc a93d 82ee b9bc 42b3 e33d c739 b8bd
00000370: a9eb 633d c5fa c7bd b8f7 fe3d b871 693c
00000380: a21f da3d 3a52 a0bd dc28 4e3d 2958 933d
00000390: f5c7 a7bb d7e1 c8bd 3571 0a3c dc44 503c
000003a0: 518e 07bd 0b3e a6bd f435 053e b739 383d
000003b0: 0c13 44bd b8a4 cabb db13 3a3d 718d ccbb
000003c0: c63d a5bd 188f b5bc cc94 d8bd d764 d6bd
000003d0: 260a 3bbb a50c c3bc 6f4a d4bd 5f0d 6cbd
000003e0: d0d5 bdbd dc14 813c e81f adbd 9ca1 943d
000003f0: f136 1abd 36cc 09bd 3391 e8bd 6a55 5f3d
-0.09708191 0.02672562 0.003658908 0.11642754 0.1235528 -0.11259562 -0.043450437 -0.06989291
0.019292071 -0.07429551 0.011549604 -0.086394034 0.08416023 0.08735551 -0.0036587436 -0.024761558
-0.07512871 -0.121339366 -0.0800236 0.01843021 -0.11329565 0.08349882 -0.11498996 -0.10551459
-0.001155837 0.09454643 -0.08703534 0.05676769 -0.108977616 -0.07153099 -0.04326562 0.078919634
0.09381985 -0.10188799 0.11477621 -0.05682098 -0.08744871 0.023134932 -0.021790568 -0.054752067
0.0013370237 0.026916947 -0.05627669 0.039585114 0.0649108 -0.043169796 0.050977066 -0.10013369
0.0352959 -0.045175407 -0.0919838 -0.06856947 0.08895715 0.07088963 0.06540059 0.02391643
0.011792599 0.08336174 0.033343814 0.037643768 0.06124648 0.13071921 -0.05484983 -0.036152396
0.015831687 -0.081273414 0.030096663 -0.029577525 -0.09358712 -0.06183993 -0.05201817 0.077734806
-0.073611155 0.10824547 0.09566402 0.10019134 0.003457405 -0.047801483 -0.05472086 0.0385729
-0.061545677 0.06215354 0.08212505 -0.11355841 -0.09065001 0.0197175 -0.12182329 -0.11108054
-0.06165379 0.09819761 0.09502018 -0.12753557 -0.10029049 0.06025266 0.11035533 -0.07514819
0.123018734 0.03783286 -0.09906186 -0.054180976 -0.121210456 0.0945492 0.062591076 -0.057207543
0.12691504 0.0816374 -0.1008665 0.053152114 0.07555996 -0.12321734 -0.10646479 -0.0020178994
-0.006526679 0.084787354 -0.084868215 -0.018316502 -0.05307718 -0.12658395 0.07806148 -0.02529344
-0.07152371 -0.08169444 0.034811925 -0.032029826 -0.08980322 0.12133611 0.09144962 0.07631455
0.09738221 -0.12031259 -0.121493645 0.06543221 0.09478122 0.097574115 -0.006204824 -0.10843975
0.10528857 -0.01990038 0.043677483 0.030269722 0.060090758 0.057528514 -0.07849028 0.007983848
0.026462832 0.10841433 -0.029844914 0.10364041 0.032668635 0.07836243 0.023244593 -0.029964745
0.11183736 0.10265458 0.048675817 0.031468656 -0.07146083 -0.07406019 0.0574103 -0.058237918
0.008742187 0.11098844 0.03265035 -0.039686225 0.009330076 0.045501366 0.041314147 0.07478712
-0.016481828 -0.08496837 0.042789966 -0.12709026 -0.059069175 0.0013663037 -0.10822741 -0.072439335
0.08665574 -0.018366136 -0.022413136 -0.030590044 0.053944044 -0.06720631 0.05858871 0.12047679
0.12411614 -0.1309288 0.079770826 -0.035508253 -0.0804978 0.12102137 0.041372813 -0.026060063
-0.065160275 0.037482575 -0.09028923 -0.10432564 -0.055098522 0.11161347 0.06600274 -0.06194256
0.040107843 -0.103558354 0.068033464 0.030144349 -0.094621144 -0.11873201 0.09796123 0.028059565
0.06282971 -0.07277491 -0.06789623 0.047596216 -0.0026194633 -0.1108432 -0.046084285 -0.0579321
0.08287878 -0.022696737 0.11118175 -0.08995395 0.055644665 -0.09764627 0.12449592 0.014248304
0.10650565 -0.078281835 0.050331935 0.071945496 -0.0051202723 -0.098087005 0.008449842 0.01271173
-0.033094708 -0.081173025 0.13008863 0.044976916 -0.047869727 -0.006184187 0.045429092 -0.006242447
-0.08068423 -0.022162959 -0.10575256 -0.104684524 -0.0028539984 -0.02380974 -0.103657596 -0.05762994
-0.09269297 0.015757017 -0.08453351 0.07257387 -0.037650052 -0.033642016 -0.113558196 0.054524817

network.8.bias f4 [32]
00000000: 9059 a0bd d50a 9bbd 4dc8 94bd 5056 723d
00000010: 9ab8 1bbd e0ba a83c 54f6 37bd 0f5a d3bc
00000020: 6afb 83bd ba5d aebd 3ac4 0cbd b860 d73d
00000030: 15a2 fcbd e462 c53d 6c54 d5bd 00f2 f8bd
00000040: b600 57bc fdc3 07bc 8952 cb3d c5da e03d
00000050: a649 0dbc 4361 ad3d 4432 ebbd 4da5 ecbd
00000060: 683e 8ebd 96eb 44bd 6b13 9c3d a391 d2bd
00000070: 7d78 0abd e347 b6bd bc52 ebbc 0d06 64bd
-0.07829583 -0.075704254 -0.07264767 0.059164345 -0.038017847 0.020596921 -0.04491265 -0.02579978
-0.06444438 -0.08513971 -0.034366824 0.105164945 -0.12335602 0.096380025 -0.10416493 -0.12155533
-0.013122728 -0.008286473 0.09927852 0.10979227 -0.008623516 0.08465817 -0.11484197 -0.11554966
-0.06945497 -0.048076235 0.07620891 -0.10281684 -0.033806313 -0.0890043 -0.028725974 -0.055669833

network.9.weight f4 [32]
00000000: bca5 803f 1f6b 7f3f db34 7f3f 679a 803f
00000010: 561d 813f 3509 803f 1409 803f 1fd8 803f
00000020: 38ab 7f3f 6d04 803f fec8 7e3f 1737 7f3f
00000030: 646a 803f 055d 803f e506 7e3f 3dc2 7d3f
00000040: 079e 7e3f 284b 7d3f da12 7f3f 8398 803f
00000050: 6402 803f 0284 803f f0dc 803f a997 7e3f
00000060: 825a 803f fcd5 7f3f 05ea 7f3f 8440 803f
00000070: 11ba 7f3f 97c1 803f 228f 803f ddb1 803f
1.0050578 0.9977283 0.99690026 1.004712 1.0087078 1.000281 1.000277 1.0065955
0.99870634 1.0001351 0.9952544 0.99693435 1.0032468 1.0028387 0.9922927 0.9912451
0.9945988 0.98942804 0.9963814 1.0046543 1.000073 1.0040286 1.0067425 0.99450165
1.0027621 0.9993589 0.9996646 1.0019689 0.9989329 1.0059079 1.0043681 1.005428

network.9.bias f4 [32]
00000000: 5e3c 803b 9b1e c0ba 8033 92b9 dddd 9b3b
00000010: efe7 dd3b 51dd a03b 5f36 963b 0bed 3d3b
00000020: d9f7 0bbb 1341 c13a 8f78 4cbb 9be5 36bb
00000030: c97b 2eba 53c1 eb39 fdc2 48bb 01d7 a3ba
00000040: bad1 77ba 4ef1 fdbb 853c 643a 84b0 6f3b
00000050: 7a65 933b 4b98 9c3a e614 113c 5425 003b
00000060: f40c e4b9 3c96 8eba d907 3ebb 0e7e a43b
00000070: c05b 053b 2a89 e63b f1d4 ae3b 6fc6 633b
0.0039134463 -0.0014657559 -0.0002788566 0.004756673 0.0067720334 0.0049091955 0.0045841183 0.00289804
-0.0021357446 0.0014744125 -0.0031199788 -0.0027907852 -0.00066560187 0.0004496673 -0.00306338 -0.0012499989
-0.0009453554 -0.007749713 0.0008706528 0.0036573717 0.004498181 0.0011947242 0.00885508 0.00195535
-0.000434972 -0.0010878514 -0.0028996377 0.0050199097 0.0020348877 0.007035394 0.005335443 0.0034755727

network.9.running_mean f4 [32]
00000000: bc92 72be db56 80be d630 773e 513b 9abe
00000010: 465c 74bd 63a7 50bd 1cf6 cabd b982 833e
00000020: b0c8 edbd e0b4 10be 071a 543d 740d 9abd
00000030: b3f5 8cbc 09c4 6cbe 615e 493e fd1d 7ebe
00000040: 3c9a 083b fd9e 6fbe ca48 7c3e 408a db3d
00000050: aa8f 12bf 542c b2bc a3f4 a93e 63ed 393e
00000060: 2222 e6bd aa8f 68bd a02b 0c3d dc48 b73d
00000070: 3bbf 3cbe f00f 4cbd ba57 3dbe c5dc bdbe
-0.23688787 -0.25066265 0.24139723 -0.3012338 -0.05965831 -0.050940882 -0.09910223 0.2568567
-0.11610544 -0.14131498 0.051782634 -0.07522097 -0.017207002 -0.23121656 0.19664909 -0.24816127
0.0020843884 -0.23400493 0.24637142 0.107197285 -0.57250464 -0.021749653 0.33194456 0.18156962
-0.11236979 -0.056777634 0.03422129 0.08949444 -0.18432324 -0.049819887 -0.18490496 -0.37082496

network.9.running_var f4 [32]
00000000: a37c 393e 0c50 663e 7578 5f3e a579 683e
00000010: 0eb0 553e 1126 fd3d 212f 383e 7f38 4a3e
00000020: ec5b 5d3e d529 323e f88e 4c3e c9d1 403e
00000030: d6c1 8b3e 7c47 653e 7ccb 763e 2c28 823e
00000040: 0958 433e e18b 283e 4d5b 423e fba5 473e
00000050: 0c58 4c3e c93f 0e3e ee4a 673e ba89 2c3e
00000060: 078a 4a3e 96c8 2e3e e800 8c3e 1216 6f3e
00000070: 0baf 693e 4804 b53e 6f67 263e 0b4e 523e
0.18113951 0.22491473 0.21823294 0.22702654 0.20867941 0.12360776 0.17986728 0.19748114
0.21617097 0.1739877 0.19976413 0.18830027 0.27296323 0.2239055 0.2410106 0.25421274
0.19076551 0.1645961 0.18980141 0.1949691 0.19955462 0.1389152 0.22587177 0.16849414
0.19779216 0.17068705 0.2734444 0.23348263 0.2282068 0.3535483 0.16250394 0.20537584
