ai-layer/model/results/10000_v3/dnn_oud_risk_model.pth (torch, 70037 bytes, 25 tensors)

network.0.weight f4 [128, 19]
0.20151621 0.046962332 0.18524991 0.19253024 -0.021660708 -0.18944572 -0.17245384 -0.055473637
-0.18767095 -0.18479316 0.06267879 -0.08254068 0.028675951 -0.020015478 -0.113236785 0.20746003
-0.08230754 0.07267408 -0.07986994 0.10712659 0.046217397 -0.14304608 -0.11713995 0.21127975
-0.13060802 0.21882041 -0.06788195 -0.041262906 0.05951515 0.041076306 0.051403478 0.0043825353
0.18172628 0.098981604 -0.11316831 -0.08878598 0.11176302 -0.023709541 0.13612655 0.09933702
-0.23407014 -0.058907382 -0.15146573 0.06024241 0.1731235 0.15871663 -0.15921131 -0.08353281
-0.035671838 0.14429529 0.21479563 0.17094637 -0.018774506 -0.100856416 -0.21265228 -0.082672626
-0.18693 -0.1654797 -0.16665603 -0.090314135 0.10300159 0.18572496 -0.1424344 -0.2151399
-0.059619058 0.101682425 -0.01994746 0.09439499 0.020053893 0.047127962 0.22038957 0.057184953
-0.21276166 -0.22254483 -0.14328362 0.02793517 -0.23128743 -0.21825911 -0.16139406 0.1867016
-0.062328126 0.11584728 0.059904885 0.12575714 0.080466636 -0.07030476 -0.0058914376 -0.09658238
-0.042646587 -0.16020226 -0.009252932 -0.079928584 0.05841113 0.052156802 0.026432773 -0.08322696
0.067087874 -0.17264314 -0.089411065 -0.065636486 0.16316558 -0.093107186 -0.0631586 0.2060725
0.014488188 0.19521031 0.118658565 -0.12589799 0.09861129 0.21314742 0.17018035 -0.19439979
0.15035678 -0.07768423 0.04382789 0.102832556 0.13723442 -0.076955624 0.036429 0.002895687
0.028630748 0.13748318 0.1655157 0.0202095 0.067417964 0.019051373 0.22510582 0.111112185
0.12699558 0.0027033342 -0.008104155 3.7175141e-06 0.05004582 -0.030067367 -0.05212958 -0.03957816
-0.16493653 -0.21946049 0.18513246 0.14648457 0.08877611 -0.154483 -0.14727269 -0.14209206
-0.097683825 0.11397315 -0.20969595 -0.20833802 0.09036677 0.05465314 -0.05630364 -0.19551383
0.14103898 0.017292643 0.048218116 -0.10876932 0.030156385 -0.19893621 -0.16792811 0.11616595
-0.05086586 -0.21561202 -0.07321613 -0.012166698 0.05622937 -0.1172222 -0.0719806 0.1497872
-0.09682399 0.050577674 -0.006519145 0.25815684 -0.10757096 0.1792855 0.019981654 0.0003735589
-0.079042174 -0.10006777 -0.0042761806 -0.17817572 -0.09839916 -0.11395933 -0.062328383 0.087174244
0.1581283 0.001750361 0.044489533 0.13779818 0.047214955 0.05497151 -0.09883055 -0.16086547
-0.11681727 -0.008393206 0.23487456 -0.19013172 0.11404504 0.1345842 0.16334444 0.18793733
0.15008956 -0.06408905 -0.19971079 -0.117631815 -0.07285374 0.021045204 -0.10295051 -0.17245744
-0.13312404 -0.09462353 0.10233822 -0.050008908 -0.19673315 -0.16635121 0.008465555 0.026392857
-0.0040149176 -0.14893584 0.19540109 0.043294087 -0.21634258 0.20515966 0.06186591 -0.1734871
0.1700008 -0.014008498 0.16385348 0.11572991 0.19112585 0.055540826 0.05316217 -0.07028923
0.0841546 -0.16417214 -0.087034255 0.062434062 0.047155708 0.21114556 0.08180401 -0.034399875
0.15712288 0.15297431 -0.17333895 -0.11167353 -0.13849181 0.18505865 -0.10870693 0.16357207
-0.16889699 0.071287654 -0.13216858 0.07270496 0.01583222 0.20458682 -0.025049143 -0.2098092
00000000: 445a 4e3e 935b 403d 27b2 3d3e a626 453e
00000010: cc71 b1bc 0ffe 41be bd97 30be 5338 63bd
00000020: d02c 40be 6b3a 3dbe bd5d 803d 170b a9bd
00000030: d4e9 ea3c 80f7 a3bc b0e8 e7bd 6770 543e
00000040: db90 a8bd 26d6 943d da92 a3bd 3065 db3d
00000050: 744e 3d3d ac7a 12be 12e7 efbd b859 583e
00000060: 1cbe 05be 7512 603e b105 8bbd 4b03 29bd
00000070: 28c6 733d a13f 283d 748c 523d 5f9b 8f3b
00000080: 7416 3a3e deb6 ca3d c9c4 e7bd 6dd5 b5bd
00000090: 03e4 e43d 833a c2bc c264 0b3e 3571 cb3d
000000a0: 15b0 6fbe de48 71bd d519 1bbe bfc0 763d
000000b0: 4947 313e 9d86 223e 4a08 23be 4013 abbd
000000c0: a21c 12bd 25c2 133e 63f3 5b3e 910c 2f3e
000000d0: fecc 99bc cf8d cebd 85c1 59be 4450 a9bd
000000e0: 946a 3fbe 8373 29be e1a7 2abe 9ef6 b8bd
000000f0: 7ff2 d23d af2e 3e3e 53da 11be a24d 5cbe
00000100: 1d33 74bd e03e d03d db68 a3bc 2952 c13d
00000110: 1048 a43c 4009 413d cead 613e c53a 6a3d
00000120: 31de 59be cbe2 63be f1b8 12be 4cd8 e43c
00000130: 9dd6 6cbe 517f 5fbe 7c44 25be b42e 3f3e
00000140: c74b 7fbd 5741 ed3d d35e 753d 7bc6 003e
00000150: b1cb a43d f1fb 8fbd f60c c1bb fccc c5bd
00000160: 30ae 2ebd 100c 24be 9c99 17bc 99b1 a3bd
00000170: 8240 6f3d 5fa2 553d 8b89 d83c e572 aabd
00000180: 5e65 893d 5dc9 30be 261d b7bd 6c6c 86bd
00000190: e114 273e fbae bebd 4c59 81bd ab04 533e
000001a0: dd5f 6d3c 36e5 473e 4303 f33d 67eb 00be
000001b0: b7f4 c93d 5143 5a3e c243 2e3e bd10 47be
000001c0: 21f7 193e e918 9fbd e084 333d e099 d23d
000001d0: 2e87 0c3e e99a 9dbd 9336 153d 91c5 3d3b
000001e0: 088b ea3c 64c8 0c3e f37c 293e 658e a53c
000001f0: 6e12 8a3d a011 9c3c 2482 663e c98e e33d
00000200: 210b 023e 6c2a 313b 4ac7 04bc 687a 7936
00000210: d9fc 4c3d d74f f6bc d485 55bd b51c 22bd
00000220: 1fe5 28be 40ba 60be 5d93 3d3e 0d00 163e
00000230: 40d0 b53d cb30 1ebe a7ce 16be 9580 11be
00000240: 750e c8bd c16a e93d 89ba 56be 9056 55be
00000250: 3712 b93d f9db 5f3d a59e 66bd c734 48be
00000260: 866c 103e 4da9 8d3c 5c80 453d 73c2 debd
00000270: 860a f73c efb5 4bbe 59f5 2bbe 6ae8 ed3d
00000280: b858 50bd 66c9 5cbe 57f2 95bd d556 47bc
00000290: c550 663d 3112 f0bd 916a 93bd d161 193e
000002a0: a84b c6bd 892a 4f3d 8d9e d5bb 222d 843e
000002b0: 2a4e dcbd 9e96 373e 91b0 a33c 3ada c339
000002c0: dde0 a1bd 55f0 ccbd 341f 8cbb b273 36be
000002d0: 8085 c9bd 8263 e9bd 0c4c 7fbd 6988 b23d
000002e0: 63ec 213e 5f6c e53a a83a 363d f71a 0d3e
000002f0: 7864 413d ce29 613d ac67 cabd ebb9 24be
00000300: e53d efbd a883 09bc f582 703e e4b1 42be
00000310: 7290 e93d 71d0 093e c443 273e a572 403e
00000320: 14b1 193e 1f41 83bd fc80 4cbe f3e8 f0bd
00000330: 5734 95bd fe66 ac3c b8d7 d2bd af98 30be
00000340: ab51 08be fbc9 c1bd b396 d13d 24d6 4cbd
00000350: 6a74 49be f957 2abe 1cb3 0a3c d535 d83c
00000360: 928f 83bb a382 18be 3917 483e 2455 313d
00000370: e988 5dbe 6015 523e 1c67 7d3d 9aa6 31be
00000380: b114 2e3e e683 65bc 35c9 273e ce03 ed3d
00000390: 7fb6 433e c77e 633d 93c0 593d cdf3 8fbd
000003a0: 3f59 ac3d be1c 28be 043f b2bd dcba 7f3d
000003b0: 5826 413d 8b36 583e dc88 a73d e2e6 0cbd
000003c0: d2e4 203e 4ca5 1c3e c47f 31be 17b5 e4bd
000003d0: ccd0 0dbe 0480 3d3e bda1 debd 707f 273e
000003e0: 55f3 2cbe 43ff 913d 3357 07be 57e6 943d
000003f0: 92b2 813c 357f 513e dc33 cdbc 39d8 56be

network.0.bias f4 [128]
0.05272032 -0.11888971 0.16337952 -0.1131314 0.21814255 -0.05711686 -0.007254104 0.05010731
0.063336916 0.21322806 0.13144198 -0.0050572474 -0.042266775 -0.105507106 -0.13937114 -0.039329287
0.08999992 0.14112738 0.16897482 -0.08516186 0.10064588 0.122282855 -0.094659895 -0.18233944
0.19723846 -0.110498585 -0.12506612 0.037337467 0.17262618 0.025290484 -0.06725495 0.02756239
-0.0283523 0.19991004 0.12680711 -0.037886776 -0.14779136 -0.11370587 0.11682827 0.061146468
0.22117202 0.032466557 0.11425052 0.035305895 -0.11566578 -0.1774422 0.10247899 0.19307263
-0.04805877 -0.010021516 -0.028721204 -0.08858579 -0.010122261 0.09187225 -0.1172703 -0.05232669
0.0108761005 -0.08961408 -0.1774881 0.14239141 -0.08207364 -0.13788126 0.21988052 0.21547711
-0.13757126 -0.1275505 0.15045354 -0.15112168 -0.12997806 0.026464442 0.032371793 -0.008896331
-0.030803598 0.0015638327 -0.07166093 0.2042706 0.17432472 0.08934895 -0.15557414 -0.14311904
0.20035706 -0.16995858 -0.060013853 -0.07158737 -0.037126467 0.17284194 0.028323932 -0.14673135
0.13115834 -0.1381309 0.037242774 0.0131003475 0.20277008 -0.09862298 0.22436622 -0.14658815
-0.037085332 0.21671996 0.09813295 0.050865114 -0.0676047 0.19217558 0.0049254484 -0.21326016
-0.19826436 -0.049666826 -0.030473886 -0.062355764 -0.08678865 0.15806383 0.1952266 -0.21133675
-0.04151663 -0.06942078 0.004626552 -0.0630941 0.09968626 0.0005600628 0.020106548 -0.14583577
-0.05948127 -0.067654625 0.13623253 0.09255721 0.10311162 0.16012685 -0.22322027 -0.06572797
00000000: 43f1 573d 737c f3bd f64c 273e 6fb1 e7bd
00000010: c360 5f3e 5ef3 69bd d6b3 edbb 533d 4d3d
00000020: c9b6 813d 7558 5a3e ba98 063e 44b7 a5bb
00000030: ed1f 2dbd 1c14 d8bd 4fb7 0ebe bf17 21bd
00000040: e151 b83d b283 103e bc07 2d3e 5769 aebd
00000050: 6d1f ce3d 6f6f fa3d 0cdd c1bd 31b7 3abe
00000060: e1f8 493e 154d e2bd 5511 00be 2cef 183d
00000070: ebc4 303e fd2d cf3c f7bc 89bd 85ca e13c
00000080: 1543 e8bc 38b5 4c3e b9d9 013e 2a2f 1bbd
00000090: 9e56 17be a0de e8bd a943 ef3d b874 7a3d
000000a0: eb7a 623e a7fb 043d 2dfc e93d ea9c 103d
000000b0: 2ee2 ecbd 68b3 35be 81e0 d13d d5b4 453e
000000c0: 46d9 44bd 4931 24bc bb48 ebbc 776c b5bd
000000d0: d7d7 25bc 8527 bc3d 692b f0bd 8354 56bd
000000e0: ac31 323c 9687 b7bd 71bf 35be 0ecf 113e
000000f0: 3916 a8bd bf30 0dbe 5c28 613e 08a6 5c3e
00000100: 7bdf 0cbe 999c 02be 7e10 1a3e a4bf 1abe
00000110: f818 05be f5cb d83c 4998 043d ebc1 11bc
00000120: d457 fcbc 85f9 cc3a f7c2 92bd 502c 513e
00000130: 2e82 323e 95fc b63d d44e 1fbe cc8d 12be
00000140: 672a 4d3e 9f09 2ebe 16d1 75bd 669c 92bd
00000150: ec11 18bd 7afd 303e 9707 e83c be40 16be
00000160: 5f4e 063e 3072 0dbe e18b 183d d7a2 563c
00000170: f6a2 4f3e d8fa c9bd 42c0 653e 341b 16be
00000180: cae6 17bd d6eb 5d3e eef9 c83d f057 503d
00000190: 5574 8abd adc9 443e a865 a13b df60 5abe
000001a0: d005 4bbe 716f 4bbd 5fa4 f9bc c268 7fbd
000001b0: 3fbe b1bd 7cdb 213e 7be9 473e a968 58be
000001c0: 580d 2abd 7b2c 8ebd 559a 973b 7b37 81bd
000001d0: 4f28 cc3d 2ed1 123a 7db6 a43c f955 15be
000001e0: a2a2 73bd 828e 8abd 8a80 0b3e a28e bd3d
000001f0: 2f2c d33d 4bf8 233e db93 64be 639c 86bd

network.1.weight f4 [128]
0.99105453 0.9971543 0.9940708 0.9998671 0.99386466 0.99755865 0.98360234 1.0067011
1.0096915 1.0115588 1.0213512 0.9870568 0.99924755 1.0076903 1.0004497 1.0129719
1.0244083 0.99871445 1.0144047 0.98771155 0.99635553 0.99446684 0.98967797 1.0002053
1.0140935 1.0131909 1.016153 0.9734874 0.97019416 0.9922889 0.9990181 0.9924268
0.986094 0.9889228 1.0002708 1.0127003 1.0028951 0.9998577 0.98794204 1.0105305
0.9894556 1.0021356 1.006894 0.9900341 0.99458176 0.9962777 0.9949591 0.9955904
0.99319685 0.9960524 1.0086472 1.0098789 0.99703336 1.0357102 1.0103799 0.99577296
0.9896201 1.0028144 0.98681086 0.99785924 0.9777704 1.0004033 1.0117798 1.0193076
0.9886228 1.0026255 0.9977334 0.99558413 1.0065049 0.98890793 1.0085511 0.9936808
1.0075117 1.0009687 1.0221038 0.99530834 1.0141222 1.003172 1.0001712 1.0059015
1.009698 1.0015497 0.99987185 1.0014957 1.0132214 1.001706 0.9907651 1.0005163
1.0013885 0.9971491 1.0082469 1.0212028 0.97879785 1.0020428 0.9934961 0.99714243
0.99424106 1.0028826 0.9986901 0.9845769 0.98814493 0.9753057 0.9911779 1.0145934
1.0067036 0.9988729 0.9991219 1.0022435 1.0120507 1.0070573 1.0022522 1.0093995
1.0079149 1.0001829 1.0004234 1.0393225 0.99899703 0.9984676 1.0129527 0.98695576
0.98265123 0.9956842 0.9880922 1.0121835 0.9886546 0.99028546 0.990173 1.0096972
00000000: c0b5 7d3f 8145 7f3f 6d7b 7e3f 4af7 7f3f
00000010: ea6d 7e3f 0160 7f3f 5dcd 7b3f 95db 803f
00000020: 923d 813f c27a 813f a3bb 823f c1af 7c3f
00000030: b0ce 7f3f fffb 803f bc0e 803f 10a9 813f
00000040: d01f 833f c0ab 7f3f 03d8 813f aada 7c3f
00000050: 2811 7f3f 6195 7e3f 895b 7d3f ba06 803f
00000060: d1cd 813f 3db0 813f 4d11 823f 7836 793f
00000070: a55e 783f a506 7e3f a6bf 7f3f af0f 7e3f
00000080: a870 7c3f 0b2a 7d3f e008 803f 2aa0 813f
00000090: de5e 803f adf6 7f3f c5e9 7c3f 1059 813f
000000a0: f64c 7d3f fb45 803f e7e1 803f e072 7d3f
000000b0: e99c 7e3f 0e0c 7f3f a4b5 7e3f 03df 7e3f
000000c0: 2642 7e3f 4afd 7e3f 5a1b 813f b643 813f
000000d0: 943d 7f3f 2792 843f 2154 813f faea 7e3f
000000e0: be57 7d3f 395c 803f a39f 7c3f b473 7f3f
000000f0: 294f 7a3f 370d 803f 0082 813f ac78 823f
00000100: 6216 7d3f 0856 803f 756b 7f3f 9ade 7e3f
00000110: 27d5 803f 1229 7d3f 3418 813f dd61 7e3f
00000120: 25f6 803f be1f 803f 4cd4 823f 87cc 7e3f
00000130: c2ce 813f f167 803f 9c05 803f 61c1 803f
00000140: c93d 813f c832 803f 9af7 7f3f 0331 803f
00000150: 3db1 813f e737 803f c8a2 7d3f eb10 803f
00000160: 802d 803f 2a45 7f3f 3c0e 813f c6b6 823f
00000170: 7f92 7a3f f042 803f c355 7e3f ba44 7f3f
00000180: 9586 7e3f 755e 803f 28aa 7f3f 3b0d 7c3f
00000190: 11f7 7c3f a2ad 793f d6bd 7d3f 32de 813f
000001a0: aadb 803f 22b6 7f3f 74c6 7f3f 8449 803f
000001b0: e18a 813f 41e7 803f cd49 803f 0134 813f
000001c0: 5b03 813f fe05 803f e00d 803f 8508 853f
000001d0: 45be 7f3f 939b 7f3f 6fa8 813f 22a9 7c3f
000001e0: 088f 7b3f 29e5 7e3f 9cf3 7c3f 3b8f 813f
000001f0: 7818 7d3f 5983 7d3f fa7b 7d3f c23d 813f

network.1.bias f4 [128]
-0.00606655 0.0040801675 -0.011182786 -0.0016151875 0.0004919971 -0.0033113528 -0.020995894 0.010827426
0.002036912 -0.014225893 0.012371998 -0.009189421 -0.022404777 0.0015803567 -0.002833055 -0.008216932
0.022862224 -0.003271215 0.0026011963 -0.01598728 -0.0039347652 -0.010702768 -0.010338255 0.002285482
0.017029656 -0.023703253 0.010529721 -0.018104665 -0.034390405 -0.002515685 0.0079764435 -0.0006935937
-0.0038811322 -0.009603957 -0.004081436 0.0002927745 0.0036027196 -0.007903497 -0.0022448406 0.012848122
-0.009428869 0.0035688009 0.004438298 -0.018423041 -0.010893658 0.007078015 -0.004959958 0.0019666394
-0.009341564 -0.00089044386 0.0078077028 0.008984598 -0.00021134563 -0.01609995 -0.0013894354 -0.017876742
-0.010400037 0.0074537536 -0.01071545 -0.0025784404 -0.031890918 -0.049084835 0.005580548 0.018584931
-0.017373616 -0.004368558 -0.007641435 0.0044380873 0.008088649 -0.014278297 0.014206967 -0.0068026423
0.007833453 0.0009801228 -0.0020557852 -0.0037454225 -0.009222291 0.0012196063 -0.0050815693 0.000332458
0.0065772277 -0.013702636 0.004717666 0.0030133724 0.004014608 0.00037175787 -0.013000262 0.00066604494
0.0035110475 0.007270927 0.020312855 0.020720923 -0.014551315 -0.0033142471 -0.0010340479 0.0034800991
0.0018752543 0.011328341 -0.014517068 -0.0024376945 -0.007139723 -0.0155050745 -0.009616055 0.009029655
0.007842686 0.008640929 -0.0034630483 0.0028807307 0.0073487693 -0.0013505975 -0.00010355237 0.0047762278
0.013917331 0.0008268373 -0.008415057 0.028231196 -0.0060575786 -0.012724403 0.0094913365 -0.0031965168
-0.018673534 0.0030386138 -0.010123224 0.0092832865 0.00609983 -0.010637427 -0.010763725 0.004347485
00000000: e9c9 c6bb edb2 853b 0138 37bc b3b4 d3ba
00000010: 5ef9 003a 4803 59bb 95ff abbc 8465 313c
00000020: b67d 053b b813 69bc ecb3 4a3c 3a8f 16bc
00000030: 398a b7bc f923 cf3a c7aa 39bb 50a0 06bc
00000040: 8f49 bb3c e161 56bb d578 2a3b c2f7 82bc
00000050: 34ef 80bb aa5a 2fbc c961 29bc 06c8 153b
00000060: c781 8b3c 532d c2bc da84 2c3c 3c50 94bc
00000070: f4dc 0cbd 31de 24bb a1af 023c 49d2 35ba
00000080: 985a 7ebb ea59 1dbc 91bd 85bb 877f 9939
00000090: 9b1b 6c3b ab7d 01bc 2d1e 13bb ee80 523c
000000a0: 8b7b 1abc 8be2 693b 246f 913b ebeb 96bc
000000b0: 507b 32bc b1ee e73b 2587 a2bb bce2 003b
000000c0: 5c0d 19bc ad6c 69ba c2d7 ff3b 2334 133c
000000d0: a99c 5db9 0be4 83bc b71d b6ba 3f72 92bc
000000e0: eb64 2abc 9e3e f43b db8f 2fbc 0dfb 28bb
000000f0: 0da0 02bd 2e0d 49bd 08dd b63b 6d3f 983c
00000100: 1d53 8ebc 1f26 8fbb 0165 fabb 606d 913b
00000110: 4186 043c 85ef 69bc 57c4 683c b3e8 debb
00000120: e257 003c 7777 803a 5aba 06bb c375 75bb
00000130: 1819 17bc 32db 9f3a 4b83 a6bb c24d ae39
00000140: c985 d73b 0581 60bc a796 9a3b 007c 453b
00000150: f98c 833b 7fe8 c239 0dff 54bc 8599 2e3a
00000160: 9a19 663b f540 ee3b 2567 a63c edbe a93c
00000170: a468 6ebc d733 59bb e488 87ba 6012 643b
00000180: 18cb f53a 829a 393c ffd8 6dbc bac1 1fbb
00000190: 56f4 e9bb ff08 7ebc a88c 1dbc 1ef1 133c
000001a0: 9c7e 003c af92 0d3c 4ff4 62bb a4ca 3c3b
000001b0: f2cd f03b 8806 b1ba 412a d9b8 e781 9c3b
000001c0: 8405 643c 1dc0 583a 4fdf 09bc 1c45 e73c
000001d0: a77e c6bb 047a 50bc 8d81 1b3c a77c 51bb
000001e0: 3df9 98bc 7b23 473b e1db 25bc ed18 183c
000001f0: 15e1 c73b 9a48 2ebc 565a 30bc 5975 8e3b

network.1.running_mean f4 [128]
0.032847572 -0.13148572 0.19836974 -0.062248874 0.23811181 -0.045435656 -0.03364155 0.07213728
0.057293545 0.20861009 0.121922046 -0.042295005 -0.069562376 -0.11760034 -0.10376338 -0.06392324
0.08359073 0.076006 0.122315586 -0.07549094 0.07561208 0.08175085 -0.12686 -0.17915387
0.21900336 -0.08517255 -0.12499004 0.062362086 0.122623995 0.0696314 -0.09817478 0.03896562
-0.11282225 0.1601256 0.11552063 -0.030476913 -0.14075668 -0.09375528 0.13188365 0.078286685
0.22698943 0.030307468 0.07082351 0.009216818 -0.1169559 -0.20460348 0.084608205 0.193208
-0.043097362 0.0006785523 -0.025196929 -0.08216803 0.03000045 0.100650296 -0.129826 -0.01799823
0.06473674 -0.07625589 -0.21847047 0.1368995 -0.11468406 -0.19952878 0.23128773 0.19801636
-0.19084924 -0.0846384 0.10952367 -0.13974938 -0.104710415 -0.007541208 -0.0074571157 -0.007456257
-0.000629961 0.02168966 -0.097644985 0.2647792 0.20277965 0.07103713 -0.17521882 -0.14489213
0.24125849 -0.17849253 -0.08309312 -0.072974935 -0.05885061 0.1787617 0.023651838 -0.15311454
0.13177681 -0.22713083 0.063459635 0.018073935 0.18274342 -0.09635269 0.22597949 -0.117587596
-0.03117831 0.26830634 0.05409406 0.07488694 -0.01628734 0.19397688 -0.01200523 -0.20461485
-0.18836564 -0.042146556 -0.035304878 -0.048336383 -0.059858926 0.1293445 0.17681304 -0.20794846
-0.016336672 -0.045448013 -0.060497027 -0.11381097 0.039836403 0.004406062 0.04327754 -0.133454
-0.08109184 -0.031051997 0.14362907 0.11639428 0.01317898 0.08844297 -0.25307778 -0.078773245
00000000: 2d8b 063d 31a4 06be 7021 4b3e adf8 7ebd
00000010: 95d3 733e bd1a 3abd b9cb 09bd b6bc 933d
00000020: a3ac 6a3d e29d 553e 44b2 f93d 873d 2dbd
00000030: b876 8ebd 72d8 f0bd e581 d4bd 30ea 82bd
00000040: 9e31 ab3d 09a9 9b3d 9880 fa3d fe9a 9abd
00000050: 82da 9a3d fd6c a73d 96e7 01be 1d74 37be
00000060: 6b42 603e f26e aebd c7fa ffbd 636f 7f3d
00000070: 4a22 fb3d e89a 8e3d dc0f c9bd 6a9a 1f3d
00000080: 5a0f e7bd f7f7 233e 1496 ec3d b8aa f9bc
00000090: 8522 10be c502 c0bd 820c 073e c554 a03d
000000a0: eb6f 683e 5e47 f83c eb0b 913d 2302 173c
000000b0: 9386 efbd 9383 51be 1147 ad3d 51d8 453e
000000c0: dc86 30bd e0e0 313a ca69 cebc b647 a8bd
000000d0: 81c3 f53c be21 ce3d 1bf1 04be 0671 93bc
000000e0: b294 843d 0c2c 9cbd b9b6 5fbe 622f 0c3e
000000f0: 7adf eabd 4651 4cbe b1d6 6c3e cdc4 4a3e
00000100: fc6d 43be e656 adbd f24d e03d 761a 0fbe
00000110: 6a72 d6bd 3d1c f7bb d25a f4bb 9e53 f4bb
00000120: f823 25ba 84ae b13c 18fa c7bd 2491 873e
00000130: 78a5 4f3e ea7b 913d 906c 33be 9a5e 14be
00000140: 770c 773e bfc6 36be ba2c aabd e273 95bd
00000150: 560d 71bd 4f0d 373e 80c1 c13c 0fca 1cbe
00000160: 80f0 063e fc94 68be 20f7 813d ca0f 943c
00000170: 1721 3b3e 8f54 c5bd 2b67 673e c4d1 f0bd
00000180: a869 ffbc 735f 893e bc91 5d3d 535e 993d
00000190: 076d 85bc e0a1 463e 96b1 44bc 8e86 51be
000001a0: ece2 40be dea1 2cbd d99b 10bd 5ffc 45bd
000001b0: a22e 75bd e272 043e 7a0e 353e 71f0 54be
000001c0: 7cd4 85bc b227 3abd bbcb 77bd ba15 e9bd
000001d0: 7f2b 233d ba60 903b ca43 313d 2aa8 08be
000001e0: 7b13 a6bd c260 febc 8013 133e 2060 ee3d
000001f0: a6ec 573c 9621 b53d 6993 81be de53 a1bd

network.1.running_var f4 [128]
0.48773092 0.10812754 0.25384617 0.2598312 0.3016026 0.29799157 0.3811904 0.5229042
0.1527124 0.1565461 0.29155755 0.347071 0.3720914 0.2914327 0.6834259 0.2863088
0.28439352 0.6393482 0.15112351 0.1372507 0.24001594 0.39741895 0.2139653 0.4194261
0.5844179 0.19913022 0.27153373 0.28947666 0.4665974 0.24887864 0.16390961 0.19802992
0.36547205 0.47705916 0.1662703 0.48285365 0.13604419 0.43466133 0.39828593 0.54086465
0.27342686 0.16835661 0.41091898 0.20121686 0.12915933 0.35805333 0.3098847 0.18077573
0.423071 0.42202023 0.40867534 0.18666768 0.4453009 0.1313383 0.27673534 0.13032098
0.27866077 0.3489102 0.39500484 0.22894973 0.5639085 0.22024989 0.2943342 0.21560553
0.15285821 0.16225055 0.26268706 0.32032278 0.30925763 0.31710705 0.5962628 0.2695831
0.6152312 0.18032658 0.48637816 0.18278255 0.398966 0.1830233 0.4001358 0.08636434
0.23225094 0.19517963 0.23155187 0.31590408 0.41537184 0.2873829 0.43980974 0.18596984
0.23295613 0.71805096 0.083398975 0.14998724 0.15136765 0.36020055 0.33218324 0.4362426
0.25282377 0.28124034 0.1518448 0.35240585 0.75825095 0.23967032 0.15385486 0.37730998
0.13058756 0.27966085 0.3091126 0.3482285 0.40270424 0.14470856 0.09332917 0.341524
0.1600667 0.20602643 0.787511 0.3588813 0.3427859 0.15349299 0.24921517 0.23719913
0.4006099 0.29871058 0.46290445 0.46716493 1.155673 0.7141424 0.2315684 0.41674054
00000000: deb7 f93e f971 dd3d 20f8 813e 9808 853e
00000010: a86b 9a3e 5a92 983e 632b c33e 0ddd 053f
00000020: a460 1c3e 9f4d 203e 0847 953e 4ab3 b13e
00000030: c482 be3e ab36 953e 00f5 2e3f 1197 923e
00000040: 079c 913e 53ac 233f 1fc0 1a3e 738b 0c3e
00000050: bdc6 753e 7f7a cb3e b819 5b3e 05bf d63e
00000060: 699c 153f cbe8 4b3e 7806 8b3e 4936 943e
00000070: dbe5 ee3e 0bda 7e3e ecd7 273e 5bc8 4a3e
00000080: 271f bb3e 1941 f43e c342 2a3e 9838 f73e
00000090: 2b4f 0b3e ee8b de3e 22ec cb3e 1b76 0a3f
000000a0: 9bfe 8b3e ad65 2c3e f963 d23e cb0b 4e3e
000000b0: 5842 043e c452 b73e 35a9 9e3e 461d 393e
000000c0: c39c d83e 0913 d83e e53d d13e d025 3f3e
000000d0: 7bfe e33e 8c7d 063e 41b0 8d3e dd72 053e
000000e0: a0ac 8e3e 5ca4 b23e 133e ca3e cc71 6a3e
000000f0: 4f5c 103f 3089 613e f9b2 963e b2c7 5c3e
00000100: dd86 1c3e 0225 263e eb7e 863e 5901 a43e
00000110: 0457 9e3e db5b a23e aea4 183f cc06 8a3e
00000120: cb7f 1d3f 88a7 383e 8f06 f93e 592b 3b3e
00000130: 4645 cc3e 766a 3b3e 99de cc3e c9df b03d
00000140: 31d3 6d3e 2bdd 473e ef1b 6d3e 2ebe a13e
00000150: 9eab d43e da23 933e be2e e13e e16e 3e3e
00000160: 0d8c 6e3e 30d2 373f 15cd aa3d 4196 193e
00000170: 1f00 1b3e 356c b83e ec13 aa3e 315b df3e
00000180: 1e72 813e bcfe 8f3e 347d 1b3e 8a6e b43e
00000190: bc1c 423f 236c 753e 218c 1d3e c62e c13e
000001a0: bfb8 053e b52f 8f3e 0244 9e3e 024b b23e
000001b0: 402f ce3e 7b2e 143e 5d23 bf3d 3cdc ae3e
000001c0: 86e8 233e 98f8 523e 529a 493f 4abf b73e
000001d0: a281 af3e 442d 1d3e 4332 7f3e 54e4 723e
000001e0: be1c cd3e 98f0 983e d001 ed3e 3e30 ef3e
000001f0: 18ed 933f 09d2 363f 4420 6d3e 045f d53e

network.4.weight f4 [64, 128]
-0.059647262 0.0697844 0.011135711 -0.046586987 0.10329378 -0.035577 -0.026695834 -0.013284408
0.006138741 0.078847036 0.0026077167 0.06471714 -0.05536972 -0.027605757 0.053116284 0.07738687
0.033693723 -0.048516214 0.07787416 0.005814169 0.06724173 -0.074203 -0.063737094 0.07666486
-0.04108236 0.0426222 -0.01385771 0.036842573 -0.027177399 0.073332116 0.0030656029 -0.022858093
-0.020325765 -0.012010084 -0.086657576 -0.037867628 0.07121349 -0.074183375 0.045607682 -0.04025082
-0.088320546 0.012548317 0.02976195 -0.020324415 0.057553645 -0.05899566 -0.07660974 0.05976134
-0.05109146 0.08608984 -0.021962348 0.08452601 0.08848367 0.06580264 -0.034915682 0.01421603
-0.057882145 0.06618086 -0.02971863 0.017736645 -0.05171492 0.0040186886 0.0020756365 0.023716774
0.074755706 0.043084186 -0.036236405 0.019273933 0.017904956 0.046666566 0.0003695714 0.08275271
-0.04248639 0.071991935 -0.0059107295 0.03252896 -0.03199006 0.060652707 0.009044547 -0.052625224
0.036393926 0.062370174 -0.06394339 -0.055926703 -0.011508329 -0.03402738 0.016968813 0.055364367
-0.06562499 0.066001736 -0.01706503 -0.043365836 0.026012387 0.0829507 -0.046881426 -0.05908723
-0.07120559 -0.044023752 0.06377684 0.056830175 0.053496573 0.055482484 -0.05528828 -0.07930911
-0.10875291 -0.0017032127 0.038761117 0.01673017 -0.052743815 -0.07313753 -0.043817062 0.027247142
0.0852404 0.047523893 -0.040163793 -0.035341065 0.052953262 0.041354377 0.0100337565 0.0037111351
0.046880808 0.06131362 0.00016236897 -0.06712092 0.029097697 0.04202973 0.033063468 0.019526863
-0.016778748 0.030427692 -0.031417802 -0.0083313715 0.04696972 -0.06598277 0.039183095 0.019103458
0.033397824 0.023071777 -0.004039562 -0.004141069 0.043021113 0.09169424 -0.05018872 -0.014724756
-0.030377742 -0.0001239822 0.049296234 0.035783812 -0.07457879 0.061737083 -0.024891552 0.03980444
0.036968697 0.067781895 -0.06690893 0.013105063 0.06378105 -0.055273958 -0.069375426 0.0060496954
0.047472317 -0.07727669 0.02501151 0.046948496 0.069133155 0.01143864 -0.012661882 0.050755125
0.059287418 -0.07683807 -0.034913216 -0.033639356 0.086259164 -0.009760683 0.0036524804 -0.0760293
0.01411365 -0.00992351 -0.023811545 -0.03671529 -0.052127488 0.031887263 0.057080574 -0.023222951
-0.016006645 0.064571716 -0.054319385 0.040481728 -0.008684593 -0.0055562234 -0.054866135 -0.02965958
0.055111155 0.066479184 -0.04995125 0.033809107 -0.017730732 -0.0008843254 0.05894988 -0.0032414005
0.092737295 -0.0004422321 0.038374856 0.05673859 -0.011855002 -0.016650818 -0.037500095 0.09543176
0.045433093 0.04689107 0.044522785 -0.05160735 0.04801893 0.016028516 0.062827945 0.01270191
0.09888061 -0.044909403 0.024701528 -0.027075764 0.059892416 -0.017079497 -0.023943847 0.005960906
-0.07280997 -0.0069362386 6.192399e-05 0.029997453 0.06851725 0.08172044 0.0031539272 -0.037438735
0.04724932 0.06674782 0.07682733 -0.09836525 -0.05259219 0.05130375 0.03722585 -0.047230504
-0.018923245 0.0036230488 -0.003991988 -0.09458776 -0.011702937 0.06685329 0.05982871 -0.014103593
-0.057081353 0.03750075 0.03914129 0.037996273 0.0046342523 -0.04005589 0.041199517 0.008615703
00000000: b050 74bd 20eb 8e3d 8f72 363c ffd1 3ebd
00000010: b08b d33d 30b9 11bd 39b1 dabc d8a6 59bc
00000020: 7e27 c93b 8e7a a13d 3ae6 2a3b 6b8a 843d
00000030: 5ccb 62bd 7825 e2bc 7690 593d 027d 9e3d
00000040: 6e02 0a3d f0b8 46bd 7d7c 9f3d c984 be3b
00000050: 08b6 893d bef7 97bd 9888 82bd 7702 9d3d
00000060: fa45 28bd 9e94 2e3d 730b 63bc 3de8 163d
00000070: 23a3 debc 262f 963d 48e8 483b e540 bbbc
00000080: 3882 a6bc f2c5 44bc 8779 b1bd 161b 1bbd
00000090: 61d8 913d 74ed 97bd 1fcf 3a3d 0bde 24bd
000000a0: 67e1 b4bd 7597 4d3c 55cf f33c 637f a6bc
000000b0: 5fbd 6b3d 6fa5 71bd 91e5 9cbd 4fc8 743d
000000c0: 4745 51bd df4f b03d 62ea b3bc f91b ad3d
000000d0: ed36 b53d 89c3 863d bf03 0fbd 5aea 683c
000000e0: d415 6dbd d589 873d 7c74 f3bc 714c 913c
000000f0: 06d3 53bd 34af 833b 6707 083b ae49 c23c
00000100: 8519 993d 0b79 303d a06c 14bd 5ee4 9d3c
00000110: 6aad 923c 7125 3f3d 09c3 c139 417a a93d
00000120: 3506 2ebd 8270 933d cbae c1bb 163d 053d
00000130: 0208 03bd f96e 783d 942f 143c 8c8d 57bd
00000140: cc11 153d de77 7f3d c1f4 82bd 6613 65bd
00000150: 6e8d 3cbc 4b60 0bbd 2e02 8b3c bfc5 623d
00000160: 6566 86bd eb2b 873d f6cb 8bbc 60a0 31bd
00000170: ee17 d53c 0ee2 a93d bd06 40bd 7405 72bd
00000180: 3dd4 91bd 4052 34bd 6f9d 823d c2c6 683d
00000190: 391f 5b3d 9a41 633d f775 62bd d16c a2bd
000001a0: d8b9 debd 563e dfba fac3 1e3d b60d 893c
000001b0: e609 58bd 21c9 95bd 8579 33bd 6635 df3c
000001c0: 8592 ae3d 6aa8 423d ca82 24bd cbc1 10bd
000001d0: 85e5 583d 3563 293d a064 243c 8436 733b
000001e0: 1706 403d fe23 7b3d 9741 2a39 b176 89bd
000001f0: 4b5e ee3c 5e27 2c3d 8f6d 073d cdf6 9f3c
00000200: 9673 89bc 7f43 f93c f4af 00bd 4e80 08bc
00000210: 5263 403d f921 87bd 747e 203d db7e 9c3c
00000220: 28cc 083d 0601 bd3c 4d5e 84bb ceb1 87bb
00000230: e836 303d 31ca bb3d b092 4dbd 1a40 71bc
00000240: beda f8bc 3801 02b9 d9ea 493d 0c92 123d
00000250: c4bc 98bd 06e0 7c3d 5ee9 cbbc fb09 233d
00000260: 7d6c 173d 3cd1 8a3d 8d07 89bd 9eb6 563c
00000270: a49f 823d f266 62bd b414 8ebd 863c c63b
00000280: 5572 423d 3e43 9ebd f0e4 cc3c 114d 403d
00000290: af95 8d3d 2269 3b3c c873 4fbc 9be4 4f3d
000002a0: 5dd7 723d 475d 9dbd 2901 0fbd 6cc9 09bd
000002b0: a5a8 b03d 46eb 1fbc 745e 6f3b 40b5 9bbd
000002c0: f03c 673c 3896 22bc 6e10 c3bc c662 16bd
000002d0: a283 55bd 389c 023d 52cd 693d 0f3e bebc
000002e0: 5e20 83bc 2d3e 843d 017e 5ebd 2bd0 253d
000002f0: d349 0ebc fb10 b6bb 50bb 60bd a6f8 f2bc
00000300: 3cbc 613d 3d26 883d af99 4cbd 6b7b 0a3d
00000310: 0a40 91bc 13d2 67ba 6e75 713d ad6d 54bb
00000320: 0ded bd3d 63db e7b9 f42e 1d3d b966 683d
00000330: 7b3b 42bc 4c67 88bc b399 19bd ba71 c33d
00000340: 0d18 3a3d da10 403d 865d 363d 3b62 53bd
00000350: 7faf 443d 3c4e 833c f0ab 803d ac1b 503c
00000360: eb81 ca3d ecf2 37bd dc5a ca3c fecd ddbc
00000370: c051 753d 4dea 8bbc e325 c4bc b453 c33b
00000380: 651d 95bd 6349 e3bb 30dd 8138 38bd f53c
00000390: c652 8c3d 0c5d a73d 1eb2 4e3b 5c59 19bd
000003a0: 8188 413d 15b3 883d a657 9d3d b873 c9bd
000003b0: e96a 57bd e223 523d 227a 183d c674 41bd
000003c0: ec04 9bbc ac70 6d3b 39cf 82bb 3ab7 c1bd
000003d0: adbd 3fbc 61ea 883d f30e 753d c212 67bc
000003e0: 23ce 69bd 639a 193d 9e52 203d fba1 1b3d
000003f0: edda 973b a511 24bd d3c0 283d e128 0d3c

network.4.bias f4 [64]
0.06597484 0.010952187 -0.0321913 0.032389488 0.01270914 -0.011834324 0.010178688 -0.033007912
-0.06260105 -0.02464696 -0.03705615 0.08752936 -0.019969635 -0.05448293 -0.051770765 -0.05636323
0.021336507 -0.08047586 -0.04995016 -0.0040454725 0.04861812 0.007242862 -0.067265 -0.0025829829
0.023808336 -0.059276182 0.068535045 -0.03340076 0.041028894 -0.067170285 -0.04681993 0.054576278
-0.065295205 0.03010563 0.040153254 -0.01239896 0.039485347 -0.04260774 0.037246488 -0.045385703
0.08638327 0.019858195 -0.006207342 -0.02252857 0.033293184 -0.03709277 0.03543678 0.017024713
0.06422252 0.02690038 -0.059119467 -0.07177232 0.053030267 0.06738042 -0.061057918 0.057570573
-0.03961957 0.0344745 0.086977474 0.043034833 0.012580603 -0.048687175 0.00995421 0.055238478
00000000: d11d 873d cd70 333c 06db 03bd d7aa 043d
00000010: ff39 503c c1e4 41bc 83c4 263c 4e33 07bd
00000020: fb34 80bd 6ce8 c9bc 31c8 17bd 9842 b33d
00000030: 5c97 a3bc 7e29 5fbd 950d 54bd 21dd 66bd
00000040: e6c9 ae3c 87d0 a4bd 8a98 4cbd e28f 84bb
00000050: cb23 473d 8855 ed3b 3bc2 89bd 4347 29bb
00000060: b309 c33c 95cb 72bd 1a5c 8c3d 3ccf 08bd
00000070: ea0d 283d 9390 89bd 41c6 3fbd 608b 5f3d
00000080: 7eb9 85bd 15a0 f63c bd77 243d 0225 4bbc
00000090: 63bb 213d 7485 2ebd c68f 183d 5ce6 39bd
000000a0: b6e9 b03d a7ad a23c f566 cbbb d68d b8bc
000000b0: 6f5e 083d 97ee 17bd 2826 113d 6977 8b3c
000000c0: 1987 833d 305e dc3c 4127 72bd 5efd 92bd
000000d0: 4436 593d bffe 893d de17 7abd 1fcf 6b3d
000000e0: 2148 22bd 2235 0d3d 3f21 b23d 4b45 303d
000000f0: e01e 4e3c 346c 47bd fc16 233c be41 623d

network.5.weight f4 [64]
0.9815648 1.0045967 0.9802658 1.0081134 0.9997568 0.98752856 0.998525 1.0112894
1.0183675 0.9915559 0.9761642 1.0092691 1.028649 1.0037087 1.0287353 1.0117501
0.9842399 0.9979335 1.0135047 0.9979608 1.0106833 1.0067878 0.9939313 0.9940522
0.98941636 0.98485565 0.960894 0.995692 1.0489742 1.0112215 0.99415964 1.0146972
0.98392355 0.9879717 1.0022745 0.99477446 0.9734101 1.014146 0.982127 0.9988586
0.98464185 0.9809361 0.995872 1.0266707 0.99182636 1.0042429 0.98922867 1.0177436
1.0267293 1.010527 0.99894404 1.0206558 1.0208454 1.0109949 1.0120381 0.9966003
0.9776364 0.9922252 1.0065553 0.98634535 0.9803291 0.99393517 1.0080173 1.0083508
00000000: d547 7b3f a096 803f b3f2 7a3f dc09 813f
00000010: 10f0 7f3f acce 7c3f 569f 7f3f ee71 813f
00000020: de59 823f 9cd6 7d3f e6e5 793f bb2f 813f
00000030: c5aa 833f 8779 803f 99ad 833f 0781 813f
00000040: 25f7 7b3f 9278 7f3f 86ba 813f 5c7a 7f3f
00000050: 125e 813f 6cde 803f 4872 7e3f 347a 7e3f
00000060: 644a 7d3f 801f 7c3f 26fd 753f ace5 7e3f
00000070: c944 863f b56f 813f 3f81 7e3f 99e1 813f
00000080: 6ae2 7b3f b7eb 7c3f 884a 803f 8aa9 7e3f
00000090: 6831 793f 89cf 813f ad6c 7b3f 32b5 7f3f
000000a0: 7d11 7c3f a11e 7b3f 78f1 7e3f f269 833f
000000b0: 55e8 7d3f 088b 803f 173e 7d3f 6c45 823f
000000c0: de6b 833f f358 813f ccba 7f3f d9a4 823f
000000d0: 10ab 823f 4868 813f 778a 813f 3221 7f3f
000000e0: 6146 7a3f 7902 7e3f ced6 803f 2181 7c3f
000000f0: d9f6 7a3f 8972 7e3f b606 813f a411 813f

network.5.bias f4 [64]
-0.023777474 -0.027712628 -0.01659106 0.0067968383 -0.0028516683 -0.02680784 0.0038088835 0.018121645
-0.0019920864 0.0017159302 -0.0107051525 -0.0024204068 -0.034351137 0.007974493 0.030025868 -0.009794848
-0.008761845 -0.0062549175 0.027689194 0.009504975 0.014263916 -0.042994864 0.008854963 -0.0011957196
-0.008573889 -0.005589239 -0.034274906 0.0029426706 -0.01972338 0.0234615 -0.02673294 0.021054868
-0.010008443 -0.018196616 0.011388078 -0.0022128143 -0.024142064 0.019253602 -0.0046453555 0.009283143
-0.016943192 -0.031281896 -0.008585893 0.021270134 0.0070145405 -0.03281407 -0.0071366145 0.019828677
0.013500911 0.006750604 0.0001209833 0.026340375 0.016567653 0.014375728 -0.0144992 -0.0074241487
-0.012328837 -0.024410414 0.0026632966 -0.0076670563 -0.0072571663 -0.006734403 -0.028405167 0.012985535
00000000: fac8 c2bc 9805 e3bc fae9 87bc 03b8 de3b
00000010: 0ee3 3abb 1e9c dbbc 769e 793b d873 943c
00000020: aa8d 02bb 10e9 e03a aa64 2fbc b09f 1ebb
00000030: c7b3 0cbd 73a7 023c cff8 f53c 927a 20bc
00000040: d78d 0fbc 0df6 ccbb 73d4 e23c c1ba 1b3c
00000050: 33b3 693c 621b 30bd 6814 113c b1b9 9cba
00000060: 7f79 0cbc ef25 b7bb d863 0cbd d2d9 403b
00000070: ed92 a1bc 5532 c03c 0aff dabc 427b ac3c
00000080: 74fa 23bc 1211 95bc 1095 3a3c dd04 11bb
00000090: 94c5 c5bc bbb9 9d3c 1138 98bb 5318 183c
000000a0: 73cc 8abc 7221 00bd d8ab 0cbc b43e ae3c
000000b0: 3bda e53b 0c68 06bd 43da e9bb c06f a23c
000000c0: ed32 5d3c 2c34 dd3b 6ab8 fd38 c5c7 d73c
000000d0: e3b8 873c 2c88 6b3c 0d8e 6dbc 4646 f3bb
000000e0: e4fe 49bc 59f8 c7bc b48a 2e3b ee3b fbbb
000000f0: 86cd edbb 44ac dcbb f4b1 e8bc 48c1 543c

network.5.running_mean f4 [64]
0.291424 0.41596782 -0.10592491 -0.28392205 -0.31037644 0.3356197 -0.29075536 -0.26469317
0.28563938 -0.39003572 -0.09556639 0.35122728 0.21704401 -0.34608427 -0.6912367 0.3406619
0.118131176 -0.43447837 -0.2132076 -0.075701594 0.038381353 0.02629587 -0.07807504 0.089111455
0.008983082 -0.055424754 0.32929894 -0.09884386 0.38058445 -0.27495205 0.47143984 -0.534758
-0.031865973 0.48371732 -0.17874841 0.20810193 0.13443659 -0.2580416 0.0687883 -0.055512793
0.13700688 0.33383787 -0.17892803 -0.3754778 -0.09118507 0.42699587 -0.10690569 -0.2271145
-0.07800828 0.104479924 0.3759041 -0.32715318 -0.05776063 0.18627949 0.1308963 0.35104236
-0.13117567 -0.2175469 -0.15280984 0.09701052 0.16979708 0.101474635 0.092761315 -0.019497879
00000000: 8735 953e bcf9 d43e 29ef d8bd 3b5e 91be
00000010: a9e9 9ebe 58d6 ab3e e3dd 94be dd85 87be
00000020: 533f 923e c3b2 c7be 50b8 c3bd 10d4 b33e
00000030: c940 5e3e f531 b1be e3f4 30bf 3d6b ae3e
00000040: c2ee f13d f373 debe 1853 5abe 7009 9bbd
00000050: c435 1d3d 706a d73c cee5 9fbd 1180 b63d
00000060: c72d 133c 1105 63bd df99 a83e a66e cabd
00000070: f7db c23e 84c6 8cbe 9060 f13e e6e5 08bf
00000080: e585 02bd cca9 f73e d309 37be ac18 553e
00000090: bfa9 093e 071e 84be e1e0 8c3d 6261 63bd
000000a0: 884b 0c3e ccec aa3e e938 37be a03e c0be
000000b0: 3dbf babd 349f da3e 5ff1 dabd b490 68be
000000c0: cec2 9fbd 92f9 d53d 8176 c03e 9f80 a7be
000000d0: 6996 6cbd 0dc0 3e3e ae09 063e d3bb b33e
000000e0: ea52 06be 9dc4 5ebe 2f7a 1cbe 74ad c63d
000000f0: 49df 2d3e efd1 cf3d a5f9 bd3d 04ba 9fbc

network.5.running_var f4 [64]
0.17820314 0.24201676 0.20168406 0.3041953 0.14322405 0.29534423 0.17462468 0.29005066
0.23446254 0.23193954 0.16329436 0.23111269 0.31228715 0.27712622 0.34381056 0.2437164
0.20144221 0.3428792 0.2846231 0.1854787 0.23345809 0.29984206 0.22576246 0.20728837
0.21830475 0.3236392 0.23436928 0.20438817 0.23986338 0.19319841 0.36817822 0.2669808
0.1679794 0.24750404 0.23158123 0.17384738 0.25681478 0.17256553 0.24177252 0.24377346
0.2484491 0.22296833 0.3314969 0.24592395 0.23155856 0.28188545 0.2788125 0.26620966
0.17102669 0.20799024 0.2415568 0.19897003 0.20423065 0.23130834 0.21118432 0.24942414
0.13984768 0.2072942 0.18185538 0.15451646 0.2008509 0.23984756 0.2408015 0.2913787
00000000: e27a 363e 3ed3 773e 4486 4e3e 7dbf 9b3e
00000010: 53a9 123e 5c37 973e d0d0 323e 8581 943e
00000020: f316 703e 8f81 6d3e a336 273e cea8 6c3e
00000030: 1ae4 9f3e 7de3 8d3e f007 b03e cb90 793e
00000040: de46 4e3e dd8d af3e 1eba 913e 21ee 3d3e
00000050: a30f 6f3e e684 993e 462e 673e 6743 543e
00000060: 488b 5f3e 0ab4 a53e 80fe 6f3e 224b 513e
00000070: bf9e 753e ced5 453e db81 bc3e b5b1 883e
00000080: cb02 2c3e b371 7d3e a123 6d3e 0c05 323e
00000090: 3a7d 833e 05b5 303e 3793 773e c09f 793e
000000a0: 7169 7e3e cf51 643e f6b9 a93e 7dd3 7b3e
000000b0: b01d 6d3e 4a53 903e 83c0 8e3e a24c 883e
000000c0: 9f21 2f3e 65fb 543e aa5a 773e cdbe 4b3e
000000d0: d721 513e 18dc 6c3e b440 583e 0b69 7f3e
000000e0: 3b34 0f3e ee44 543e 4c38 3a3e 9039 1e3e
000000f0: dcab 4d3e 999a 753e ab94 763e 972f 953e

network.8.weight f4 [32, 64]
-0.035709698 -0.015998779 -0.05677313 -0.026313618 -0.02621069 0.103516 -0.003618339 0.102203906
0.0061173155 -0.0398281 -0.05941972 0.028376225 0.06730199 0.0087609785 0.05298643 -0.07127429
-0.11252896 -0.029154086 -0.050038226 -0.010058734 0.08804166 0.05114783 0.0034563248 -0.062328454
-0.11022763 0.061310295 0.013538189 0.07689819 0.105052985 -3.4432484e-05 0.027707694 0.06840326
-0.082871 -0.09306307 0.040716376 -0.057983384 0.08770341 -0.11714565 0.10920101 -0.05721314
0.02365713 0.13020071 -0.10978953 0.030658752 0.0073916498 0.103189066 -0.060778014 -0.036485583
0.022675889 -0.05462577 0.042942688 -0.050296348 -0.015608542 -0.0031776868 0.09200551 0.05094902
-0.003312415 -0.02463592 0.03543232 0.021775033 0.020534348 0.13244632 0.015309888 0.105995685
0.033395372 -0.09268407 0.10714404 0.09197714 -0.008016321 -0.04077054 -0.12755463 -0.13250096
0.090023585 -0.06753704 -0.023854027 -0.071783245 -0.050631814 0.10198823 0.083811 -0.02696033
-0.029477688 -0.08966316 0.0006990676 -0.0733053 -0.06548943 0.12112209 0.09814152 0.0071342643
-0.048419077 0.027969955 -0.05615335 -0.034447454 0.076719135 -0.07819878 0.061626427 0.09162141
-0.0010848832 0.039099466 -0.07381396 0.009378484 -0.014418639 0.034054507 0.084181845 -0.0895064
0.0063676545 0.0104230745 0.014276035 0.021249734 0.121993355 -0.06685394 0.018509287 0.057364613
0.011769252 0.026761953 0.024117664 0.11255787 -0.03722102 0.12941715 -0.024785547 -0.090729386
0.074994124 -0.05987735 0.027302235 0.09319081 0.07873397 0.08857833 0.076239124 -0.07480713
-0.026982397 0.05890002 0.09870537 -0.055764332 -0.033600397 0.046923693 0.04271393 0.1075165
-0.08017594 -0.051781252 -0.030296747 0.061984345 0.025260149 0.021200856 -0.008161883 -0.08776121
-0.12523384 -0.11142581 -0.002932513 0.047713704 0.006616998 0.0015404022 -0.06340021 0.009026994
0.06646553 0.07957171 -0.040279396 -0.114379406 -0.016575739 -0.023436269 -0.09182245 0.109041914
-0.07744668 -0.0682052 0.043553103 0.07621748 -0.04510939 0.00808092 -0.029979752 -0.09051856
-0.07449436 -0.049067106 0.061219107 0.0767633 0.02558378 -0.020042062 -0.004094109 -0.019497825
-0.015410845 -0.10065049 -0.084116235 -0.052247666 0.052693415 -0.11851739 0.0656494 -0.01783958
-0.014716686 -0.002405263 0.11914966 -0.028131844 0.049503475 -0.121714674 0.007029856 -0.05439434
-0.013686041 0.0031989664 0.03126901 0.024199534 -0.06569105 -0.11984809 0.031099202 -0.01772485
-0.10064374 -0.086060144 -0.016358355 0.05782862 0.0033927658 -0.013727627 -0.018663842 0.071302705
-0.06055031 0.08275926 -0.013034748 0.054868624 0.012184616 0.006482119 -0.024503 0.04565724
-0.039267633 0.05618634 0.056782532 -0.068576604 -0.047307964 0.13963401 0.018237302 0.07588452
-0.020442452 0.05851831 -0.009713649 0.11327727 -0.066223145 0.0977774 0.07150052 0.038573243
0.010562303 -0.05356791 -0.120387085 -0.10799759 0.030717881 -0.106761366 0.02037555 0.091838166
0.08722742 0.025535386 -0.018220926 -0.038943145 -0.1084776 -0.081158824 -0.08280052 0.029056394
0.08569955 -0.05493515 -0.045601152 -0.08687813 0.005769001 0.023457436 -0.023380557 0.10213062
00000000: 5544 12bd df0f 83bc f18a 68bd a88f d7bc
00000010: cdb7 d6bc 3200 d43d a821 6dbb 4850 d13d
00000020: c373 c83b ca22 23bd 1862 73bd 4275 e83c
00000030: a0d5 893d 358a 0f3c 4c08 593d 41f8 91bd
00000040: 9575 e6bd 8dd4 eebc e2f4 4cbd 63cd 24bc
00000050: 304f b43d 6380 513d 8283 623b 1f4c 7fbd
00000060: 06bf e1bd 8120 7b3d 48cf 5d3c cc7c 9d3d
00000070: 0526 d73d 996b 10b8 3ffb e23c 0217 8c3d
00000080: 45b8 a9bd da97 bebd 37c6 263d fc7f 6dbd
00000090: d89d b33d 0fea efbd c7a4 df3d 5358 6abd
000000a0: 99cc c13c 5653 053e 55d9 e0bd 1028 fb3c
000000b0: a735 f23b ca54 d33d 5ef2 78bd e871 15bd
000000c0: c9c2 b93c 45bf 5fbd ace4 2f3d 8b03 4ebd
000000d0: f8ba 7fbc bd40 50bb 636d bc3d ebaf 503d
000000e0: 1a15 59bb 45d1 c9bc 7b21 113d 8e61 b23c
000000f0: a637 a83c 02a0 073e 53d6 7a3c 4414 d93d
00000100: 96c9 083d 25d1 bdbd 566e db3d 835e bc3d
00000110: e356 03bc 02ff 26bd ae9d 02be 55ae 07be
00000120: 495e b83d dc50 8abd 8569 c3bc 1803 93bd
00000130: 4e63 4fbd 35df d03d 1aa5 ab3d e9db dcbc
00000140: 317b f1bc 52a1 b7bd a241 373a 1721 96bd
00000150: 531f 86bd dc0e f83d 6cfe c83d 8cc6 e93b
00000160: 1553 46bd 3f21 e53c 0e01 66bd c618 0dbd
00000170: ec1e 9d3d af26 a0bd fe6b 7c3d 01a4 bb3d
00000180: a432 8eba c326 203d c62b 97bd 37a8 193c
00000190: 283c 6cbc bd7c 0b3d 8867 ac3d 224f b7bd
000001a0: c2a7 d03b 8bc5 2a3c 08e6 693c ec13 ae3c
000001b0: a7d7 f93d b8ea 88bd caa0 973c 28f7 6a3d
000001c0: d2d3 403c e23b db3c 6892 c53c be84 e63d
000001d0: 1175 18bd ee85 043e 0f0b cbbc 54d0 b9bd
000001e0: 8596 993d f441 75bd f0a8 df3c d3da be3d
000001f0: 473f a13d 8e68 b53d 4223 9c3d 7b34 99bd
00000200: 300a ddbc 2641 713d 0b26 ca3d 2469 64bd
00000210: 92a0 09bd 0f33 403d cdf4 2e3d 9c31 dc3d
00000220: 4933 a4bd 9418 54bd e230 f8bc 4ce3 7d3d
00000230: 5fee ce3c 6bad ad3c 6bb9 05bc 26bc b3bd
00000240: 4d3d 00be 3733 e4bd 672f 40bb 726f 433d
00000250: 67d3 d83b 52e7 c93a f8d7 81bd f5e5 133c
00000260: 141f 883d 7ef6 a23d 02fc 24bd c03f eabd
00000270: d8c9 87bc 6bfd bfbc 690d bcbd 5e51 df3d
00000280: 5d9c 9ebd 2baf 8bbd bd64 323d e917 9c3d
00000290: a0c4 38bd d665 043c 1998 f5bc cb61 b9bd
000002a0: 8090 98bd 97fa 48bd e3c0 7a3d 1436 9d3d
000002b0: 1395 d13c 402f a4bc e027 86bb e7b9 9fbc
000002c0: c57d 7cbc d821 cebd 2245 acbd a601 56bd
000002d0: 0dd5 573d 3fb9 f2bd 3173 863d 5024 92bc
000002e0: 411e 71bc 9ea1 1dbb bd04 f43d c174 e6bc
000002f0: 28c4 4a3d 8b45 f9bd b55a e63b 99cc 5ebd
00000300: 6b3b 60bc c0a5 513b ef13 003d 1a3e c63c
00000310: 0789 86bd ea72 f5bd c1c3 fe3c b433 91bc
00000320: 4e1e cebd 4d40 b0bd f501 86bc b4dd 6c3d
00000330: 2a59 5e3b d7e9 60bc eae4 98bc 2707 923d
00000340: 9a03 78bd b07d a93d b28f 55bc ecbd 603d
00000350: fca1 473c f567 d43b 84ba c8bc 1603 3b3d
00000360: 19d7 20bd a623 663d cd94 683d e471 8cbd
00000370: ffc5 41bd 38fc 0e3e 6566 953c 5869 9b3d
00000380: ee76 a7bc e5b0 6f3d ff25 1fbc eafd e73d
00000390: 00a0 87bd 843f c83d dd6e 923d fafe 1d3d
000003a0: 820d 2d3c 066a 5bbd 818d f6bd d72d ddbd
000003b0: 11a4 fb3c b4a5 dabd a0ea a63c a615 bc3d
000003c0: 4aa4 b23d 962f d13c 0d44 95bc d982 1fbd
000003d0: 8129 debd 9936 a6bd 5293 a9bd ad07 ee3c
000003e0: 3f83 af3d ae03 61bd 46c8 3abd 29ed b1bd
000003f0: e309 bd3b cf29 c03c 9588 bfbc dc29 d13d

network.8.bias f4 [32]
0.034176264 0.08546287 -0.06910429 0.10296006 0.057169564 0.025778389 0.02145806 0.07441089
0.069040045 -0.11954183 0.026303748 0.055822533 -0.04831095 -0.084700145 0.0070268246 0.06792087
-0.086877264 -0.055335425 0.10118495 -0.04121161 -0.007944272 -0.07896989 -0.04877829 -0.10861877
-0.061378736 -0.03708777 -0.065103926 -0.048129994 0.12432792 -0.039482165 -0.014836731 -0.07956614
00000000: 69fc 0b3d 2807 af3d 8d86 8dbd b9dc d23d
00000010: a22a 6a3d 332d d33c d0c8 af3c bd64 983d
00000020: de64 8d3d 59d2 f4bd f57a d73c 2ba6 643d
00000030: b4e1 45bd 4577 adbd 4741 e63b 191a 8b3d
00000040: b5ec b1bd 66a7 62bd 0e3a cf3d 81cd 28bd
00000050: b128 02bc f7ba a1bd bfcb 47bd 8573 debd
00000060: 4568 7bbd 58e9 17bd 3555 85bd f523 45bd
00000070: a39f fe3d 0db8 21bd c315 73bc 93f3 a2bd

network.9.weight f4 [32]
1.0391648 1.0094006 1.0062548 0.97205514 1.0392959 0.96549666 1.0366727 1.0150558
1.0001359 0.9423233 0.94020885 1.0100571 0.9871243 0.98716456 1.0152841 0.9395378
0.99064195 1.0250775 0.97841406 1.0070562 0.99068123 0.9958385 0.9923498 0.9232349
0.99798656 1.0199361 1.0058762 1.0234753 1.0349064 0.9868191 1.0750479 0.99427336
00000000: 5a03 853f 0a34 813f f5cc 803f 9bd8 783f
00000010: a607 853f ca2a 773f b1b1 843f 59ed 813f
00000020: 7404 803f 1a3c 713f 87b1 703f 8d49 813f
00000030: 2eb4 7c3f d1b6 7c3f d4f4 813f 8d85 703f
00000040: b69a 7d3f bd35 833f 5879 7a3f 38e7 803f
00000050: 499d 7d3f 46ef 7e3f a30a 7e3f 1f59 6c3f
00000060: 0c7c 7f3f 448d 823f 8dc0 803f 3d01 833f
00000070: d077 843f 2da0 7c3f 2b9b 893f b388 7e3f

network.9.bias f4 [32]
-0.043512043 0.02355536 0.016287267 0.003630328 0.017358 -0.0040962794 0.05248365 -0.04737514
-0.002861074 -0.06020138 -0.01891487 0.017359959 -0.09106515 -0.0054524043 -0.05518903 -0.021560412
0.0050927214 -0.08418843 -0.008986428 0.004691616 0.027097208 -0.04416089 -0.054236006 -0.040729478
-0.012810018 -0.0101960525 0.035243135 0.027448643 0.014265417 -0.008620096 0.09300125 -0.011272303
00000000: af39 32bd 2cf7 c03c e06c 853c ccea 6d3b
00000010: 5d32 8e3c 153a 86bb 19f9 563d 6f0c 42bd
00000020: db80 3bbb b995 76bd 5cf3 9abc 7936 8e3c
00000030: 5e80 babd 15aa b2bb e40d 62bd 769f b0bc
00000040: d8e0 a63b fc6a acbd d03b 13bc 21bc 993b
00000050: f7fa dd3c 0de2 34bd 9326 5ebd f4d3 26bd
00000060: 1ce1 51bc 580d 27bc 1b5b 103d fadb e03c
00000070: 7fb9 693c 4e3b 0dbc 7077 be3d 77af 38bc

network.9.running_mean f4 [32]
0.20923927 0.29155552 -0.31468266 0.10161301 -0.006201072 -0.06881077 0.006596406 0.5071533
-0.102596186 -0.06084794 -0.05983539 -0.018399285 0.10577813 -0.15698668 0.14999492 -0.34227735
-0.19934955 0.32476854 -0.046316754 -0.1998115 0.08460071 -0.08192024 0.2996196 -0.3628313
-0.122086436 0.3729294 -0.28767952 -0.07819713 0.01690829 -0.09557172 -0.45101947 -0.1315067
00000000: d242 563e c446 953e 161e a1be 7b1a d03d
00000010: 5d32 cbbb a9ec 8cbd aa26 d83b ccd4 013f
00000020: f31d d2bd b13b 79bd f415 75bd 19ba 96bc
00000030: 34a2 d83d 1ec1 20be 4598 193e fa3e afbe
00000040: 4a22 4cbe 1048 a63e a3b6 3dbd 639b 4cbe
00000050: 2343 ad3d ccc5 a7bd bd67 993e 06c5 b9be
00000060: 7408 fabd 9af0 be3e bb4a 93be d125 a0bd
00000070: 4183 8a3c 1bbb c3bd 06ec e6be b1a9 06be

network.9.running_var f4 [32]
0.36518368 0.2727217 0.18923493 0.14574473 0.40704587 0.20826796 0.28512377 0.3215095
0.2245852 0.15477332 0.34254843 0.25247395 0.33956525 0.26353166 0.28484604 0.3737702
0.23456798 0.26932642 0.17261909 0.2906179 0.2623461 0.4060103 0.2389718 0.2199604
0.1999311 0.30581743 0.30328542 0.26265728 0.25478652 0.18656471 0.20509808 0.28325772
00000000: 5bf9 ba3e 2ea2 8b3e cdc6 413e 1b3e 153e
00000010: 5168 d03e 3244 553e befb 913e e59c a43e
00000020: aaf9 653e e67c 1e3e 8262 af3e 4444 813e
00000030: 7fdb ad3e 9fed 863e 57d7 913e cf5e bf3e
00000040: 9732 703e 27e5 893e 0fc3 303e dfcb 943e
00000050: 3a52 863e 95e0 cf3e 06b5 743e 4d3d 613e
00000060: bdba 4c3e 1a94 9c3e 3a48 9b3e 047b 863e
00000070: 6173 823e d20a 3f3e 3b05 523e 2807 913e
