ai-layer/model/results/10000_v3/dnn_eligibility_model.pth (torch, 68481 bytes, 25 tensors)

network.0.weight f4 [128, 16]
0.42147326 0.14705873 -0.16165148 0.12657015 -0.010949879 -0.084402926 -0.10181695 0.1615043
0.12431482 -0.1687234 0.08710682 0.12888849 0.27769095 0.1268467 0.13660444 -0.010352091
0.123959646 0.0005245125 -0.15614952 0.024285067 -0.19575654 -0.042073436 -0.12707259 0.19146949
-0.14031416 -0.08962563 -0.14088035 -0.073584475 -0.3417733 -0.61228913 0.21693595 0.01235371
0.3634807 -0.062528245 -0.08856507 0.1470979 -0.017819079 0.012718331 -0.1492952 -0.12276625
0.11726272 -0.11171778 0.226974 0.08566993 0.17850396 -0.07530293 0.1667218 0.10653196
0.15678182 -0.124151714 -0.32581913 -0.1749334 -0.26920283 0.23133303 0.10671778 0.09472116
0.110223025 -0.013181146 0.15582201 -0.14887193 0.18421496 -0.002160082 0.15414487 -0.15461788
0.14449112 -0.0025510686 0.32581276 -0.029710818 -0.020019675 -0.18598391 0.7605682 0.023277452
0.039146855 -0.2663541 -0.12577242 -0.0026908442 -0.12705559 0.1423755 -0.06934343 0.16929126
-0.3281709 -0.26259 0.10243205 -0.13126434 0.13420907 0.12557663 0.09249604 -0.2609828
0.033854634 0.009478204 0.0054549477 -0.042120628 0.14946054 0.17039566 -0.25157997 -0.13837825
0.09643228 -0.04819628 0.054211907 -0.099057674 -0.27434325 0.072933935 -0.041750237 -0.14726269
-0.010992631 -0.13656111 -0.15510993 -0.13990378 -0.4315758 -0.3719574 0.27047572 0.18109469
0.15486743 -0.13984703 -0.10949689 -0.028516866 0.087047264 -0.1482432 -0.037647534 0.028192855
0.22009465 0.08483427 -0.1322434 -0.1930925 -0.39487115 -0.3691232 -0.056319498 -0.15548214
0.16335796 -0.08893727 0.22625996 0.08905578 -0.18668638 0.28630027 0.011537697 -0.06525404
-0.20117839 -0.21796258 0.12542261 -0.10694704 -0.059596058 -0.36209312 0.17445089 -0.3157999
0.19967246 0.17721644 0.08937351 0.16213854 0.35278353 -0.29921815 0.24422826 0.019650197
-0.0034338692 -0.059941065 0.23766494 -0.1146116 0.16691035 0.121157706 0.107225694 -0.10505027
0.4726743 0.021383936 0.045014534 -0.20745939 -0.022265438 -0.1999724 -0.03813121 0.23246437
-0.062061064 -0.120592125 -0.09507558 -0.04428928 0.19891283 -0.0045597735 -0.052509464 0.065369196
-0.3650987 0.11099289 0.20938903 -0.2194812 0.045801025 0.15163869 0.080620036 -0.17854196
0.054527946 0.041867647 0.106401876 -0.09581672 -0.07355315 0.019392498 -0.22204684 -0.038340002
0.296742 0.06966034 -0.057435505 -0.08866078 -0.10053627 -0.26896164 -0.1574105 0.28378537
-0.05684919 0.12146696 0.15567096 0.15671578 -0.025180902 -0.16347311 -0.23227035 -0.14693187
-0.2540759 0.20486586 0.069963776 0.025982527 -0.194386 -0.10156395 0.036456086 0.043747295
0.0038835844 -0.26283285 0.122291535 -0.11704338 -0.104565464 0.23972039 -0.3853905 0.021181617
-0.17330141 0.2644132 0.10426644 0.00597032 -0.19390233 -0.22226685 -0.33775532 0.26509684
0.15060923 0.28904822 0.043773692 0.092033744 0.050750427 -0.13692802 -0.37825817 0.010692559
0.24314931 -0.11568509 0.1012207 0.0076579032 0.0339344 -0.09282123 -0.13393545 0.21784693
-0.006782389 0.28925484 -0.13475077 -0.057636138 -0.24294293 -0.32002026 0.03837832 0.06467144
00000000: 58cb d73e 9096 163e f787 25be 9b9b 013e
00000010: 1f67 33bc 71db acbd 6885 d0bd 6261 253e
00000020: c598 fe3d d4c5 2cbe 0f65 b23d 58fb 033e
00000030: 822d 8e3e 1ae4 013e 09e2 0b3e d19b 29bc
00000040: 8ede fd3d 707f 093a a9e5 1fbe 7af1 c63c
00000050: 6774 48be 3255 2cbd 511f 02be 9410 443e
00000060: 84ae 0fbe a48d b7bd f042 10be 75b3 96bd
00000070: e9fc aebe fbbe 1cbf 7524 5e3e 3767 4a3c
00000080: 241a ba3e cf0e 80bd 9a61 b5bd d5a0 163e
00000090: 51f9 91bc 8c60 503c d7e0 18be df6c fbbd
000000a0: 7027 f03d 4bcc e4bd df6b 683e b773 af3d
000000b0: bec9 363e 6c38 9abd 1fb9 2a3e 6e2d da3d
000000c0: 6a8b 203e 4143 febd c4d1 a6be be21 33be
000000d0: f4d4 89be 91e2 6c3e da8e da3d 2bfd c13d
000000e0: 9cbc e13d bcf5 57bc ce8f 1f3e e271 18be
000000f0: d9a2 3c3e 2a90 0dbb 27d8 1d3e 2654 1ebe
00000100: 7bf5 133e d42f 27bb eed0 a63e 1a64 f3bc
00000110: 4d00 a4bc 9172 3ebe 99b4 423f 5bb0 be3c
00000120: 7458 203d 915f 88be 7cca 00be e058 30bb
00000130: dc1a 02be e2ca 113e ee03 8ebd b05a 2d3e
00000140: 0406 a8be 3272 86be e5c7 d13d 296a 06be
00000150: 1a6e 093e 2997 003e 906e bd3d 8a9f 85be
00000160: 28ab 0a3d 784a 1b3c 6bbf b23b ae86 2cbd
00000170: 2f0c 193e 337c 2e3e 17cf 80be 07b3 0dbe
00000180: 4a7e c53d 7669 45bd 4e0d 5e3d c0de cabd
00000190: b876 8cbe 635e 953d 4c02 2bbd 08cc 16be
000001a0: 701a 34bc add6 0bbe 23d5 1ebe f042 0fbe
000001b0: 81f7 dcbe 3371 bebe cb7b 8a3e e370 393e
000001c0: 9195 1e3e 0f34 0fbe e83f e0bd 349c e9bc
000001d0: d645 b23d 11cd 17be 4d34 1abd b4f4 e63c
000001e0: 7e60 613e 97bd ad3d d06a 07be 0aba 45be
000001f0: 8d2c cabe b7fd bcbe 46af 66bd b636 1fbe
00000200: 4f47 273e be24 b6bd b1b0 673e e062 b63d
00000210: b72a 3fbe f395 923e 9c08 3d3c e9a3 85bd
00000220: b501 4ebe 9531 5fbe c96e 003e 0d07 dbbd
00000230: ff1a 74bd 4564 b9be 41a3 323e 86b0 a1be
00000240: f076 4c3e 3a78 353e 7509 b73d a507 263e
00000250: 0ba0 b43e 1f33 99be f916 7a3e 73f9 a03c
00000260: c40a 61bb c384 75bd 705e 733e 7db9 eabd
00000270: 8cea 2a3e 8821 f83d 2599 db3d 9924 d7bd
00000280: 5e02 f23e 5d2d af3c 2961 383d 3c70 54be
00000290: 0266 b6bc 91c5 4cbe 792f 1cbd 240b 6e3e
000002a0: be33 7ebd 01f9 f6bd fcb6 c2bd ad68 35bd
000002b0: ceaf 4b3e 276a 95bb 2a14 57bd 49e0 853d
000002c0: 38ee babe 3e50 e33d 146a 563e aebf 60be
000002d0: db99 3b3d 2c47 1b3e 1e1c a53d b4d3 36be
000002e0: b258 5f3d 697d 2b3d 3ae9 d93d 8e3b c4bd
000002f0: 09a3 96bd 04dd 9e3c 3f60 63be 680a 1dbd
00000300: 91ee 973e 15aa 8e3d 7e41 6bbd c893 b5bd
00000310: f6e5 cdbd 57b5 89be 3830 21be 514c 913e
00000320: b2da 68bd abc3 f83d 3568 1f3e 1a7a 203e
00000330: 2e48 cebc 7f65 27be 47d8 6dbe 4f75 16be
00000340: 3d16 82be 5bc8 513e 2b49 8f3d 4fd9 d43c
00000350: 200d 47be c300 d0bd fa52 153d 5d30 333d
00000360: bc83 7e3b 0792 86be fc73 fa3d 71b4 efbd
00000370: 6b26 d6bd 4379 753e e751 c5be 1285 ad3c
00000380: ed75 31be 2b61 873e a589 d53d ada2 c33b
00000390: 558e 46be ec99 63be 44ee acbe c6ba 873e
000003a0: 4e39 1a3e 21fe 933e 0b4c 333d 307c bc3d
000003b0: aedf 4f3d dc36 0cbe 0eab c1be d82f 2f3c
000003c0: 22fc 783e 4eec ecbd cc4c cf3d 26ef fa3b
000003d0: ccfe 0a3d 0f19 bebd 6026 09be 4413 5f3e
000003e0: cd3e debb 3619 943e 1bfc 09be df13 6cbd
000003f0: 08c6 78be b2d9 a3be 9632 1d3d 7672 843d

network.0.bias f4 [128]
0.114013575 0.05138007 -0.05238584 0.11707944 0.0908584 -0.2293634 -0.14469005 0.010925634
0.0967898 0.118798025 -0.12672809 -0.24227023 -0.011180169 -0.03217894 0.069851205 -0.06810009
0.1910657 0.0144357495 0.17815596 -0.1744994 0.09997122 0.028592687 -0.1329664 0.12276928
-0.24862513 0.20259924 0.019968282 0.024425186 0.11557701 0.016837984 0.105962716 0.15412705
-0.19100453 0.1765674 -0.028986344 -0.057267692 0.045270916 0.19595104 -0.13523509 -0.17780493
0.15163632 -0.11959496 0.08059099 -0.035931543 0.06767597 0.19059844 -0.12717478 -0.116642505
0.12919772 0.0081315795 -0.029899612 -0.21727629 0.21024 -0.018077359 -0.043175045 -0.102606066
-0.059828755 0.12900206 -0.0034896166 0.20685525 -0.0049650245 -0.03436076 0.13840437 0.0073084375
-0.05026992 0.08304435 0.19255628 0.0592528 0.17713529 0.16542436 0.07388233 0.088117845
0.09134344 0.021482328 0.2152619 0.22892213 0.08729854 -0.0052333246 0.23104167 -0.2063821
0.19093633 0.13351256 0.15488356 -0.023496887 -0.18992284 0.17729376 -0.109906726 0.062780306
0.15782419 -0.24547987 0.019683814 -0.085779205 0.1838654 -0.16199727 0.15076958 0.15854362
0.13696031 0.23395373 0.032315496 -0.22741008 0.17850831 0.018847663 0.003983913 -0.24400342
-0.05956477 -0.12056127 0.24803908 0.17910747 0.18644828 0.17171353 -0.15590613 -0.1113817
-0.11105404 -0.10155583 0.19298032 0.084783375 0.19985455 -0.017085733 -0.22082052 -0.074068464
0.17442991 0.15826033 0.08044533 -0.07118368 -0.23259863 -0.13753054 0.12832619 -0.10198943
00000000: f37f e93d e973 523d 8992 56bd 58c7 ef3d
00000010: f813 ba3d 3dde 6abe a129 14be 6e01 333c
00000020: bb39 c63d 614c f33d 02c5 01be b015 78be
00000030: 072d 37bc 10ce 03bd 260e 8f3d 0f78 8bbd
00000040: baa6 433e ec83 6c3c 846e 363e f9af 32be
00000050: b6bd cc3d 363b ea3c 5828 08be 766e fb3d
00000060: 9697 7ebe 2d76 4f3e 8694 a33c 5417 c83c
00000070: a4b3 ec3d d0ef 893c fb02 d93d 7bd3 1d3e
00000080: b196 43be 16ce 343e c574 edbc 8791 6abd
00000090: ff6d 393d 64a7 483e 117b 0abe 7f12 36be
000000a0: 8d46 1b3e 34ee f4bd e40c a53d f42c 13bd
000000b0: b399 8a3d 3d2c 433e 1b3a 02be 44e2 eebd
000000c0: 684c 043e 513a 053c 08f0 f4bc ad7d 5ebe
000000d0: 2849 573e f816 94bc 51d8 30bd 2123 d2bd
000000e0: ff0e 75bd 1e19 043e 0db2 64bb ddd1 533e
000000f0: a5b1 a2bb debd 0cbd e0b9 0d3e 9e7b ef3b
00000100: d5e7 4dbd 2813 aa3d 792d 453e 10b3 723d
00000110: f462 353e 0165 293e 9e4f 973d 2177 b43d
00000120: 4512 bb3d b5fb af3c 9e6d 5c3e 906a 6a3e
00000130: 94c9 b23d 4f7c abbb 3096 6c3e d455 53be
00000140: d084 433e 84b7 083e cc99 1e3e 8b7c c0bc
00000150: 227b 42be 7f8c 353e c716 e1bd f692 803d
00000160: aa9c 213e 135f 7bbe f33f a13c 02ad afbd
00000170: 3647 3c3e 9de2 25be 5763 1a3e 4259 223e
00000180: 533f 0c3e 9191 6f3e 415d 043d 30de 68be
00000190: e2ca 363e 6a66 9a3c 7c8b 823b 08dc 79be
000001a0: 30fa 73bd d4e8 f6bd f5fd 7d3e f367 373e
000001b0: 4cec 3e3e acd5 2f3e dba5 1fbe 171c e4bd
000001c0: 4d70 e3bd 81fc cfbd a29c 453e e8a2 ad3d
000001d0: aca6 4c3e 61f7 8bbc c61e 62be 35b1 97bd
000001e0: c19d 323e ff0e 223e 85c0 a43d c0c8 91bd
000001f0: 562e 6ebe ced4 0cbe f167 033e d6df d0bd

network.1.weight f4 [128]
0.98270226 0.89939046 0.92399794 1.094429 1.0400587 1.0681007 0.94613546 1.009209
1.0296088 0.8850327 1.112454 1.0647024 1.033701 1.0183781 0.87997097 1.1893604
1.0405729 1.0107027 0.9639507 0.8580283 0.9666124 0.85965943 1.1833411 0.87237877
1.0092875 0.9541889 0.9371365 0.923759 0.99284476 0.9304797 0.84685355 0.9141771
1.1295086 1.0656613 1.0285589 0.90663594 0.9471084 0.987694 0.7957431 0.9972316
0.8989158 1.0529984 1.0603346 0.8573374 0.96766204 0.80511904 0.8489158 0.918666
0.9987421 1.11927 0.900152 0.8795774 1.0126936 0.9303437 0.9340723 0.94580036
1.0091574 1.2566568 0.9522154 1.0601251 1.0389041 0.9458345 0.9333691 1.0253993
0.84471434 1.0009773 0.89071506 1.052636 0.92397 0.9094026 0.9226203 0.95840687
0.95996994 1.0448571 1.0303979 0.8533403 1.0571939 0.9437481 0.9733368 1.0197831
0.9470452 0.98598754 1.0897402 1.0340341 1.0043808 0.8815486 0.9780738 1.0112376
0.96282506 1.0926231 0.8964654 0.9825498 1.0754948 1.1118016 1.0082691 0.8890298
0.905577 0.98663986 1.043968 0.82196325 1.0106081 0.9189772 0.8998854 1.0151285
0.9829026 0.86132723 0.93820447 1.0837564 0.9709257 0.9693166 1.0068648 0.9545661
1.0924274 0.8484644 0.8990524 0.9962985 0.90518814 0.9710412 0.79861766 1.0103114
0.9378597 0.97473264 0.9285926 0.9449267 1.0958022 0.9389086 1.0674298 1.0312082
00000000: 6092 7b3f 743e 663f 218b 6c3f 4016 8c3f
00000010: a520 853f 86b7 883f ef35 723f c32d 813f
00000020: 39ca 833f 8191 623f e564 8e3f 2b48 883f
00000030: 5050 843f 375a 823f c745 613f f63c 983f
00000040: 7e31 853f b55e 813f 79c5 763f bea7 5b3f
00000050: e973 773f a412 5c3f b977 973f 3754 5f3f
00000060: 5530 813f b945 743f 2de8 6f3f 787b 6c3f
00000070: 132b 7e3f eb33 6e3f 65cb 583f 8307 6a3f
00000080: bd93 903f 9767 883f d1a7 833f 4b19 683f
00000090: b275 723f 84d9 7c3f d2b5 4b3f 924a 7f3f
000000a0: 591f 663f a7c8 863f 0bb9 873f 777a 5b3f
000000b0: b3b8 773f 481c 4e3f 8c52 593f b22d 6b3f
000000c0: 90ad 7f3f 3d44 8f3f 5d70 663f fc2b 613f
000000d0: f29f 813f 012b 6e3f 5d1f 6f3f f91f 723f
000000e0: 122c 813f 21da a03f 63c4 733f 2eb2 873f
000000f0: cffa 843f 3622 723f 47f1 6e3f 4940 833f
00000100: 333f 583f 0620 803f e705 643f c7bc 863f
00000110: 4c89 6c3f 9cce 683f d830 6c3f 275a 753f
00000120: 97c0 753f e1bd 853f 14e4 833f 8374 5a3f
00000130: 2152 873f 7a99 713f 9a2c 793f 4188 823f
00000140: 8e71 723f ae69 7c3f 9b7c 8b3f 3b5b 843f
00000150: 8d8f 803f 2bad 613f 0b63 7a3f 3c70 813f
00000160: b47b 763f 13db 8b3f c27e 653f 6288 7b3f
00000170: d0a9 893f 844f 8e3f f60e 813f 7597 633f
00000180: e5d3 673f 6e94 7c3f bea0 853f 2f6c 523f
00000190: 9b5b 813f 1742 6b3f e45e 663f bbef 813f
000001a0: 819f 7b3f f17f 5c3f 2b2e 703f 88b8 8a3f
000001b0: 968e 783f 2225 783f f2e0 803f 725e 743f
000001c0: a9d4 8b3f f734 593f 4c28 663f 6b0d 7f3f
000001d0: 69ba 673f 2896 783f 3572 4c3f e251 813f
000001e0: 9317 703f 1488 793f 3fb8 6d3f b7e6 713f
000001f0: 3f43 8c3f 505c 703f 8aa1 883f a1fe 833f

network.1.bias f4 [128]
-0.24574338 -0.48035496 -0.39051047 -0.10550507 -0.37568447 -0.17628439 -0.36671484 -0.24158444
-0.3666674 -0.074289225 -0.11507219 -0.23260142 -0.0631514 -0.17349757 -0.09315118 -0.18030104
-0.3656271 -0.42792794 -0.34379068 -0.23113056 -0.19233738 -0.24948905 0.061142553 -0.120381966
-0.06139558 -0.35736823 -0.21922882 -0.19259821 -0.24721882 -0.27632332 -0.3251052 -0.032523442
-0.3933737 -0.045355756 -0.035670206 -0.26875788 -0.18758938 -0.32654566 -0.2568402 -0.13393275
-0.15567039 0.08229453 0.007995574 0.033536106 -0.24916193 -0.33503047 -0.22129837 -0.33203068
-0.15855163 -0.07109799 -0.04329097 -0.16553062 0.042847164 -0.060189147 -0.07866196 -0.2155739
-0.21019551 0.050535347 -0.1635396 -0.26258662 -0.04661075 -0.14549705 -0.29210812 -0.32759053
-0.14109701 -0.20159513 -0.26922208 -0.09589792 -0.17671415 -0.11386812 -0.34763935 -0.33791575
-0.23254211 -0.24264759 -0.28705332 -0.113294296 -0.092955776 -0.15357195 -0.29621887 -0.15186758
-0.19844449 0.018322125 -0.1245921 -0.30450198 -0.061088145 0.011119208 -0.48015016 -0.22522919
-0.16138607 -0.22450036 -0.20371148 -0.17501678 -0.25933903 -0.19015564 -0.13604976 -0.20338841
-0.0756718 -0.18809234 -0.17020361 -0.2428724 -0.05698716 -0.19790761 -0.3689053 -0.15452918
-0.19283792 -0.2436209 -0.24920814 -0.34279206 -0.3205545 -0.13805638 -0.09707713 -0.3778483
-0.21023504 -0.18132505 -0.16450012 -0.12900378 -0.30871812 -0.16906255 -0.16980173 -0.48851052
-0.40885615 -0.07030887 -0.06825123 -0.2725312 -0.19070348 -0.13978009 -0.36652803 -0.030352682
00000000: 27a4 7bbe 16f1 f5be fdf0 c7be 0b13 d8bd
00000010: b759 c0be e583 34be 0cc2 bbbe e961 77be
00000020: d4bb bbbe f324 98bd f8aa ebbd 112f 6ebe
00000030: 8555 81bd 59a9 31be 0cc6 bebd d6a0 38be
00000040: 7a33 bbbe 5f19 dbbe 5505 b0be 7dad 6cbe
00000050: 17f4 44be 0f7a 7fbe 9d70 7a3d d28a f6bd
00000060: ef79 7bbd f8f8 b6be 857d 60be 7738 45be
00000070: ee26 7dbe 407a 8dbe 3074 a6be 4d37 05bd
00000080: 4768 c9be f5c6 39bd ec1a 12bd a29a 89be
00000090: 6e17 40be fe30 a7be 8f80 83be ab25 09be
000000a0: 0f68 1fbe 098a a83d deff 023c 285d 093d
000000b0: 4e24 7fbe 1d89 abbe 0a9c 62be edff a9be
000000c0: 5c5b 22be d39b 91bd df51 31bd dc80 29be
000000d0: 8280 2f3d e588 76bd 8619 a1bd 68bf 5cbe
000000e0: 7e3d 57be 27fe 4e3d ed76 27be c171 86be
000000f0: eaea 3ebd 2efd 14be 328f 95be f2b9 a7be
00000100: bc7b 10be f46e 4ebe 7ad7 89be 2166 c4bd
00000110: 8ef4 34be b033 e9bd c9fd b1be 4b03 adbe
00000120: 851f 6ebe 9c78 78be a7f8 92be d706 e8bd
00000130: 995f bebd f741 1dbe 00aa 97be 2d83 1bbe
00000140: 0835 4bbe 4818 963c 252a ffbd afe7 9bbe
00000150: 9037 7abd 572d 363c 3ed6 f5be 7ba2 66be
00000160: 6442 25be 6ce3 65be be99 50be 9937 33be
00000170: 16c8 84be 29b8 42be a150 0bbe 0d45 50be
00000180: d1f9 9abd 479b 40be db49 2ebe 8bb3 78be
00000190: 5e6b 69bd 4ba8 4abe 28e1 bcbe e63c 1ebe
000001a0: 4e77 45be c277 79be 6b30 7fbe 7182 afbe
000001b0: b81f a4be a75e 0dbe 60d0 c6bd 5575 c1be
000001c0: db47 57be 46ad 39be b872 28be 9119 04be
000001d0: 4d10 9ebe bc1e 2dbe 81e0 2dbe 0d1e fabe
000001e0: 9855 d1be 19fe 8fbd 4dc7 8bbd 3689 8bbe
000001f0: c647 43be 8322 0fbe 90a9 bbbe 30a6 f8bc

network.1.running_mean f4 [128]
0.123897575 0.04023738 -0.041820534 0.1533449 0.06725886 -0.21397167 -0.14094222 0.0069977846
0.090256214 0.09784875 -0.14729741 -0.24778216 -0.036009703 -0.050267942 0.054776758 -0.09139839
0.16914588 -0.025585834 0.15444425 -0.20652202 0.061401565 0.009533305 -0.1399175 0.15818939
-0.23997101 0.25016186 0.048883185 0.042495947 0.11493353 0.013034724 0.113452286 0.15793358
-0.21532436 0.1611672 -0.0654505 -0.068686016 0.04091257 0.16707271 -0.14474545 -0.17998455
0.17550367 -0.07309235 0.070305064 -0.02284454 0.09365621 0.1476105 -0.15508142 -0.11927784
0.10807089 0.019865876 0.009620929 -0.21642524 0.2282996 -0.015108329 -0.03508619 -0.14216015
-0.07589373 0.09532688 -0.02008259 0.22577512 0.01629632 -0.05760904 0.14770746 -0.019525416
-0.03293266 0.08912327 0.19492777 0.044287883 0.17814986 0.16595322 0.09341121 0.048084907
0.0924564 0.019507997 0.21170598 0.19539075 0.09310296 -0.026214335 0.25633726 -0.22461434
0.2171948 0.15632445 0.13172221 -0.0057161544 -0.16368178 0.20673145 -0.12475855 0.04826943
0.18075453 -0.2619431 0.056753643 -0.09248379 0.17245863 -0.16680285 0.1499536 0.1411975
0.13256642 0.23325104 -2.6848167e-05 -0.25929993 0.17885686 0.044573314 0.01970584 -0.21300852
-0.043116488 -0.14539249 0.2584925 0.16006094 0.1764209 0.12033902 -0.11216461 -0.12035672
-0.12988594 -0.10162928 0.20756999 0.08576917 0.22531258 -0.015026513 -0.23566988 -0.056975387
0.17843598 0.12555426 0.079884335 -0.07666956 -0.21235935 -0.14744776 0.105718724 -0.072944015
00000000: 03be fd3d f3cf 243d 024c 2bbd 7206 1d3e
00000010: 03bf 893d 641b 5bbe 2853 10be ac4d e53b
00000020: 40d8 b83d ed64 c83d 22d5 16be 9bba 7dbe
00000030: e97e 13bd c2e5 4dbd 985d 603d 142f bbbd
00000040: 9434 2d3e 6299 d1bc a226 1e3e 827a 53be
00000050: 3580 7b3d 9431 1c3c 8846 0fbe 66fc 213e
00000060: f6ba 75be 3715 803e bc39 483d 3b10 2e3d
00000070: 4562 eb3d 988f 553c ac59 e83d 57b9 213e
00000080: fd7d 5cbe 0409 253e e90a 86bd 41ab 8cbd
00000090: f093 273d 1c15 2b3e 2738 14be df4d 38be
000000a0: 3cb7 333e 71b1 95bd 1afc 8f3d 7924 bbbc
000000b0: d4ce bf3d 3527 173e aacd 1ebe f147 f4bd
000000c0: 4554 dd3d c3bd a23c 1aa1 1d3c 949e 5dbe
000000d0: 5fc7 693e ed88 77bc 89b6 0fbd 6e92 11be
000000e0: 2c6e 9bbd bd3a c33d 3e84 a4bc 9831 673e
000000f0: dc7f 853c 75f7 6bbd a040 173e c4f3 9fbc
00000100: 66e4 06bd 4386 b63d 259b 473e 3667 353d
00000110: eb6c 363e a4ef 293e 604e bf3d aef4 443d
00000120: c859 bd3d 3ccf 9f3c 74c9 583e 8314 483e
00000130: c4ac be3d 72bf d6bc a33e 833e 4d01 66be
00000140: 5068 5e3e 8413 203e 30e2 063e 944e bbbb
00000150: 329c 27be 69b1 533e 6981 ffbd 2ab6 453d
00000160: b717 393e 681d 86be 8276 683d 2468 bdbd
00000170: ff98 303e 5ece 2abe 708d 193e 1496 103e
00000180: 7ebf 073e 5cd9 6e3e 0038 e1b7 f6c2 84be
00000190: 4126 373e 8292 363d 246e a13c e81e 5abe
000001a0: ea9a 30bd c5e1 14be 2159 843e 04e7 233e
000001b0: aea7 343e 4e74 f63d 8fb6 e5bd 967d f6bd
000001c0: d200 05be 0323 d0bd 3a8d 543e bfa7 af3d
000001d0: 57b8 663e c331 76bc 7253 71be 065f 69bd
000001e0: ecb7 363e 4c91 003e 669a a33d ee04 9dbd
000001f0: bb74 59be 8cfc 16be 0f83 d83d ac63 95bd

network.1.running_var f4 [128]
0.5159402 1.4709557 0.23542714 0.2506178 0.60314834 0.359877 1.2674853 0.94957757
0.5131955 0.6242962 0.16716366 0.103417985 0.28007543 0.34749138 0.92300403 0.42031363
0.7262467 1.4932137 1.0072168 1.1909829 0.5761686 0.5275464 0.36006936 1.0407195
0.20103224 0.48642144 0.21105863 0.524778 0.12914401 1.228952 0.40575546 0.5331467
0.529949 0.3361374 0.30213597 2.0642047 0.2159537 0.8962457 0.6784254 0.30770156
0.92111015 0.5504819 0.65045184 1.2586265 0.28804898 0.28787622 0.53001577 0.3867386
0.13415046 0.395557 0.3888515 0.50589526 1.011507 0.58124304 0.49646047 0.53969175
0.3089684 0.16411868 0.9323412 0.29334906 0.10202338 0.7272222 0.34149042 0.24840355
0.26428533 0.7175737 0.7294036 0.20703886 0.80706275 0.21461138 0.65756917 0.314766
0.387431 0.32220793 0.30784127 1.059662 0.453943 0.23950443 0.5070251 0.36693972
0.43448994 0.7801838 0.4083112 0.16478492 0.26260754 0.2116022 1.346903 1.0819896
0.20073248 0.41630366 0.9031491 0.427735 0.20912929 0.39392078 0.68025064 0.21487409
0.20163904 0.23354031 0.20335585 0.7475312 0.2946123 0.5874438 1.6038474 0.70697206
0.18368015 0.5236859 0.63707906 0.5674601 0.20218772 0.91070825 0.6504714 0.9521826
0.19906524 0.44033387 0.16389903 0.22264531 0.74839014 0.15724441 0.46270734 1.8223699
0.47006193 0.3087358 0.71539813 0.23383804 0.11140191 0.415415 0.6551071 0.5041512
00000000: a814 043f 4748 bc3f d013 713e fa50 803e
00000010: ee67 1a3f cc41 b83e f53c a23f 8417 733f
00000020: c860 033f e0d1 1f3f f32c 2b3e cfcc d33d
00000030: 0c66 8f3e 64ea b13e fe49 6c3f 5933 d73e
00000040: 4eeb 393f a021 bf3f 7bec 803f 2172 983f
00000050: c97f 133f 480d 073f 035b b83e 4c36 853f
00000060: 65db 4d3e 3b0c f93e c11f 583e da57 063f
00000070: 543e 043e 4d4e 9d3f 2ebf cf3e 4d7c 083f
00000080: bdaa 073f 341a ac3e 91b1 9a3e ee1b 0440
00000090: f722 5d3e 5c70 653f 49ad 2d3f 0f8b 9d3e
000000a0: e0cd 6b3f 62ec 0c3f 0384 263f ac1a a13f
000000b0: 287b 933e 8364 933e 1daf 073f 9a02 c63e
000000c0: bd5e 093e 7286 ca3e 8b17 c73e 5a82 013f
000000d0: 1079 813f 58cc 143f 1130 fe3e 3d29 0a3f
000000e0: 1b31 9e3e ba0e 283e eaad 6e3f d931 963e
000000f0: a2f1 d03d 3c2b 3a3f d5d7 ae3e 805d 7e3e
00000100: 6850 873e e9b2 373f 32ba 3a3f ff01 543e
00000110: aa9b 4e3f 16c3 5b3e 7456 283f 0229 a13e
00000120: 5b5d c63e 70f8 a43e 5f9d 9d3e 01a3 873f
00000130: 386b e83e a640 753e 66cc 013f 86df bb3e
00000140: 7775 de3e 20ba 473f 2a0e d13e 61bd 283e
00000150: 7f74 863e 3fae 583e 5167 ac3f a37e 8a3f
00000160: d18c 4d3e c125 d53e c834 673f 1500 db3e
00000170: fd25 563e fcaf c93e e824 2e3f f407 5c3e
00000180: 777a 4e3e 3125 6f3e 843c 503e 345e 3f3f
00000190: 6cd7 963e b862 163f df4a cd3f 1ffc 343f
000001a0: a616 3c3e 4710 063f 9d17 233f 1145 113f
000001b0: 4c0a 4f3e 2d24 693f 4b85 263f 3dc2 733f
000001c0: c2d7 4b3e 7173 e13e 26d5 273e 22fd 633e
000001d0: 7f96 3f3f ae04 213e fae7 ec3e 6b43 e93f
000001e0: f5ab f03e 9e12 9e3e 5524 373f 3d73 6f3e
000001f0: af26 e43d 46b1 d43e 19b5 273f 0e10 013f

network.4.weight f4 [64, 128]
0.15926984 -0.014855426 -0.051396996 0.06504781 -0.021791136 -0.008563226 -0.10811635 -0.14457484
0.015758615 0.04780086 0.059133302 0.002691547 -0.07924257 -0.13682012 -0.091021635 -0.075434186
0.067211285 -0.08837916 -0.07203933 0.040660907 -0.08765674 -0.08034964 0.0038070707 0.054289613
0.12265783 -0.09659658 0.068067305 -0.09492829 0.08680581 0.04561049 0.061843727 0.07414183
0.10123034 -0.0064907796 0.0651763 -0.0327557 -0.04249601 -0.0050622043 0.025711661 0.07372584
-0.024767255 -0.27301732 0.047572907 0.077397525 -0.032004774 0.14412329 0.1456925 -0.030728282
-0.004157847 -0.08896917 0.010368776 0.13396853 -0.029979985 0.0120555675 0.06584614 -0.015509835
-0.019785032 -0.10082839 -0.08353419 0.05212109 0.11813319 0.15360628 -0.20648706 -0.1783539
0.064354986 -0.003702134 0.13844495 0.04276221 -0.033010814 -0.032435544 -0.06942862 -0.20377496
0.12564956 0.07728198 -0.16603442 0.016774364 -0.011743228 -0.047848918 0.068874456 0.05971517
0.043975294 -0.107540555 -0.07581708 0.00088177854 -0.13283396 -0.050600864 -0.040317714 -0.060921434
-0.035744503 0.061349373 -0.03373579 0.022393277 -0.015023595 0.21861576 0.09254109 0.139937
0.15689348 0.12564336 -0.27283114 -0.04756374 -0.107208356 -0.009184309 0.045749635 -0.08897761
-0.13949053 0.018452395 0.04830476 0.028442904 0.055692848 -0.06195619 0.12592755 -0.08231702
-0.2031826 0.100458324 0.13263682 0.016688012 -0.068362854 -0.10869737 0.08674888 -0.0031988574
0.023215549 -0.04589896 -0.2243098 -0.084441565 0.039913796 -0.03464464 0.040632416 -0.15332621
0.070665866 -0.105440125 -0.075721934 -0.035569333 -0.118227966 -0.046779595 -0.02741179 -0.08637485
0.034238353 0.09673046 -0.07957579 0.019131912 -0.18568969 0.07672815 -0.12239141 -0.258401
-0.17680022 -0.050084304 -0.050777435 0.07160263 -0.009836424 0.0047781775 -0.111116245 -0.13753244
-0.03880378 0.0019177233 -0.011307853 0.026478695 -0.13995443 0.054863524 -0.1207905 -0.18827803
-0.11377314 0.04207183 -0.09908261 -0.0435915 0.11097153 -0.05046034 -0.05716533 -0.047111355
0.020636778 0.12770805 -0.08768312 -0.0019094271 -0.06726739 0.054927878 -0.037202887 0.127693
0.10481882 0.17328708 0.06570031 0.11897163 0.16839097 0.055268776 -0.05938144 -0.084135175
-0.019865887 -0.17883204 -0.063023284 0.08533474 0.15969625 0.10922175 -0.046895385 0.15704837
0.020993993 -0.0084901275 0.011013277 0.025043663 -0.115408964 -0.0018684613 -0.057398375 -0.02471343
-0.16625226 0.02871244 -0.07827057 -0.0262443 -0.056680195 -0.09971962 -0.08878036 -0.11642398
0.051876705 0.079134785 -0.03901026 0.008271474 0.08323685 0.014769658 -0.06538453 0.020534214
-0.04186127 -0.29943645 -0.09307917 0.027969928 0.043423653 0.17984572 -0.032772157 -0.07782357
-0.14577886 -0.051827736 0.07367503 0.00580662 0.17884979 -0.07862753 0.045603577 0.036229726
-0.01776115 0.09420437 0.01865437 -0.14102507 0.026900608 -0.010466194 -0.1506784 0.013405466
-0.12925923 0.0548295 -0.09897656 0.03926425 -0.09184097 -0.07032964 -0.035542704 0.0929512
0.098825105 -0.08075045 -0.038186956 0.0015031749 -0.14306265 0.075185165 -0.1006241 -0.13274108
00000000: a217 233e 2c64 73bc a885 52bd c937 853d
00000010: 5383 b2bc c64c 0cbc 1b6c ddbd 6d0b 14be
00000020: 3618 813c d6ca 433d c335 723d aa64 303b
00000030: ee49 a2bd 931a 0cbe 8d69 babd 3d7d 9abd
00000040: 12a6 893d 2200 b5bd 5b89 93bd 0d8c 263d
00000050: 6085 b3bd 5a8e a4bd 0c80 793b c95e 5e3d
00000060: 0734 fb3d 6ed4 c5bd df66 8b3d c369 c2bd
00000070: 3fc7 b13d 11d2 3a3d d94f 7d3d acd7 973d
00000080: da51 cf3d 9bb0 d4bb 277b 853d d72a 06bd
00000090: 4c10 2ebd d9e0 a5bb 43a1 d23c 93fd 963d
000000a0: b3e4 cabc edc8 8bbe cfdb 423d 9882 9e3d
000000b0: 7017 03bd 0e95 133e 6a30 153e e1b9 fbbc
000000c0: 8c3e 88bb 7835 b6bd cce1 293c 0c2f 093e
000000d0: 9698 f5bc b784 453c 57da 863d f71c 7ebc
000000e0: 3814 a2bc 1d7f cebd f913 abbd ed7c 553d
000000f0: d0ef f13d f74a 1d3e 5871 53be 68a2 36be
00000100: 8ccc 833d 809f 72bb 83c4 0d3e 6d27 2f3d
00000110: 5936 07bd 22db 04bd 9830 8ebd 62aa 50be
00000120: 47aa 003e 0446 9e3d ed04 2abe 646a 893c
00000130: ab66 40bc 3afd 43bd 0d0e 8d3d e597 743d
00000140: 701f 343d 393e dcbd fc45 9bbd 2827 673a
00000150: a005 08be da42 4fbd 3024 25bd c188 79bd
00000160: d468 12bd 7b49 7b3d 8a2e 0abd 1b72 b73c
00000170: 8625 76bc cfdc 5f3e 2f86 bd3d a54b 0f3e
00000180: afa8 203e a7a8 003e 86b0 8bbe 32d2 42bd
00000190: 0e90 dbbd c979 16bc f863 3b3d e539 b6bd
000001a0: 9bd6 0ebe 7a29 973c 36db 453d 1801 e93c
000001b0: 2f1e 643d c6c5 7dbd 27f3 003e d395 a8bd
000001c0: 190f 50be 18bd cd3d f2d1 073e 4cb5 883c
000001d0: d301 8cbd ba9c debd 66a9 b13d eca3 51bb
000001e0: 892e be3c 8c00 3cbd 78b1 65be b3ef acbd
000001f0: a67c 233d 8ae7 0dbd 2d6e 263d 8c01 1dbe
00000200: 44b9 903d fef0 d7bd 1a14 9bbd 26b1 11bd
00000210: 8121 f2bd f69b 3fbd b18e e0bc 4ce5 b0bd
00000220: 843d 0c3d 9f1a c63d a2f8 a2bd 87ba 9c3c
00000230: 7025 3ebe a623 9d3d 59a8 fabd 234d 84be
00000240: 1e0b 35be 3325 4dbd 00fc 4fbd 66a4 923d
00000250: f428 21bc 4292 9c3b ea90 e3bd 4ed5 0cbe
00000260: b6f0 1ebd 1e5c fb3a 9344 39bc d9e9 d83c
00000270: 3750 0fbe 93b8 603d 0261 f7bd f5cb 40be
00000280: e401 e9bd 8353 2c3d d3eb cabd 008d 32bd
00000290: 0b45 e33d 80af 4ebd 3126 6abd d6f7 40bd
000002a0: 760e a93c e6c5 023e 3593 b3bd be45 faba
000002b0: 7cc3 89bd 0efc 603d 0e62 18bd f4c1 023e
000002c0: 40ab d63d 2b72 313e e28d 863d 66a7 f33d
000002d0: af6e 2c3e 8361 623d f439 73bd 104f acbd
000002e0: c9bd a2bc bf1f 37be 5a12 81bd fbc3 ae3d
000002f0: 6a87 233e a7af df3d 6015 40bd 4ad1 203e
00000300: 98fb ab3c 2d1a 0bbc 0871 343c 5e28 cd3c
00000310: 895b ecbd 28e7 f4ba 8f1a 6bbd d273 cabc
00000320: 083e 2abe 5a36 eb3c 524c a0bd 49fe d6bc
00000330: 7e29 68bd cd39 ccbd 7ad2 b5bd b26f eebd
00000340: ab7c 543d 6b11 a23d 39c9 1fbd 1485 073c
00000350: 1578 aa3d 70fc 713c 53e8 85bd 5e37 a83c
00000360: b976 2bbd bc4f 99be 4ba0 bebd 3121 e53c
00000370: 00dd 313d 7a29 383e 193c 06bd f761 9fbd
00000380: 0e47 15be 5249 54bd efe2 963d 7645 be3b
00000390: 6624 373e 7807 a1bd d1ca 3a3d 9f65 143d
000003a0: d57f 91bc 39ee c03d 0dd1 983c e068 10be
000003b0: aa5e dc3c 667a 2bbc 704b 1abe 9aa2 5b3c
000003c0: 885c 04be e694 603d 39b4 cabd 8dd3 203d
000003d0: 1e17 bcbd fc08 90bd 3a95 11bd 335d be3d
000003e0: d164 ca3d 7e60 a5bd ed69 1cbd 2e06 c53a
000003f0: 047f 12be aefa 993d 0214 cebd 47ed 07be

network.4.bias f4 [64]
-0.023582134 0.08172751 0.08108471 0.08512848 -0.049103286 -0.06115552 -0.082381316 -0.013512328
-0.060195107 0.041096184 0.0082211085 0.06581365 -0.07714451 -0.07168511 -0.013645097 0.02010841
0.07858295 -0.009014216 0.0750676 -0.025107266 -0.011272005 -0.034170073 -0.038391776 -0.03037554
-0.07926332 -0.011584331 -0.028496299 -0.054681037 -0.070334524 -0.087868705 -0.014710669 -0.070383295
0.07633077 -0.022188883 0.023539878 -0.06448152 0.01170146 -0.08322879 0.041711707 0.043878656
-0.082651995 0.034742184 0.010128872 -0.055003952 -0.04012678 0.08638442 -0.042413965 0.07402402
0.015453632 0.0444548 -0.048352335 0.026827035 0.017901815 0.06760963 -0.08174017 -0.029736202
0.0034087393 -0.061137013 0.013314191 0.056239765 0.053097982 -0.042950496 0.035000745 -0.06572161
00000000: 522f c1bc c160 a73d be0f a63d d757 ae3d
00000010: 8720 49bd 367e 7abd 89b7 a8bd d062 5dbc
00000020: 258f 76bd 7954 283d d4b1 063c 4fc9 863d
00000030: f1fd 9dbd a5cf 92bd af8f 5fbc 64ba a43c
00000040: 19f0 a03d 5db0 13bc 0bbd 993d c1ad cdbc
00000050: 37ae 38bc ebf5 0bbd b240 1dbd 20d6 f8bc
00000060: cf54 a2bd 35cc 3dbc 1271 e9bc 39f9 5fbd
00000070: 8c0b 90bd 82f4 b3bd 0505 71bc 1e25 90bd
00000080: 4f53 9c3d 76c5 b5bc b4d6 c03c e30e 84bd
00000090: 7bb7 3f3c db73 aabd e5d9 2a3d 1bba 333d
000000a0: 7345 a9bd d24d 0e3d 91f3 253c d34b 61bd
000000b0: fa5b 24bd 51ea b03d 44ba 2dbd e899 973d
000000c0: 3b31 7d3c 3d16 363d 190d 46bd 5fc4 db3c
000000d0: d4a6 923c eb76 8a3d 6467 a7bd 5699 f3bc
000000e0: 2865 5f3b ce6a 7abd c423 5a3c ab5b 663d
000000f0: 457d 593d dcec 2fbd f15c 0f3d 0d99 86bd

network.5.weight f4 [64]
0.8306431 0.864483 1.0961334 0.89271754 1.0327138 1.0035506 1.0256752 0.9568728
1.0499585 0.89959913 1.0298909 1.0032984 1.0781616 1.05084 0.9830453 0.94322604
1.019147 1.0137483 1.05797 1.1156698 0.8916375 0.9997323 1.0387311 0.90444404
0.9991867 0.98268795 1.0865204 0.9085784 1.0804032 0.97100127 1.0403941 1.0555471
0.97896546 0.9626951 1.0279186 0.9880636 1.0123996 0.9295864 1.0844799 1.1100711
1.0339078 0.9780739 1.0471076 0.9509173 1.1344937 1.094258 0.924032 0.94517446
0.9488017 0.9689088 0.98233414 0.8953833 0.9507252 0.8819464 1.0014415 0.95053846
1.02205 1.0628258 0.9266668 1.0604172 0.8183902 0.94040513 1.02442 1.1152604
00000000: 07a5 543f c24e 5d3f 194e 8c3f 2389 643f
00000010: f72f 843f 5974 803f 5349 833f 9ef5 743f
00000020: 0a65 863f 214c 663f 77d3 833f 156c 803f
00000030: 3301 8a3f ed81 863f dba8 7b3f 4377 713f
00000040: 6973 823f 81c2 813f 906b 873f 45ce 8e3f
00000050: 5b42 643f 75ee 7f3f 24f5 843f a589 673f
00000060: b3ca 7f3f 7091 7b3f 1a13 8b3f 9898 683f
00000070: a74a 8a3f 8a93 783f a22b 853f 2b1c 873f
00000080: 7b9d 7a3f 3073 763f d692 833f bcf1 7c3f
00000090: 4f96 813f 60f9 6d3f 3dd0 8a3f cf16 8e3f
000000a0: 1757 843f 0d63 7a3f 9f07 863f 516f 733f
000000b0: 1737 913f a510 8c3f 5c8d 6c3f f4f6 713f
000000c0: abe4 723f 680a 783f 407a 7b3f d737 653f
000000d0: ba62 733f 3dc7 613f 3c2f 803f 7d56 733f
000000e0: 89d2 823f ad0a 883f 093a 6d3f c0bb 873f
000000f0: 0582 513f 64be 703f 3220 833f dac0 8e3f

network.5.bias f4 [64]
-0.2012827 -0.13637556 -0.25616938 -0.1442691 -0.005386995 0.004124202 -0.2768865 -0.1343642
-0.15692191 -0.23961385 -0.13819683 -0.29932418 0.0030226256 0.009422429 -0.12034678 -0.16680725
-0.21084279 -0.17079581 -0.043315448 -0.08986098 -0.11352303 -0.099832006 -0.074341536 -0.24838696
-0.1456155 -0.27946737 0.008431997 -0.16909575 -0.13817912 -0.14514078 -0.08939045 -0.10121433
-0.23032998 -0.18129614 -0.04317911 -0.09640683 -0.08551557 -0.27930513 -0.07730061 -0.12676436
-0.035546698 -0.23251307 -0.17128891 -0.1913332 0.06829195 0.0009079886 -0.217561 -0.11302064
-0.1596689 -0.009625075 -0.25273877 -0.10763359 -0.11986919 -0.17928605 -0.074346825 -0.27605703
-0.06421164 -0.2326431 -0.25016475 -0.25304672 -0.11317141 -0.06355784 -0.21682219 -0.02761661
00000000: 0d1d 4ebe 09a6 0bbe a228 83be 47bb 13be
00000010: 6485 b0bb 5024 873b 11c4 8dbe c596 09be
00000020: 23b0 20be 555d 75be 7883 0dbe 0541 99be
00000030: 3e17 463b 8860 1a3c 5f78 f6bd 85cf 2abe
00000040: 2ce7 57be 19e5 2ebe 8a6b 31bd 0909 b8bd
00000050: c37e e8bd b974 ccbd 6040 98bd 2759 7ebe
00000060: 3b1c 15be 5916 8fbe 5c26 0a3c 7027 2dbe
00000070: d47e 0dbe c99f 14be 5712 b7bd 7549 cfbd
00000080: 9fdb 6bbe b2a5 39be 94dc 30bd f270 c5bd
00000090: ca22 afbd 1501 8fbe c84f 9ebd 84ce 01be
000000a0: 6a99 11bd e817 6ebe 5c66 2fbe daec 43be
000000b0: a6dc 8b3d 1506 6e3a 50c8 5ebe 5e77 e7bd
000000c0: 3e80 23be 7eb2 1dbc fa66 81be 006f dcbd
000000d0: fa7d f5bd c396 37be 2643 98bd 5957 8dbe
000000e0: 6481 83bd fe39 6ebe 9815 80be 578f 81be
000000f0: 6ac6 e7bd 9d2a 82bd a306 5ebe 3b3c e2bc

network.5.running_mean f4 [64]
-0.3966987 -0.68642676 1.6457075 -0.34954926 -0.90915877 -1.0020558 1.0627105 1.0398346
-1.0223743 1.096642 0.44905946 0.8796016 -1.0230374 -0.38618144 -0.6498265 -0.89454436
-0.40287974 -0.40678784 -1.5519121 -0.5529687 0.64903086 -0.84927684 -0.9168645 0.20153853
-0.8566752 1.4120802 -1.2416375 0.012624276 -0.3633405 -0.14603747 -1.1077523 -0.8385024
-0.2797392 0.7015366 -0.9707558 -0.25447133 -0.15884484 -0.059502423 0.16472341 0.88098025
-1.1339462 0.28415397 -0.8035595 -0.73086745 -1.1588385 -0.28412113 0.08973083 -0.11819917
-0.41272843 -0.6897201 0.21507539 -0.22592542 -0.5398443 0.21952838 -0.8501415 0.81708837
-0.7116535 1.6802553 0.40912935 1.3168833 -0.6506684 -1.2248951 -0.5904926 -0.8444986
00000000: 181c cbbe aab9 2fbf 8ba6 d23f 1ff8 b2be
00000010: a1be 68bf 5d43 80bf e606 883f 4d19 853f
00000020: 29dd 82bf c45e 8c3f 1feb e53e 922d 613f
00000030: e4f2 82bf 93b9 c5be 085b 26bf dc00 65bf
00000040: 4146 cebe 7f46 d0be 0ea5 c6bf 5b8f 0dbf
00000050: e326 263f 356a 59bf a2b7 6abf 1e60 4e3e
00000060: 114f 5bbf 0bbf b43f faed 9ebf 0dd6 4e3c
00000070: c407 babe d98a 15be d4ca 8dbf 18a8 56bf
00000080: fa39 8fbe e797 333f 7483 78bf 114a 82be
00000090: 39a8 22be d0b8 73bd 41ad 283e ec87 613f
000000a0: 2625 91bf a17c 913e 13b6 4dbf 211a 3bbf
000000b0: d254 94bf 5378 91be ccc4 b73d 6812 f2bd
000000c0: 2451 d3be 7f91 30bf b93c 5c3e fe58 67be
000000d0: 3c33 0abf 0ccc 603e e0a2 59bf b42c 513f
000000e0: ec2e 36bf 9b12 d73f 6779 d13e a28f a83f
000000f0: 3492 26bf 5dc9 9cbf 862a 17bf 0f31 58bf

network.5.running_var f4 [64]
2.3260777 1.0855802 1.6798267 1.1149533 3.3986099 1.1657379 1.6384737 1.6425456
2.2730534 1.8963124 1.8706498 0.9083632 2.0281966 1.5245563 2.7145224 1.4476011
2.7633457 2.539096 2.17704 1.9586977 1.2183032 2.8003218 1.8490541 1.3746703
1.4835637 1.697247 3.5808887 2.159576 2.02778 2.3842852 2.4332252 2.4004395
2.3452482 1.3525229 2.3209958 2.057847 1.8181539 1.252343 2.305794 1.8967503
3.036425 1.8449999 2.1507642 2.1840699 2.2441196 2.89686 1.8408762 2.5891147
1.8150724 1.7516711 1.4124497 1.043915 2.377044 0.982094 3.1184566 1.6453993
2.2394092 1.7813162 1.3699284 1.8974069 1.1808808 1.8648833 1.668915 3.2143948
00000000: 75de 1440 4bf4 8a3f 9004 d73f cab6 8e3f
00000010: d382 5940 e636 953f 82b9 d13f ef3e d23f
00000020: b579 1140 5dba f23f 7471 ef3f 7e8a 683f
00000030: f9cd 0140 a924 c33f bcba 2d40 fe4a b93f
00000040: a8da 3040 8d80 2240 a054 0b40 9bb6 fa3f
00000050: 5cf1 9b3f 7938 3340 cead ec3f 32f5 af3f
00000060: 6ae5 bd3f 643f d93f 482d 6540 7e36 0a40
00000070: 26c7 0140 2198 1840 f6b9 1b40 cda0 1940
00000080: 8c18 1640 781f ad3f 328b 1440 c4b3 0340
00000090: 44b9 e83f c74c a03f 2192 1340 b7c8 f23f
000000a0: ca54 4240 f528 ec3f 1fa6 0940 cdc7 0b40
000000b0: a89f 0f40 2766 3940 d5a1 eb3f 0eb4 2540
000000c0: 4b54 e83f c236 e03f 27cb b43f 029f 853f
000000d0: 7d21 1840 836a 7b3f cb94 4740 729c d23f
000000e0: 7b52 0f40 2b02 e43f d059 af3f 3bde f23f
000000f0: 1a27 973f 7fb4 ee3f 029f d53f a5b8 4d40

network.8.weight f4 [32, 64]
0.048706427 -0.06979704 -0.2095978 0.11458922 0.101784386 -0.11505687 -0.0028745737 0.09809579
0.022976048 -0.15202911 -0.04238405 0.07815768 -0.15678795 0.09448344 0.08889109 0.00585425
0.12832558 -0.04941309 -0.053709947 0.023372462 0.032386053 -0.108806215 -0.05988669 0.051082216
0.17983271 -0.15805422 -0.039572068 0.07882192 0.0025742776 0.024141135 -0.097834125 -0.04283083
0.12028789 0.12211394 -0.024810385 0.20744315 -0.021053325 -0.023981223 0.12787597 -0.253781
-0.16284345 0.15137887 -0.079624616 0.0029567818 -0.11570845 -0.21933036 0.090903275 -0.0031991997
0.15262337 0.08156721 -0.055575956 -0.05462282 0.02065606 -0.159525 0.20389189 0.17683412
0.08362037 -0.21962467 -0.15354696 -0.19821513 0.009256552 0.040194657 -0.07157633 -0.15101334
0.053261776 0.061650056 0.030894006 -0.15613964 -0.057471063 0.052503873 0.06347324 0.097945005
0.10980049 0.049087178 -0.009412385 -0.22306363 0.10495128 0.013657948 -0.16958079 -0.029790014
0.011710165 -0.13719444 0.011106843 0.13396014 -0.017460234 0.030368593 0.06355297 0.039801322
-0.15013762 -0.03551145 -0.11110402 0.01986357 0.20211701 -0.03653071 0.060661457 0.02922498
0.04151919 -0.07648871 -0.20491756 0.06580577 -0.047312286 0.16702864 -0.107786044 0.18357064
0.09466347 0.070100434 -0.017252086 -0.06997536 -0.010483591 0.16159515 -0.01382567 -0.12998907
-0.12167467 -0.1547247 0.1655211 0.08379204 0.053893827 -0.025391212 -0.15540124 0.00883833
0.03967598 -0.045266535 -0.0634674 -0.04964497 0.022768652 -0.23299646 0.1759073 0.16562316
0.09881984 0.10475553 -0.102710515 0.08469476 0.10789406 -0.063129105 -0.07845685 0.017573562
-0.03200868 0.03592147 -0.028716655 0.002001958 -0.13769785 -0.004982445 0.102602266 0.089831494
0.10546769 0.11588271 -0.19268815 -0.06996018 -0.048286524 -0.08432147 -0.11589319 0.036882482
-0.053898834 0.034700062 0.043804664 -0.03898669 -0.00095949136 0.09546183 -0.18618794 -0.21750584
0.23959006 0.047358207 -0.08231887 0.075899705 0.03819037 -0.12498689 0.22527441 -0.21915805
-0.017380489 0.1519812 -0.010639962 0.12504992 -0.3111434 -0.24462278 0.14266863 0.017938862
0.13768001 0.041503593 -0.07087086 -0.00033321086 -0.07477585 -0.12199476 0.027670965 0.056325372
-0.101750016 -0.091900185 -0.05510027 -0.11743181 0.13120972 0.105399475 -0.09320366 -0.2870201
-0.14271481 0.053422272 -0.09476255 -0.01211638 -0.21393558 0.14501734 0.11843853 0.011074895
0.14348316 0.14448705 0.15344508 -0.09937166 0.084666096 0.26140124 0.04429776 -0.27036938
-0.026246235 0.0071727843 -0.009897273 0.13758193 0.008621057 0.037420623 0.17089777 -0.049567737
-0.11148946 0.005665202 -0.10902651 -0.05011249 -0.090279065 -0.014575202 0.034125675 0.023350095
-0.044671487 -0.17138642 -0.08062494 -0.12787336 -0.16044588 -0.105277926 -0.23767476 0.11357451
0.05851689 0.017519874 0.048770174 0.000907815 0.15780501 -0.07227631 0.009582654 -0.048440404
-0.040475544 -0.18987368 0.023033861 0.06295614 0.15028948 -0.08544547 -0.076910734 -0.13149868
0.09085698 0.014534857 0.09536593 0.058459084 -0.1584953 0.070217006 0.12054906 -0.019480504
00000000: 6480 473d c0f1 8ebd cea0 56be c1ad ea3d
00000010: 5574 d03d f0a2 ebbd 5863 3cbb 72e6 c83d
00000020: 4438 bc3c 85ad 1bbe e69a 2dbd 2211 a03d
00000030: 058d 20be 8980 c13d 880c b63d 02d5 bf3b
00000040: c867 033e 6165 4abd f6fe 5bbd 9b77 bf3c
00000050: 3da7 043d cbd5 debd bf4b 75bd 963b 513d
00000060: 1126 383e f7d8 21be 5216 22bd 636d a13d
00000070: 36b5 283b a1c3 c53c 425d c8bd 616f 2fbd
00000080: 7f59 f63d e016 fa3d 263f cbbc fa6b 543e
00000090: 0678 acbc 4574 c4bc ebf1 023e 95ef 81be
000000a0: 6fc0 26be 1003 1b3e 3b12 a3bd 91c6 413b
000000b0: 8df8 ecbd 2398 60be 7f2b ba3d aaa9 51bb
000000c0: 4d49 1c3e b60c a73d 9da3 63bd 2ebc 5fbd
000000d0: e636 a93c 865a 23be 09c9 503e 0114 353e
000000e0: 2841 ab3d 4ae5 60be 6a3b 1dbe e8f8 4abe
000000f0: cba8 173c 27a3 243d 9c96 92bd 3ea3 1abe
00000100: 0529 5a3d c584 7c3d 6d15 fd3c 12e3 1fbe
00000110: c766 6bbd 4d0e 573d 42fe 813d 6497 c83d
00000120: 14df e03d a30f 493d 6736 1abc cb6a 64be
00000130: b2f0 d63d 96c5 5f3c 96a6 2dbe 300a f4bc
00000140: fedb 3f3c b37c 0cbe 7af9 353c d92c 093e
00000150: c408 8fbc 8ec7 f83c 0f28 823d b606 233d
00000160: adbd 19be 7474 11bd 818a e3bd edb8 a23c
00000170: c3f7 4e3e 3aa1 15bd 2678 783d 3a69 ef3c
00000180: 0710 2a3d 1da6 9cbd e9d5 51be 2dc5 863d
00000190: 87ca 41bd 8e09 2b3e eebe dcbd f1f9 3b3e
000001a0: ecde c13d d190 8f3d 3f54 8dbc 3e4f 8fbd
000001b0: 5ec3 2bbc 3379 253e 1085 62bc db1b 05be
000001c0: 9230 f9bd 2770 1ebe 5d7e 293e 299b ab3d
000001d0: c6bf 5c3d 3b01 d0bc 8121 1fbe a5ce 103c
000001e0: 4883 223d 6769 39bd 32fb 81bd 8658 4bbd
000001f0: 5385 ba3c a096 6ebe 0b21 343e 1e99 293e
00000200: 0e62 ca3d 118a d63d e459 d2bd 7274 ad3d
00000210: 90f7 dc3d d549 81bd fcad a0bd 6ef6 8f3c
00000220: 891b 03bd 6422 133d 313f ebbc 4833 033b
00000230: aa00 0dbe c743 a3bb 2321 d23d 93f9 b73d
00000240: 72ff d73d ea53 ed3d 0b50 45be 4847 8fbd
00000250: 17c8 45bd bcb0 acbd 6959 edbd 1612 173d
00000260: 06c5 5cbd a721 0e3d 856c 333d 82b0 1fbd
00000270: 6086 7bba 7e81 c33d 0da8 3ebe dab9 5ebe
00000280: 1957 753e aefa 413d cc96 a8bd 4e71 9b3d
00000290: 816d 1c3d 20f9 ffbd 56ae 663e f86a 60be
000002a0: 8761 8ebc f6a0 1b3e 3c53 2ebc 160d 003e
000002b0: 304e 9fbe 657e 7abe ba17 123e 85f4 923c
000002c0: fdfb 0c3e acff 293d be24 91bd ceb2 aeb9
000002d0: 1524 99bd 64d8 f9bd 38ae e23c 6fb5 663d
000002e0: 5062 d0bd 2a36 bcbd d2b0 61bd 1780 f0bd
000002f0: d75b 063e aedb d73d 8fe1 bebd 4cf4 92be
00000300: d523 12be 50d1 5a3d de12 c2bd c883 46bc
00000310: ee11 5bbe 6d7f 143e e68f f23d 7a73 353c
00000320: 40ed 123e 6af4 133e b520 1d3e 5e83 cbbd
00000330: 6b65 ad3d 62d6 853e 9171 353d db6d 8abe
00000340: 5802 d7bc ad09 eb3b 2c28 22bc 47e2 0c3e
00000350: 553f 0d3c 5e46 193d d3ff 2e3e 8a07 4bbd
00000360: 9654 e4bd 29a3 b93b 4a49 dfbd c142 4dbd
00000370: 3be4 b8bd d4cc 6ebc 5dc7 0b3d b348 bf3c
00000380: 73f9 36bd ec7f 2fbe b01e a5bd 3cf1 02be
00000390: ed4b 24be f49b d7bd 0361 73be c199 e83d
000003a0: 68af 6f3d d785 8f3c 3cc3 473d 6ffa 6d3a
000003b0: a397 213e 9a05 94bd 9000 1d3c 7269 46bd
000003c0: afc9 25bd 3f6e 42be 82b1 bc3c 26ef 803d
000003d0: 7ce5 193e 09fe aebd 6083 9dbd 97a7 06be
000003e0: 3913 ba3d 9c23 6e3c 364f c33d cb72 6f3d
000003f0: 984c 22be efcd 8f3d 6de2 f63d 9495 9fbc

network.8.bias f4 [32]
-0.0040478357 -0.08104693 -0.058888968 0.022361202 -0.05189407 0.045597043 0.01928928 -0.105960965
0.071809925 -0.060938314 -0.047947105 -0.042348832 0.050608516 -0.11641397 -0.08601266 0.050441533
-0.03469707 -0.028682837 -0.114944115 0.012488027 0.06524342 -0.042650867 0.007157904 0.0062364293
-0.026896782 0.106874794 0.03312092 0.029096868 -0.0023647763 -0.0007460751 0.074294716 0.015895773
00000000: b5a3 84bb effb a5bd 8f35 71bd d72e b73c
00000010: e08e 54bd f7c3 3a3d 8d04 9e3c 1002 d9bd
00000020: 1511 933d 749a 79bd 2f64 44bd f875 2dbd
00000030: e04a 4f3d 736a eebd 6827 b0bd c89b 4e3d
00000040: 841e 0ebd 45f8 eabc d267 ebbd 959a 4c3c
00000050: 589e 853d adb2 2ebd da8c ea3b f65a cc3b
00000060: a456 dcbc 2ce1 da3d cda9 073d 8e5c ee3c
00000070: 5dfa 1abb 4194 43ba d427 983d da37 823c

network.9.weight f4 [32]
0.99454534 0.9759637 1.0750254 1.0184717 0.9604529 0.95311934 0.85469925 0.90078115
1.0043967 0.9420321 0.9780828 1.0660074 1.0629399 1.0262685 1.055654 1.0062077
0.99866635 0.9805949 0.88874793 0.9935136 1.0472039 1.0854129 0.9669355 1.0506921
1.0096239 1.0683527 1.0250628 1.0599045 0.9597184 1.0248213 1.0450276 1.0494492
00000000: 869a 7e3f c2d8 793f 6f9a 893f 485d 823f
00000010: 3ee0 753f a1ff 733f 92cd 5a3f 9899 663f
00000020: 1290 803f 0429 713f a263 7a3f ee72 883f
00000030: 6a0e 883f c45c 833f ac1f 873f 6acb 803f
00000040: 99a8 7f3f 4408 7b3f fc84 633f e856 7e3f
00000050: c70a 863f cfee 8a3f 1689 773f 147d 863f
00000060: 5b3b 813f c8bf 883f 4235 833f f3aa 873f
00000070: 1bb0 753f 582d 833f 77c3 853f 5a54 863f

network.9.bias f4 [32]
-0.12695919 -0.09038456 -0.066721156 -0.0006273513 0.022527063 0.013221984 0.09174119 -0.13204117
-0.22706105 -0.03249894 -0.07246167 0.089926206 -0.0016156564 -0.086635 -0.061258122 -0.029483521
-0.08232848 -0.004254118 -0.15659098 -0.18867011 0.04794956 0.22411916 -0.11307678 0.057914626
0.046732634 -0.04309795 0.0323504 -0.02232241 0.008993127 -0.088678926 -0.0034061735 0.012585423
00000000: 9701 02be 8a1b b9bd 1aa5 88bd d574 24ba
00000010: ad8a b83c 05a1 583c cee2 bb3d cd35 07be
00000020: b182 68be 9c1d 05bd c966 94bd 3b2b b83d
00000030: 6fc4 d3ba b16d b1bd cce9 7abd 6d87 f1bc
00000040: d69b a8bd 2166 8bbb 6359 20be bd32 41be
00000050: c266 443d 7e7f 653e cd94 e7bd e337 6d3d
00000060: b86a 3f3d 7a87 30bd da81 043d 7ddd b6bc
00000070: e957 133c 4c9d b5bd 1c3a 5fbb 1733 4e3c

network.9.running_mean f4 [32]
-0.27175036 -0.04579119 -0.4930175 -0.07517751 -0.099884845 0.035113085 -0.74377376 -0.4006524
0.03821356 -0.26367283 -0.22350515 0.2630227 -0.7989448 -0.039013296 -0.2315246 0.47887865
-0.43599808 0.3982185 0.100062616 -0.25852203 -0.053023264 -1.3616283 0.021104805 -0.9341042
-0.38215926 -0.33886364 -0.30016217 -0.4040117 0.1935087 -0.48133147 -0.3209767 -0.21505076
00000000: dd22 8bbe 8b8f 3bbd ca6c fcbe abf6 99bd
00000010: 6d90 ccbd bdd2 0f3d f567 3ebf 5022 cdbe
00000020: d285 1c3d 2000 87be 89de 64be e9aa 863e
00000030: a587 4cbf 68cc 1fbd c914 6dbe 952f f53e
00000040: 243b dfbe 4ce3 cb3e a1ed cc3d 005d 84be
00000050: ec2e 59bd d649 aebf fce3 ac3c 7421 6fbf
00000060: 61aa c3be 897f adbe dbae 99be 9fda cebe
00000070: 2527 463e 1471 f6be 0f57 a4be 4436 5cbe

network.9.running_var f4 [32]
2.7892835 2.1259234 3.5320675 2.4306023 2.361625 2.3629782 0.91974473 1.723155
1.7258343 1.9910182 2.4247217 1.6872599 3.756056 2.3611736 2.1068995 2.7194524
2.2943287 1.5776958 2.0030298 1.7747785 2.2871468 3.1842186 1.9478245 2.7662015
2.5166569 2.6768117 2.6833777 3.4515646 2.0960257 2.4533026 3.0041692 2.0585835
00000000: 9f83 3240 210f 0840 650d 6240 fd8e 1b40
00000010: dd24 1740 093b 1740 6474 6b3f 5890 dc3f
00000020: 23e8 dc3f afd9 fe3f a42e 1b40 22f8 d73f
00000030: 3963 7040 781d 1740 71d7 0640 820b 2e40
00000040: 48d6 1240 f0f1 c93f a431 0040 f12b e33f
00000050: 9d60 1240 3dca 4b40 5052 f93f 7209 3140
00000060: e810 2140 e250 2b40 76bc 2b40 6fe6 5c40
00000070: 4925 0640 e902 1d40 4f44 4040 d5bf 0340
