ai-layer/model/results/1000_v2/dnn_oud_risk_model.pth (torch, 65493 bytes, 25 tensors)

network.0.weight f4 [128, 11]
00000000: 9fa3 d83d ed94 903e 2b35 f7bd cdb2 8b3e
00000010: c909 40be 9b87 23bd 1bbf 5b3d 4d24 853e
00000020: f32d bf3d 00d6 bcbd 9736 b03d 93aa 31be
00000030: 9222 6e3e 5ea8 85be 4f54 f4ba 60d2 8e3e
00000040: 4dc5 843d 38e6 fb3d e07d 74be 35c3 62be
00000050: b45b 503d 61a4 71be 6a78 603e 01c1 2b3d
00000060: 5649 4d3e 49c2 47be a6d6 38bd 09ec 94be
00000070: 8c9f 3ebd 92ef 40be 5640 033c 7013 823e
00000080: 39d6 a23d 63e6 0f3e b157 ca3d 59d6 69be
00000090: 84a6 733e 715d fdbc 88f5 473e 62b3 653e
000000a0: 3973 15bd dd1f 14bd dec7 95be 92d8 72bd
000000b0: 38d7 a4bd 1363 a93d d494 febc 745c 463d
000000c0: 7f26 d7bd 91b2 12be f702 6a3e 4799 88be
000000d0: 9dc0 70bd 5f9d 4e3e 1dd4 793d 3295 5d3d
000000e0: 85ab e13c a418 2dbd 8b26 0dbd 5eab 12be
000000f0: cebb 1d3e c343 113e b514 d43d 55fc ee3d
00000100: 198a f03d 744c ddbc 8bb8 9a3e 125d 85be
00000110: bf76 963e 678b 8cbe 461f 34bd 47a6 2c3d
00000120: b45b 0fbe 8f19 92bd 42e9 8fbe 2fc2 fa3d
00000130: 8982 623e e305 f53d 1c18 9f3d 69bb 87be
00000140: 7d6b a5bd 07b6 90be 2bc9 afbd bc91 a6bd
00000150: 4a4e dd3d 37ac 3cbe 6229 883e 0f90 27be
00000160: d358 3cbe 0fb7 8c3e 6b7b 49be 3add 24be
00000170: 6403 27be 5fd8 ccbd cac7 3cbe 9e29 603e
00000180: ebeb 71bd 1433 d63c fcd5 163e f83a 133e
00000190: e36d 8abe a6f0 593d 1d09 263e 9914 9abb
000001a0: d3e3 ccbd f986 9bbd ae8e 3a3e 918b c2bd
000001b0: a2c8 aebd 09f2 e3bd 8cae 84be dd59 f83c
000001c0: 377e 94be 091e a63d 196e 80be 6b5d f7bd
000001d0: 4ebd 9f3c 4224 703d 054a a23d 08bf afbd
000001e0: ec62 81be 5b51 223c 4f0d 7fbd f2ca 903e
000001f0: 74be 3e3e a5cb 5fbe b9cb e2bd 7181 2cbe
00000200: da19 963e e9e3 8e3e 8ec0 d93d f743 943e
00000210: 31dd 893d 7cd8 2f3c 566a 9bbd 124b 943d
00000220: c654 143e d10e 963d bf4a 8d3d 1d04 b53d
00000230: 2edb 893d d70f ff3c cbfb 493e 130b bd3d
00000240: 9dc8 f93c f766 513d fc3c d2bd 9115 9abd
00000250: 35ea a83d 30f3 783e 2510 04be 30f6 bb3d
00000260: 6cd6 64bd 7853 7c3e 930c 3dbe f4b7 9fbd
00000270: fdf4 093e 9014 32be a236 8b3e 4158 8cbd
00000280: b0e7 e3bd 2a3f 813e 6650 56bd 77ea b83d
00000290: 0a45 a5bd b9c1 f5bb 3fbc 92be 22d6 ed3d
000002a0: 36f5 b1bd 480d c23d 1a9e 74be f937 e93d
000002b0: 045e 31be fd1a 6c3e 2c14 753e 8b2f 65be
000002c0: 8e43 873e 5518 103e 7444 56be 5f1a 25bd
000002d0: 6ec4 03be 4bb7 983e 6204 993e aac7 423e
000002e0: 90d4 3bbe 322c 96bd 96c9 92bd 197c 94be
000002f0: cce0 8ebe 0cce 35be 3fc1 7ebe 7f19 a3bb
00000300: 2c81 823e 8d9f 77be 3dd8 a03d c52e 893e
00000310: d91e eabc 1d16 523e ccbd c83d 78b8 083e
00000320: b502 3e3e 8efc 143d db87 1b3c c7d6 9cbd
00000330: d8a2 83be f965 3d3e 5f71 5c3e 32f7 893e
00000340: ed9d 4bbe 5db9 203d 5f77 4abe 9edd 173e
00000350: e992 d53d f498 083e 5f44 283c 0541 8d3e
00000360: 2c99 01be be83 04be 9704 73be 323d 28be
00000370: 4f64 9e3b 808a 8ebe 2eae afbd cc7d 21be
00000380: 6148 553e e260 153e 39e3 cd3c dbab 773d
00000390: d6aa 8fbe 896a b13d 0497 6c3e 8753 45be
000003a0: 6ab5 d83d 227e e23c 0296 89be 7703 1dbe
000003b0: 81bd 2f3e a3cb 1abe f14a f9bd 5cf2 a93b
000003c0: 8da0 913e da05 753e e2b1 933e ac01 4f3e
000003d0: 021a 41be c2e7 9dbd bbb3 56be a212 383d
000003e0: 6c68 2ebe b690 8a3e d90f 8dbd eb0f 41be
000003f0: 2b99 81be 4975 66be 4c8d 17be 5903 d03c
0.10578083 0.2823862 -0.12070688 0.27284852 -0.18753733 -0.039924245 0.05364905 0.26004258
0.09334936 -0.09220505 0.08604162 -0.17350225 0.23255375 -0.26105016 -0.0018640849 0.27894878
0.06482945 0.1229977 -0.23876143 -0.22144778 0.050868705 -0.23597862 0.21920934 0.04193211
0.20047507 -0.19507708 -0.04512658 -0.2908633 -0.046538875 -0.18841389 0.008010944 0.25405455
0.07951016 0.1405273 0.09880007 -0.22835673 0.2379399 -0.030928345 0.19527256 0.2243171
-0.036486838 -0.0361632 -0.2925405 -0.05928857 -0.08048862 0.0827085 -0.031076826 0.048428014
-0.105053894 -0.1432593 0.22852693 -0.2667944 -0.05877744 0.2017722 0.060993303 0.054097362
0.027547607 -0.042259827 -0.034460586 -0.14323184 0.15403673 0.14186005 0.10355512 0.11669222
0.1174509 -0.027013995 0.3021892 -0.2604757 0.2938747 -0.27450106 -0.043975137 0.042150762
-0.13999826 -0.07133781 -0.2810765 0.12244069 0.22120108 0.119640134 0.077682704 -0.2651017
-0.080771424 -0.28263876 -0.085832916 -0.081332654 0.10805948 -0.1842507 0.26594073 -0.16363548
-0.18393259 0.27483413 -0.19675986 -0.16100016 -0.16309887 -0.10002207 -0.18435588 0.21890876
-0.05906288 0.026147403 0.14730066 0.14377964 -0.27036962 0.053208016 0.16214414 -0.0047021625
-0.100043915 -0.07594103 0.1821849 -0.094992764 -0.085343614 -0.11130149 -0.2591442 0.030316288
-0.29002544 0.081111975 -0.25083998 -0.12078365 0.019499447 0.05862833 0.07924274 -0.08581358
-0.25270784 0.009907092 -0.06226855 0.28279835 0.1862734 -0.21855028 -0.11074013 -0.16846253
0.29316598 0.27908257 0.1063243 0.28958103 0.06731642 0.010732766 -0.07588641 0.07240881
0.14485464 0.07327045 0.06899022 0.08838675 0.06731258 0.031135483 0.19724958 0.09230628
0.030491168 0.051123586 -0.10265538 -0.07523645 0.082477964 0.24311519 -0.12896784 0.09177816
-0.05586855 0.24641216 -0.18461828 -0.07798758 0.13472362 -0.17390656 0.2719012 -0.068527706
-0.11128175 0.25243503 -0.052322768 0.090290956 -0.08069809 -0.0074999 -0.28659245 0.11613108
-0.086893484 0.094751894 -0.23888436 0.11387629 -0.1732102 0.2305717 0.23933476 -0.22381417
0.26418728 0.14071782 -0.2092455 -0.040308353 -0.128679 0.2982734 0.29886156 0.19021478
-0.18342805 -0.07332648 -0.07167356 -0.2900093 -0.2790588 -0.17754382 -0.24878405 -0.0049774046
0.25489175 -0.24181958 0.07853744 0.26793495 -0.028579162 0.20516248 0.09801826 0.13351619
0.1855572 0.036373667 0.00949284 -0.07658153 -0.25710177 0.1849593 0.21527623 0.26946408
-0.19884463 0.039239276 -0.19772099 0.14830634 0.104284115 0.13339597 0.010270207 0.27588668
-0.12656087 -0.1294088 -0.2373222 -0.16429594 0.004833735 -0.27840042 -0.08578144 -0.15770644
0.20828392 0.14587739 0.025132762 0.06046663 -0.28060025 0.08662898 0.23104483 -0.19270144
0.10581477 0.027648035 -0.2687226 -0.15333353 0.17162134 -0.15116744 -0.12172497 0.005186362
0.28442803 0.23928013 0.2884665 0.20215482 -0.18857577 -0.0771022 -0.20966999 0.044939645
-0.17032021 0.2706353 -0.06887788 -0.18853728 -0.2531217 -0.22505678 -0.14799994 0.025392221

network.0.bias f4 [128]
00000000: da07 8abe 4287 a13d c294 24be 5563 3bbe
00000010: 1a56 ef3c c556 59b8 bce3 b9b9 0d34 fdbd
00000020: 0bd7 4c3e ba4a 903e 7aa1 dd3d a7f6 3e3e
00000030: df03 9fbd e7eb 033e 8b00 2dbe 0cd6 593e
00000040: 4834 30be 968d 63bc 9130 02be dd5a 433e
00000050: 68ab 883d 2b36 ff3d 2502 96be 4269 8fbd
00000060: 24aa 703d f127 253e 66a3 49be f3e4 21be
00000070: 7725 a2bd af51 45bd db8d 1f3d 0068 123e
00000080: c324 493d 76c9 b63d e670 cc3c fce7 50be
00000090: eab0 40be c0c7 49be 0985 fd3d 9a0e 473e
000000a0: df21 8a3c ef09 5d3e 215c 81be 21e0 85bc
000000b0: 905c 683d d6c7 5cbd 914f 393e 3ab3 5ebe
000000c0: 299b 873e afff 0c3d 76b6 2dbe ebc1 713e
000000d0: 40e8 34bb 8464 8f3e 084e d9bc f072 95be
000000e0: a5b6 2cbe 2df9 76be 3233 61be d315 c23c
000000f0: 2ac1 e63c 6793 26be 5ff5 a73d e03f 1cbe
00000100: 0f76 4fbe a2a8 98be 84ec 993e 7b52 04be
00000110: e765 823d 849e 233e 4717 89bd 6f4a 553d
00000120: b828 80be ea85 92be a236 11be 9ca5 7c3e
00000130: ee4d 803e c856 78be 3e73 eabc c8f7 983e
00000140: a9f4 cebd d733 12be 744f 9a3c c2e6 cabd
00000150: 5b0a 713e a435 39be 430e 6fbc 2639 8e3e
00000160: 4c40 3c3e 4fc4 883e 5678 f6bc 3799 10bd
00000170: 0f4a 183e c5a7 11be 86db 173e 5e68 333e
00000180: a843 8abd d83b 4a3e d769 afbd 7be5 893e
00000190: db54 0bbe 61fb 3d3e effe a9bb 6ae4 3b3e
000001a0: 1fcf 60be c5fc e73d 807f 46be 853c 893e
000001b0: 3272 3a3e 0304 3b3e ae50 613e e2af 82bd
000001c0: bfd2 993e 661c 8cbe 5bc3 8f3e b4ef 11be
000001d0: 2731 d83d 37c0 3b3e 5f9f 013e 0ea0 bb3c
000001e0: b68e 5abe b12e dbbd 0167 453e cec9 8d3e
000001f0: 4dd3 33be e8f6 10be e687 8cbe 6ee5 2f3e
-0.26959115 0.078871265 -0.16072372 -0.18299611 0.029215861 -5.1817642e-05 -0.00035455625 -0.123634435
0.20003907 0.28182012 0.10821815 0.18648778 -0.0776441 0.12882958 -0.16894738 0.21273059
-0.17207444 -0.013888737 -0.12713839 0.1907763 0.06673318 0.124615036 -0.2929851 -0.07002498
0.05875601 0.16128518 -0.19691238 -0.15809993 -0.07917302 -0.048173603 0.038953643 0.14297485
0.049107324 0.089251444 0.024956178 -0.20400995 -0.18817487 -0.19705105 0.1237889 0.19439164
0.016861854 0.2158582 -0.252656 -0.016342225 0.0567289 -0.053901516 0.18096758 -0.21748057
0.26485565 0.034423526 -0.16964135 0.2360913 -0.0027604252 0.28006375 -0.026526466 -0.29189253
-0.16866548 -0.2411849 -0.21992186 0.023692047 0.02816828 -0.16267167 0.08201098 -0.15258741
-0.2025988 -0.29816157 0.3006326 -0.12922089 0.063670926 0.15978438 -0.06693893 0.05207294
-0.25031066 -0.28617793 -0.14180997 0.2467255 0.25059456 -0.24251854 -0.028619405 0.29876542
-0.10105259 -0.14277588 0.018836714 -0.09907295 0.23539107 -0.18086869 -0.014590803 0.27777976
0.18383902 0.26712272 -0.030086678 -0.035302367 0.14872001 -0.14224155 0.14829835 0.17520282
-0.06751186 0.19749391 -0.08565109 0.26932892 -0.13606589 0.18552925 -0.005187861 0.18348852
-0.2195401 0.11327509 -0.19384575 0.26803985 0.18207625 0.18263249 0.22003433 -0.06381203
0.300436 -0.27365416 0.28078732 -0.14251596 0.1055625 0.18335043 0.12658451 0.022903468
-0.21343502 -0.10702265 0.19277574 0.27693027 -0.17561074 -0.14156687 -0.27447432 0.17177364

network.1.weight f4 [128]
00000000: daef 7f3f ec04 803f 0e9b 7e3f 8f01 803f
00000010: 397d 7e3f 2795 803f 960d 813f a23e 803f
00000020: 72bb 803f f41d 7f3f ea31 803f 23b3 7f3f
00000030: 7e3b 803f b11b 803f 62c7 7f3f 0cfd 7f3f
00000040: f285 7d3f 7d0f 813f bd00 803f 5438 7f3f
00000050: aa47 803f cf94 7d3f f8df 803f 7440 803f
00000060: 5e01 813f e23f 7e3f ec48 7d3f a448 803f
00000070: d762 803f b26f 7e3f bbc4 7e3f 8e76 803f
00000080: 4795 803f 2a4d 7e3f 394e 7f3f ba0f 803f
00000090: 5dfd 7e3f 68ef 7e3f ba10 7f3f f006 803f
000000a0: 9446 7f3f 26b6 7f3f df1e 803f 6a7d 803f
000000b0: 430e 803f 0e8f 7e3f c456 803f ec44 803f
000000c0: 9714 803f 7c1d 813f a8a0 7f3f a36b 803f
000000d0: 03c4 7e3f 2bc5 7d3f 7c1c 7f3f 8d32 803f
000000e0: 6e45 813f 895b 7f3f 9e96 803f 845c 803f
000000f0: 5701 7e3f 8fc5 7f3f 00a4 803f ca2a 803f
00000100: d15c 803f 6059 803f cae2 7f3f e83c 803f
00000110: 628f 803f 1036 7e3f 9f1a 803f 26fb 7e3f
00000120: 4848 803f 4c11 7f3f 4829 7e3f 222c 803f
00000130: 9f34 7e3f deff 7e3f 063a 803f 5bce 803f
00000140: 0ae7 803f f9bf 7e3f 61a5 7f3f 925c 7d3f
00000150: fae9 7f3f 9a38 803f e32d 803f 22e7 7d3f
00000160: 752f 803f 3432 813f 9c01 803f 67b5 7f3f
00000170: 1b5e 803f 673d 7e3f 0d51 7f3f fc16 803f
00000180: 517a 803f 489d 7f3f bcf8 7e3f 7c89 813f
00000190: 5ebb 7f3f 6315 813f 9306 803f 9464 803f
000001a0: 517e 7f3f 8b7a 7f3f 449d 803f 9073 7f3f
000001b0: 3f42 7f3f 49b4 7d3f e6f8 803f b631 803f
000001c0: b8f3 7c3f a70e 803f 11d3 803f 7bf3 7e3f
000001d0: 4f38 803f 4855 7d3f 1c78 7d3f 3fbc 7e3f
000001e0: 7436 813f fcd2 7f3f 71ae 7f3f b768 7f3f
000001f0: 8f3e 7e3f f622 7e3f 1fd2 813f 76a6 7f3f
0.9997536 1.0001502 0.99455345 1.0000476 0.99409825 1.0045518 1.0082271 1.0019114
1.0057204 0.9965508 1.0015233 0.99882716 1.0018156 1.0008451 0.9991361 0.99995494
0.9903251 1.0082852 1.0000225 0.99695325 1.002187 0.9905519 1.006835 1.001967
1.0078542 0.9931623 0.98939395 1.0022168 1.0030164 0.99389184 0.99518937 1.003618
1.0045556 0.99336493 0.99728733 1.0004799 0.9960535 0.99584055 0.996349 1.0002117
0.9971707 0.9988731 1.0009421 1.0038273 1.0004352 0.99437034 1.0026479 1.0021033
1.0006284 1.0087123 0.99854517 1.0032848 0.9951784 0.9912898 0.9965284 1.0015427
1.0099313 0.99749047 1.0045965 1.0028234 0.99220794 0.99910825 1.0050049 1.0013058
1.0028325 1.0027275 0.9995543 1.0018587 1.0043757 0.9930124 1.0008124 0.9960197
1.0022058 0.9963577 0.9928174 1.0013468 0.99299043 0.9960917 1.0017707 1.0062975
1.0070508 0.9951168 0.99861723 0.98969376 0.99966395 1.0017273 1.0014004 0.99180806
1.0014483 1.0093446 1.0000491 0.99886173 1.0028719 0.9931244 0.9973305 1.0007014
1.0037328 0.9984937 0.9959829 1.0120082 0.99895275 1.0084652 1.0002006 1.0030694
0.9980212 0.9979636 1.0047994 0.9978571 0.9971046 0.9910322 1.0075958 1.001517
0.98809385 1.0004472 1.0064412 0.9959027 1.0017184 0.98958254 0.990114 0.9950599
1.0094743 0.9993131 0.9987555 0.9976916 0.99314207 0.99272096 1.0142249 0.99863374

network.1.bias f4 [128]
00000000: b324 6c3b 32e0 a5b9 17f6 69bb c254 dd3a
00000010: c980 8fbb 1f92 d53b 44e8 163c cac9 cd3a
00000020: c096 043c 356c d1ba 1301 4e3b a06a 3d37
00000030: 757c 76ba b6e4 903a 8be0 b13b 4183 253b
00000040: ae36 6fbb 6668 193c 27aa e13b 3730 aa3a
00000050: b6b6 823a 63a6 d5bb e433 f93a 4778 d23b
00000060: 8f64 e03a 79ba 00bc 9677 85bb c463 673b
00000070: 7829 a83b 2c17 21ba 9e2c 88bb 69ab 3d3b
00000080: 97ef d93a 6724 64bb dc45 6bba 5f7d 43b9
00000090: ebc5 15bb e91f 0f3a f7d3 81bb c918 95ba
000000a0: e94d 4ebb e71c 8f3a 84f2 3fbb 2483 233c
000000b0: e930 23bb bc24 f8bb 3c94 0d39 399b e83a
000000c0: 9ea4 b23a 9cdf 2f3b c0d7 78bb 6fe0 5c3b
000000d0: 8b51 2dbc 4fd4 7bbb c9da 9aba 429e 263b
000000e0: 3056 e93b 8f7f 7fba bce2 ad3b 1fe5 073b
000000f0: 763e c6ba ba63 41ba 60b2 8a3b cc64 d7b8
00000100: fe3b 71b9 5a86 1bbb 3c2c bf3a f9e2 1abb
00000110: 56e2 9a3b 521c 01bb 0e9a b0ba ad47 553a
00000120: e4fe 0abb e77f 26bb ea12 debb f8df 003b
00000130: 1898 01bc b479 6dbb 217a 923b f5ac 033c
00000140: a93d 453b 8aae f8bb 9717 65ba 8ce3 20bc
00000150: d1ca 8e3a 182b e83b e9b7 6d3a 4be8 09bc
00000160: 143c 1a3b 777e ec3b 91b9 133b 6c4c 993a
00000170: 8c0c 903b 8416 fabb 6128 7739 485d 5a39
00000180: 1adf aa3a 86f6 7b3b 8e0e 86bb d0cb 1f3c
00000190: 12dc 6abb a08e f23b 4da1 c6ba c634 bb3b
000001a0: 8a6a 17bb 8062 d4bb 05fa 3f3b dd97 573a
000001b0: c85d afbb f8da 1abc 9c8b aa3a 3e9e 393b
000001c0: ec7c fdbb 075b feba 8e35 673b 9a6e c1ba
000001d0: 7afb c3ba bd03 37bc 8bdc 56bb 8587 1abc
000001e0: 2be2 be39 a0e8 5d38 c09e 263a 8c71 a4bb
000001f0: 1fd1 18bc ae0d d1bb 23da e13b c4fe 95ba
0.0036032617 -0.0003163829 -0.003569966 0.0016886222 -0.004379366 0.006517663 0.00921065 0.0015700397
0.008092582 -0.0015977683 0.0031433746 1.1290103e-05 -0.0009402701 0.0011054489 0.005428379 0.0025255235
-0.0036501097 0.009363269 0.006886739 0.001298434 0.0009972665 -0.006520079 0.0019012657 0.0064230296
0.0017119813 -0.007856959 -0.0040730936 0.0035307268 0.0051318966 -0.00061451155 -0.0041557094 0.002894128
0.001662719 -0.0034811737 -0.00089749484 -0.00018643354 -0.0022853564 0.0005459772 -0.0039620358 -0.0011375184
-0.0031479544 0.0010918648 -0.0029288838 0.009979997 -0.002490098 -0.0075727385 0.0001350203 0.0017746455
0.0013629382 0.0026836162 -0.0037970394 0.0033703109 -0.010578523 -0.0038426106 -0.0011814471 0.002542392
0.00712087 -0.0009746486 0.00530657 0.0020735932 -0.0015124816 -0.0007377226 0.0042326897 -0.00010270774
-0.000230059 -0.0023731203 0.0014585326 -0.0023633821 0.0047266884 -0.0019700718 -0.0013473646 0.00081359857
-0.0021209056 -0.0025405826 -0.006777157 0.0019664746 -0.007909797 -0.003623587 0.0044701253 0.008036842
0.0030096567 -0.007589166 -0.0008739172 -0.009819876 0.0010894184 0.0070852153 0.0009068237 -0.008417199
0.0023534345 0.007217224 0.0022541026 0.0011695749 0.004396027 -0.0076320786 0.00023570798 0.0002082485
0.001303646 0.00384465 -0.0040910905 0.0097531825 -0.0035836739 0.007402256 -0.0015154273 0.005713078
-0.0023104274 -0.0064814687 0.002929331 0.00082242285 -0.005351756 -0.00945162 0.0013011578 0.002832308
-0.007735839 -0.001940579 0.0035279724 -0.0014757693 -0.0014952265 -0.011170325 -0.0032785262 -0.009431724
0.00036408132 5.2907155e-05 0.0006356053 -0.0050184187 -0.009327202 -0.0063798046 0.006892459 -0.0011443724

network.1.running_mean f4 [128]
00000000: 15ab 83be ebfe a83d f3d6 1bbe 6b8f 37be
00000010: 1e6d 243d e627 7c3b 6c7c afbb 64b5 09be
00000020: 167d 493e 5b9a 8d3e a458 bc3d a2ff 423e
00000030: 0ab2 7fbd 54c9 123e 2ad3 26be 88b0 5c3e
00000040: eb13 24be ae83 21bd e4a3 05be e450 4b3e
00000050: 5a66 933d e547 e73d a82c 9dbe 3a74 81bd
00000060: ff25 b23d 86ad 0b3e f6d2 53be e6f5 29be
00000070: 54c7 c6bd ff86 32bd e8fd 593d 8b30 163e
00000080: 0fdb 5a3d 6116 db3d 3743 3f3c cf78 50be
00000090: bd8b 3ebe c178 50be 4545 053e 745e 483e
000000a0: c832 cc3c 252b 533e acb5 70be 6605 8ebc
000000b0: d362 7a3d 8764 85bd 278c 2f3e 9ca4 65be
000000c0: 2989 733e 8418 223d cf46 38be 1f31 6d3e
000000d0: bceb df3c 819b 953e 9934 98bb b7a9 9dbe
000000e0: 4843 25be 44dd 75be 0122 6fbe dc26 0f3d
000000f0: 14a5 053d 5ea8 2dbe 74fa aa3d 776b 27be
00000100: a3c5 51be f569 88be 325d a13e 7ece 06be
00000110: f479 593d e342 2c3e b5cd aabd 32e9 583d
00000120: 86a7 7ebe 8d2f 97be 7ba5 1bbe ba6f 753e
00000130: 8dbb 8c3e 4c11 67be db70 01bd 33b5 9d3e
00000140: 2215 b1bd 58af 2ebe f2ce c23c 2a4a ebbd
00000150: 51f2 6d3e b7c1 46be 0806 4fbb a44b 8c3e
00000160: f2f6 4b3e d71f 883e 901a c7bc 3194 95bb
00000170: 58e2 2d3e 78e0 03be 54c7 173e 7f02 213e
00000180: 4e0a a2bd ad4e 4a3e da9d d8bd 7662 793e
00000190: a3f5 10be 65ed 443e 639f a1bc 789d 2a3e
000001a0: 7322 5fbe 4944 063e f382 48be f103 8c3e
000001b0: b2ee 313e 4602 613e 336f 6c3e b658 bbbd
000001c0: effd 9c3e 01bc 91be f346 963e 9dee 0abe
000001d0: c116 e03d 3773 393e 2501 fc3d 3bcc a73c
000001e0: c3a7 49be 1217 c8bd fc8a 6a3e 7c0d 963e
000001f0: 2cbf 48be ba9c 14be 6395 82be 685d 263e
-0.25716463 0.08251747 -0.15218715 -0.17925803 0.040143125 0.003847593 -0.0053554084 -0.13448101
0.19676623 0.27656826 0.09196594 0.19042829 -0.06242565 0.14334613 -0.1629149 0.21551716
-0.16023223 -0.03943222 -0.130508 0.19855076 0.071972564 0.1129301 -0.30698133 -0.063209966
0.086986534 0.13640413 -0.20685944 -0.16597709 -0.097059876 -0.043585774 0.05322066 0.14666955
0.053431567 0.10697628 0.01167374 -0.20358585 -0.18607993 -0.20358564 0.13014705 0.19567281
0.024926558 0.20621927 -0.23506802 -0.017336559 0.061129402 -0.06513315 0.17143308 -0.22426075
0.23782791 0.03957416 -0.17995761 0.2316327 0.027334087 0.29220203 -0.004644942 -0.30793545
-0.16138947 -0.24010187 -0.23352815 0.03494917 0.032628134 -0.16958758 0.083485514 -0.16349588
-0.20485549 -0.2664334 0.31516415 -0.13164708 0.05309482 0.1682239 -0.08340017 0.052956767
-0.24868593 -0.29528466 -0.15199845 0.23968402 0.2748684 -0.22565192 -0.031601768 0.30802307
-0.08646609 -0.17059076 0.02378032 -0.11488755 0.23236968 -0.19409834 -0.0031589288 0.2740146
0.19918421 0.26586792 -0.024304658 -0.004564785 0.16980875 -0.12878597 0.14822131 0.15723608
-0.07912122 0.19756575 -0.10576983 0.24353966 -0.14156203 0.19231184 -0.019729322 0.16661632
-0.21790485 0.13111986 -0.19581203 0.27346757 0.17376211 0.21973523 0.23089294 -0.0914778
0.30662486 -0.28463748 0.29351005 -0.13567586 0.1094184 0.18110357 0.12304906 0.020483127
-0.19692902 -0.09770025 0.22904581 0.29307163 -0.19604176 -0.14512911 -0.25504598 0.16246569

network.1.running_var f4 [128]
00000000: 5955 d93e f512 873e d673 243e ba19 193e
00000010: 6a92 293e f397 d53d 11e9 873e 8e27 973e
00000020: 3f5b 883e 92b2 943d 1c35 b63e f8f4 093f
00000030: 87f7 3f3e 3d4c 023e d670 aa3d ffcb 8a3e
00000040: 0bd0 8c3e fa98 243f 2fa0 423f dc23 9c3e
00000050: 56fa 6c3e 6721 933e 0579 243f 306e 9b3e
00000060: 95d1 ac3e 2cc6 843e 6e01 2b3e be2b a83e
00000070: d818 1a3f e881 233e ef2f ec3e ed8c 313e
00000080: f4a8 5a3e e298 e93e 6de9 013f 7b81 243f
00000090: d520 9c3e fe33 b83e 47ef 7b3e 37f9 de3d
000000a0: e833 923e ebfe 393e 6023 0e3f b29d ca3e
000000b0: 8a8c 943e bd2b d53d 12cb 893e f7d0 653e
000000c0: f3c9 c13e 647b bd3e f3df 7c3e 5536 a43e
000000d0: 8fb6 773e b54c 103e 413a 9d3e c18c 873e
000000e0: 9165 4b3e 7de9 a43e 45d9 333e 5a51 863e
000000f0: f501 193f 11f1 a53e bb13 8e3e dfe1 7b3e
00000100: 1bf2 843e 178e 293f 638b 1c3e 5d09 1b3f
00000110: 230a 623e d16a 613e 8648 623e 0daa 7f3e
00000120: 3e7d 023f 2809 2b3e 6b9d d33e bc41 083e
00000130: 578a b43e 57e5 6c3e 21ff 343e e224 453e
00000140: 673c 983e 63d9 763e 7e8a 173f dc0f b53e
00000150: 4947 123f fc0e 0b3e e662 8b3e 90ce ce3d
00000160: 2d40 6b3e 52e6 9a3e 89e3 183f 36e3 543f
00000170: 3798 da3e c8c4 cb3e 769b d33e 819e 123f
00000180: ca47 e23e b9d0 c53d 3a21 293e e30e c73e
00000190: 5753 bc3e 14ef 5e3e 46c6 643e d922 c03d
000001a0: d82c 1f3e 0d32 1e3f 6528 533e a6f5 e83e
000001b0: 1389 5e3e 9556 be3e f0af 6e3e cdab 673e
000001c0: f0b3 493e 1455 833e 0adb 243e 0a58 393e
000001d0: ca97 273e d641 b03d decd 423e 4324 4b3e
000001e0: a926 bb3e bbf8 103f 8a2c 113f a41d 613f
000001f0: 2534 063f a9df bc3e 8764 053f e539 8a3e
0.42447928 0.2638165 0.16059813 0.1495122 0.16559759 0.10429373 0.26545003 0.29522365
0.26632115 0.07260622 0.35587394 0.5388942 0.18746768 0.12724395 0.08322303 0.27108762
0.27502474 0.64295924 0.7602567 0.3049611 0.2314237 0.2873642 0.6424716 0.30357504
0.33753648 0.25932443 0.16699764 0.32845873 0.6019416 0.15967524 0.4613032 0.17338915
0.21353513 0.45624453 0.50746804 0.6426007 0.304938 0.35977167 0.24602996 0.10887378
0.28555226 0.1816365 0.5552273 0.39573437 0.29013473 0.10408733 0.26912743 0.22442995
0.37849388 0.37008202 0.24694805 0.32072702 0.24190734 0.14091761 0.30708507 0.26474574
0.19862963 0.32209387 0.1756335 0.2623394 0.5976861 0.32410482 0.27749428 0.24597882
0.25965962 0.66232437 0.15287547 0.6056116 0.2207418 0.22013403 0.22097978 0.24967213
0.50972354 0.16702712 0.41331038 0.13306326 0.35261795 0.23134361 0.17675449 0.19252351
0.29733583 0.24106364 0.591957 0.35363662 0.5714002 0.13579935 0.2722389 0.100979924
0.229737 0.30253845 0.5972219 0.83159196 0.42694256 0.3979857 0.41329545 0.5727311
0.44195396 0.09658951 0.16516581 0.38878545 0.36782333 0.21770889 0.2234126 0.09381647
0.1554445 0.6179512 0.20620878 0.45499915 0.21731977 0.37175432 0.23309302 0.2262413
0.19697547 0.25650847 0.16099182 0.1809999 0.16366497 0.08606307 0.19023845 0.19838051
0.36552933 0.5662953 0.56708586 0.87935853 0.52423316 0.3688939 0.5210652 0.26997295

network.4.weight f4 [64, 128]
00000000: c115 76bd 093b fd3c 9800 103b 85bd 8f3d
00000010: d649 5b3d f495 2ebd 392f 443d 4fca 093d
00000020: 8214 ebbc 74bb 40bd d94c 3cbd 9fc1 543c
00000030: a40a 8e3d e7af 82bc d8ae 31bd 8f4f 663d
00000040: e5a9 bcbc ee06 1cbb cfce 9dbd e0d9 0b3d
00000050: c9e1 a83d c297 76bd 0582 82bd 261f 95bc
00000060: 05b0 2ebd f3d6 a3bd 9277 43bd a513 9e3d
00000070: 2117 82bd f1b2 6b3b 0eb0 a2bd f0aa bf3b
00000080: 9b05 bf3c 1251 efbc 5e44 e8bc c540 623d
00000090: 2cda f33c a4cb a2bd bc24 7bba fa78 44bc
000000a0: 79ea 42bd 04c6 a93d b0fc d1bc 5168 c93c
000000b0: de40 1cbd 0574 233c bae2 98bd 7314 863c
000000c0: 405c 07bd f2e9 553d a1bd a33d d212 57bc
000000d0: 00a8 8dbd 9d22 86bc 26de 75bd 7d7f 8fba
000000e0: 9906 59bd ad52 ee3b 555b aa3d a53e 763d
000000f0: 1fbf bcbd 5aa3 623d b197 a53d 58ae 933c
00000100: 9cf7 24bd afea 483c ae37 083c 8674 a33c
00000110: f80b 66bd 1827 9a3d e405 cbbc 88c0 26bd
00000120: f348 0fbd cffb 28bd d64b 543d c559 813d
00000130: 70fb 0fbd 7f4d ba3c 3c6f 97bc 54ab 2abc
00000140: 083f 0ebd 5c5e 23bc 0243 123c b594 a6bb
00000150: efdc 833d 3d8a 8f3d 3f23 9d3d da05 a13c
00000160: 2f69 483d aaa8 483c 8cf9 00bd ecbd 90bd
00000170: 3611 afbd e07a 213d 1005 6dbd 13db 19bd
00000180: 4e9a 31bd d773 e5bc 7946 62bc a875 6ebd
00000190: 0c57 2fbd d09f 06bd f653 97bc 5806 86bd
000001a0: 2af7 4d3d ccc3 443d d59e 3b3d 86e2 ab3d
000001b0: 9279 39bd e0e5 b83c 2709 323d 7f63 a73b
000001c0: 2e4b 213d 96ee d03b ed68 0abc 2351 2fbc
000001d0: 78c7 a93c edfa 3ebc afdd a63b 94a8 593d
000001e0: f54e f8bc a602 883d fc4e 9bbd 098f cc3c
000001f0: 9d3e 1e3d a969 3fbd 02ad 9dbc 8678 21bd
00000200: 334e 543d 37e1 ee3c 4875 d73b 30ca 99bd
00000210: 8cd3 1d3d 7f45 8fbd f834 4cbd 1d03 96bd
00000220: 41f8 123a 5370 3dbd 9bef 9f3d a749 213d
00000230: 2f7b 733d 6e1e 95bd e0cb 0ebb e601 07bc
00000240: 2caa 583d fa4e a73d 3d4f 413d c0ba 8bbd
00000250: f14a c53b f3d2 a1bb 876a 08bd 7172 b0bd
00000260: 15a8 bdbd d1e2 963d 7413 893d d4b9 643a
00000270: e33c 163d a850 a03d e398 833d e3bd 7a3d
00000280: f36d 3a3d b43b 80bc c950 c5bc f871 bebd
00000290: 0d4b 873b 0e15 253d 1554 513d bd9a c13c
000002a0: daba ac3d 95be 56bd c48d 7fbd f6a6 e6bc
000002b0: 88f0 5e3d 8fc1 843c 3f9b a53d 3b3c fe3c
000002c0: 96be 9a3c bfee 1dbd 1048 d7ba ee6d 153d
000002d0: 1068 983c 4f06 a9bc 5664 34bc cebe 223d
000002e0: e4fe 6abb 6d21 073d 05c0 3b3d eb3a 2c3d
000002f0: 82dc 8b3d 9703 893d 922d 023d 51e9 4abd
00000300: 3802 0f3d 9759 6e3d c38e 863d 7fe9 e13c
00000310: aa3c 5f3b 7e11 9f3c b569 8e3d 2197 21bd
00000320: 0163 bcbd cf52 563b fb67 cd3c c352 903c
00000330: d953 8a3d 7782 d33c da92 8bbd 8e34 a53d
00000340: ea46 133c dd38 92bd 2bc8 5c3d 54fc 00bc
00000350: 0f84 2b3d eace 2ebd 5c9e 86bd ef2b 9e3c
00000360: 3a06 a6bd 065c 42bd 1b26 983d 3675 14bc
00000370: 53fe 06bc 8fdb a23d 7f7c 12bd 9774 3ebd
00000380: cba5 f7bb c15d 50bc 0b81 8a3d 4d8f 3d3b
00000390: 88be 9d3c 4cbc 80bb 338f c2bc e2e6 adbd
000003a0: e79a 033d 9e84 55bd 024e 3f3d 8068 633d
000003b0: 4086 7e3c 3ea6 afbd 092f a0bd 824f 45bd
000003c0: 98d4 533d 8cf0 d33c a9f6 743d 01b3 9ebd
000003d0: 4023 78bd e514 7f3d 39bd 473d 3fe3 4fbc
000003e0: e86f b7bd a2c0 2d3b a951 ac3c 9e79 3fbd
000003f0: 6ce1 6bbd e473 4cbd 9691 e6bc 00f7 df3b
-0.06007934 0.03091194 0.002197301 0.0701857 0.053537212 -0.042623475 0.047896598 0.033640202
-0.028696302 -0.04705377 -0.045971725 0.012985616 0.06935623 -0.015953017 -0.043379635 0.056228217
-0.02303023 -0.0023807841 -0.07705461 0.03414333 0.0824619 -0.06020332 -0.063724555 -0.01820333
-0.042648334 -0.07999983 -0.047721453 0.07718591 -0.06352068 0.0035964812 -0.07943736 0.0058492348
0.023318103 -0.029213462 -0.028352913 0.05523755 0.029767118 -0.079489976 -0.0009580364 -0.011991734
-0.04758689 0.082897216 -0.025633186 0.024585875 -0.0381478 0.009976392 -0.0746512 0.016367173
-0.03304696 0.05222506 0.07995153 -0.013127046 -0.06916809 -0.016373927 -0.06002631 -0.0010948029
-0.052984808 0.0072730393 0.083182015 0.060118336 -0.09216141 0.055331565 0.080855735 0.01802747
-0.0402752 0.012262984 0.008314056 0.019953024 -0.056163758 0.07526988 -0.024783082 -0.040710956
-0.03498168 -0.04125577 0.051830135 0.0631595 -0.0351519 0.022742031 -0.018485658 -0.010416824
-0.03472808 -0.0099712275 0.008927109 -0.005083645 0.06438624 0.07008789 0.07672738 0.01965611
0.048928436 0.012247244 -0.031487986 -0.07067475 -0.085482046 0.039423823 -0.057866156 -0.03756244
-0.043360047 -0.028009338 -0.013810747 -0.058217674 -0.042807624 -0.032867253 -0.018472653 -0.06544179
0.050284542 0.04803829 0.04580577 0.08392815 -0.045281954 0.02257055 0.04346576 0.0051082964
0.039378338 0.006376098 -0.008447868 -0.010700497 0.020724997 -0.011656505 0.0050923447 0.053139284
-0.030311087 0.0664113 -0.075834244 0.024970548 0.03863393 -0.046731625 -0.019247536 -0.03942158
0.05183239 0.029160125 0.0065752603 -0.07509267 0.038531825 -0.06995677 -0.049855202 -0.073248126
0.0005606451 -0.0462497 0.07809373 0.03937688 0.05944365 -0.072811946 -0.0021789 -0.008240199
0.052896664 0.081693605 0.04719471 -0.06822729 0.0060208966 -0.004938477 -0.033304717 -0.08615578
-0.09260575 0.073674805 0.066931635 0.00087252003 0.03667916 0.07827884 0.06425645 0.061216246
0.045515012 -0.015653469 -0.024086373 -0.092990816 0.00412882 0.040303282 0.051105577 0.023633355
0.084340766 -0.052427847 -0.062391058 -0.028155785 0.054428607 0.016205577 0.080862515 0.03103458
0.018889707 -0.038557764 -0.0016424675 0.03648179 0.018604308 -0.020632891 -0.01101025 0.039732747
-0.0035857493 0.03299086 0.04583742 0.042048376 0.06829168 0.06690138 0.03178174 -0.049538914
0.034914225 0.05819091 0.065701984 0.02757716 0.0034063258 0.01941752 0.06953756 -0.03945077
-0.09198571 0.0032703166 0.025073996 0.017617589 0.06754274 0.025819046 -0.06815119 0.08066665
0.008989075 -0.07139752 0.053901833 -0.00787266 0.041873988 -0.042677797 -0.065731734 0.019308059
-0.081066564 -0.04745104 0.07429143 -0.009061148 -0.008239347 0.07952034 -0.03576326 -0.046497907
-0.007557606 -0.012717665 0.06762894 0.0028924525 0.019255891 -0.0039286967 -0.023749923 -0.08491303
0.03213015 -0.052128427 0.046705253 0.05551958 0.015534937 -0.0857663 -0.07821471 -0.048171528
0.051716417 0.025871538 0.059805546 -0.07748986 -0.060580492 0.062275786 0.04876444 -0.012688457
-0.08956891 0.0026512523 0.021035032 -0.046746843 -0.057588026 -0.04991521 -0.028145593 0.0068348646

network.4.bias f4 [64]
00000000: 5659 a83d 7039 dd3c bc37 94bd c765 9bbd
00000010: 19fc 9f3b 860c 513d 27d2 a43d e5e1 8b3d
00000020: 47e7 0bbd 07d0 d9bc 9042 fbbc a38d 8f3d
00000030: 5c5f 673d f420 92ba 14b3 dd3c 434b 19bd
00000040: 1852 a6bd 3d51 8c3d 6803 ea3b 1102 c0bc
00000050: f236 57bd 7c21 31bd d2e5 21bd b559 643b
00000060: baa2 22bc 5c27 9c3c e462 e73c 9d4e 9b3d
00000070: 77cf af3d 3210 9d3d c5ac 37bd 8e4b 12bd
00000080: 78b8 2cbd c4b4 283d e463 41bd 8a1b 943d
00000090: 787b 7c3d 4f3f d4bc c8bd a73d 4f3e 2d3b
000000a0: 0244 b5bd 9460 4dbd 288a 7b3d 4ef7 27bc
000000b0: 5bd1 b23d 38f7 a7bd b9fc 46bd c981 a2bc
000000c0: 15a1 19bd 280d 2b3d cb17 acbc 5879 723d
000000d0: 856d 943d 1c72 153d 4b08 ebbc dc45 4ebd
000000e0: 16a1 f73c 5ed9 4e3d 4564 06bc 4101 d03b
000000f0: 45ef c23c 8912 1c3c 76d8 623d 20fa 5ebc
0.082201645 0.027004927 -0.07237193 -0.07587772 0.0048823473 0.051037334 0.08047896 0.06830195
-0.03415611 -0.026588453 -0.030671388 0.07009437 0.056487426 -0.0011148737 0.02706293 -0.03742529
-0.08121127 0.068514325 0.0071415193 -0.023438485 -0.052542634 -0.043244824 -0.039525814 0.0034843509
-0.009926492 0.019061737 0.028245397 0.07583354 0.08584493 0.07669105 -0.0448425 -0.035716586
-0.04216811 0.041188017 -0.047214404 0.07231815 0.061641186 -0.025909094 0.08190495 0.0026434844
-0.08850862 -0.050140932 0.061411053 -0.010251833 0.08731338 -0.0820145 -0.04858086 -0.019837277
-0.037507135 0.041760594 -0.02100744 0.059197754 0.07247452 0.036485776 -0.028690478 -0.05035959
0.030228179 0.050500266 -0.008202617 0.0063478057 0.023795733 0.0095259035 0.055382214 -0.013609439

network.5.weight f4 [64]
00000000: a96e 7f3f 3e5e 7f3f 7364 813f 7c5e 803f
00000010: fe34 803f f80b 803f 0ff4 7e3f e03f 7d3f
00000020: 62e8 7f3f ef40 803f ca21 803f ea2b 803f
00000030: e9fd 7e3f 2b57 7d3f d233 803f c392 7e3f
00000040: ead7 7e3f b125 7f3f b333 7f3f fb8f 7f3f
00000050: 948f 813f 4a5b 813f 8b0d 7f3f ba7c 7d3f
00000060: 4a59 7f3f 9532 803f a227 803f 1ccd 803f
00000070: 7c22 803f 8ef1 7e3f 2e09 813f 104f 813f
00000080: 9a5d 803f e33b 813f 2844 7f3f f0d7 803f
00000090: aad4 7e3f 7aa5 7d3f 1d80 7e3f 5c2a 803f
000000a0: 9adb 7d3f 4ac9 7f3f 1b91 7e3f 9732 7d3f
000000b0: e32c 813f 712d 7c3f ecb7 803f b4c2 7d3f
000000c0: 1fe1 7e3f 54a4 803f 8cc5 803f 027b 7d3f
000000d0: 6ce4 7e3f c535 813f ee9d 7d3f 4ca8 7e3f
000000e0: 6c06 813f 360e 7f3f 124c 803f d166 803f
000000f0: 4d71 7f3f 0555 7f3f 84fb 7f3f 3a6b 803f
0.9977823 0.9975318 1.010878 1.0028834 1.0016172 1.0003653 0.99591154 0.9892559
0.99963963 1.0019816 1.0010312 1.0013402 0.99606186 0.9896113 1.0015814 0.9944269
0.9954821 0.9966689 0.9968826 0.9982907 1.0121942 1.0105984 0.9963004 0.9901844
0.9974562 1.0015436 1.0012095 1.0062594 1.0010524 0.99587333 1.0080926 1.0102253
1.0028565 1.0096401 0.99713373 1.0065899 0.9954325 0.9908062 0.99414235 1.0012927
0.9916321 0.9991652 0.99440163 0.9890532 1.0091823 0.9850684 1.0056129 0.9912522
0.9956226 1.0050149 1.0060287 0.9901582 0.99567294 1.0094534 0.99069107 0.9947555
1.0080085 0.9963106 1.0023215 1.0031377 0.9978226 0.99739105 0.9999316 1.0032723

network.5.bias f4 [64]
00000000: 5f55 3cbb 1d62 873b 3750 e63b cee2 043c
00000010: 87c3 23bb aa5e 223b 70f3 1bbc d482 a5bb
00000020: dd04 50ba 042f 603a 7ba2 1b3b 79c7 e63a
00000030: ddf6 02bb 7541 25bc 9dd3 a63a 135e 8ebb
00000040: c782 50bc d887 b4bb a6d9 e93a b955 13bb
00000050: 2365 30bb 57cb 693b ded8 8eb9 c597 18bc
00000060: b0ba 603b 054f eb3a ea40 85bb 54c1 d0ba
00000070: 5248 ea3a 86e4 9bbb abee fe3b 59ff 9d3b
00000080: f51f 433b e2f6 953b e2a8 b7bb 740f 8f3b
00000090: 1f4b 9f3a 449a 4cbb c826 87bb bdda d8bb
000000a0: 4211 7bba 5464 64bb 2bee 2fbc 03d9 30bc
000000b0: 6a24 ff3b a58d 76bc 71ba e13b ca27 67bb
000000c0: 6e4d 55ba 0f6a 323b 6231 873b 1ddf 4abc
000000d0: dc73 133a 2847 d4ba d22a 3ebc 7904 49bb
000000e0: 5b78 ecba cab0 11bb c535 993b 3e8a 9d3b
000000f0: ed76 23bb 7d83 8739 1270 4d3a 1325 8639
-0.0028737409 0.004131569 0.0070286053 0.008110715 -0.002498837 0.0024775662 -0.009518489 -0.0050509963
-0.0007935295 0.0008551928 0.002374797 0.0017607055 -0.0019983568 -0.010086407 0.0012727861 -0.0043447106
-0.012726492 -0.005509358 0.0017841354 -0.0022481515 -0.002691575 0.0035674179 -0.0002724593 -0.009313528
0.0034290962 0.0017952627 -0.0040665762 -0.0015926757 0.0017874336 -0.0047574667 0.0077799163 0.0048216996
0.0029773687 0.00457655 -0.005604849 0.004365856 0.0012153125 -0.003121988 -0.004124496 -0.0066178725
-0.0009577462 -0.003484984 -0.010737936 -0.010793927 0.0077863233 -0.015048419 0.0068886806 -0.003527152
-0.0008136843 0.002722386 0.00412576 -0.012382296 0.00056248694 -0.0016195523 -0.011606889 -0.0030672832
-0.001804124 -0.0022230619 0.0046755993 0.0048077395 -0.0024942711 0.00025847173 0.0007836829 0.00025586094

network.5.running_mean f4 [64]
00000000: c8cb 54bd 1014 553e a042 21bd 42c6 803e
00000010: d4a4 a03e c908 0d3f d4b7 a93e 47c8 423e
00000020: 4751 bdbe af3a 66be 4adf fbbe 607a ae3e
00000030: b011 573e 48b3 f9bd 77ad 83be 91ae 5bbe
00000040: 66a5 6b3e 4fa3 adbd b580 e73d 5c6b 0dbc
00000050: 388c 313e 3f37 123e 1062 7cbe 6ee9 223e
00000060: e60a 95be 0ba6 0fbf db8e 9f3e 7a3e 173b
00000070: c503 bc3c b4c5 813e fde3 413d 7578 acbd
00000080: 3f1f 493e 7388 963d 7a5d 273e 4e83 c53e
00000090: 8d18 9b3c d00f 18be 5301 3b3e f2b3 8a3e
000000a0: 48a2 cfbe 9a8c d83e 920d cb3c 82a6 3bbc
000000b0: d82a a43e f832 ab3e 4200 723d ea6a eabe
000000c0: 9691 913c d86f e13d 570f bcbd 003e f1bd
000000d0: 4593 cd3d c676 e73e a335 f2be 625a 56bd
000000e0: 0da4 663e 06aa 9f3d c80f b0bc 6f0b 8bbe
000000f0: 1b8a 51be ccdd 57bd b717 d23e eeb8 93be
-0.051952153 0.20808434 -0.03937018 0.2515126 0.31375754 0.5509153 0.33148062 0.19021712
-0.36976072 -0.22483324 -0.49193794 0.3407774 0.21002841 -0.12192398 -0.2571828 -0.2145331
0.23012313 -0.08478414 0.11303846 -0.0086315535 0.17338645 0.14278887 -0.24646783 0.15909359
-0.29109877 -0.56112736 0.31163678 0.002307801 0.022951016 0.25346148 0.047336567 -0.08421413
0.19640826 0.073502444 0.16344252 0.3857674 0.018932605 -0.14849782 0.18262224 0.27090412
-0.40553498 0.4229477 0.024786744 -0.011453273 0.32063937 0.33437324 0.059082277 -0.45784694
0.017769616 0.110076606 -0.09182613 -0.11779404 0.10037855 0.45207804 -0.47306547 -0.05233229
0.22523518 0.07796101 -0.0214919 -0.2715716 -0.2046284 -0.052701756 0.41033718 -0.28852028

network.5.running_var f4 [64]
00000000: 2abe 473e 1b42 6b3e ce64 883e c055 383e
00000010: f440 603e 5cc7 4a3e cb3a 613e 2c43 733e
00000020: 33fc 2c3e c997 3d3e 6135 843e 0f13 913e
00000030: a09a 3f3e b745 403e 0455 1d3e 6b91 853e
00000040: 114c 593e 0266 223e 6b79 853e a961 843e
00000050: 04ce 823e b3f6 973e 50fe 5f3e 42dc 923e
00000060: 1555 9d3e dca1 443e 10bc 493e 0df1 4c3e
00000070: 701b 333e 90e0 823e 0f1b 6d3e 993c fe3d
00000080: 7c5c 683e bafc 4b3e b152 213e 174f b03e
00000090: baf7 5a3e b3b2 5a3e 971c 6d3e 0429 023e
000000a0: ca71 033f 83bd af3e 778a 603e dc05 873e
000000b0: c482 903e 5cc8 423e da78 623e fac4 493e
000000c0: c4cf 823e f50a c23e 610a f13e 451a 6f3e
000000d0: b0eb 6d3e 0318 9e3e 9953 5b3e be5e 343e
000000e0: 2f94 993e 26d8 8a3e 46d7 a43e 3473 4e3e
000000f0: f10f 243e c0d6 8a3e 1c25 313e 686b 6e3e
0.19506136 0.22974436 0.26639408 0.18001461 0.21899778 0.19802612 0.21995084 0.23756093
0.16893081 0.18514933 0.25821975 0.28334853 0.18711329 0.18776594 0.15364462 0.26087508
0.21220423 0.15859225 0.26069197 0.2585576 0.25547802 0.29680404 0.21874356 0.28683668
0.30728975 0.1920237 0.19700646 0.20013829 0.17490935 0.25561953 0.23154853 0.12413902
0.2269153 0.19920626 0.157542 0.3443534 0.21383563 0.21357231 0.23155437 0.12710959
0.51345503 0.34324273 0.2192782 0.26371658 0.28224766 0.19021744 0.22116414 0.19704047
0.25549138 0.37898985 0.4707823 0.23349865 0.23234439 0.30877694 0.21418609 0.17614266
0.29995868 0.27118033 0.3219549 0.20161134 0.16021706 0.27116966 0.17299312 0.2328316

network.8.weight f4 [32, 64]
00000000: 54c8 3bbd 9f4a 11bd 3146 b9bc 7b9a 483d
00000010: 9d23 d5bc 0bd0 c53d a7da 82bc 51ba 0b3d
00000020: 1e72 293d 94b7 4b3d 2dd3 2b3c 90d8 acbd
00000030: 7051 9bbc 6fe1 b4bd 8084 693d 511c efbd
00000040: 8847 193a e0cc cdbd 83ae 4a3d 5b27 ae3c
00000050: b3c2 4e3d 06dc c4bd 76a3 0abe 3e3b 34bd
00000060: 9162 09be bb56 9c3d e465 03be be53 83bd
00000070: 32d8 dcbd 58e8 9a3d cabd a73d a2d1 fbbd
00000080: dd15 ba3d c065 05bd 2e0b 1bbc c585 a4bd
00000090: f05f d7bc b870 3dbd 27be e3bc 6245 893b
000000a0: 6d48 713c 5c34 2bbd 9110 95bd e437 eb3c
000000b0: 5a6d 59bd b525 af3d 55e9 0f3d a1ea d8bd
000000c0: 1dc2 66bd f344 c13d d0e7 ec3d 0aa3 a9bc
000000d0: 978c e83d 628e febd c53f bc3d e92a 72bc
000000e0: 1e05 f7bc 7001 5e3d d91c 97bd 5305 d8bd
000000f0: 6a54 f23d 047e fa3d b30f 8d3c 0778 e4bd
00000100: ad50 763d 69fd b2bd f42a df3d 2033 a83d
00000110: b934 9ebd 9359 91bd fe29 5c3d 4020 f23d
00000120: 22ed d63d c2bd 93bd 4ff7 97bd f3ce 193d
00000130: 275f 06bd 5761 42bd a5e2 3ebd 46e8 b5bd
00000140: 5222 e2bd 8471 de3d 7f3d d33d b5de ba3d
00000150: c6b0 043e 0112 85bd 4b86 b13d dc04 b7bc
00000160: ca40 6b3d a812 9ebc b9a4 4d3d d623 cdbc
00000170: e826 9fbd 9130 95bd 2f4e 86ba 4c45 be3d
00000180: 0d24 10bd acb2 dfbd 6bd4 5b3d e242 fd3d
00000190: bbff a7bd 140b 48bd 72e3 e33c bc41 9b3d
000001a0: d608 d83d 915f 12bd ad06 823d 426a a13d
000001b0: a9d0 323b 9aa6 f0bd bdb4 97bd dfa8 cbbd
000001c0: c843 9cbd 87e2 3fbd 4ea2 d3bd b986 f3bd
000001d0: 9b24 8fbd f407 b53d e212 88bd 34fd dd3b
000001e0: 6fb8 463c ade8 49bd 7afc ed3d ae37 50bd
000001f0: 261d fd3d 2a78 ddbd 66bb 113d 2053 893d
00000200: a0d0 8f3d 9493 5dbd 1c07 443c 643b 77bd
00000210: 7027 31bd 67fe b9bd 27c6 0c3d 2d09 273d
00000220: 62ae 6dbd 3689 8ebd c2aa 5039 567b bd3b
00000230: af2c a83d 253e 44bc b095 c13d e61a 553d
00000240: fc98 9dbd a909 3ebd 3d44 cbbd 81bf 9b39
00000250: a627 abbc 980c 03be 8b39 f63b afbd 73bb
00000260: 64c7 983b d947 9cbd c6d7 bb3d a4ec 893b
00000270: 24b5 f7bd 4dfb 5ebd 2d82 a1bd bb99 31bd
00000280: 90d2 d13d d791 6c3d d262 c73d d5e6 b5bd
00000290: f02e dfbd a675 a4bd 8d32 9c3d 330e 263d
000002a0: 12bf 0fbd 4156 4bbd 5df2 963c b2cb c4bd
000002b0: 214e 05bd 5f58 a3bd 2085 a9bd 070f c6bd
000002c0: fed8 a73d 9e4d 6e3b c91e 623d 53da 47bd
000002d0: 3512 4138 b094 313b f676 d6bd 3a10 cb3d
000002e0: 8f2a 2bbd 54b6 56bd bf03 b63c 3418 47bc
000002f0: 0ac1 9a3c bec3 9ebd c9a8 14bd c583 363d
00000300: bb1a 89bd 2079 6f3d 13b5 bcbd 5e51 f2bd
00000310: 65c2 8ebd a20b b9bd d8b8 febd dbf0 cebc
00000320: c1a6 e9bd 2ae0 ea3d 00e8 483d b2d1 6bbd
00000330: b2aa 63bc ae0f 73bd a4b4 f5bd 3b21 eb3d
00000340: 8681 67bc bc16 ffbd d401 483d bc3d d4bb
00000350: f40c fcbc 3f4d c3bc f78a d73d b427 0abd
00000360: 8b24 853c 4246 d3bd ea25 a73d da6d 463d
00000370: fe5b 48bd 8bcb 59bd a660 b63d 8253 c2bd
00000380: d5b1 c3bd f584 46bc 9005 c03d 5b82 16bd
00000390: 0989 ddbd 424b df3d 60df 273d c00f 80bd
000003a0: 8c8b 833d 1b19 8cbb f240 463c af64 7c3d
000003b0: 410d 39bd f8b8 e7bc 8e4b 14bc 4d12 933d
000003c0: e369 67bd 5709 07bc 2790 313d f804 783d
000003d0: bbd2 ebbc ba2d a6bc b134 90bd 14e9 7e3c
000003e0: 8eab b03c 6023 3e3c 60d0 953d 5027 39bd
000003f0: da97 d5bd ffb6 04bd f286 47bd 9bb8 9cbd
-0.045845345 -0.035471555 -0.022616478 0.04897545 -0.026017958 0.09658822 -0.015973402 0.034113232
0.041368596 0.04973562 0.01048736 -0.084397435 -0.01895973 -0.088320605 0.057011127 -0.11675323
0.0005847146 -0.100488424 0.049482834 0.021259 0.05047865 -0.09612279 -0.13538918 -0.04400181
-0.13416506 0.0763373 -0.12831837 -0.06412457 -0.107834235 0.07563847 0.08190496 -0.12295844
0.09086201 -0.03256774 -0.009463115 -0.08033327 -0.026290864 -0.046250075 -0.027800633 0.0041891793
0.01472674 -0.04179798 -0.072785504 0.028713174 -0.0530828 0.08552114 0.035134632 -0.10591627
-0.056337465 0.09436979 0.11567652 -0.020707626 0.113549404 -0.12429501 0.091918506 -0.014780738
-0.030153807 0.05420059 -0.07378549 -0.105478905 0.11832507 0.12231067 0.0172194 -0.11155706
0.060135532 -0.087397404 0.108968645 0.08212876 -0.077249 -0.07097163 0.053750984 0.118225574
0.10494448 -0.07213928 -0.07420217 0.037550878 -0.032805588 -0.04745611 -0.046602864 -0.08882193
-0.11041702 0.10861495 0.10314464 0.09124509 0.12958059 -0.064975746 0.086681925 -0.022341184
0.057434835 -0.019296005 0.05020592 -0.025041502 -0.07771093 -0.07284654 -0.0010246689 0.09290561
-0.03519063 -0.10922751 0.053669374 0.123662725 -0.082030736 -0.04883869 0.027818415 0.07580897
0.1054856 -0.03573567 0.063489296 0.07881595 0.0027285016 -0.11750527 -0.0740752 -0.09944319
-0.07630116 -0.046846893 -0.103336915 -0.11890931 -0.06989404 0.088394076 -0.066442266 0.006774569
0.012128933 -0.049294163 0.11620422 -0.05083435 0.12359075 -0.10813935 0.035579108 0.06705308
0.07022214 -0.05409582 0.011964586 -0.060359374 -0.0432505 -0.090817265 0.03436866 0.040780235
-0.058027633 -0.06959765 0.00019900038 0.005782525 0.08211648 -0.011977707 0.09452379 0.052027605
-0.07695195 -0.04639593 -0.09925125 0.00029706585 -0.02089293 -0.12797773 0.007514184 -0.0037191918
0.004662441 -0.07630891 0.09172015 0.004209118 -0.12095097 -0.054438878 -0.07886157 -0.0433595
0.1024524 0.05775627 0.09735645 -0.08881918 -0.108976245 -0.08030252 0.07626829 0.040540885
-0.03509433 -0.049642805 0.018426115 -0.09609164 -0.032545213 -0.0797584 -0.08277345 -0.09670835
0.08195685 0.0036362181 0.05520514 -0.048792195 4.6031742e-05 0.0027096681 -0.10471909 0.09915204
-0.041788634 -0.052419975 0.022218583 -0.012151767 0.018890876 -0.077521786 -0.03629378 0.04455926
-0.066945516 0.058465123 -0.09214225 -0.11831926 -0.069706716 -0.09035422 -0.124376 -0.025261333
-0.11408759 0.11468537 0.049049377 -0.057573028 -0.013895677 -0.059341125 -0.11997345 0.114809476
-0.014130002 -0.12455508 0.04882987 -0.006477086 -0.030767895 -0.023840545 0.10524552 -0.03372927
0.016252777 -0.10316135 0.081615284 0.048444606 -0.048915856 -0.05317263 0.08905153 -0.09488584
-0.09555403 -0.01211666 0.09376061 -0.03674541 -0.10817153 0.10903026 0.04098451 -0.06253004
0.06423101 -0.0042754537 0.012100445 0.061619457 -0.045178656 -0.028286442 -0.009051217 0.07181225
-0.056497466 -0.008241973 0.043350365 0.060551614 -0.028787008 -0.020285476 -0.070413 0.0155585
0.021566179 0.011605114 0.07315135 -0.045203507 -0.10429354 -0.03240108 -0.04871268 -0.07652398

network.8.bias f4 [32]
00000000: ab54 85bd 4656 8a3d 8edb e6bc 42a0 193d
00000010: 9c4f 5d3d 0db0 743d b17c f8bb 2bd8 88bd
00000020: 3c6e bcbd 12e9 cb3b faaf 54bd 6977 b5bc
00000030: 7f8e 223a 92e8 b93d eee3 5b3b 0126 14bd
00000040: a335 98bd 93c4 893d 2c63 d7bd 1446 d2bd
00000050: 001e f6bd 61cd 363d 5801 22bd e607 ab3d
00000060: 7739 c1bd 20f6 06bc bb95 3b3d 27ee 9f3d
00000070: ddc7 c63d 9ed2 69bc 0561 e7bd 1b8b 65bd
-0.0651029 0.067547366 -0.028180864 0.03750635 0.054031 0.059738208 -0.0075832237 -0.06681856
-0.09200713 0.0062228525 -0.051925637 -0.022151666 0.0006201043 0.090775624 0.0033552605 -0.036169056
-0.074321054 0.06726947 -0.105169624 -0.102672726 -0.12017441 0.04462946 -0.039552063 0.08351116
-0.09434789 -0.008237392 0.04579709 0.07809096 0.0970609 -0.014271406 -0.11297802 -0.056040864

network.9.weight f4 [32]
00000000: 8329 803f a2ed 7c3f d948 803f 9e32 7f3f
00000010: e066 823f cf85 813f a9a6 803f d195 7d3f
00000020: 8809 7e3f afcd 813f 7d1f 813f 3461 833f
00000030: 6966 803f b337 7e3f f357 7e3f ad96 793f
00000040: 0c64 7b3f 18a9 823f 13c0 7d3f 342e 823f
00000050: 56bb 7e3f 194d 7a3f 7b2a 7d3f 6cca 803f
00000060: d433 7b3f 92ed 773f ac15 813f 4cdd 7e3f
00000070: 727e 7f3f 6b5e 7e3f 8bef 7f3f c87a 803f
1.0012668 0.988001 1.0022231 0.9968661 1.0187645 1.011896 1.0050861 0.99056727
0.99233294 1.0140895 1.0087734 1.0264039 1.0031253 0.9930374 0.9935295 0.9749554
0.98199534 1.0207853 0.99121207 1.017035 0.995046 0.9777389 0.98892945 1.0061774
0.9812596 0.9684688 1.0084739 0.9955642 0.99802315 0.9936282 0.9997489 1.003747

network.9.bias f4 [32]
00000000: fb0c 8b3c 8b47 93bc a07a 123b 5735 533b
00000010: 2978 583c 4334 b139 e37e 1fbb daa4 73bc
00000020: e297 06bb 337d 543b 0f42 5fbb f5f6 573b
00000030: 04fc c03b aa65 0ebb b6e6 c8bb 795f ddbc
00000040: d72a bfbb 69ed db3b 41f5 28bb ee07 0d3b
00000050: d98d b8b9 a333 abbc e7fc 15bc 870e 15bb
00000060: d6f2 18bc 569c 6dbc bc9a 7b3b a0cd e6bb
00000070: 3abc ff3a 0bb9 fd3b f082 163c 11b0 f6bb
0.016973963 -0.01797845 0.0022350922 0.0032227838 0.013212242 0.0003379901 -0.0024337105 -0.014870847
-0.0020537307 0.0032423257 -0.0034066474 0.0032953594 0.0058894176 -0.0021728077 -0.0061310185 -0.027023064
-0.0058339643 0.006711651 -0.0025780948 0.002151962 -0.000352009 -0.020898646 -0.009154535 -0.0022744255
-0.00933524 -0.014502605 0.003839179 -0.0070435554 0.0019511052 0.007743006 0.009186491 -0.007528313

network.9.running_mean f4 [32]
00000000: b17f a5be 7cfc 783d d170 d1be f9b5 abbe
00000010: e034 60bd ebf1 a73e 99b2 b43e 5631 383e
00000020: 7fca 6a3e 438c e93e 52b4 133f c41a 053e
00000030: 5e09 d43d ee3e 5ebe 17c8 72bc 80bd 213d
00000040: ce2b 00bf f88e 983e c358 38bd cd68 7d3e
00000050: 85a1 61be 66f5 6bbd be29 db3d 2ce1 e63c
00000060: 6abd babd 485d 6ebd 24b7 cfbe 11f3 113e
00000070: e819 c53e 7f08 a5be 8d43 ef3b a69d c93d
-0.32323983 0.060787663 -0.40906385 -0.33537272 -0.054737926 0.32801756 0.3529251 0.1798757
0.22928809 0.45614824 0.5769702 0.12998492 0.10353349 -0.21703693 -0.014818213 0.039487362
-0.5006684 0.29796576 -0.045006525 0.2474701 -0.22034271 -0.057607077 0.10701321 0.028183542
-0.09118159 -0.05819443 -0.40569413 0.14252879 0.38496327 -0.32233045 0.007301754 0.09844522

network.9.running_var f4 [32]
00000000: 3038 503e a569 303e 7db3 523e 02fb 733e
00000010: efb0 3c3e 60ee ad3e d913 5f3e 7884 433e
00000020: 29b6 313e 7ed7 8e3e 6808 d23e d90d 053f
00000030: 7968 2b3e f871 9a3e d07d 443e a891 893e
00000040: 6dd6 a93e a1fd 913e 966d 103e a5a7 be3e
00000050: efbd 583e ed10 8f3e 4cd5 4e3e 53a5 3f3e
00000060: ea6b 793e 5a90 723e 99c5 953e bdfc 1f3e
00000070: 3b29 a53e fc4a 6f3e ce03 7d3e 8107 9f3e
0.20333934 0.172278 0.20576282 0.2382622 0.1842687 0.33970928 0.21784915 0.19093502
0.17354645 0.27898782 0.41022038 0.51974255 0.16739072 0.30165076 0.19188619 0.2686894
0.33171406 0.28513816 0.14104304 0.37237278 0.21166204 0.279426 0.20198554 0.1871541
0.24357572 0.23687878 0.29252318 0.15623756 0.3225802 0.23368448 0.24708483 0.31060413
