ai-layer/model/results/1000_v2/dnn_eligibility_model.pth (torch, 64129 bytes, 25 tensors)

network.0.weight f4 [128, 8]
0	0x3e975395	0.29555956
1	0x3e89d9bb	0.26923928
2	0xbdbd7dae	-0.09252487
3	0x3ea6443e	0.3247394
4	0xbdbc4863	-0.09193494
5	0x3db35dca	0.08758123
6	0xbe398ff8	-0.18121326
7	0x3e35cf49	0.17754854
8	0x3e9eb17e	0.3099479
9	0xbe7abe69	-0.24486698
10	0x3e9cb475	0.30606428
11	0x3dbbdda9	0.09173138
12	0x3e8faf6d	0.28063527
13	0x3d0b83c3	0.034061205
14	0x3e2ede12	0.170769
15	0xbcecba13	-0.02889732
16	0x3ea0d4ac	0.31412256
17	0x3d88873d	0.0666642
18	0xbe0b0d73	-0.13579349
19	0x3dec05db	0.11524554
20	0xbe1457d1	-0.14486624
21	0xbd16d290	-0.0368219
22	0xbe0c0fba	-0.13677874
23	0x3e45948d	0.19294949
24	0xbe9284b8	-0.2861688
25	0xbe1e4e8f	-0.15459655
26	0xbd8a9337	-0.0676636
27	0xbe46b6da	-0.1940569
28	0x3cdbf16f	0.026848523
29	0xbeb3a2f2	-0.35085255
30	0x3eac644a	0.33670264
31	0xbe99a6bb	-0.30010018
32	0x3e8f363c	0.27971065
33	0x3d52cbbe	0.051463835
34	0xbdc00bbf	-0.093772404
35	0x3e5b4bd3	0.21415643
36	0x3d7e0fab	0.06202666
37	0x3e9d6fba	0.30749303
38	0x3c8d6a87	0.01726271
39	0xbdc37a9a	-0.09544869
40	0x3dbfd943	0.09367611
41	0xbdfe1363	-0.124060415
42	0x3e0f6b14	0.14005691
43	0x3eb1967c	0.34685123
44	0x3e2e36f5	0.17013152
45	0xbe2fea98	-0.17179334
46	0x3e362191	0.17786242
47	0x3d13f190	0.036119044
48	0x3e291154	0.16510516
49	0xbe634ceb	-0.2219731
50	0xbecb6e29	-0.39732483
51	0xbdd882bd	-0.10571811
52	0xbe83e381	-0.2575951
53	0x3e8c9d34	0.27463686
54	0x3d986c30	0.0744251
55	0x3e28122b	0.1641318
56	0x3e05b05e	0.1305556
57	0xbb73ef6e	-0.0037221569
58	0x3e8a3ae4	0.26998055
59	0xbe76c072	-0.2409685
60	0x3ce80c78	0.028326258
61	0xbe82d35b	-0.25551876
62	0x3df31c07	0.1187058
63	0xbdea5410	-0.11441815
64	0x3ddc252f	0.1074928
65	0xbdb751f4	-0.08951178
66	0x3e8d077b	0.2754477
67	0xbe663982	-0.22482875
68	0xbe402d05	-0.18767174
69	0xbe6baca3	-0.23015074
70	0x3ea8148d	0.3282818
71	0x3de88838	0.11354107
72	0x3e975f03	0.29564676
73	0xbea648d6	-0.32477444
74	0xbec61c7f	-0.38693616
75	0xbe8b6653	-0.27226505
76	0xbe88a80c	-0.2669071
77	0x3dd0bdb5	0.10192434
78	0x3dcfcbff	0.10146331
79	0x3e951d70	0.29124022
80	0xbe58d667	-0.21175538
81	0xbe89bfc0	-0.26904106
82	0x3e323c36	0.17405781
83	0xbe1b1f64	-0.15148693
84	0x3e5041b2	0.20337561
85	0xbdd3419b	-0.103152476
86	0x3e11289d	0.14175649
87	0xbe90bab7	-0.28267452
88	0xbe1e17c0	-0.15438747
89	0x3dea4e9c	0.11440775
90	0x3db123c0	0.08649397
91	0xbd87fea0	-0.06640363
92	0x3e6447ac	0.22292966
93	0x3e808f30	0.25109243
94	0xbe840fd9	-0.2579334
95	0xbe4314fa	-0.1905097
96	0x3e9c5bd8	0.3053882
97	0xbdfa2fca	-0.12216146
98	0xbe01deef	-0.12682699
99	0xbeb01863	-0.34393606
100	0xbe769824	-0.24081475
101	0x3d8d91ad	0.06912551
102	0xbd41dfcb	-0.047332566
103	0xbe7dffe1	-0.24804641
104	0x3c26ea86	0.010187751
105	0xbe50da78	-0.20395839
106	0xbe858be6	-0.26083297
107	0xbe44719d	-0.19183965
108	0xbea4aceb	-0.32163176
109	0xbe59e9f4	-0.21280652
110	0x3ec5c01a	0.38623124
111	0x3d8e0d03	0.069360755
112	0x3dd55570	0.104166865
113	0xbeb5a7e1	-0.35479644
114	0xbe590b52	-0.21195725
115	0xbdb643b5	-0.08899633
116	0x3d2d856b	0.042363565
117	0xbeadb45e	-0.33926672
118	0xbe1b2262	-0.15149835
119	0xbe5fd925	-0.21860178
120	0xbc5d9f2b	-0.013526718
121	0xbe1cfefa	-0.15331641
122	0xbb70c9d5	-0.0036741395
123	0xbe6708bd	-0.22561927
124	0xbe7e9ed9	-0.24865283
125	0xbe625c00	-0.22105408
126	0xbe0bde36	-0.13658985
127	0xbe8aeb1d	-0.27132502
128	0x3e92bde9	0.28660515
129	0xbda6dd69	-0.081476994
130	0x3ea22a6b	0.31672987
131	0x3dcb9907	0.09941297
132	0xbe9142db	-0.2837132
133	0x3e7dc202	0.2478104
134	0xbdd2d534	-0.102945715
135	0xbe1c5be5	-0.1526943
136	0xbe8b8a58	-0.27253985
137	0xbec6bb22	-0.38814646
138	0x3dd3f7aa	0.103499725
139	0xbd94bc08	-0.072624266
140	0x3e01e584	0.1268521
141	0xbe99d653	-0.3004633
142	0x3e75d9bd	0.24008842
143	0xbe96261e	-0.29325956
144	0xbde6160d	-0.112346746
145	0x3dafd409	0.08585364
146	0x3e29d02f	0.16583322
147	0x3e98922a	0.29799014
148	0x3e903bb0	0.28170538
149	0xbea23234	-0.31678927
150	0x3d71f82e	0.059074573
151	0xbdf2d3ee	-0.11856829
152	0xbd6e045f	-0.058109637
153	0xbe8d1e9e	-0.27562422
154	0x3eb17020	0.34655857
155	0xbe5259bf	-0.20542048
156	0x3e54e9df	0.2079234
157	0x3de54add	0.1119592
158	0x3df7bdc8	0.12096745
159	0xbe4c7e90	-0.19970155
160	0x3e92062e	0.2852034
161	0x3daf1a6b	0.08549961
162	0x3d18eed6	0.037337147
163	0xbea972f3	-0.33095512
164	0x3e1f2538	0.15541542
165	0xbd8e1550	-0.06937659
166	0xbe27cf64	-0.16387707
167	0x3ea02424	0.31277573
168	0x3d96e7eb	0.073684536
169	0xbe3127ec	-0.17300385
170	0xbe3c15dc	-0.18367714
171	0x3c9d2a02	0.01918507
172	0x3e5add27	0.21373425
173	0xbddac278	-0.10681623
174	0xbe35d0f6	-0.17755494
175	0xbdfc0999	-0.12306518
176	0xbe927957	-0.286082
177	0x3e0a89e9	0.13529171
178	0x3e8a7742	0.27044111
179	0xbeacfa3d	-0.33784667
180	0x3d8dd7fe	0.06925963
181	0x3e243014	0.16033965
182	0x3da34535	0.079721846
183	0xbddb8396	-0.107184574
184	0x3e381d14	0.17979842
185	0x3e514f05	0.204403
186	0x3e1d04f7	0.15333925
187	0xbd7042c4	-0.058657423
188	0xbda02357	-0.078192405
189	0x3d069808	0.032859832
190	0xbd26b161	-0.040696505
191	0xbdb2fe28	-0.08739883
192	0x3e83e09f	0.2575731
193	0x3e95dbef	0.2926936
194	0xbd2b7c0b	-0.041866343
195	0xbd755780	-0.0598979
196	0xbc870663	-0.016482538
197	0xbcd3ee7d	-0.025870556
198	0x3d93afbf	0.07211255
199	0x3daa59fb	0.08317944
200	0xbe8eaeb0	-0.2786765
201	0xbe0c9af8	-0.13730991
202	0x3eabf0ec	0.33582246
203	0x3ddb1ec6	0.10699229
204	0xbb6ec739	-0.0036434664
205	0xbe5389f3	-0.20658092
206	0xbe599df2	-0.21251658
207	0xbea675bc	-0.325117
208	0xbe0cf40f	-0.13764976
209	0x3d82b1df	0.063815825
210	0x3e579c5f	0.21055745
211	0x3de1980b	0.11015328
212	0xbeb839c6	-0.35981578
213	0xbe6ddc3d	-0.23228545
214	0xbdc53634	-0.09629479
215	0x3ea59f2b	0.32347998
216	0x3db2e232	0.087345496
217	0xbd21c6c5	-0.039496202
218	0x3e4443f3	0.19166546
219	0xbdc50f28	-0.096220315
220	0xbe546c14	-0.20744354
221	0x3e95ab97	0.29232475
222	0xbdf0112b	-0.117220245
223	0xbd2d997a	-0.042382695
224	0xbeae7185	-0.34070984
225	0x3e846e4d	0.25865403
226	0x3e9dc469	0.30813912
227	0x3e04d2a6	0.12970981
228	0xbe395126	-0.18097362
229	0xbeb942b9	-0.36183718
230	0xbe8b6fea	-0.2723382
231	0x3e77e587	0.24208651
232	0x3e3f5ee3	0.1868854
233	0x3ea1c48f	0.31595275
234	0x3e201f4a	0.15636936
235	0x3dc4f491	0.0961696
236	0xbc06e3b2	-0.008232998
237	0xbe845bf6	-0.2585141
238	0xbe9b9b99	-0.3039215
239	0xbea4fa16	-0.3222205
240	0x3e1ac7b9	0.1511525
241	0xbe33438e	-0.17506239
242	0xbc64d9b6	-0.013967922
243	0xbe41bc42	-0.18919471
244	0xbd2d3734	-0.042288974
245	0xbe85d1ec	-0.2613672
246	0xbe578345	-0.21046169
247	0x3e1d7a87	0.15378772
248	0xbdc05ba4	-0.09392479
249	0x3e588968	0.21146166
250	0xbdbd3d19	-0.09240169
251	0xbe862df1	-0.26206926
252	0xbd2b40c5	-0.041809816
253	0xbe137cdc	-0.14403099
254	0xbe0aaac3	-0.13541703
255	0xbeb4f841	-0.35345653

network.0.bias f4 [128]
0	0x3e49b979	0.19699658
1	0xbd587189	-0.05284265
2	0x3e1a9387	0.1509534
3	0xbe538120	-0.20654726
4	0x3d590ec2	0.05299259
5	0xbe5bf484	-0.21479994
6	0x3e350972	0.17679384
7	0xbe1f0b14	-0.1553157
8	0xbdb6ec1e	-0.089317545
9	0xbe9d8444	-0.30764973
10	0x3ab34eef	0.001368014
11	0x3eac5015	0.33654848
12	0x3e30caf1	0.17264916
13	0xbe3fd8f0	-0.18735099
14	0x3ba279b1	0.0049583544
15	0xbd1f2b9b	-0.038859945
16	0xbe920f84	-0.28527462
17	0x3e8db01f	0.27673432
18	0x3bc492c2	0.00599894
19	0x3d95b541	0.07309962
20	0xbe11377f	-0.14181326
21	0xbe27c453	-0.16383485
22	0x3d6dcc4c	0.05805616
23	0x3e077239	0.13227166
24	0x3da1bb0f	0.07897007
25	0xbe2e5cff	-0.17027663
26	0x3eafdb10	0.3434682
27	0xbd561d13	-0.05227382
28	0xbe5df47f	-0.21675299
29	0xbe2a8193	-0.16650991
30	0x3eb1a891	0.34698918
31	0x3a354d2a	0.00069161004
32	0xbd452cc1	-0.048138384
33	0xbe15ecaf	-0.14641069
34	0xbdbe55ce	-0.0929371
35	0xbe983b1d	-0.297326
36	0xbe8fe4e6	-0.28104323
37	0x3e540c90	0.20707917
38	0x3e9b4f59	0.30333975
39	0x3eac9d57	0.3371379
40	0xbe82b7d9	-0.2553089
41	0x3e43dbf3	0.19126873
42	0xbe5f4eb1	-0.21807362
43	0x3e5a1f88	0.2130109
44	0x3e831d58	0.25608325
45	0x3e8ca512	0.2746969
46	0x3e820d5b	0.25400814
47	0x3e6296bf	0.22127818
48	0x3beab3ea	0.0071625607
49	0x3e24815f	0.16064976
50	0xbe02a3df	-0.12757824
51	0x3e1c5eb5	0.15270503
52	0xbde8d26e	-0.11368261
53	0xbbd951d3	-0.0066320687
54	0xbe9dba2c	-0.308061
55	0xbdbe21bd	-0.09283779
56	0xbe3e78a5	-0.1860071
57	0xbdf68f05	-0.120389976
58	0xbe67461d	-0.2258534
59	0xbea2e4b3	-0.3181511
60	0x3cbb234f	0.022843985
61	0x3e6aa2bb	0.22913639
62	0x3ea46000	0.32104492
63	0x3e5439a2	0.2072511
64	0xbe3a5d86	-0.18199739
65	0xbeb2ebf3	-0.3494564
66	0x3e0825f5	0.1329573
67	0x3e4b21e1	0.19837143
68	0xbe9b1bbc	-0.30294597
69	0x3e0240d6	0.12720045
70	0x3e99322f	0.299211
71	0x3cafdfdb	0.021469047
72	0xbe5a150d	-0.21297093
73	0x3e949a51	0.29023984
74	0x3e1bf5aa	0.15230432
75	0x3e6fed3f	0.23430346
76	0xbe745f20	-0.23864412
77	0x3e53a82e	0.20669624
78	0xbe76e47f	-0.24110602
79	0x3eb39c28	0.35080075
80	0xbe198656	-0.14992651
81	0x3e5c10d4	0.21490794
82	0x3d916dd7	0.071010284
83	0x3dbdcf52	0.09268059
84	0xbd5d4fd0	-0.054031193
85	0x3e161cc3	0.14659409
86	0xbe164709	-0.14675535
87	0xbea9fd5c	-0.3320111
88	0xbe09571f	-0.1341214
89	0x3e8d3555	0.27579752
90	0xbdc12620	-0.094311
91	0x3de3bf5e	0.11120485
92	0xbe05d21f	-0.13068436
93	0x3e884204	0.26612866
94	0x3e57d468	0.2107712
95	0x3e00a2b0	0.1256206
96	0xbe3c3305	-0.18378837
97	0xbe937bf0	-0.28805494
98	0x3c6a167d	0.014287588
99	0xbe542dca	-0.20720592
100	0x3e959cdb	0.29221234
101	0xbeae5975	-0.34052625
102	0x3e21a89f	0.1578698
103	0x3eb43ae4	0.3520118
104	0x3e358973	0.17728214
105	0x3df686bf	0.120374195
106	0xbeae6ac6	-0.34065837
107	0x3eae81b2	0.34083325
108	0xbd75f662	-0.060049422
109	0xbea98c26	-0.33114737
110	0x3eb2a8b9	0.3489435
111	0xbe143ea3	-0.14477019
112	0xbcc00341	-0.023439052
113	0x3ea60ca3	0.32431516
114	0xbe7a51f2	-0.24445322
115	0xbe80396b	-0.25043806
116	0x3d706d99	0.05869827
117	0xbd44c0f3	-0.048035573
118	0x3da4167b	0.080121
119	0xbe97c84f	-0.2964501
120	0x3c2dea46	0.010614937
121	0xbe20b8dc	-0.15695518
122	0xbe321d5e	-0.17394015
123	0xbea5f687	-0.32414648
124	0x3e3d6b77	0.18498026
125	0x3d89412b	0.06701883
126	0xbe9a0eb9	-0.30089357
127	0x3e8f9ac4	0.28047764

network.1.weight f4 [128]
0	0x3f7e5303	0.99345416
1	0x3f8276bc	1.0192485
2	0x3f81dd56	1.0145671
3	0x3f7c2def	0.9850759
4	0x3f7c3b93	0.98528403
5	0x3f7d8521	0.99031264
6	0x3f828aee	1.0198648
7	0x3f838109	1.0273753
8	0x3f7d8c1a	0.99041903
9	0x3f81b76b	1.01341
10	0x3f814bd0	1.0101261
11	0x3f82ce76	1.0219257
12	0x3f820b9c	1.0159793
13	0x3f758f26	0.9592155
14	0x3f7c0e4d	0.9845932
15	0x3f7b8691	0.9825221
16	0x3f829e85	1.0204626
17	0x3f7b2acb	0.9811217
18	0x3f8419d5	1.0320383
19	0x3f806135	1.0029665
20	0x3f798ba6	0.9747871
21	0x3f7ae0e7	0.97999424
22	0x3f81525c	1.0103259
23	0x3f7d3a4a	0.9891707
24	0x3f8090d3	1.0044197
25	0x3f85575b	1.0417284
26	0x3f7fb315	0.9988263
27	0x3f80ceae	1.0063074
28	0x3f7e20e0	0.99268913
29	0x3f800c74	1.00038
30	0x3f871abb	1.0555032
31	0x3f804375	1.0020586
32	0x3f7ce899	0.98792416
33	0x3f7f3188	0.99684954
34	0x3f7db5c7	0.99105495
35	0x3f74b449	0.95587593
36	0x3f771307	0.9651341
37	0x3f771651	0.9651843
38	0x3f7c931c	0.9866197
39	0x3f795325	0.97392493
40	0x3f7b68c4	0.98206735
41	0x3f794fd8	0.97387457
42	0x3f8052bf	1.0025252
43	0x3f814c6e	1.010145
44	0x3f7e9b6a	0.99455893
45	0x3f8155f4	1.0104356
46	0x3f7ef434	0.99591374
47	0x3f80b52b	1.0055288
48	0x3f84749a	1.0348084
49	0x3f8212ab	1.0161947
50	0x3f782c47	0.9694256
51	0x3f812d14	1.0091882
52	0x3f789b2b	0.9711177
53	0x3f7f302d	0.99682885
54	0x3f805dcf	1.0028628
55	0x3f8109d8	1.0081129
56	0x3f80e92e	1.0071161
57	0x3f7f3a78	0.9969859
58	0x3f7fff6d	0.99999124
59	0x3f82a3dd	1.0206257
60	0x3f81bd5b	1.0135912
61	0x3f7e2d1a	0.9928757
62	0x3f826e8e	1.0189989
63	0x3f801229	1.0005542
64	0x3f7c1b33	0.98479
65	0x3f763c71	0.96185976
66	0x3f848e97	1.0356015
67	0x3f805117	1.0024747
68	0x3f83a863	1.0285763
69	0x3f80749d	1.0035588
70	0x3f809681	1.004593
71	0x3f7780a4	0.96680665
72	0x3f7d4a59	0.9894157
73	0x3f8318c7	1.0241936
74	0x3f82ca4d	1.0217987
75	0x3f7ea325	0.9946769
76	0x3f807d45	1.0038229
77	0x3f820c5c	1.0160022
78	0x3f811c28	1.0086718
79	0x3f841ba5	1.0320936
80	0x3f76f347	0.9646496
81	0x3f81b014	1.013186
82	0x3f7c6925	0.9859794
83	0x3f80c461	1.005993
84	0x3f7badfa	0.9831234
85	0x3f85d508	1.0455637
86	0x3f7ceba6	0.9879707
87	0x3f85fd8a	1.0467999
88	0x3f83c8ce	1.0295656
89	0x3f80ef69	1.0073062
90	0x3f816b2d	1.0110832
91	0x3f8333ed	1.0250221
92	0x3f7e5eb1	0.9936324
93	0x3f800ec0	1.0004501
94	0x3f81a2ae	1.0127771
95	0x3f7fa86f	0.99866384
96	0x3f84a061	1.0361444
97	0x3f7f4ba9	0.99724823
98	0x3f7a2175	0.977073
99	0x3f81a71e	1.0129125
100	0x3f7c7c2b	0.98626965
101	0x3f81c1f3	1.0137314
102	0x3f7bceb6	0.9836229
103	0x3f7bb51f	0.98323244
104	0x3f7b49c8	0.98159456
105	0x3f78dfc6	0.9721645
106	0x3f741865	0.95349723
107	0x3f817cea	1.0116246
108	0x3f7c6fd1	0.9860812
109	0x3f7cf479	0.98810536
110	0x3f801d54	1.000895
111	0x3f7785ca	0.9668852
112	0x3f8267c2	1.0187914
113	0x3f81cb4d	1.0140167
114	0x3f7fcbb4	0.999202
115	0x3f786548	0.9702954
116	0x3f7b4839	0.9815708
117	0x3f7fc27a	0.9990612
118	0x3f7c891c	0.9864671
119	0x3f8297ce	1.0202577
120	0x3f8143f8	1.0098867
121	0x3f800f85	1.0004736
122	0x3f7a3091	0.97730356
123	0x3f7abdcc	0.9794586
124	0x3f83a5c1	1.0284959
125	0x3f802407	1.0010995
126	0x3f821fef	1.0165995
127	0x3f816794	1.0109735

network.1.bias f4 [128]
0	0xbc33a3de	-0.010964362
1	0x3bfc882e	0.0077066636
2	0x3c96054a	0.018313069
3	0xbc02e730	-0.00798969
4	0xbd285073	-0.041092347
5	0x3c415a0e	0.011801256
6	0x3c5ae706	0.013360744
7	0x3c857883	0.016292816
8	0xbc6c03ea	-0.01440523
9	0x3c1e6d0b	0.009669553
10	0x3c8b839e	0.017030533
11	0xbad2484b	-0.0016043273
12	0xbb8d296d	-0.004307917
13	0xbd21527c	-0.039385304
14	0xbcd68612	-0.026186977
15	0xbc3d079e	-0.011537461
16	0x3b5229fa	0.0032068477
17	0xbc921fc7	-0.017837418
18	0x3cdb483e	0.026767846
19	0x3c100d84	0.008792285
20	0xbc877fc1	-0.01654041
21	0xbcc24cb0	-0.023718208
22	0x3ae923fd	0.0017787215
23	0xbab58d89	-0.0013851385
24	0x3b50f11f	0.0031882
25	0x3c3330fc	0.010936972
26	0xba86ffe2	-0.0010299648
27	0xbc33adeb	-0.010966758
28	0xbca72d95	-0.020407477
29	0x3c4d688b	0.012537132
30	0x3c56c07f	0.013107418
31	0xbc985f70	-0.018600196
32	0xbbaaaefb	-0.0052088476
33	0xbc82169f	-0.015879927
34	0x3c16a712	0.009195106
35	0xbca3ce38	-0.019995794
36	0xbd1f405c	-0.038879737
37	0xbc32e8ee	-0.010919793
38	0xbc19d343	-0.009388748
39	0x3b2a6a23	0.0026003204
40	0xbce4c329	-0.02792509
41	0xbd02d023	-0.031936776
42	0x3b0335df	0.0020021123
43	0x3d00977a	0.03139446
44	0xbd0cbf6f	-0.034362253
45	0x3b4ca1e4	0.0031224424
46	0x3caff99c	0.021481328
47	0xbaae2490	-0.0013286043
48	0xb9e40ae8	-0.00043495675
49	0x3c1a71a0	0.009426504
50	0xbd119e7e	-0.03555154
51	0xbb3c0ae3	-0.0028693012
52	0xbb8db65f	-0.004324719
53	0x3c009735	0.007848551
54	0x3c61f0e4	0.013790343
55	0x3c64a10a	0.01395441
56	0x3c7f0d1d	0.015567091
57	0x3b2d93c7	0.0026485787
58	0x3c7fef0a	0.015620956
59	0x3c94b1d2	0.018151198
60	0xbb927b40	-0.004470259
61	0xbc8e6a84	-0.017384775
62	0x3d1fd5b5	0.039022166
63	0x3c1272d9	0.008938515
64	0xbcc00ff3	-0.023445105
65	0xbcb9ba7a	-0.022671927
66	0x3c753e91	0.01496853
67	0x3bb195da	0.005419475
68	0x3c2df5cc	0.010617685
69	0xbca0ac3a	-0.019613374
70	0xbc54bd61	-0.012984605
71	0xbcaeb91b	-0.0213285
72	0xbc44f2a5	-0.012020742
73	0xbb71de3f	-0.003690615
74	0x3bea313a	0.0071469815
75	0xbbefb6a8	-0.0073154755
76	0x3c7498e5	0.014929031
77	0x3b5e21a0	0.0033894554
78	0xbc511af1	-0.012762771
79	0x3d07ee32	0.033186145
80	0xbca4e359	-0.020127939
81	0x3d4b9b50	0.049708664
82	0xbc17a183	-0.009254816
83	0x3c0fa123	0.008766445
84	0xbbc60d0a	-0.006044035
85	0xbc43345a	-0.011914337
86	0xbcaeb70c	-0.021327518
87	0x3d40f077	0.047104325
88	0xbc89b3c8	-0.01680936
89	0xbcd364e7	-0.02580495
90	0x3bc08161	0.005874798
91	0x3d28d4ae	0.041218452
92	0x3a720541	0.000923235
93	0x3ce4779f	0.027889071
94	0x3d11c6ae	0.035589866
95	0x3abe927c	0.0014539505
96	0x3ba16759	0.00492565
97	0xbc66d0b7	-0.014087847
98	0xbd3bacbc	-0.04581903
99	0x3ccca0fe	0.02497911
100	0x3bd905e5	0.006623017
101	0x3b03abb9	0.0020091368
102	0xbce6e97d	-0.028187508
103	0xbcf1dac4	-0.02952326
104	0xbcbdbf0f	-0.023162393
105	0x39ed0b9e	0.00045212818
106	0xbc377e4c	-0.011199545
107	0x3c3938d6	0.011305055
108	0xbc6e9ec6	-0.014564222
109	0xbd02d002	-0.031936653
110	0x3c1831ed	0.009289247
111	0xbcfa6c74	-0.030569293
112	0x39cd8e03	0.00039206454
113	0xbcee77d4	-0.029109873
114	0xbb3b530d	-0.0028583438
115	0xbd266c43	-0.04063059
116	0xba005170	-0.00048949476
117	0x3b0cf39c	0.0021507507
118	0xbc88355a	-0.016627003
119	0x3d27990d	0.040917445
120	0x3ca6b7d8	0.020351335
121	0xbcdb84a7	-0.026796652
122	0xbc75e770	-0.015008792
123	0xbbf488ef	-0.007462613
124	0xba1ce928	-0.0005985671
125	0xbc857037	-0.01628886
126	0x3d1d0015	0.038330156
127	0x3c7c0ded	0.01538418

network.1.running_mean f4 [128]
0	0x3e5fccba	0.2185544
1	0xbd419274	-0.04725881
2	0x3e29ce72	0.16582659
3	0xbe73f4d0	-0.23823857
4	0x3d86cd17	0.065820865
5	0xbe5c5be8	-0.21519434
6	0x3e40cd09	0.18828215
7	0xbe282d65	-0.16423567
8	0xbdbb9bd4	-0.09160581
9	0xbe974f4c	-0.29552686
10	0xbca9dcc2	-0.020735148
11	0x3eab908d	0.3350872
12	0x3e2c7400	0.16841125
13	0xbe4995ad	-0.19686003
14	0xbc745b99	-0.014914417
15	0xbd6cb916	-0.0577937
16	0xbe8d4156	-0.2758891
17	0x3e7be54c	0.24599189
18	0xbbc1be87	-0.005912605
19	0x3d8244e0	0.06360793
20	0xbe0135eb	-0.12618224
21	0xbe2f94f8	-0.17146671
22	0x3d54af0f	0.05192476
23	0x3e0c70fa	0.13714972
24	0x3db88933	0.09010544
25	0xbe457a25	-0.19284876
26	0x3eb2701a	0.34851152
27	0xbd33df6c	-0.043914244
28	0xbe608248	-0.21924698
29	0xbe32039e	-0.17384192
30	0x3eb15df2	0.34641987
31	0xbc8d03a2	-0.017213646
32	0xbd6ff836	-0.05858632
33	0xbe236262	-0.15955499
34	0xbdc44781	-0.09583951
35	0xbe97a359	-0.29616812
36	0xbe96e109	-0.29468563
37	0x3e44c497	0.19215618
38	0x3e9a97e4	0.30194008
39	0x3eb0359e	0.34415907
40	0xbe8ea175	-0.27857557
41	0x3e2b5112	0.16730145
42	0xbe6d7c8d	-0.23192044
43	0x3e56e924	0.20987374
44	0x3e8d155e	0.27555364
45	0x3e85bb4a	0.26119453
46	0x3e79baf3	0.24387722
47	0x3e6ab0d9	0.22919025
48	0x3ad4c783	0.0016233776
49	0x3e2471c6	0.16059026
50	0xbe0c9839	-0.13729943
51	0x3e115aa5	0.14194734
52	0xbde68010	-0.11254895
53	0xbaef9c60	-0.0018280856
54	0xbe9cdd9d	-0.30637828
55	0xbdac3572	-0.084086314
56	0xbe3c00d3	-0.1835969
57	0xbe025c25	-0.12730463
58	0xbe581565	-0.21101911
59	0xbea0e5cc	-0.3142532
60	0x3c832c8c	0.016012453
61	0x3e78f673	0.24312763
62	0x3ea92ec0	0.3304348
63	0x3e4b896a	0.19876638
64	0xbe47abc7	-0.19499122
65	0xbeb3ff9c	-0.35155952
66	0x3e117466	0.14204559
67	0x3e475108	0.19464505
68	0xbe948f88	-0.29015756
69	0x3e0e9dc4	0.1392737
70	0x3e985a6e	0.29756492
71	0x3ba12e5c	0.0049188565
72	0xbe58b0bc	-0.21161169
73	0x3e9c31e8	0.30506825
74	0x3e0be754	0.13662463
75	0x3e61fc53	0.2206891
76	0xbe63ff90	-0.22265458
77	0x3e4972a7	0.19672643
78	0xbe7bab7e	-0.24577138
79	0x3eb2ccd1	0.34921888
80	0xbe20929d	-0.15680929
81	0x3e6196cf	0.22030185
82	0x3d9c27ba	0.07624765
83	0x3dbe08bc	0.0927901
84	0xbd33c1ef	-0.04388612
85	0x3e259a86	0.16172227
86	0xbe0ca95c	-0.1373648
87	0xbeac2408	-0.3362124
88	0xbdfe90e1	-0.12429977
89	0x3e882de3	0.2659751
90	0xbdc969aa	-0.09834607
91	0x3dec7115	0.11545006
92	0xbdfc0ad2	-0.12306751
93	0x3e899419	0.26870802
94	0x3e665ac8	0.22495568
95	0x3de7ae96	0.113125965
96	0xbe4435c6	-0.19161138
97	0xbe968d3e	-0.29404634
98	0x3cc5bfaa	0.024139244
99	0xbe49aa60	-0.19693899
100	0x3e93b096	0.28845662
101	0xbeac4912	-0.33649498
102	0x3e2c99d6	0.16855559
103	0x3eb00a45	0.34382835
104	0x3e22f7d9	0.15914859
105	0x3de0d5d4	0.109782845
106	0xbea4ec18	-0.32211375
107	0x3ead1483	0.33804712
108	0xbd6b08e8	-0.05738154
109	0xbea9f77c	-0.33196628
110	0x3eb7eb49	0.35921696
111	0xbe18c774	-0.14919835
112	0xbccf2c8c	-0.025289796
113	0x3ea9829b	0.33107457
114	0xbe713235	-0.23554309
115	0xbe80f2ac	-0.25185144
116	0x3d3c85b6	0.046025954
117	0xbd6aa283	-0.05728389
118	0x3d8eb8c3	0.06968834
119	0xbe95aaee	-0.29231972
120	0x3c003de5	0.007827257
121	0xbe254fa5	-0.16143663
122	0xbe28daba	-0.16489688
123	0xbea8c67e	-0.32963938
124	0x3e2cd55f	0.1687827
125	0x3d7713a8	0.06032148
126	0xbe99a9fb	-0.30012497
127	0x3e88ada3	0.26694974

network.1.running_var f4 [128]
0	0x3eadb128	0.33924222
1	0x3f281564	0.6565764
2	0x3e2102a3	0.15723662
3	0x3ee981cd	0.45606843
4	0x3eb66940	0.35627174
5	0x3e7ef71f	0.24898957
6	0x3e80d7ee	0.2516474
7	0x3e3a9964	0.18222576
8	0x3e41ca03	0.18924718
9	0x3edaba26	0.42720145
10	0x3e9e3e4e	0.3090691
11	0x3e1ebddb	0.15502112
12	0x3ec4b4e3	0.38419256
13	0x3ecb6776	0.39727372
14	0x3f40b111	0.7527018
15	0x3f1a3ea6	0.60251844
16	0x3e9f1c3b	0.31076226
17	0x3f02e191	0.5112544
18	0x3e6b3dae	0.22972748
19	0x3edcd064	0.4312774
20	0x3e9dd85b	0.3082913
21	0x3e301f65	0.17199476
22	0x3e95f45a	0.29287988
23	0x3e0d1904	0.13779074
24	0x3e6e4c4d	0.23271294
25	0x3ecf9fa9	0.405515
26	0x3edfefb9	0.4373758
27	0x3df8d3a6	0.12149744
28	0x3f1f65b0	0.6226454
29	0x3e11812f	0.14209436
30	0x3e96930c	0.29409063
31	0x3e7afe38	0.2451104
32	0x3eaf2828	0.34210324
33	0x3e0f9bf0	0.14024329
34	0x3f0da754	0.5533345
35	0x3f3020ff	0.6880035
36	0x3ecfc397	0.4057891
37	0x3e8433d4	0.25820792
38	0x3e55eeb9	0.20891847
39	0x3f0ff9a5	0.562403
40	0x3f0bcf2d	0.54613
41	0x3eac3711	0.33635762
42	0x3e3567f1	0.17715432
43	0x3e4c663e	0.19960877
44	0x3ea82b90	0.32845736
45	0x3e6e0f70	0.23248076
46	0x3ea133e5	0.31484905
47	0x3f1e5a5c	0.6185663
48	0x3dcf373c	0.10117957
49	0x3e455bea	0.19273344
50	0x3e3f7314	0.18696243
51	0x3e6254ed	0.22102709
52	0x3ee6e7b8	0.45098662
53	0x3e6712a5	0.22565706
54	0x3e561d14	0.2090953
55	0x3ed6533a	0.41860372
56	0x3ea20ccc	0.31650388
57	0x3e5cacac	0.21550244
58	0x3f05e05f	0.5229549
59	0x3e6c5469	0.23079075
60	0x3e4b4f18	0.1985439
61	0x3ef40d43	0.47666368
62	0x3e88846b	0.26663527
63	0x3e49fb03	0.1972466
64	0x3e827b11	0.25484517
65	0x3e8355ab	0.25651297
66	0x3ecc3a34	0.39888155
67	0x3f09a658	0.53769445
68	0x3ee30e58	0.4434688
69	0x3ea95b1f	0.33077332
70	0x3e7ce59a	0.24696961
71	0x3f13e8a1	0.5777684
72	0x3ea23a67	0.31685182
73	0x3e3ca6b4	0.18422967
74	0x3ea7d8cf	0.327826
75	0x3f388e3f	0.7209205
76	0x3f43c205	0.76467925
77	0x3f28a266	0.658728
78	0x3eef70c5	0.46765724
79	0x3eee2d16	0.46518773
80	0x3e94ae01	0.29039004
81	0x3e6c6d58	0.23088586
82	0x3f171ba8	0.59026575
83	0x3dccfc02	0.10009004
84	0x3e598aff	0.21244429
85	0x3e1a1987	0.150488
86	0x3e937258	0.28798175
87	0x3e5a26b2	0.21303824
88	0x3dc1c6e9	0.09461767
89	0x3eb360dd	0.35034838
90	0x3e8cbea1	0.27489188
91	0x3e920ad2	0.2852388
92	0x3e8e36a7	0.2777607
93	0x3e1fdf4b	0.15612523
94	0x3e815071	0.25256684
95	0x3eabfe0b	0.33592257
96	0x3e1aa838	0.15103233
97	0x3d9f8132	0.07788314
98	0x3e392b4f	0.18082927
99	0x3eb14974	0.34626353
100	0x3eea71f7	0.45790073
101	0x3e6bce6a	0.2302796
102	0x3e90133d	0.28139678
103	0x3e11fb63	0.14256053
104	0x3f31e536	0.69490373
105	0x3f0db48e	0.5535363
106	0x3e92f274	0.28700602
107	0x3f42adcd	0.7604645
108	0x3eb1a60a	0.3469699
109	0x3e4dffd9	0.2011713
110	0x3f6c49e4	0.9230025
111	0x3dcb3d3b	0.09923788
112	0x3e9a55ef	0.30143687
113	0x3f279bf3	0.65472335
114	0x3ed680bc	0.41895092
115	0x3e9c3175	0.30506483
116	0x3e6572ff	0.22407149
117	0x3e952536	0.29129952
118	0x3f2ffd7d	0.6874617
119	0x3ece6c43	0.40316972
120	0x3e25057a	0.1611537
121	0x3e46049e	0.19337699
122	0x3f254e3d	0.6457251
123	0x3ea27dd7	0.31736633
124	0x3ec3fcd8	0.38278842
125	0x3ea9426a	0.33058482
126	0x3e242259	0.16028728
127	0x3f07ecd3	0.5309574

network.4.weight f4 [64, 128]
0	0x3c8f4540	0.017489076
1	0x3cd54a76	0.026036482
2	0xbd800299	-0.062504955
3	0x3c0d9dd9	0.008643591
4	0x3dce5535	0.10074846
5	0x3db255dd	0.08707783
6	0xbdb1e88b	-0.08686932
7	0x3ddcb037	0.10775798
8	0x3be4e320	0.006985083
9	0x3d36b9f4	0.044610932
10	0x3da702a8	0.081548035
11	0x3d9a85e4	0.07545069
12	0xbd82b96c	-0.06383023
13	0x3dc8dfd6	0.09808318
14	0xbd511221	-0.05104268
15	0x3bea6e8b	0.007154291
16	0xbd621cab	-0.05520312
17	0x3b4e39d5	0.0031467576
18	0x3b078f57	0.0020684802
19	0x3b518815	0.003197198
20	0xbcb64d5c	-0.022253685
21	0xbc888b6b	-0.016668042
22	0x3db2e1a5	0.087344445
23	0x3d63a0d5	0.055573303
24	0x3d76b9f9	0.06023595
25	0x3d828b5d	0.06374238
26	0x3dcc47c8	0.09974629
27	0xbc7d38ee	-0.015455468
28	0x3c892d96	0.01674537
29	0x3d1443d3	0.036197495
30	0xbd681bd3	-0.05666716
31	0xbd8b32a1	-0.06796766
32	0x3cfb2697	0.03065805
33	0xbd29bf6d	-0.041442323
34	0x3cc390de	0.023872789
35	0xba21927c	-0.00061634905
36	0x3be4d70c	0.0069836434
37	0x3d6f338a	0.05839876
38	0xbd1deb67	-0.038554575
39	0x3dc95df6	0.09832375
40	0x3d97293e	0.07380913
41	0xbcddd20f	-0.027077703
42	0xbd9a9e31	-0.07549704
43	0xbd8215c5	-0.063518085
44	0xbd1ba697	-0.03800067
45	0xbcf1210d	-0.029434705
46	0xbadd1ac2	-0.0016868936
47	0xbca57ddf	-0.020201622
48	0xbd3c0c53	-0.04591019
49	0xbd10ef08	-0.035384208
50	0xbd2c8b6a	-0.042125143
51	0x3dea847d	0.114510514
52	0xbc885a6f	-0.016644685
53	0xbd7a00b5	-0.06103583
54	0x3d119f4d	0.03555231
55	0xbbc4f1d3	-0.006010273
56	0x3d2b265a	0.04178462
57	0x3d42c618	0.0475522
58	0x3dae02b9	0.08496613
59	0xbd8bf061	-0.06832958
60	0x3d967502	0.07346536
61	0x3d8fdfb0	0.07025087
62	0xbca90e93	-0.020636832
63	0x3d6a235b	0.057162624
64	0x3d8a89c5	0.06764559
65	0x3bb93a70	0.0056527182
66	0x3d497a58	0.04918894
67	0xbd1470c6	-0.03624036
68	0xbd907b6c	-0.07054791
69	0x3cd1897f	0.025578259
70	0x3b909937	0.004412796
71	0xbd43d7e6	-0.04781332
72	0x3d4af223	0.049547326
73	0xbda81ac1	-0.08208228
74	0x3dc4f88f	0.09617721
75	0x3dc4021a	0.09570713
76	0x3d424509	0.04742912
77	0xbd338c6e	-0.043835096
78	0x3cdaf867	0.026729776
79	0xbc0332eb	-0.008007745
80	0x3cb8f499	0.02257757
81	0x3d8051fa	0.06265636
82	0x3d82c92c	0.06386027
83	0xbc4e2925	-0.012583052
84	0xbd0611c7	-0.032731798
85	0x3cf1739f	0.029474078
86	0x3ca6eae0	0.020375669
87	0x3d996e1e	0.07491706
88	0xbd03b003	-0.03215028
89	0x3cf18e01	0.029486658
90	0x3d3add24	0.045621052
91	0x3a546c9c	0.0008103342
92	0x3d566f28	0.0523521
93	0x3d1aa439	0.03775427
94	0xbd87258d	-0.06598959
95	0x3bd84e6e	0.0066011464
96	0xbce33dfb	-0.027739516
97	0x3d06a62a	0.03287331
98	0xbca2bdb9	-0.019865857
99	0xbdad56ef	-0.08463847
100	0xbcc7cf1b	-0.024390748
101	0xbc8b6d7f	-0.017019985
102	0xbc62872c	-0.013826173
103	0x3dc9036a	0.09815104
104	0xbcab2fc5	-0.020896802
105	0x3da40b03	0.08009913
106	0x3cad7212	0.021172557
107	0xbd550f3a	-0.052016474
108	0x3d3b865f	0.045782443
109	0x3dab265d	0.083569266
110	0xbd189b4b	-0.037257474
111	0xbd4a1798	-0.049338907
112	0x3dcf3c27	0.10118895
113	0x3da02df7	0.07821267
114	0xbd2a9b5c	-0.04165207
115	0x3d811ad3	0.063039444
116	0x3c4d4f1d	0.012531069
117	0xbd2abb56	-0.041682564
118	0x3c9fb6b0	0.019496292
119	0x3cf1f312	0.02953485
120	0xbcaaecee	-0.02086493
121	0x3d1f1127	0.038834717
122	0xbd8e7579	-0.06956
123	0x3d49977f	0.049216744
124	0x3dbc4022	0.0919192
125	0x3d4e5066	0.050369643
126	0x3ca84791	0.020541938
127	0x3cc05853	0.023479616
128	0xbd531fd6	-0.051544033
129	0xbd135a64	-0.035974875
130	0x3ca3d87b	0.020000687
131	0xbd24c784	-0.040229335
132	0xbdb532a5	-0.0884755
133	0x3d789939	0.060693
134	0x3da2aa0f	0.07942592
135	0xbd8b4fe8	-0.0680235
136	0x3c826aa7	0.015919996
137	0x3d5df294	0.05418642
138	0x3dadc5bb	0.0848498
139	0x3d77d960	0.06051004
140	0x3dae7d7a	0.085200265
141	0xbcaa2ef7	-0.020774348
142	0x3da08895	0.07838551
143	0x3d8d0913	0.068864964
144	0xbdb7baed	-0.089712
145	0xbd83e5d2	-0.06440319
146	0xbb304501	-0.0026896598
147	0x3d19d60b	0.037557643
148	0xbcd90e83	-0.026496178
149	0x3d02e145	0.031953115
150	0xbc47662f	-0.012170359
151	0x3c1f0316	0.009705326
152	0xbd707e56	-0.058714233
153	0x3d7abdab	0.061216038
154	0x3d9edb34	0.077566534
155	0xbd810d7a	-0.063013986
156	0x3c1c7198	0.009548567
157	0xbc69d0c7	-0.014270968
158	0x3d276651	0.04086906
159	0x3d9b306b	0.07577594
160	0x3ad9f388	0.0016628364
161	0xbc91640b	-0.0177479
162	0x3d88d008	0.06680304
163	0xbcb6073b	-0.022220245
164	0xbcdfb6bc	-0.027308814
165	0x3a85d45a	0.001021038
166	0xbd992749	-0.07478196
167	0xbbaf5ab9	-0.005351391
168	0xbd369e41	-0.044584516
169	0x3bfd30a6	0.0077267466
170	0x3cb9639d	0.022630507
171	0x3c6de099	0.01451888
172	0xbd8a3b09	-0.06749541
173	0xbd7194e1	-0.058979873
174	0x3d71110e	0.058854155
175	0x3d872d14	0.06600395
176	0xbdb33730	-0.087507606
177	0x3cad0f15	0.021125356
178	0xbd5a3d1d	-0.05328094
179	0xbbbe9d1f	-0.00581707
180	0x3db4a1e0	0.08819938
181	0x3d1b3d15	0.03790005
182	0xbd6b1656	-0.057394348
183	0x3d8b6d3f	0.068079464
184	0x3d152911	0.036416117
185	0xbc8aca2c	-0.016942106
186	0x3da13d1d	0.078729846
187	0xbc12b6c6	-0.008954709
188	0xbc762215	-0.015022774
189	0xbd91014f	-0.07080328
190	0x3c93c89a	0.01803999
191	0x3d0585ba	0.032598235
192	0x3a9d3128	0.0011992799
193	0xbd30e0c8	-0.043183118
194	0xbd5a7524	-0.05333437
195	0x3d1ed92b	0.038781326
196	0xbd8e3078	-0.069428384
197	0xbc4d115e	-0.012516348
198	0xbb0b53fa	-0.002125977
199	0xbc603426	-0.013684308
200	0x3d670746	0.05640342
201	0x3d0e6ea5	0.034773488
202	0x3d5cb650	0.053884804
203	0x3b187cde	0.0023267786
204	0xbd8535ab	-0.06504377
205	0x3da9a44b	0.082832895
206	0x3d0a7667	0.033804324
207	0x3b084c0c	0.002079728
208	0xbd42670c	-0.047461554
209	0x3cd192a3	0.025582617
210	0xbd879952	-0.066210404
211	0x3d1810ca	0.037125386
212	0x3d878219	0.06616611
213	0xbd99377f	-0.07481288
214	0xbd76c56e	-0.060246877
215	0xbd82d11b	-0.0638754
216	0x3daf1a68	0.085499585
217	0x3d8ce4fe	0.06879614
218	0xbc5d0ea1	-0.013492257
219	0x3da99187	0.0827971
220	0xbc76e07d	-0.015068171
221	0xbdce60e5	-0.10077075
222	0x3cd6f3bf	0.026239274
223	0x3d69c347	0.057070997
224	0x3d981c0b	0.07427224
225	0xbc399d63	-0.011329028
226	0x3da7bcd9	0.08190317
227	0x3d93efc7	0.07223468
228	0x3db23dff	0.08703231
229	0xbdd1cd69	-0.10244257
230	0x3d15c6b6	0.03656646
231	0xbdb13ecc	-0.08654556
232	0x3d95616e	0.07293974
233	0xbada64fc	-0.0016662176
234	0xbd94fc83	-0.07274725
235	0x3c129618	0.008946918
236	0x3a15a956	0.0005709132
237	0xbdd5bb54	-0.10436121
238	0xbd27b9d1	-0.040948693
239	0xbc3c6382	-0.011498334
240	0x3d2f562e	0.042806797
241	0x3be556b9	0.0069988635
242	0x3d4b65a0	0.049657464
243	0x3d05ce42	0.032667406
244	0xbbeff185	-0.0073224925
245	0xba50ead8	-0.0007969565
246	0xbd842a7a	-0.06453414
247	0xbdba4e26	-0.09096937
248	0xbd554710	-0.052069724
249	0xbdc966b1	-0.0983404
250	0xbd2fe5d3	-0.042943787
251	0x3c49bb12	0.012312667
252	0xbd4f30f6	-0.050583802
253	0xbc4ce25a	-0.012505138
254	0xbc4471be	-0.011990009
255	0xbc597c24	-0.013274226

network.4.bias f4 [64]
0	0x3d0f1305	0.034930248
1	0x3cc904d3	0.024538433
2	0x3d6b2856	0.057411514
3	0x3d014fd6	0.031570278
4	0xbc9674bc	-0.01836621
5	0xbc81cdb7	-0.015845163
6	0x3d97bcca	0.074090555
7	0xbb442ff5	-0.0029935811
8	0xbd97dd77	-0.07415288
9	0xbd7de02b	-0.06198136
10	0xbd8af3cd	-0.067847826
11	0x3be6df82	0.007045687
12	0x3d84237b	0.0645208
13	0x3d553601	0.052053455
14	0x3cccc9df	0.024998603
15	0x3cf6347e	0.030054327
16	0xbd33cf7f	-0.043899056
17	0x3dabd17a	0.08389564
18	0x3d09b41c	0.03361903
19	0xbd534191	-0.0515762
20	0xbd7345f0	-0.05939287
21	0xbda32304	-0.07965663
22	0xbcd57678	-0.026057467
23	0x3d881757	0.06645077
24	0x3ba6c3ca	0.005089258
25	0xbd336ae6	-0.04380312
26	0x3cb0b513	0.021570718
27	0xbd77f3d4	-0.060535267
28	0x3ce5158d	0.027964378
29	0x3d735efc	0.059416756
30	0x3d33cc52	0.043896027
31	0xbce6220c	-0.028092407
32	0xbcf76102	-0.030197624
33	0x3d191e72	0.03738255
34	0x3d604211	0.054750506
35	0xbcb2d1c6	-0.021828543
36	0xbade680a	-0.0016968262
37	0xbc269f4e	-0.010169817
38	0xbc20022b	-0.009766142
39	0xbda37433	-0.079811476
40	0xbd94a2df	-0.07257628
41	0x3d98b91c	0.07457182
42	0xbd2a99a5	-0.041650433
43	0x3d86307d	0.06552217
44	0x3d5b5d93	0.053556036
45	0xbc41007f	-0.011779903
46	0xbd33b096	-0.043869577
47	0x3b519592	0.003198002
48	0xbc760e15	-0.015018006
49	0xbd632baa	-0.055461563
50	0x3db0c3c7	0.086310916
51	0xbbff12ef	-0.0077842395
52	0xbc74f13f	-0.014950096
53	0xbd753b4f	-0.059871014
54	0x3c78776c	0.015165191
55	0x3c31e20f	0.010857119
56	0x3daf30f8	0.08554262
57	0xbcc99e7a	-0.0246117
58	0x3d46ac23	0.048504006
59	0x3bcd6784	0.0062684435
60	0x3d3d79b9	0.046258662
61	0x3b54a10d	0.0032444627
62	0xbc745151	-0.0149119655
63	0x3d139bfa	0.036037423

network.5.weight f4 [64]
0	0x3f82f75d	1.0231739
1	0x3f7a9ec9	0.97898537
2	0x3f7b3777	0.9813151
3	0x3f8085f8	1.0040884
4	0x3f817435	1.0113589
5	0x3f819861	1.0124627
6	0x3f83f9f4	1.0310655
7	0x3f79b19b	0.9753663
8	0x3f7ab45d	0.9793146
9	0x3f7da69b	0.99082345
10	0x3f78f659	0.97250897
11	0x3f78c45b	0.97174615
12	0x3f7b2a6f	0.98111624
13	0x3f7e64dd	0.99372655
14	0x3f7df35f	0.9919948
15	0x3f833cbb	1.0252908
16	0x3f7b9bdb	0.9828469
17	0x3f82bcfd	1.0213925
18	0x3f7c51b4	0.9856217
19	0x3f86afd0	1.0522404
20	0x3f7c83f1	0.98638827
21	0x3f7e312d	0.99293786
22	0x3f774138	0.9658389
23	0x3f8246a1	1.0177804
24	0x3f7f3058	0.9968314
25	0x3f805874	1.0026994
26	0x3f806ada	1.0032609
27	0x3f765cb3	0.962352
28	0x3f83cd83	1.0297092
29	0x3f7caff3	0.9870598
30	0x3f7d740b	0.9900519
31	0x3f7c6b1e	0.9860095
32	0x3f7e9071	0.9943915
33	0x3f812dd5	1.0092112
34	0x3f835304	1.0259709
35	0x3f7aa82f	0.9791288
36	0x3f82e041	1.0224687
37	0x3f822abf	1.0169295
38	0x3f781fa3	0.96923274
39	0x3f8231fc	1.0171504
40	0x3f839bd1	1.0281926
41	0x3f7aad84	0.97921014
42	0x3f81ad8c	1.0131087
43	0x3f8271e1	1.0191003
44	0x3f81ee80	1.015091
45	0x3f7eb14f	0.994893
46	0x3f83e000	1.0302734
47	0x3f8142b9	1.0098487
48	0x3f7a42fe	0.9775847
49	0x3f7b29d9	0.9811073
50	0x3f80e719	1.0070525
51	0x3f7fb8ed	0.9989155
52	0x3f805a26	1.0027511
53	0x3f7e4ec8	0.9933896
54	0x3f7c97ca	0.9866911
55	0x3f7e5580	0.9934921
56	0x3f7cfc96	0.98822916
57	0x3f8248ac	1.0178428
58	0x3f81aa07	1.0130013
59	0x3f831c46	1.0243003
60	0x3f81259f	1.0089606
61	0x3f82875b	1.0197557
62	0x3f7c82b0	0.98636913
63	0x3f81527e	1.01033

network.5.bias f4 [64]
0	0x3c856988	0.016285673
1	0xbcdf4b1d	-0.027257496
2	0xbc45fe19	-0.012084507
3	0xb9e53f2c	-0.0004372535
4	0xbcec9f14	-0.028884448
5	0x3b044d0d	0.0020187527
6	0xbc279e6e	-0.010230644
7	0xbcaf6a09	-0.021412866
8	0xbc2d32fb	-0.010571237
9	0xbc730d61	-0.014834733
10	0xbc899656	-0.016795319
11	0xbcf7cb31	-0.030248256
12	0xbd161d2b	-0.03664891
13	0xbbd6610d	-0.006542331
14	0xbc4c1f3c	-0.012458619
15	0x3c776b0d	0.0151012065
16	0xbc6fdfbd	-0.014640746
17	0xbbda1ba5	-0.0066561275
18	0x3bc6e300	0.006069541
19	0x3cd8d022	0.026466433
20	0x3b2beff0	0.0026235543
21	0x3be26da5	0.0069100433
22	0xbcd2ebd1	-0.025747212
23	0x3c22ac20	0.009928733
24	0x3bc1d3d8	0.0059151463
25	0xb93186ec	-0.00016930298
26	0xbc6f5c55	-0.014609416
27	0xbcac2bcd	-0.02101698
28	0x3cdd5948	0.027020112
29	0xbd094732	-0.033515163
30	0xbc26358a	-0.010144601
31	0xbcf80705	-0.030276785
32	0xbb387234	-0.0028144242
33	0xbc14bca6	-0.00907818
34	0x3bfff5b3	0.007811272
35	0xbc5c5adb	-0.013449396
36	0x3a3bf81c	0.0007170455
37	0x3bf0cc72	0.0073485905
38	0xbc99cc6d	-0.018774236
39	0x3be2d6c2	0.006922574
40	0x3c2d8249	0.010590144
41	0xbcecff99	-0.028930472
42	0xb80cdaf4	-3.3582517e-05
43	0x3d0c3499	0.03422985
44	0x3cf2807d	0.029602284
45	0xbb785997	-0.0037895197
46	0x3ca0b408	0.019617096
47	0x3b8d2f34	0.0043086056
48	0xbc0a1ed4	-0.008430202
49	0xbcdc1304	-0.026864536
50	0x3ba4face	0.005034781
51	0xbc4de085	-0.012565737
52	0xbb44f8df	-0.0030055565
53	0xbc3cce32	-0.01152377
54	0x3c1f221e	0.009712724
55	0x3b6f46d5	0.0036510725
56	0xbbd1e456	-0.0064053936
57	0x3c28b47c	0.010296937
58	0x3b890b02	0.0041822204
59	0x3d0d1607	0.034444835
60	0x3c829172	0.015938494
61	0x3c84f838	0.016231641
62	0xbbd0ab4e	-0.0063680774
63	0xbc35ff85	-0.011108284

network.5.running_mean f4 [64]
0	0x3f33fa23	0.70303553
1	0x3d3c54e7	0.045979407
2	0x3d843cf8	0.06456941
3	0x3e4528d9	0.19253863
4	0x3ec8924f	0.39174125
5	0x3e8ee857	0.27911636
6	0xbf0228dc	-0.50843596
7	0x3f475a74	0.77872396
8	0xbf13ab52	-0.5768329
9	0xbeff3f59	-0.49853018
10	0x3caf7fa7	0.021423174
11	0xbe4c16e5	-0.19930609
12	0x3e5cf299	0.21576919
13	0x3dcd1aea	0.10014899
14	0xbe728115	-0.23682053
15	0xbddc2738	-0.10749668
16	0xbf06d2ec	-0.5266559
17	0xbe65f0c9	-0.22455133
18	0xbed6af1a	-0.41930467
19	0xbe967a60	-0.2939024
20	0x3d0f8e57	0.035047855
21	0x3d14db4f	0.03634196
22	0x3e72f50d	0.23726292
23	0xbe30369e	-0.17208335
24	0xbda92651	-0.082592614
25	0xbf5b167a	-0.8558117
26	0xbe482e7d	-0.19548984
27	0x3ed39eb8	0.4133203
28	0xbedc778d	-0.4305996
29	0x3f00d09c	0.5031831
30	0x3ed82d50	0.4222207
31	0x3ef25551	0.47330716
32	0x3e82a146	0.25513667
33	0x3ec504f2	0.38480335
34	0x3f1039ec	0.5633838
35	0xbe09ad9c	-0.13445133
36	0x3e56c072	0.2097185
37	0xbda02fdb	-0.07821628
38	0xbeb556e3	-0.35417852
39	0xbf0eb7fe	-0.557495
40	0x3e2ca63e	0.16860291
41	0x3ee055f1	0.43815568
42	0xbd8f7934	-0.070055395
43	0x3dd635bf	0.1045947
44	0xbe929cc5	-0.2863523
45	0x3e32ed7f	0.1747341
46	0xbd0b514a	-0.03401307
47	0xbe01003b	-0.12597744
48	0xbe4efb75	-0.2021311
49	0x3e9e3d4c	0.3090614
50	0xbe7e1d7d	-0.24815936
51	0xbf3d63c8	-0.7398038
52	0x3e8ae3d6	0.2712695
53	0xbdaabbd9	-0.0833661
54	0xbd9a3203	-0.0752907
55	0xbe52f9c2	-0.20603088
56	0x3ee66ae6	0.45003432
57	0x3e3a55fe	0.18196866
58	0x3eda7263	0.42665395
59	0x3dc68f3c	0.096952885
60	0x3e201ae3	0.15635256
61	0x3eb83dad	0.35984555
62	0x3ec65b37	0.38741466
63	0x3e966ff3	0.29382285

network.5.running_var f4 [64]
0	0x3eac0e06	0.3360445
1	0x3f1c64c8	0.6109128
2	0x3ef5158d	0.47868004
3	0x3e691e98	0.22765577
4	0x3eb91d5d	0.36155215
5	0x3e95bb10	0.2924428
6	0x3e92dd2f	0.28684375
7	0x3ebac066	0.36474913
8	0x3eaaf1fd	0.33387747
9	0x3e2d4286	0.16919908
10	0x3ef71dfc	0.48265064
11	0x3e8317c5	0.25604072
12	0x3ea458eb	0.3209909
13	0x3f1c9990	0.6117182
14	0x3e9b4e29	0.3033307
15	0x3e771229	0.24128021
16	0x3ea39d9c	0.31956184
17	0x3ea97adb	0.33101544
18	0x3e9a5ef6	0.30150574
19	0x3e539cff	0.20665358
20	0x3ea781b7	0.32716152
21	0x3ea95897	0.330754
22	0x3e0d5e00	0.1380539
23	0x3ea04318	0.31301188
24	0x3e38b4d1	0.18037726
25	0x3f0d9e9a	0.5532013
26	0x3e7c7688	0.24654591
27	0x3e73110a	0.23736969
28	0x3f1172f7	0.5681605
29	0x3f094663	0.53623027
30	0x3e9b76d5	0.303641
31	0x3ee04c80	0.43808365
32	0x3e715d44	0.23570734
33	0x3ea2ac4c	0.31772077
34	0x3ee94553	0.45560703
35	0x3e207d3f	0.15672778
36	0x3e9630b5	0.29334036
37	0x3e3465bd	0.17616935
38	0x3e67416b	0.22583549
39	0x3ea2bb0a	0.31783324
40	0x3ec497c3	0.38397035
41	0x3e99408c	0.29932058
42	0x3ef4cd39	0.47812822
43	0x3e84c9aa	0.25935107
44	0x3e3646ce	0.17800447
45	0x3e89e81c	0.26934898
46	0x3e9bbe0d	0.30418435
47	0x3f147566	0.57991636
48	0x3f32ebcb	0.6989104
49	0x3e4a820e	0.19776174
50	0x3ea4751b	0.32120594
51	0x3f2473a7	0.6423897
52	0x3e575872	0.21029833
53	0x3f101918	0.5628829
54	0x3ea26ecf	0.31725165
55	0x3e6aa1c8	0.22913277
56	0x3ea6000a	0.32421905
57	0x3e3052c0	0.17219067
58	0x3e50ccba	0.20390597
59	0x3e80d9d7	0.251662
60	0x3e8700ce	0.263678
61	0x3e9c39f7	0.30512974
62	0x3e7779e1	0.24167587
63	0x3f30b404	0.6902468

network.8.weight f4 [32, 64]
0	0xbc7830e1	-0.015148372
1	0x3d3bcada	0.04584775
2	0xbda37419	-0.07981128
3	0xbde0509f	-0.10952877
4	0x3de724d1	0.11286319
5	0xbda3b658	-0.07993764
6	0xbd943534	-0.0723671
7	0xbdc2a971	-0.09504975
8	0x3e1462ed	0.14490862
9	0xbbe8b6ee	-0.007101885
10	0xbdc5c3c4	-0.0965648
11	0xbb2573b2	-0.0025245962
12	0xbd9b8728	-0.075941384
13	0xbde6d068	-0.11270219
14	0xbd5565ba	-0.052098967
15	0x3d898ca2	0.06716277
16	0x3d5a94f4	0.05336471
17	0x3da72318	0.081609905
18	0xbc790514	-0.015198965
19	0xbbba7f7a	-0.005691466
20	0xbd27dbb8	-0.040981025
21	0xbd9e0b18	-0.0771696
22	0xbd97f488	-0.074196875
23	0xbdef64cb	-0.116891466
24	0x3c374780	0.0111864805
25	0x3d5518de	0.05202567
26	0x3e13ce17	0.14434086
27	0x3c6726b7	0.014108351
28	0x3c63fe96	0.0139156785
29	0x3b7b6987	0.003836246
30	0x3d85cbf2	0.0653304
31	0xbc79924a	-0.015232632
32	0xbd0a8f99	-0.03382835
33	0xbd58b384	-0.052905574
34	0xbe0e722d	-0.13910742
35	0xbde794bf	-0.11307668
36	0xbd81c558	-0.063364685
37	0x3cc3cfd4	0.023902811
38	0xbd933bd3	-0.07189145
39	0x3d8d7892	0.069077626
40	0xbd5e9115	-0.05433758
41	0x3de3b090	0.11117661
42	0xbdcf7069	-0.101288624
43	0x3dfa0884	0.122086555
44	0xbd94df54	-0.07269159
45	0xbd0ae589	-0.033910308
46	0xbdfcc52c	-0.12342295
47	0xbdea516e	-0.11441313
48	0xbe1983ed	-0.14991732
49	0x3a13d068	0.000563866
50	0x3dce9eb3	0.10088863
51	0x3c88e6d3	0.016711628
52	0x3dd8f8f0	0.10594356
53	0x3ce7d83d	0.028301353
54	0xbd13821c	-0.036012754
55	0xbccfc881	-0.025364162
56	0xbc0ee0f8	-0.008720629
57	0xbdc0725d	-0.09396813
58	0x3da7c602	0.08192064
59	0xbc847f9d	-0.016174132
60	0xbd71f607	-0.05907252
61	0x3d145128	0.03621021
62	0x3d35dc00	0.04439926
63	0x3cd0485e	0.025425132
64	0xbdd25a79	-0.102711625
65	0x3e1b50a3	0.15167479
66	0xbd6806e4	-0.056647196
67	0x3d1112ca	0.03541831
68	0x3dce4c4f	0.100731485
69	0xba78f303	-0.0009496661
70	0xbdd46de1	-0.1037252
71	0xbdccb590	-0.09995568
72	0x3e0464e9	0.12929119
73	0xbdfeb6d6	-0.12437217
74	0xbc1d2b9a	-0.009592915
75	0x3db7b1d1	0.08969463
76	0xbd8d9c36	-0.069145605
77	0x3e1b2d3d	0.15153976
78	0x3d3ad6d6	0.04561504
79	0x3d04b217	0.032396402
80	0xbc00cc4e	-0.00786121
81	0x3c6d4764	0.014482353
82	0x3d7d9314	0.061907843
83	0xbdf2bf60	-0.11852908
84	0x3d6ab049	0.057297025
85	0xbdba3fda	-0.0909421
86	0x3df7fe5b	0.12109061
87	0x3d88435b	0.06653472
88	0xbd3af400	-0.045642853
89	0x3d2f9631	0.042867843
90	0xbcdab9c8	-0.026699916
91	0x3dbfd39d	0.09366534
92	0xbd1f70d0	-0.038925946
93	0xbd06c711	-0.03290469
94	0x3d7619b4	0.060083106
95	0x3d908672	0.070568934
96	0x3da9170a	0.082563475
97	0x3d96da47	0.07365852
98	0xbd10a521	-0.03531373
99	0x3b82348a	0.0039735483
100	0x3cea812e	0.02862605
101	0x3db14747	0.08656173
102	0x3d40b2e3	0.0470456
103	0x3ddcd271	0.10782326
104	0xbb00ae85	-0.0019635272
105	0xbddb0c90	-0.106957555
106	0xbda702bd	-0.08154819
107	0x3dde45e8	0.10853177
108	0x3d56d49b	0.05244885
109	0x3c86711f	0.016411362
110	0xbd8dfa35	-0.06932489
111	0x3dcd7cd9	0.100335784
112	0x3daf90f1	0.08572567
113	0xbe0e070b	-0.13869874
114	0x3d2ae12a	0.04171864
115	0x3de44f6e	0.111479625
116	0xbdac6ca4	-0.08419159
117	0x3c93d3c8	0.018045321
118	0x3d62b047	0.055343892
119	0xbcfcc765	-0.030856797
120	0x3dfcc23f	0.12341737
121	0x3dd97f4b	0.10619982
122	0x3dbf338f	0.09336006
123	0xbdff5bde	-0.12468694
124	0xba130b78	-0.0005609314
125	0x3dff8ab3	0.12477627
126	0x3dcf776b	0.10130199
127	0x3a8527a6	0.0010158911
128	0x3dc8de64	0.09808043
129	0x3da20d52	0.07912697
130	0x39f5cdd4	0.00046883395
131	0x3dc5ad59	0.09652204
132	0x3da0325b	0.078221045
133	0xbca1aad8	-0.019734785
134	0xbd871e1e	-0.06597541
135	0xbcc723c1	-0.024309041
136	0xbdc3187e	-0.09526156
137	0xbd8b9f4c	-0.06817493
138	0x3d04c697	0.032415953
139	0x3c8ab92d	0.016934002
140	0xbc7d5450	-0.015461996
141	0xbc7779e6	-0.015104746
142	0x3de26819	0.11055011
143	0x3d2fb689	0.04289869
144	0xbdcdfaa0	-0.100575686
145	0x3ddbb06a	0.10727008
146	0x3d93beaa	0.07214101
147	0x3b8aa357	0.0042308974
148	0x3d610d57	0.054944362
149	0xbdd7274a	-0.10505541
150	0x3d9eefaa	0.07760556
151	0x3c38c14c	0.011276554
152	0xbd29db50	-0.04146892
153	0xbd7fa2cb	-0.06241111
154	0x3d9557ed	0.07292161
155	0x3c8df784	0.017329939
156	0xbd944dd3	-0.07241406
157	0x3d90ce76	0.07070629
158	0x3d1a735c	0.03770767
159	0xbd10f75e	-0.035392158
160	0x3dd7ca8e	0.10536681
161	0x3e1ee3b5	0.15516551
162	0x3b339a8f	0.0027405357
163	0xbd2c6554	-0.04208882
164	0xbd5d73d4	-0.05406554
165	0xbd8c9576	-0.06864445
166	0x3d861d52	0.06548561
167	0x3d6c65fd	0.05771445
168	0xbdd38644	-0.103283435
169	0x3dac8da6	0.08425455
170	0x3cacf02c	0.021110617
171	0xbb39ea87	-0.002836855
172	0xbd0b758d	-0.034047652
173	0xbe022b41	-0.12711813
174	0xbd827ca9	-0.06371433
175	0x3db108a0	0.08644223
176	0x393ca94f	0.0001799215
177	0x3c0a0fe5	0.008426641
178	0xbdac8e56	-0.08425586
179	0xbc85b81b	-0.01632314
180	0xbd2442e1	-0.040102843
181	0x3c6dce09	0.014514455
182	0xbdc4c110	-0.09607136
183	0x3cb5268f	0.022113113
184	0xbdd2952f	-0.10282361
185	0xbdac6af8	-0.0841884
186	0x3a0faf55	0.00054811436
187	0xbcc6e7ff	-0.024280546
188	0xbd2a352b	-0.04155461
189	0x3db5b304	0.08872035
190	0x3c8c76ec	0.01714655
191	0x3cdf63d5	0.027269283
192	0x3d588cd5	0.052868683
193	0xbcbf1312	-0.023324523
194	0xbdc0b3e6	-0.09409313
195	0xbc0e4751	-0.008683995
196	0x3de117fb	0.10990902
197	0x3d35249b	0.044224363
198	0x3d7a251a	0.06107054
199	0x3dc34411	0.09534467
200	0xbd658b81	-0.056041244
201	0xbc7223ce	-0.014779044
202	0xbcda0ef0	-0.02661845
203	0xbd0f2d67	-0.03495541
204	0x3dd0c2a9	0.101933785
205	0xbe1e0751	-0.15432478
206	0x3cd046eb	0.025424441
207	0x3e0ccc2a	0.13749757
208	0xbd68367f	-0.056692597
209	0x3df5addd	0.119960524
210	0xbdea3d21	-0.11437441
211	0x3d73ec18	0.05955133
212	0xbd660cc4	-0.056164518
213	0x3d30a879	0.043129418
214	0x3d2b3800	0.041801453
215	0x3d69d3cc	0.05708675
216	0xbd0155cf	-0.031575974
217	0xbcf8eeae	-0.030387249
218	0xbdc9b471	-0.098488696
219	0x3c24aa91	0.010050432
220	0x3df1a756	0.11799495
221	0xbdb5b4d9	-0.088723846
222	0xbd530c0b	-0.051525157
223	0x3c96074c	0.018314026
224	0x3d9eb38e	0.07749091
225	0x3ca57db0	0.020201534
226	0x3d851941	0.064989574
227	0xbb681c7c	-0.0035417369
228	0xbc58859b	-0.013215448
229	0xbd9a4561	-0.07532764
230	0xbdee361b	-0.116314135
231	0xbda036ac	-0.07822928
232	0x3da1c19f	0.078982584
233	0x3dd8cf91	0.10586465
234	0x3df020b8	0.117249906
235	0x3df708e8	0.120622456
236	0xbbcce10f	-0.006252415
237	0x3dd56b75	0.104208864
238	0x3d090a75	0.03345724
239	0xbdd0cc8c	-0.10195264
240	0xbd496cec	-0.04917614
241	0xbd8833a2	-0.06650473
242	0x3ddff87e	0.10936068
243	0x3cc3954b	0.0238749
244	0x3e044c8e	0.12919828
245	0xbcc7a7b2	-0.024371956
246	0x3deaa6e7	0.11457615
247	0x3d94a678	0.07258314
248	0xbc49ec90	-0.012324467
249	0x3c220389	0.009888538
250	0x3dd1675a	0.10224791
251	0x3c606590	0.013696089
252	0x3e0289ba	0.12747851
253	0x3cd8620e	0.026413944
254	0xbce3b596	-0.027796548
255	0xbdb71a43	-0.08940556

network.8.bias f4 [32]
0	0x3d64627d	0.05575799
1	0xbd8b059e	-0.06788181
2	0xbbd18d54	-0.0063950215
3	0x3d0b95cb	0.0340784
4	0xbd4a3dfb	-0.049375515
5	0xbd8b8eb2	-0.06814326
6	0x3d1744a8	0.03693071
7	0x3dcb499c	0.09926149
8	0x3dbfdc93	0.09368243
9	0x3d2e881a	0.042610265
10	0x3c386331	0.011254118
11	0x3d59f859	0.05321536
12	0xbd23939c	-0.039935693
13	0x3dc791ce	0.09744607
14	0x3d8967bd	0.0670924
15	0xbe00cff6	-0.12579331
16	0x3de89a60	0.1135757
17	0x3bc7fff1	0.0061035086
18	0xbdc66686	-0.096875235
19	0xbd42b467	-0.047535326
20	0x3df2094e	0.11818181
21	0xbdd49b16	-0.10381143
22	0x3d01e0f6	0.03170868
23	0xbd3387b5	-0.043830592
24	0xbdd11f07	-0.10210996
25	0x3d4b326c	0.049608633
26	0x3d97bca4	0.07409027
27	0x3dfd501b	0.123687945
28	0xbdd1b82f	-0.10240208
29	0x3d65f6b5	0.05614348
30	0x3db5ac9a	0.08870812
31	0xbbdc1482	-0.006716312

network.9.weight f4 [32]
0	0x3f8683de	1.0508993
1	0x3f7e9768	0.9944978
2	0x3f784440	0.9697914
3	0x3f83ae5a	1.0287583
4	0x3f83c515	1.029452
5	0x3f7d7b09	0.9901586
6	0x3f812de1	1.0092126
7	0x3f75acb2	0.9596664
8	0x3f79dbef	0.9760122
9	0x3f7e91d4	0.99441266
10	0x3f894c07	1.0726327
11	0x3f7a30d9	0.97730786
12	0x3f8130d9	1.0093032
13	0x3f81baa5	1.0135084
14	0x3f80266a	1.0011723
15	0x3f7d7215	0.990022
16	0x3f7ac612	0.9795848
17	0x3f7bc5f9	0.9834896
18	0x3f78a6fc	0.971298
19	0x3f7dac8a	0.990914
20	0x3f7ee420	0.9956684
21	0x3f7e43ac	0.9932201
22	0x3f783e2f	0.96969885
23	0x3f807bfe	1.003784
24	0x3f7c32b5	0.9851487
25	0x3f7ef261	0.9958859
26	0x3f7f2260	0.9966183
27	0x3f856ba6	1.0423477
28	0x3f83393a	1.0251839
29	0x3f812338	1.0088873
30	0x3f7dabd4	0.99090314
31	0x3f80dcf9	1.0067436

network.9.bias f4 [32]
0	0x3cbfc5ce	0.02340975
1	0xbbe7592f	-0.007060192
2	0xbcf5283e	-0.029926416
3	0x3c1b4f94	0.009479422
4	0x3c7e4745	0.015519922
5	0xbcc1b587	-0.02364613
6	0xbc85d2ad	-0.01633581
7	0xbcbea9a5	-0.023274252
8	0xbbde1b79	-0.0067781773
9	0x3c95e68a	0.018298406
10	0x3cfd685e	0.030933555
11	0xbd101848	-0.035179406
12	0x3c8ca576	0.017168742
13	0xbb0c7bc4	-0.0021436075
14	0x3b9b7636	0.0047443165
15	0xbc444980	-0.011980414
16	0xb9ddb0da	-0.0004228417
17	0xbcd7191a	-0.026257087
18	0xbd18582b	-0.03719346
19	0xbd2a0438	-0.04150793
20	0xbc19b548	-0.0093816
21	0x3cba21e8	0.022721246
22	0xbcf07a30	-0.029355139
23	0xbc6dccf7	-0.014514199
24	0xbbaf2a00	-0.005345583
25	0x3c1f8c1e	0.009737996
26	0xbcc6085e	-0.024173912
27	0x3cd096ed	0.025462592
28	0x3a6b45f9	0.00089749653
29	0x3cb777d5	0.022396008
30	0xbc4755f4	-0.012166489
31	0xbc7e6434	-0.01552682

network.9.running_mean f4 [32]
0	0xbea8228d	-0.3283886
1	0x3edf05bb	0.4355906
2	0x3c234c14	0.009966869
3	0x3edd0026	0.43164176
4	0xbdce8182	-0.100832954
5	0xbe9f3de5	-0.3110191
6	0x3eb9cb58	0.3628795
7	0xbe3d04dd	-0.18458886
8	0xbe63b3f6	-0.22236618
9	0xbae24f42	-0.0017266052
10	0xbe478ee7	-0.19488107
11	0x3e4fd123	0.20294623
12	0xbe770e05	-0.24126442
13	0xbe5b5326	-0.21418437
14	0xbe008114	-0.1254924
15	0xbedaf7cd	-0.42767182
16	0xbe8222c2	-0.25417143
17	0x3df7b4a8	0.12095004
18	0xbeca195c	-0.39472473
19	0xbe1fb3b7	-0.155959
20	0x3e980779	0.296932
21	0xbe2d0ed6	-0.1690019
22	0xbda0e502	-0.0785618
23	0x3d03bf20	0.032164693
24	0x3d9e464c	0.07728252
25	0x3ea2d7e2	0.3180533
26	0xbe6cf03d	-0.23138519
27	0x3de2a672	0.11066903
28	0xbe89053c	-0.26761806
29	0x3da6b579	0.08140082
30	0xbcd4852d	-0.02594241
31	0x3e1def87	0.15423404

network.9.running_var f4 [32]
0	0x3ec61504	0.3868791
1	0x3e960c5f	0.29306313
2	0x3e515aad	0.20444746
3	0x3eb1848b	0.34671435
4	0x3eab30b4	0.33435595
5	0x3ea7d748	0.32781434
6	0x3e7fbb3c	0.24973768
7	0x3ea26d97	0.31724235
8	0x3e6b6dc6	0.22991094
9	0x3edfdb30	0.43721914
10	0x3eca83d9	0.39553717
11	0x3eb3d2f7	0.3512189
12	0x3e295010	0.16534448
13	0x3e549446	0.20759687
14	0x3e57d413	0.21076994
15	0x3eb27366	0.34853667
16	0x3e78c8c4	0.24295336
17	0x3e8bfac9	0.2733977
18	0x3e871537	0.26383373
19	0x3e5dea3d	0.21671386
20	0x3e9d27e1	0.30694488
21	0x3e7bf1b6	0.24603924
22	0x3e1e4e5e	0.15459582
23	0x3e4121e1	0.1886058
24	0x3ee6f380	0.4510765
25	0x3ebc50c7	0.36780378
26	0x3e85cd90	0.26133394
27	0x3e7df19c	0.24799198
28	0x3e941b77	0.28927204
29	0x3e4dea10	0.20108819
30	0x3ea1221f	0.31471345
31	0x3e73951e	0.23787352
