ai-layer/model/results/50000_v3/dnn_oud_risk_model.pth (torch, 70037 bytes, 25 tensors)

network.0.weight f4 [128, 19]
0.06466588 0.13371968 -0.10935457 -0.02025779 -0.017163867 -0.20008613 -0.19680043 0.19763993
-0.10283455 0.073390335 0.1606004 0.14025101 0.021963686 0.025868436 -0.08833482 0.108400956
-0.19273834 -0.06318666 0.067300744 0.025636973 -0.019921634 -0.12095351 0.21976787 -0.1711522
0.05172133 0.21539208 -0.038713552 -0.13731937 0.07787209 -0.09168486 0.07389576 0.1432181
-0.016588971 -0.12591785 -0.019364579 -0.2018262 -0.027237104 0.18332459 -0.120832816 0.16599916
0.14741482 0.12818652 -0.11232572 -0.23453195 0.27866518 0.21782385 0.17338838 -0.106411144
-0.107222095 0.18742849 -0.14051802 -0.16464938 0.077830955 -0.14106098 0.26511705 0.11420702
-0.10013646 -0.095360726 0.090258494 -0.23766242 0.10757099 -0.13796131 -0.24897295 0.07900875
0.016646922 -0.18373872 -0.13059917 0.18975239 -0.24349861 0.067369536 -0.18166764 -0.023022352
0.1837415 0.1678721 -0.19634141 -0.04505859 -0.18005729 0.1256387 -0.093575306 0.11606487
0.041691322 -0.13906235 0.12635608 -0.22326978 0.18431439 0.18852326 -0.18173884 -0.0895926
-0.19325092 0.012197003 -0.15932737 0.104120046 0.13426937 0.17024748 0.22222391 -0.32804406
0.036901694 -0.34210554 -0.2172999 0.031212023 -0.089985095 -0.037629817 -0.0881982 -0.0042185285
0.21451414 0.117477715 -0.13617493 -0.06540515 0.053601075 -0.0049501187 -0.12735511 -0.032858692
0.06333832 -0.10478944 -0.20889708 -0.0993554 0.028706236 -0.16713081 0.114663705 0.10118538
0.26306137 -0.065072134 0.092254266 0.0015135363 -0.020634605 0.091887325 0.16151558 -0.24724612
0.0051997183 0.14664397 0.09468682 0.15578817 0.20577267 -0.10941618 0.12923206 -0.15593177
0.09758041 -0.058648672 -0.080168694 -0.13345392 0.009298261 -0.16963811 0.16539367 -0.08660574
0.10145291 0.18090792 -0.022434888 -0.16737564 -0.16010074 -0.0026115594 0.045485295 0.18519309
-0.14217614 -0.11995634 0.12382546 0.18056835 0.0921517 -0.13619864 -0.20208687 0.019305814
0.23830585 -0.1657639 0.1315966 0.18691364 0.18939015 0.17185089 -0.14296076 -0.02881284
-0.11513861 0.0078543695 -0.1530575 0.19064999 0.12275365 -0.16947323 -0.10883469 -0.047632545
0.051098347 -0.077976756 0.14314471 0.14526296 0.10791561 -0.16664885 -0.020658594 0.07309179
0.048300274 -0.01621266 -0.1317618 -0.14821334 0.0673211 -0.15381108 -0.07648427 0.1780825
-0.15804236 0.2049812 -0.17080103 0.1910591 0.2229451 0.054716565 0.01239554 0.16879582
0.07612666 -0.18403836 -0.10440714 -0.11517725 0.12912315 -0.03142984 0.16488455 -0.24988028
0.18748817 -0.079735234 -0.059714172 0.056093764 -0.09506671 0.0022073651 0.19343275 -0.21425061
0.027580453 -0.16262144 -0.20490757 0.13664047 0.1311266 0.11049575 0.0002521456 -0.2018619
-0.064330526 0.15418135 -0.009610448 -0.15232603 -0.16288076 -0.0681415 -0.019666731 0.22089598
0.13401446 -0.068130955 0.05734012 -0.08431603 -0.17635977 -0.021363795 0.1892497 0.10789573
-0.12956761 -0.0008754304 0.105980076 0.028215222 0.01502752 0.060110223 -0.103340805 -0.07971472
0.13890465 0.13112697 0.1170636 0.041832853 0.21123102 0.22306593 0.13769889 0.1153939
00000000: 8b6f 843d d0ed 083e 4af5 dfbd aaf3 a5bc
00000010: 3d9b 8cbc 61e3 4cbe 0d86 49be 1f62 4a3e
00000020: ec9a d2bd ac4d 963d 6e74 243e f69d 0f3e
00000030: 30ed b33c 0bea d33c e3e8 b4bd 5201 de3d
00000040: 335d 45be 0268 81bd f9d4 893d a104 d23c
00000050: b232 a3bc 79b6 f7bd d40a 613e 8642 2fbe
00000060: bfd9 533d be8f 5c3e 1a92 1ebd 739d 0cbe
00000070: 677b 9f3d 46c5 bbbd a956 973d c4a7 123e
00000080: 98e5 87bc 9cf0 00be 77a2 9ebc 87ab 4ebe
00000090: 5920 dfbc 71b9 3b3e 3277 f7bd affb 293e
000000a0: e9f3 163e 5443 033e 070b e6bd 2529 70be
000000b0: 34ad 8e3e 370d 5f3e b98c 313e 16ee d9bd
000000c0: 4297 dbbd 41ed 3f3e f5e3 0fbe d999 28be
000000d0: d665 9f3d 4a72 10be 6cbd 873e 5fe5 e93d
000000e0: 5814 cdbd 7c4c c3bd 72d9 b83d c75d 73be
000000f0: 2e4e dc3d bb45 0dbe c4f2 7ebe 57cf a13d
00000100: 205f 883c 0126 3cbe cabb 05be 734e 423e
00000110: b357 79be 0af9 893d 1507 3abe 5f99 bcbc
00000120: bb26 3c3e aae6 2b3e b90d 49be 5b8f 38bd
00000130: f060 38be 6ea7 003e 69a4 bfbd 6bb3 ed3d
00000140: 85c4 2a3d 5c66 0ebe 7d63 013e d5a0 64be
00000150: e9bc 3c3e 3e0c 413e bf19 3abe 537c b7bd
00000160: 92e3 45be f0d5 473c b726 23be e43c d53d
00000170: e97d 093e 5b55 2e3e aa8e 633e 64f5 a7be
00000180: 3b26 173d 7528 afbe dd83 5ebe 5bb0 ff3c
00000190: 1b4a b8bd b921 1abd 42a1 b4bd 953b 8abb
000001a0: 98a9 5b3e 2898 f03d 7171 0bbe 23f3 85bd
000001b0: cd8c 5b3d 9b34 a2bb 6169 02be d696 06bd
000001c0: 85b7 813d d99b d6bd 1ee9 55be d87a cbbd
000001d0: 5729 eb3c 5724 2bbe ced4 ea3d 483a cf3d
000001e0: fbaf 863e 8a44 85bd ceef bc3d da61 c63a
000001f0: e709 a9bc 6c2f bc3d 5764 253e 162e 7dbe
00000200: 6662 aa3b d629 163e 2aeb c13d ef86 1f3e
00000210: 12b6 523e 9715 e0bd 6955 043e 94ac 1fbe
00000220: 3dd8 c73d 9739 70bd 7c2f a4bd 25a8 08be
00000230: bc57 183c 9db5 2dbe f55c 293e 5a5e b1bd
00000240: 8bc6 cf3d ed3f 393e 5fc9 b7bc 8564 2bbe
00000250: 73f1 23be b226 2bbb ca4e 3a3d 42a3 3d3e
00000260: 9f96 11be abab f5bd 3498 fd3d e9e6 383e
00000270: 08ba bc3d a877 0bbe dcef 4ebe 3a27 9e3c
00000280: 7306 743e 03be 29be 42c1 063e 4a66 3f3e
00000290: 7eef 413e aef9 2f3e 4e64 12be e808 ecbc
000002a0: cbcd ebbd 9daf 003c 1bbb 1cbe c039 433e
000002b0: 4466 fb3d 648a 2dbe b9e4 debd 581a 43bd
000002c0: 804c 513d 47b2 9fbd 8794 123e d0bf 143e
000002d0: dc02 dd3d ffa5 2abe 363c a9bc 26b1 953d
000002e0: 82d6 453d 6ad0 84bc 91ec 06be 3dc5 17be
000002f0: a5df 893d a780 1dbe c9a3 9cbd 425b 363e
00000300: dbd5 21be 97e6 513e 77e6 2ebe ffa4 433e
00000310: b84b 643e 7a1e 603d aa16 4b3c d0d8 2c3e
00000320: 4be8 9b3d 8d74 3cbe 69d3 d5bd 0de2 ebbd
00000330: dc38 043e 93bc 00bd 7fd7 283e 9ee0 7fbe
00000340: e6fc 3f3e 3a4c a3bd d996 74bd 93c2 653d
00000350: 56b2 c2bd 71a9 103b 3c13 463e 8364 5bbe
00000360: 67f0 e13c 3c86 26be 4ad3 51be 7beb 0b3e
00000370: 0d46 063e 994b e23d 6932 8439 e3b4 4ebe
00000380: b9bf 83bd b7e1 1d3e 2475 1dbc 5bfb 1bbe
00000390: 37ca 26be c58d 8bbd 201c a1bc 8e32 623e
000003a0: 163b 093e 3e88 8bbd 79dd 6a3d e2ad acbd
000003b0: a897 34be 2003 afbc acca 413e 70f8 dc3d
000003c0: 5fad 04be 247d 65ba 150c d93d 9c23 e73c
000003d0: fd35 763c 2336 763d 58a4 d3bd 7941 a3bd
000003e0: 053d 0e3e 2646 063e 0abf ef3d ed58 2b3d
000003f0: f24c 583e 656b 643e f000 0d3e a353 ec3d

network.0.bias f4 [128]
0.22623451 -0.025653424 -0.15378936 0.028485516 -0.17557013 0.16090277 0.0083809 0.06601452
-0.13066798 -0.120776296 -0.2239858 0.064275056 -0.020405754 0.118036 -0.17239371 -0.22537121
-0.15120351 0.07319602 -0.035446204 -0.10153943 -0.007868291 0.006803158 -0.05263655 0.1801686
0.0011667333 0.010583039 0.11438326 0.12486068 0.110872954 0.20465493 0.09276512 -0.15638232
-0.028285917 -0.03681398 0.14861882 -0.1216702 -0.19928654 -0.016650805 -0.19065785 -0.17379075
-0.094239496 -0.00058612996 -0.2110523 -0.11800826 0.027282821 -0.13189957 -0.016157353 -0.07093298
0.12897368 0.19354254 -0.21457236 -0.120578684 -0.0059785196 -0.07087227 0.12514146 -0.15783428
0.029790072 -0.21681748 0.1764107 0.0543814 0.11895212 0.1174249 0.023690294 -0.17657349
0.09883396 0.20296228 -0.16865225 -0.14037117 0.20372908 -0.105238736 -0.08355817 -0.0037509745
0.053114817 -0.2180705 0.07187981 0.17512102 0.1723473 0.066449896 -0.105523795 0.0068858895
0.046842337 0.12546939 -0.14447576 0.15841034 -0.0543971 -0.033681262 -0.1136618 0.112002924
0.014080524 -0.14163765 0.02873302 0.073192336 0.110067986 -0.11180655 0.022013662 0.09171884
-0.22216001 -0.124047875 0.016220143 -0.19820139 0.21167439 0.16679616 0.14486463 -0.053319838
0.18244569 -0.04264427 -0.053356674 -0.035414793 -0.20546414 0.19778894 0.0053231125 -0.22853394
0.08415898 0.104961805 -0.04093411 -0.08459537 -0.029151686 0.107406 0.14295174 0.023427226
0.04992709 -0.15480947 0.032742776 -0.16791005 0.14014785 -0.11078932 0.09153918 0.023905238
00000000: 05aa 673e 2127 d2bc f57a 1dbe 755a e93c
00000010: a8c8 33be b2c3 243e 0b50 093c 9f32 873d
00000020: d4cd 05be 9059 f7bd 895c 65be a4a2 833d
00000030: f829 a7bc dcbc f13d fa87 30be b6c7 66be
00000040: 18d5 1abe cce7 953d 0a30 11bd e8f3 cfbd
00000050: 01ea 00bc 07ed de3b 6c99 57bd 1e7e 383e
00000060: 13ed 983a 7c64 2d3c c541 ea3d f5b6 ff3d
00000070: 5c11 e33d 1091 513e a4fb bd3d b022 20be
00000080: deb7 e7bc 42ca 16bd 882f 183e 3a2e f9bd
00000090: c511 4cbe 4567 88bc d03b 43be 34f6 31be
000000a0: a300 c1bd 84a6 19ba 181e 58be 51ae f1bd
000000b0: 3980 df3c ae10 07be 6d5c 84bc 4f45 91bd
000000c0: ad11 043e 0430 463e dbb8 5bbe f5f1 f6bd
000000d0: 75e7 c3bb 7b25 91bd 1525 003e 4f9f 21be
000000e0: 4f0a f43c 6705 5ebe 02a5 343e 08bf 5e3d
000000f0: 2b9d f33d 777c f03d 2612 c23c aecf 34be
00000100: 7669 ca3d 58d5 4f3e 2db3 2cbe 76bd 0fbe
00000110: 5b9e 503e 6887 d7bd 8c20 abbd e9d2 75bb
00000120: ec8e 593d e04d 5fbe b935 933d ed52 333e
00000130: d07b 303e e216 883d dc1c d8bd 07a3 e13b
00000140: c0dd 3f3d 0c7b 003e 74f1 13be 5236 223e
00000150: 7ecf 5ebd 5df5 09bd 85c7 e8bd ca61 e53d
00000160: 00b2 663c 7609 11be 8361 eb3c dde5 953d
00000170: 536b e13d d5fa e4bd ff55 b43c 16d7 bb3d
00000180: ea7d 63be d00c febd 1be0 843c 4ef5 4abe
00000190: 2cc1 583e 9dcc 2a3e 6557 143e e765 5abd
000001a0: 0bd3 3a3e c2ab 2ebd 878c 5abd 1a0f 11bd
000001b0: 3165 52be 2f89 4a3e 816d ae3b cd04 6abe
000001c0: 8b5b ac3d 37f6 d63d 86aa 27bd 5640 adbd
000001d0: 84cf eebc adf7 db3d f161 123e 74ea bf3c
000001e0: 5980 4c3d 6086 1ebe 4a1d 063d 9df0 2bbe
000001f0: eb82 0f3e 83e5 e2bd e578 bb3d ebd4 c33c

network.1.weight f4 [128]
0.9582915 0.9047271 0.934992 0.9614541 1.0236198 1.1075311 0.9772576 0.9903589
1.0415964 0.9571956 0.96852875 0.97121567 1.0406458 0.94271284 0.9500206 0.9861956
1.0177053 0.9637452 0.98394185 1.0092673 1.0116198 1.0219966 1.0006124 0.9751458
1.0060014 0.9443565 0.9585398 0.9439287 0.99156284 1.1195478 0.956482 1.0883912
1.0047526 1.0046614 1.0697783 0.88135976 0.9840718 1.0148585 0.9273074 1.0194278
0.91977423 0.9533789 1.0055088 1.0229998 0.9787362 0.928201 0.95840555 1.0654522
0.993417 1.0031472 1.047174 1.0091695 1.0406578 0.93282753 0.97294265 0.95521337
1.10024 0.9750517 0.9921498 1.0207102 0.8983796 0.9912214 0.89037067 0.93529266
1.0510556 0.9982254 1.1317046 1.0586278 0.9711665 0.9790294 1.009637 1.07168
1.1452277 1.0741127 0.98928773 0.98239577 0.9768162 1.0708001 1.0480485 1.0170473
0.96827424 0.97151953 0.9430317 0.9921324 0.996204 0.8915203 1.0232898 0.99220943
1.0032369 0.9474312 1.0394937 1.131567 0.9982186 0.985384 0.9841614 0.9880301
1.0348827 1.0367107 0.9922642 0.9543412 0.93386084 0.93538254 0.9647275 1.0276006
1.0519605 1.076355 1.0518316 1.0294033 0.9811076 0.99895984 1.067066 1.0654124
0.9492231 1.0012523 1.031745 1.0402377 0.94218063 1.0131873 0.98617524 1.0293132
1.0658838 0.9706791 0.98946613 1.0229053 0.9897457 1.0331119 0.9411425 0.9849565
00000000: 9752 753f 329c 673f a35b 6f3f db21 763f
00000010: f905 833f 94c3 8d3f 8e2d 7a3f 2988 7d3f
00000020: 0853 853f c50a 753f 80f1 773f 97a1 783f
00000030: e233 853f a155 713f 8d34 733f 5177 7c3f
00000040: 2b44 823f 01b8 763f 9de3 7b3f ac2f 813f
00000050: c27c 813f c9d0 823f 1114 803f 28a3 793f
00000060: a7c4 803f 59c1 713f dd62 753f 50a5 713f
00000070: 10d7 7d3f 584d 8f3f 01dc 743f 6750 8b3f
00000080: bc9b 803f bf98 803f 7fee 883f cba0 613f
00000090: 21ec 7b3f e2e6 813f 0564 6d3f 9c7c 823f
000000a0: 5376 6b3f a410 743f 83b4 803f a8f1 823f
000000b0: 758e 7a3f 959e 6d3f 115a 753f bd60 883f
000000c0: 9450 7e3f 2167 803f cc09 863f 772c 813f
000000d0: 4634 853f c9cd 6e3f c512 793f dd88 743f
000000e0: aad4 8c3f fd9c 793f 87fd 7d3f a2a6 823f
000000f0: 35fc 653f b0c0 7d3f 55ef 633f 576f 6f3f
00000100: fd88 863f b38b 7f3f b2db 903f 1e81 873f
00000110: 5e9e 783f aca1 7a3f c93b 813f cf2c 893f
00000120: d296 923f 867c 893f f641 7d3f 4a7e 7b3f
00000130: a010 7a3f fa0f 893f 7426 863f 9b2e 823f
00000140: d2e0 773f 81b5 783f 876a 713f 64fc 7d3f
00000150: 3a07 7f3f ad3a 643f 29fb 823f 7001 7e3f
00000160: 116a 803f da8a 723f 210e 853f 30d7 903f
00000170: 418b 7f3f 2042 7c3f 00f2 7b3f 8aef 7c3f
00000180: 0977 843f f0b2 843f 0705 7e3f b44f 743f
00000190: 8111 6f3f 3b75 6f3f 62f8 763f 6b88 833f
000001a0: a4a6 863f 00c6 893f 6ba2 863f 7dc3 833f
000001b0: de29 7b3f d5bb 7f3f 9e95 883f 6f5f 883f
000001c0: 4900 733f 0929 803f 3810 843f 8226 853f
000001d0: c032 713f 1fb0 813f fb75 7c3f 89c0 833f
000001e0: e16e 883f 6d7e 783f a74d 7d3f 90ee 823f
000001f0: f95f 7d3f 033d 843f b7ee 703f 1c26 7c3f

network.1.bias f4 [128]
-0.0064469683 -0.0548728 -0.094642036 -0.03268181 0.033817288 0.03392981 -0.01825796 -0.008871484
0.033705555 -0.06459849 0.0395664 -0.022469698 0.068131246 -0.1021235 -0.017760597 0.018159853
0.031770278 0.020396972 0.0013815513 -0.03979908 0.010096932 -0.0009990975 -0.041500885 -0.038214304
-0.035096485 -0.08000122 -0.072836705 -0.060253862 -0.008984391 0.07785154 -0.066124745 0.08363775
0.066904336 -0.039120406 0.020739531 -0.10304114 0.020968206 0.06518012 -0.07356308 0.035469055
-0.12882842 -0.015392426 -0.03273403 -0.04645369 0.015419185 -0.06299834 -0.057457216 0.018142192
0.009342919 -0.0061128186 -0.003619819 0.033803903 0.039306767 -0.10503152 0.0054384572 -0.07722456
0.014877615 -0.047839947 -0.045761447 -0.045761276 -0.08342043 -0.03069567 -0.11944517 -0.027246408
-0.013385817 0.00040299294 0.08506767 0.032056548 -0.03318928 -0.0008961174 -0.027906537 0.08817167
0.12070328 0.067353986 -0.02277992 -0.038190868 -0.0035504766 -0.054771572 0.04708275 0.03980873
-0.047631644 -0.0118312 -0.05410239 -0.032225676 -0.005619388 -0.07404942 -0.05402186 -0.0060650967
-0.03011584 -0.09881426 0.068828195 0.13425356 -0.0096500255 -0.057137404 -0.03100689 -0.041768134
0.008837311 -0.07794113 -0.009117382 -0.044297878 -0.11506462 -0.020270113 -0.08282819 0.014752191
0.039662883 0.10005749 0.055896252 0.003943062 -0.046275824 0.01033973 0.0755849 0.023528336
-0.10071426 0.03076001 0.023529844 0.025475893 -0.0019041284 -0.004862766 0.010492919 -0.009145331
-0.037707157 -0.01359579 0.017478818 -0.026003653 -0.0011139046 -0.018759044 -0.114923 0.056783497
00000000: 1741 d3bb 4dc2 60bd afd3 c1bd 5ddd 05bd
00000010: ff83 0a3d fcf9 0a3d b891 95bc b359 11bc
00000020: d60e 0a3d 374c 84bd 6110 223d 5f12 b8bc
00000030: 6588 8b3d 2026 d1bd ac7e 91bc f9c3 943c
00000040: 8d21 023d 8d17 a73c 2b15 b53a 5c04 23bd
00000050: 9a6d 253c 26f4 82ba d5fc 29bd 9a86 1cbd
00000060: 55c1 0fbd aed7 a3bd 692b 95bd c1cc 76bd
00000070: 4433 13bc a170 9f3d 696c 87bd 454a ab3d
00000080: 2405 893d b83c 20bd f3e5 a93c 3c07 d3bd
00000090: 84c5 ab3c 287d 853d 3da8 96bd 0048 113d
000000a0: 99eb 03be 8430 7cbc 1e14 06bd 3946 3ebd
000000b0: c0a0 7c3c 4605 81bd 4258 6bbd ef9e 943c
000000c0: 0b13 193c 0a4e c8bb 7c3a 6dbb f675 0a3d
000000d0: 2200 213d c41a d7bd 1635 b23b e927 9ebd
000000e0: 3dc1 733c d2f3 43bd 5b70 3bbd 2d70 3bbd
000000f0: 55d8 aabd 7c75 fbbc ab9f f4bd dc33 dfbc
00000100: 3050 5bbc cc48 d339 f537 ae3d ba4d 033d
00000110: 7cf1 07bd 6ce9 6aba 409c e4bc 5993 b43d
00000120: 4833 f73d e3f0 893d f49c babc 076e 1cbd
00000130: 1daf 68bb 2858 60bd d7d9 403d 7b0e 233d
00000140: 6619 43bd a6d7 41bc 789a 5dbd 12ff 03bd
00000150: d822 b8bb 39a7 97bd 0746 5dbd b8bd c6bb
00000160: 7eb5 f6bc 215f cabd ccf5 8c3d c479 093e
00000170: 241b 1ebc e908 6abd 2902 febc 1015 2bbd
00000180: 5eca 103c 999f 9fbd 1261 15bc b171 35bd
00000190: 00a7 ebbd 820d a6bc d3a1 a9bd 2cb3 713c
000001a0: 8c75 223d f1ea cc3d 78f3 643d cd34 813b
000001b0: b88b 3dbd f967 293c 42cc 9a3d 7fbe c03c
000001c0: 4743 cebd 6bfc fb3c a9c1 c03c d2b2 d03c
000001d0: f293 f9ba d657 9fbb 7eea 2b3c 4cd6 15bc
000001e0: d272 1abd e0c0 5ebc bd2f 8f3c 9d05 d5bc
000001f0: 7000 92ba 91ac 99bc c05c ebbd d095 683d

network.1.running_mean f4 [128]
0.22801274 -0.009503233 -0.16846667 0.01738229 -0.1812489 0.1026405 0.021516288 0.051608488
-0.14371023 -0.10881046 -0.16726418 0.04334714 -0.040138274 0.2190521 -0.1855021 -0.22395337
-0.13845894 0.09638137 -0.09103775 -0.15018514 -0.015369087 -0.060682867 -0.029720891 0.20541175
-0.072374865 0.0365675 0.12740414 0.08318952 0.11619452 0.20364335 -0.0027002683 -0.17951883
-0.019511234 -0.024970077 0.14292829 -0.073741734 -0.19727066 0.0026143142 -0.1306632 -0.25167906
-0.03501049 0.042092662 -0.25961164 -0.19500804 0.008460123 -0.1032756 -0.14059106 -0.06334703
0.10291624 0.21865623 -0.26605523 -0.18995254 -0.008604897 -0.023595203 0.107559554 -0.11811083
-0.02132291 -0.23883043 0.17246512 0.047408987 0.16790561 0.12474772 0.11137449 -0.13829473
0.10476218 0.20528987 -0.23597215 -0.20344985 0.21507195 -0.028724648 -0.08293027 -0.007604236
0.04853978 -0.21879394 0.073646344 0.1763028 0.169022 0.06601959 -0.18535985 0.0057171513
0.046218105 0.14036569 -0.071031086 0.1934961 -0.051389415 0.008766289 -0.16866565 0.13127497
-0.0064048213 -0.14901137 -0.0073884986 0.05629987 0.046129618 -0.080779456 0.02118123 0.09966613
-0.21251643 -0.11229022 0.049834985 -0.17459746 0.24860418 0.14613326 0.17317127 -0.053469166
0.092196256 -0.08441626 -0.062399786 -0.03514626 -0.12110312 0.19528422 -0.0040269117 -0.28875446
0.1033718 0.109749295 -0.052064117 -0.13026856 -0.03994739 0.11862126 0.17393436 -0.026278784
0.046656456 -0.22556144 0.036382336 -0.22083211 0.05448524 -0.19091113 0.100688584 0.025983546
00000000: 2c7c 693e 73b3 1bbc 8782 2cbe 4e65 8e3c
00000010: 5099 39be 2f35 d23d ed42 b03c 6c63 533d
00000020: c628 13be 05d8 debd 4d47 2bbe c58c 313d
00000030: 0868 24bd 324f 603e 43f4 3dbe 0854 65be
00000040: 2ec8 0dbe 9963 c53d 0072 babd 22ca 19be
00000050: a0ce 7bbc 998e 78bd 3a79 f3bc 7557 523e
00000060: 4639 94bd cec7 153d 3b76 023e 445f aa3d
00000070: 64f7 ed3d e287 503e fcf6 30bb c9d3 37be
00000080: 06d6 9fbc 0c8e ccbc cb5b 123e e805 97bd
00000090: 5201 4abe ea54 2b3b 93cc 05be 14dc 80be
000000a0: 2967 0fbd 5b69 2c3d d1eb 84be 30b0 47be
000000b0: 549c 0a3c 2882 d3bd 1af7 0fbe 16bc 81bd
000000c0: c0c5 d23d 6be7 5f3e 6438 88be eb82 42be
000000d0: 8efb 0cbc ba4a c1bc 2f48 dc3d 17e4 f1bd
000000e0: 62ad aebc f78f 74be b29a 303e ed2f 423d
000000f0: 73ef 2b3e bc7b ff3d 4f18 e43d 229d 0dbe
00000100: 8e8d d63d 8237 523e afa2 71be 2855 50be
00000110: d23b 5c3e f44f ebbc 58d7 a9bd f42c f9bb
00000120: a6d1 463d 850b 60be e5d3 963d b988 343e
00000130: 1a14 2d3e 4735 873d f9ce 3dbe f156 bb3b
00000140: 324f 3d3d 06bc 0f3e bf78 91bd d723 463e
00000150: b57d 52bd 7ba0 0f3c b0b6 2cbe f26c 063e
00000160: 89df d1bb 7096 18be 381b f2bb b19a 663d
00000170: 69f2 3c3d b36f a5bd 4284 ad3c c21d cc3d
00000180: e89d 59be 6af8 e5bd c51f 4c3d adc9 32be
00000190: 1892 7e3e f5a3 153e cf53 313e 7c02 5bbd
000001a0: 64d1 bc3d 6fe2 acbd eb96 7fbd 86f5 0fbd
000001b0: ea04 f8bd 96f8 473e 2ff4 83bb a0d7 93be
000001c0: 98b4 d33d 3dc4 e03d 2f41 55bd 1f65 05be
000001d0: e09f 23bd b4ef f23d d91b 323e 9b46 d7bc
000001e0: d71a 3f3d 94f9 66be a505 153d d021 62be
000001f0: ea2b 5f3d 357e 43be d135 ce3d 72db d43c

network.1.running_var f4 [128]
0.12590587 0.21728837 0.77706987 0.30480844 0.15956065 1.0035548 0.6167848 0.11202548
0.32596162 0.12579423 0.7247782 0.20555152 0.14346094 1.9575468 0.5035601 0.31868374
0.50827205 0.6950256 1.0961652 0.4179797 0.22216561 1.2629915 0.21739483 0.24421597
0.6317936 0.20207845 0.22619095 0.3723468 0.2509896 0.07575554 0.81013715 0.66516495
0.17034258 0.06514606 0.19049181 0.34049454 0.3360744 0.12629688 0.5243647 0.92440397
0.38564983 0.34697115 0.44929746 1.1056054 0.4513749 0.27463093 1.2884287 0.063486435
0.116363786 0.38287422 0.38728237 0.56251496 0.06318424 0.3622633 0.23390555 0.34272838
0.54709184 0.16801062 0.2556543 0.24777976 0.3286619 0.59655637 0.71012574 0.20562142
0.06230979 0.07646891 1.1913277 0.68530804 0.17190416 0.82652664 0.113161385 0.040109135
0.08100064 0.0679858 0.27348667 0.39236623 0.3623548 0.29864177 1.401009 0.08429832
0.42202404 0.19981034 1.0134051 0.35586986 0.19751297 0.30106062 0.63980985 0.16569674
0.12525906 0.22754942 0.23398532 0.05889653 0.63889307 0.22587714 0.11565362 0.16776049
0.11207149 0.27282295 0.49464762 0.18053666 0.23434708 0.14399765 0.12078491 0.040562794
1.9416686 0.3055685 0.1137252 0.063992165 0.67496794 0.19665885 0.31435868 0.8766404
0.3806763 0.112546176 0.15198599 0.7439105 0.29645905 0.17347765 0.46898818 0.3606333
0.030189639 0.75207645 0.27474552 0.86044073 1.7692747 1.2709117 0.23886293 0.10127084
00000000: 78ed 003e d880 5e3e 0dee 463f da0f 9c3e
00000010: de63 233e 7c74 803f 9ce5 1d3f 9d6d e53d
00000020: 71e4 a63e 34d0 003e 108b 393f 197c 523e
00000030: 6de7 123e e590 fa3f 51e9 003f 842a a33e
00000040: 1e1e 023f 33ed 313f 244f 8c3f 6f01 d63e
00000050: 627f 633e b5a9 a13f c09c 5e3e c013 7a3e
00000060: 3abd 213f a7ed 4e3e 9a9e 673e 3da4 be3e
00000070: b581 803e b825 9b3d 2665 4f3f 4048 2a3f
00000080: 496e 2e3e 4c6b 853d 4910 433e 4d55 ae3e
00000090: f211 ac3e f853 013e c43c 063f bda5 6c3f
000000a0: e573 c53e 34a6 b13e 510a e63e 7a84 8d3f
000000b0: 9c1a e73e 6d9c 8c3e 3beb a43f 2d05 823d
000000c0: 2350 ee3d 1708 c43e e049 c63e fb00 103f
000000d0: bd66 813d 937a b93e f084 6f3e 187a af3e
000000e0: 360e 0c3f fa0a 2c3e 1fe5 823e fab9 7d3e
000000f0: 5f46 a83e ebb7 183f cdca 353f 6c8e 523e
00000100: 8d38 7f3d bb9b 9c3d 6d7d 983f 5970 2f3f
00000110: a507 303e 4097 533f 28c1 e73d 7a49 243d
00000120: aae3 a53d 243c 8b3d 7206 8c3e 3ae4 c83e
00000130: 9186 b93e 93e7 983e 4354 b33f 99a4 ac3d
00000140: 8913 d83e 159b 4c3e 42b7 813f 9334 b63e
00000150: d740 4a3e 9e24 9a3e 94ca 233f 68ac 293e
00000160: e943 003e b702 693e d999 6f3e 7d3d 713d
00000170: 7f8e 233f 564c 673e cedb ec3d 68c9 2b3e
00000180: bd85 e53d 73af 8b3e 7442 fd3e 9ade 383e
00000190: aef8 6f3e 1f74 133e 145e f73d 2c25 263d
000001a0: 9988 f83f 7973 9c3e c2e8 e83d 530e 833d
000001b0: b3ca 2c3f f060 493e 9ff3 a03e 816b 603f
000001c0: 01e8 c23e 9c7e e63d 37a2 1b3e eb70 3e3f
000001d0: 7bc9 973e 20a4 313e 381f f03e eea4 b83e
000001e0: 4350 f73c 1588 403f 72ab 8c3e d845 5c3f
000001f0: 9877 e23f 3cad a23f 7c98 743e 1667 cf3d

network.4.weight f4 [64, 128]
-0.059727848 0.016930694 -0.065392405 0.049094647 -0.10766199 0.095729716 0.000460347 0.01013228
-0.05412561 -0.07720624 -0.025234759 0.08593476 0.026152547 0.03558426 0.019705158 -0.08827203
0.06106713 -0.06404008 0.030723248 -0.029903272 0.046235308 0.06567307 0.044750925 0.06828471
0.08255126 -0.0068341517 0.06637082 -0.053806674 -0.10508872 -0.0045143953 -0.077402465 0.08061593
-0.01977143 0.06420953 -0.052142363 -0.016540265 -0.049610037 0.050748058 -0.003148856 0.037992455
0.06763532 -0.019955378 0.049217384 0.06540468 -0.06962471 0.049496908 0.035115108 -0.055137735
0.055402186 -0.0440679 0.05285332 -0.099039316 -0.064219154 -0.047470372 -0.0032456794 -0.033535462
-0.11692387 0.035469662 0.062447753 0.07040641 0.066926755 0.05982073 0.023947954 -0.004341599
-0.023681087 -0.037488297 0.039422385 0.056193992 0.04652072 0.029990306 0.024410194 -0.08218891
-0.086858466 -0.12345239 -0.10082544 -0.05266045 -0.045496203 0.055536963 -0.027616536 -0.042865384
0.05256592 -0.06373122 -0.0496987 0.025124595 0.00805217 -0.006069895 0.044515762 0.009078082
-0.09467551 0.06136068 -0.017054139 -0.06288437 -0.0067109703 0.065804206 0.045092363 0.039554235
-0.01805493 0.109413825 0.06914716 0.03048109 -0.054736346 -0.041245688 0.038486138 -0.033237677
0.049269736 -0.08257059 -0.10538053 0.08911969 0.033467855 -0.070989765 -0.075874016 -0.0155661525
0.029413508 -0.030268436 -0.08727939 0.08458957 0.05628478 0.039985426 -0.04187801 0.080739096
0.047259413 -0.056401115 -0.0007177465 0.0440761 0.07154825 -0.016621813 -0.065406464 -0.08763571
-0.005521507 -0.0024820734 -0.016842011 0.032289132 -0.0562643 0.016417254 -0.014630616 -0.012505752
-0.12756363 -0.0070394403 0.03955447 -0.04625263 -0.046139646 0.07010556 0.030499933 -0.04996919
0.052251894 -0.056331236 -0.043493986 0.088930115 -0.01669728 -0.10604602 -0.05725668 0.033553287
-0.031673353 0.045403596 0.015866948 0.021788443 -0.022897895 -0.09135495 0.0076221884 -0.12885855
-0.08400519 -0.01105005 -0.09374026 -0.0126385 -0.006715752 0.028733432 0.05006977 0.059116542
-0.012525645 0.06445219 -0.03213008 0.059808094 0.030795306 0.043721747 0.07029158 -0.08625295
0.029562559 -0.018831901 -0.028483618 0.019274643 -0.068129815 0.0069187144 0.030913595 0.027964719
0.07097973 -0.03478585 -0.008862475 0.09330249 0.03727369 0.106736034 0.005549788 -0.023403456
0.02082999 -0.024981236 -0.12284674 0.067951135 -0.016871661 0.10060199 -0.005977896 -0.097785175
-0.1154443 -0.10895062 -0.07019628 -0.061217945 0.029954568 -0.026979355 -0.11619123 -0.13521875
0.03919963 -0.03374865 0.049737874 0.035954934 -0.052394014 -6.931279e-05 0.0220881 0.0209802
0.015383216 -0.040797427 0.025353337 -0.0012273017 0.07658899 -0.009524913 -0.04011962 0.09552799
-0.07775686 0.035709243 -0.0053236806 0.03955348 -0.05160765 0.059223074 -0.027796088 -0.039166927
-0.06797008 0.037767146 -0.021584898 0.04519493 -0.04441023 -0.0009687678 0.06419315 -0.0038486682
-0.023598008 0.0052976743 -0.11365527 -0.108321406 -0.053019352 0.043967955 0.00014619702 0.06082997
0.05437731 -0.07460297 -0.111148305 -0.021064516 -0.027551945 0.01546462 -0.061564878 -0.024148349
00000000: 30a5 74bd 3db2 8a3c 74ec 85bd 7817 493d
00000010: e47d dcbd f10d c43d ba5a f139 dd01 263c
00000020: d1b2 5dbd 4e1e 9ebd 20b9 cebc 90fe af3d
00000030: de3d d63c cdc0 113d b66c a13c f7c7 b4bd
00000040: 8721 7a3d 7227 83bd 52af fb3c b5f7 f4bc
00000050: 3c61 3d3d 9a7f 863d bf4c 373d dbd8 8b3d
00000060: a310 a93d 05f1 dfbb 6ded 873d 6364 5cbd
00000070: c138 d7bd 7eed 93bb 2f85 9ebd f719 a53d
00000080: b2f7 a1bc 4980 833d 3b93 55bd 737f 87bc
00000090: e533 4bbd 32dd 4f3d 0a5d 4ebb fa9d 1b3d
000000a0: 6384 8a3d 7679 a3bc 2b98 493d e4f2 853d
000000b0: 6697 8ebd 45bd 4a3d dcd4 0f3d 1bd8 61bd
000000c0: 67ed 623d 8b80 34bd b97c 583d 20d5 cabd
000000d0: 5585 83bd 4b70 42bd 77b5 54bb 7b5c 09bd
000000e0: c875 efbd a348 113d 37c9 7f3d 3c31 903d
000000f0: e510 893d 9506 753d 802e c43c f943 8ebb
00000100: d7fe c1bc 548d 19bd 5e79 213d ac2b 663d
00000110: 838c 3e3d 3bae f53c e3f7 c73c a952 a8bd
00000120: dae2 b1bd 9bd4 fcbd 917d cebd 7cb2 57bd
00000130: 3a5a 3abd ba7a 633d 133c e2bc 9d93 2fbd
00000140: 5d4f 573d 8485 82bd dd90 4bbd 18d2 cd3c
00000150: 40ed 033c f8e5 c6bb 2956 363d 3cbc 143c
00000160: 3ce5 c1bd 5655 7b3d 1fb5 8bbc 85c9 80bd
00000170: b3e7 dbbb 5bc4 863d c5b2 383d 9f03 223d
00000180: efe7 93bc 5b14 e03d 079d 8d3d 7bb3 f93c
00000190: 3833 60bd 3df1 28bd a4a3 1d3d 3b24 08bd
000001a0: 10cf 493d c51a a9bd bfd1 d7bd 6284 b63d
000001b0: 9715 093d 1563 91bd d663 9bbd 2d09 7fbc
000001c0: 99f4 f03c 83f5 f7bc 89bf b2bd 4c3d ad3d
000001d0: df8a 663d c2c7 233d 4788 2bbd 8a5a a53d
000001e0: 1693 413d db04 67bd 2727 3cba 2489 343d
000001f0: e487 923d 782a 88bc d3f3 85bd 5a7a b3bd
00000200: c2ed b4bb 48aa 22bb 42f8 89bc 9c41 043d
00000210: 6575 66bd 7a7d 863c 40b5 6fbc ede4 4cbc
00000220: 0aa0 02be 1bab e6bb de03 223d 6673 3dbd
00000230: edfc 3cbd 8193 8f3d ffda f93c 7eac 4cbd
00000240: 1506 563d 95bb 66bd c026 32bd fe20 b63d
00000250: bcc8 88bc a82e d9bd fb85 6abd 2c6f 093d
00000260: ebbb 01bd 1ff9 393d 67fb 813c ad7d b23c
00000270: 5e94 bbbc 4e18 bbbd 8dc3 f93b 7ff3 03be
00000280: ea0a acbd 450b 35bc e5fa bfbd b611 4fbc
00000290: d00f dcbb 6062 eb3c f615 4d3d 3024 723d
000002a0: 5d38 4dbc 83ff 833d d59a 03bd 55f9 743d
000002b0: 7046 fc3c 9315 333d 08f5 8f3d 63a5 b0bd
000002c0: 2e2d f23c 5c45 9abc 7a56 e9bc dbe5 9d3c
000002d0: a587 8bbd 62b6 e23b 823e fd3c 4416 e53c
000002e0: d25d 913d 9c7b 0ebd ea33 11bc 6015 bf3d
000002f0: 4cac 183d 6c98 da3d ffda b53b 9bb8 bfbc
00000300: a8a3 aa3c 73a5 ccbc 1297 fbbd f729 8b3d
00000310: 7036 8abc 6b08 ce3d 3ae2 c3bb 9843 c8bd
00000320: 106e ecbd 8121 dfbd 11c3 8fbd abbf 7abd
00000330: 4863 f53c cf03 ddbc abf5 edbd c976 0abe
00000340: cb8f 203d 063c 0abd f1b9 4b3d 7b45 133d
00000350: 1b9b 56bd 055c 91b8 1af2 b43c abde ab3c
00000360: e209 7c3c 341b 27bd cdb1 cf3c 69dd a0ba
00000370: b0da 9c3d 610e 1cbc 7854 24bd 2ea4 c33d
00000380: fd3e 9fbd db43 123d 4572 aebb d402 223d
00000390: 8b62 53bd e593 723d 9fb4 e3bc 806d 20bd
000003a0: e633 8bbd b9b1 1a3d d0d2 b0bc 521e 393d
000003b0: 80e7 35bd e8f4 7dba b377 833d f039 7cbb
000003c0: 9c50 c1bc 1d98 ad3b 18c4 e8bd 9dd7 ddbd
000003d0: d22a 59bd be17 343d 774c 1939 d928 793d
000003e0: beba 5e3d 71c9 98bd b9a1 e3bd 7e8f acbc
000003f0: 9eb4 e1bc 515f 7d3c 742b 7cbd c2d2 c5bc

network.4.bias f4 [64]
0.059942707 0.051018365 0.06728108 -0.05788296 0.014536586 -0.07530976 0.0631395 0.08125207
0.037487894 0.08673983 -0.020515129 0.07512731 0.08364842 0.061588347 0.060803354 0.026536264
0.046088945 0.023950718 0.0012638724 0.022989864 -0.04635868 0.04459285 -0.043327123 -0.0024457218
-0.019928318 -0.04528832 -0.0064736237 0.038542174 -0.055510115 -0.06604986 0.02801731 -0.0088605555
0.0683867 -0.034749966 0.037113156 -0.028470136 -0.033543084 0.072655976 -0.023528297 0.053765856
-0.07687315 0.057656106 0.03856598 0.0541429 0.03306975 0.0062784767 -0.008749545 0.08478192
-0.0027945968 -0.023881674 -0.0064271884 0.03525505 -0.016974468 -0.0832463 0.06340528 0.018700946
0.050745033 -0.075112954 0.033396646 -0.06515319 -0.072480336 -0.041071232 -0.061660323 0.055441782
00000000: 7c86 753d a2f8 503d aaca 893d af16 6dbd
00000010: dc2a 6e3c 013c 9abd 484f 813d 7c67 a63d
00000020: e88c 193d a7a4 b13d 580f a8bc 59dc 993d
00000030: dd4f ab3d 1044 7c3d f00c 793d 9462 d93c
00000040: c3c7 3c3d 4c34 c43c 85a8 a53a 3d55 bc3c
00000050: 99e2 3dbd fea6 363d c877 31bd 6748 20bb
00000060: b640 a3bc 3f80 39bd b120 d4bb 66de 1d3d
00000070: 935e 63bd 2645 87bd 8f84 e53c dd2b 11bc
00000080: 530e 8c3d fb55 0ebd f703 183d 343a e9bc
00000090: 7964 09bd a8cc 943d 6abe c0bc 9639 5c3d
000000a0: ac6f 9dbd cf28 6c3d 5cf7 1d3d f2c4 5d3d
000000b0: 2574 073d aebb cd3b 405a 0fbc 25a2 ad3d
000000c0: 8e25 37bb 80a3 c3bc 2a9b d2bb 9967 103d
000000d0: 0a0e 8bbc 097d aabd a1da 813d ba32 993c
000000e0: 06da 4f3d d2d4 99bd ecca 083d 096f 85bd
000000f0: 9270 94bd 4f3a 28bd 898f 7cbd ec16 633d

network.5.weight f4 [64]
0.9907569 0.95197546 1.0626768 1.0032564 1.0351503 1.0227193 1.1078659 0.9822938
0.9720564 0.95051885 0.91049975 0.95430315 1.0456777 0.96391064 0.9050567 0.9909583
1.0764645 1.0030223 1.0247424 1.0661325 1.0203916 0.92745847 0.9215435 1.0204415
1.0495007 1.1270478 1.0422642 0.97874695 1.0570796 0.98429793 0.92666376 1.0442203
1.0261472 0.9562277 1.0488459 0.97617215 1.0106856 1.0276898 0.9559311 0.99682367
0.9523525 1.0395038 0.94423056 1.0666668 0.9830261 0.975878 1.0085437 0.9703757
1.0061005 0.95786715 1.1135435 0.9456571 1.0150646 1.0344484 1.0207322 1.0363867
1.1111792 0.96980673 1.0517358 0.9755583 1.0269793 1.0716003 0.97854984 1.0536015
00000000: 3fa2 7d3f aab4 733f cb05 883f b56a 803f
00000010: ce7f 843f 77e8 823f 8dce 8d3f 9b77 7b3f
00000020: b0d8 783f 3455 733f 8316 693f 364d 743f
00000030: c4d8 853f d9c2 763f ccb1 673f 71af 7d3f
00000040: 97c9 893f 0963 803f c22a 833f 0877 883f
00000050: 319c 823f eb6d 6d3f 46ea 6b3f d49d 823f
00000060: 0a56 863f 1a43 903f ea68 853f 298f 7a3f
00000070: 624e 873f f3fa 7b3f d639 6d3f 03a9 853f
00000080: cb58 833f 57cb 743f 9540 863f 6be6 793f
00000090: 255e 813f 578b 833f e7b7 743f d62f 7f3f
000000a0: 60cd 733f 760e 853f 18b9 713f 8a88 883f
000000b0: 99a7 7b3f 24d3 793f f617 813f 8b6a 783f
000000c0: e7c7 803f c836 753f 9888 8e3f 9516 723f
000000d0: a3ed 813f ce68 843f 5aa7 823f 52a8 843f
000000e0: 1f3b 8e3f 4145 783f 479f 863f 30be 793f
000000f0: 0f74 833f 332a 893f 3e82 7a3f 6adc 863f

network.5.bias f4 [64]
-0.06292273 -0.0971804 -0.02641388 0.0521478 0.03888097 0.019083323 0.100394234 0.03467645
-0.09399881 -0.0028684277 -0.1138942 -0.053626817 0.061303128 -0.08148702 -0.11836997 0.04905912
-0.029163178 0.056734547 -0.108810455 0.059549965 -0.04086566 -0.036506712 -0.07698014 0.065961614
0.009861901 0.01809963 0.048133172 0.036076587 0.051532544 0.0070813685 -0.12629858 0.06906878
0.009712574 -0.13198858 -0.10446237 0.03763353 0.0608972 0.054830298 -0.1034576 -0.09604818
-0.12301397 0.06394733 -0.10897192 0.10988754 0.013570831 -0.14766088 -0.003329253 -0.12682663
0.05959039 -0.11268818 0.0773744 -0.030766074 -0.009872838 0.064306855 0.021004628 0.09869038
0.085133605 -0.111934796 0.030450784 -0.092577085 -0.11154503 0.09644266 -0.13915822 0.06926209
00000000: a2dd 80bd 8406 c7bd ec61 d8bc ee98 553d
00000010: a741 1f3d a154 9c3c 7e9b cd3d e508 0e3d
00000020: 7382 c0bd 3bfc 3bbb 5d41 e9bd cba7 5bbd
00000030: fd18 7b3d abe2 a6bd f46b f2bd 37f2 483d
00000040: 9ee7 eebc 7c62 683d 04d8 debd aaea 733d
00000050: c062 27bd 1088 15bd c3a7 9dbd e216 873d
00000060: d093 213c ad45 943c 4a27 453d 0bc5 133d
00000070: ca13 533d d30a e83b 6a54 01be ef73 8d3d
00000080: 7d21 1f3c 0428 07be 5ef0 d5bd 9e25 1a3d
00000090: 586f 793d bc95 603d 94e1 d3bd e8b4 c4bd
000000a0: c0ee fbbd d1f6 823d ac2c dfbd b80c e13d
000000b0: 3158 5e3c 6a34 17be 992f 5abb d7de 01be
000000c0: 0e15 743d 0fc9 e6bd 7876 9e3d 2209 fcbc
000000d0: afc1 21bc 50b3 833d e611 ac3c 2f1e ca3d
000000e0: 875a ae3d 123e e5bd ec73 f93c 0e99 bdbd
000000f0: b871 e4bd bb83 c53d 7e7f 0ebe 48d9 8d3d

network.5.running_mean f4 [64]
-0.069388665 -0.490345 -0.14646323 0.24116415 -0.013875428 -0.4218731 0.13829337 -0.10095561
-0.47646147 -0.30915934 -0.5007369 -0.5796015 0.23768103 -0.66291356 -0.208133 -0.30298084
-0.02958096 -0.28084534 -0.057895977 -0.19104159 -0.5972639 -0.14575566 -0.40645579 -0.009631605
-0.2149946 -0.26483613 -0.38484526 -0.0624747 0.21693034 -0.43605703 -0.36947605 0.10761293
-0.10029978 -0.4644248 0.17550434 -0.45321515 -0.5368739 0.700926 -0.94125485 -0.432586
-0.5073232 -0.3031433 -0.8307258 -0.49270388 -0.4357791 -0.6449218 0.036712892 0.121904165
-0.5881197 -1.4284202 -0.7811785 -0.3881649 -0.0997547 -0.40518397 -0.39838558 -0.57863474
-0.5757007 -0.92792964 0.22721308 -0.42502576 -0.02690196 -0.30550706 -0.37600312 0.09063214
00000000: a51b 8ebd 800e fbbe 75fa 15be bcf3 763e
00000010: c355 63bc c0ff d7be c79c 0d3e d1c1 cebd
00000020: c2f2 f3be 224a 9ebe 4b30 00bf c460 14bf
00000030: a862 733e b4b4 29bf d120 55be 4e20 9bbe
00000040: c553 f2bc f6ca 8fbe 5524 6dbd 68a0 43be
00000050: 49e6 18bf f940 15be f91a d0be e1cd 1dbc
00000060: 8b27 5cbe 9a98 87be 700a c5be 79e5 7fbd
00000070: fd22 5e3e de42 dfbe f72b bdbe 2b64 dc3d
00000080: f969 cdbd 16c9 edbe 69b7 333e d10b e8be
00000090: 9170 09bf e36f 333f 14f6 70bf ea7b ddbe
000000a0: efdf 01bf 9935 9bbe 72aa 54bf af43 fcbe
000000b0: 701e dfbe 9819 25bf 4260 163d e4a8 f93d
000000c0: 038f 16bf 79d6 b6bf 50fb 47bf 8dbd c6be
000000d0: 314c ccbd 4674 cfbe 32f9 cbbe 6821 14bf
000000e0: 1f61 13bf cc8c 6dbf 8caa 683e fa9c d9be
000000f0: 8061 dcbc 6c6b 9cbe 7b83 c0be 589d b93d

network.5.running_var f4 [64]
0.7107635 0.4196807 0.48028922 1.1394403 1.0193763 0.6316327 0.8183108 0.4162352
0.70654 0.4789523 0.641798 0.6336993 0.9432018 0.4126683 0.805858 0.49163005
0.66550994 0.39179343 0.7827718 0.4006208 0.70782876 0.42415887 0.6587519 0.42559808
0.92491746 0.8965125 0.6955033 0.32379246 0.8683662 0.6621354 0.6067596 0.9282518
0.58587724 0.62513137 0.75518054 0.45763406 0.57983226 0.96660537 0.45710015 0.6738105
0.49977148 0.4817635 0.8969569 0.5918563 0.5680533 0.37837526 0.97192216 0.7722184
0.5224957 0.74208784 0.6033118 0.71252054 0.44737378 0.49269953 0.5948734 0.67781824
0.6209987 0.6515809 1.0883331 0.9618043 0.9160382 0.848704 0.82650614 1.1610448
00000000: 99f4 353f 64e0 d63e 78e8 f53e 2ed9 913f
00000010: ec7a 823f aeb2 213f d17c 513f c81c d53e
00000020: cedf 343f 3c39 f53e e04c 243f 1e3a 223f
00000030: ac75 713f 4249 d33e b64c 4e3f efb6 fb3e
00000040: dc5e 2a3f 2699 c83e bc63 483f 2b1e cd3e
00000050: 4434 353f 5a2b d93e f7a3 283f fee7 d93e
00000060: 64c7 6c3f d881 653f 810c 323f 20c8 a53e
00000070: 3f4d 5e3f b581 293f 9954 1b3f e9a1 6d3f
00000080: 0dfc 153f 9c08 203f 8353 413f 034f ea3e
00000090: e36f 143f 7373 773f 0809 ea3e d87e 2c3f
000000a0: 0ce2 ff3e b5a9 f63e f89e 653f e583 173f
000000b0: f16b 113f 67ba c13e e4cf 783f 1bb0 453f
000000c0: 47c2 053f 78f9 3d3f a472 1a3f bf67 363f
000000d0: 2d0e e53e 1d43 fc3e a049 183f 7f85 2d3f
000000e0: c5f9 1e3f 02ce 263f 804e 8b3f ce38 763f
000000f0: 7b81 6a3f aa44 593f e895 533f 1e9d 943f

network.8.weight f4 [32, 64]
-0.15454271 0.015290828 -0.051729657 0.10693891 -0.059202652 -0.041510064 0.07575864 -0.015480215
-0.11996291 0.011069762 -0.051272616 0.1113589 0.15259904 0.078992486 -0.027805362 -0.100346595
-0.15017018 -0.01920717 -0.14896666 0.05414431 -0.10108974 -0.07431036 0.056693185 0.09767612
-0.038098037 -0.046864 -0.0327312 0.01919708 0.004392652 -0.053669784 0.010848438 -0.037386183
-0.057161223 0.037271857 -0.047925692 -0.07005156 -0.04004908 -0.027541477 0.038955312 0.0028589575
-0.120074846 -0.13778745 -0.0644874 0.12851512 0.09896104 -0.05402773 -0.025009377 -0.11721144
0.18628319 -0.08958324 -0.05792101 -0.020411644 0.13672827 -0.080245905 -0.06476284 -0.042939946
-0.013663618 -0.0025827186 -0.04842573 -0.086998075 -0.026978195 -0.021118358 -0.12243432 0.017023178
0.03320091 0.055790514 -0.03858818 -0.027338007 -0.07804546 -0.07215443 0.112343006 0.05458118
0.037264165 -0.05944344 -0.0264363 0.09730129 -0.08813263 0.09563609 -0.009442642 0.043598376
0.13221084 -0.08947768 -0.051870186 -0.005728646 0.04179332 -0.16539812 -0.05373162 -0.13506572
0.07773935 0.037347678 -0.05534278 -0.10904813 -0.027606238 -0.05253091 0.032146405 0.09645469
0.11512214 0.011522568 0.107351564 0.030873356 -0.033247076 0.041812766 0.05291806 -0.037389226
0.10091716 -0.17557459 0.05272753 -0.21688716 -0.031643473 -0.0425807 -0.113544755 -0.008388801
-0.012062216 -0.008027384 -0.00408352 0.025545768 -0.053171244 -0.047908306 -0.20261763 -0.16898447
0.11219386 0.08984901 0.03501899 -0.0046809115 0.08336295 -0.22498716 0.044392172 0.13249588
0.075381815 0.10049998 0.039614197 -0.104773216 0.007704359 -0.019024782 -0.07901969 0.0513141
0.113896504 0.036986265 0.07878339 -0.004846406 -0.036496695 -0.0064085405 -0.042761195 -0.103087604
0.10090755 -0.105042696 0.17907001 -0.077362366 0.07340634 0.02828241 -0.01109024 0.044141263
-0.14005494 0.049303964 -0.06446842 -0.09149007 -0.07289947 -0.12648927 -0.0011695293 0.075990655
-0.04424022 -0.018173095 0.1579763 -0.05237974 -0.003440138 0.13594866 0.07641857 0.121279374
0.06534926 -0.045436755 0.11967361 -0.08083111 0.015391092 0.040764317 -0.017022794 0.095959134
0.043528005 0.045678858 0.042490337 0.06977257 -0.015257876 -0.15893024 -0.018409848 -0.014295841
0.11381602 -0.0013030532 0.00861653 0.14105399 0.10045104 -0.16115664 0.14634353 0.12136606
-0.09002742 0.07477609 -0.08682966 -0.12260509 -0.13470317 -0.03000884 -0.10213821 -0.10470513
0.052209213 -0.068810575 -0.06889936 0.044877026 -0.19239186 0.090383545 0.020216212 -0.03761994
0.043723006 0.029680641 -0.039181944 -0.0445754 -0.0950918 -0.043793444 0.010801536 -0.045583177
0.053429324 0.18412331 -0.060148086 -0.066539325 -0.19973843 0.050172504 0.025862677 -0.023067398
-0.18418726 -0.012242139 0.048307136 -0.024844617 0.008277528 -0.1679382 0.04904414 0.0925769
0.038277224 -0.12217167 0.01415484 -0.09747858 -0.11211358 0.08343323 -0.026752744 0.07241379
0.039467555 0.085485525 0.007233184 0.06385367 0.11213127 -0.15395519 -0.15212551 0.0806306
-0.04197474 0.06182246 -0.041822396 -0.053407963 -0.038052622 0.038040064 -0.024572836 -0.023331502
00000000: 7240 1ebe 6286 7a3c 7ae2 53bd ca02 db3d
00000010: 7b7e 72bd 7506 2abd 5927 9b3d baa0 7dbc
00000020: 1daf f5bd f25d 353c 3c03 52bd 2310 e43d
00000030: ec42 1c3e d0c6 a13d 12c8 e3bc 8482 cdbd
00000040: 36c6 19be 5b58 9dbc b78a 18be 6dc6 5d3d
00000050: 2308 cfbd 0830 98bd 1d37 683d 6b0a c83d
00000060: b00c 1cbd 77f4 3fbd 2711 06bd 3243 9d3c
00000070: 3cf0 8f3b d9d4 5bbd a6bd 313c 4122 19bd
00000080: e321 6abd 60aa 183d bb4d 44bd 3177 8fbd
00000090: 810a 24bd aa9e e1bc 9b8f 1f3d 595d 3b3b
000000a0: cde9 f5bd 2718 0dbe f811 84bd 7899 033e
000000b0: 16ac ca3d 2e4c 5dbd 77e0 ccbc 8d0c f0bd
000000c0: 05c1 3e3e 6b77 b7bd 953e 6dbd 5236 a7bc
000000d0: 7f02 0c3e f757 a4bd 61a2 84bd cce1 2fbd
000000e0: 5edd 5fbc d442 29bb 0f5a 46bd 0c2c b2bd
000000f0: 6001 ddbc 6800 adbc d8be fabd 3174 8b3c
00000100: adfd 073d 9884 643d a40e 1ebd f5f3 dfbc
00000110: 4cd6 9fbd b4c5 93bd 1714 e63d 8490 5f3d
00000120: 4fa2 183d f77a 73bd f090 d8bc e645 c73d
00000130: e17e b4bd dbdc c33d 50b5 1abc 3694 323d
00000140: 4762 073e 1340 b7bd d575 54bd 5eb7 bbbb
00000150: 792f 2b3d 205e 29be b015 5cbd ab4e 0abe
00000160: cf35 9f3d e1f9 183d 1caf 62bd a054 dfbd
00000170: 7a26 e2bc a72a 57bd f3ab 033d 098a c53d
00000180: 28c5 eb3d 27c9 3c3c 23db db3d 1fea fc3c
00000190: 162e 08bd dd43 2b3d 9cc0 583d 7225 19bd
000001a0: a8ad ce3d d3c9 33be d3f8 573d ab17 5ebe
000001b0: 969c 01bd 1a69 2ebd 278a e8bd 2e71 09bc
000001c0: 9aa0 45bc 4a85 03bc 0ccf 85bb 5c45 d13c
000001d0: 17ca 59bd 803b 44bd ff7a 4fbe 440a 2dbe
000001e0: e5c5 e53d c202 b83d 1370 0f3d 5562 99bb
000001f0: 32ba aa3d 0963 66be 91d4 353d 00ad 073e
00000200: c861 9a3d efd2 cd3d 7f42 223d 5793 d6bd
00000210: d974 fc3b dcd9 9bbc 13d5 a1bd bc2e 523d
00000220: 9242 e93d e97e 173d 3059 a13d 9ace 9ebb
00000230: 8f7d 15bd bcfe d1bb 5d26 2fbd 981f d3bd
00000240: 9ea8 ce3d a020 d7bd 215e 373e 2970 9ebd
00000250: 1056 963d 83b0 e73c d7b3 35bc 78cd 343d
00000260: 906a 0fbe f4f2 493d 0508 84bd 255f bbbd
00000270: 514c 95bd 6786 01be e44a 99ba fda0 9b3d
00000280: 3c35 35bd bedf 94bc 8ac4 213e 238c 56bd
00000290: f073 61bb 2036 0b3e 5781 9c3d 5261 f83d
000002a0: d5d5 853d e41b 3abd 7017 f53d c88a a5bd
000002b0: eb2a 7c3c 7cf8 263d 6373 8bbc 3986 c43d
000002c0: 6c4a 323d c119 3b3d 590a 2e3d ece4 8e3d
000002d0: 2cfc 79bc 9cbe 22be 40d0 96bc 1a39 6abc
000002e0: 6018 e93d 36cb aaba 592c 0d3c 7570 103e
000002f0: 46b9 cd3d 3f06 25be 14db 153e c58e f83d
00000300: 4c60 b8bd 3524 993d c0d3 b1bd 6118 fbbd
00000310: a1ef 09be 19d5 f5bc d62d d1bd a56f d6bd
00000320: 54d9 553d 8fec 8cbd 1c1b 8dbd f9d0 373d
00000330: 5f02 45be 021b b93d 789c a53c 5e17 1abd
00000340: e516 333d d124 f33c 3f7d 20bd b294 36bd
00000350: 7dbf c2bd c160 33bd edf8 303c 6db5 3abd
00000360: b5d8 5a3d d28a 3c3e d75d 76bd c545 88bd
00000370: 3b88 4cbe af81 4d3d f7dd d33c d7f7 bcbc
00000380: 969b 3cbe 4193 48bc b4dd 453d f086 cbbc
00000390: 789e 073c fef7 2bbe 82e2 483d f598 bd3d
000003a0: 94c8 1c3d 2435 fabd b4e9 673c daa2 c7bd
000003b0: ce9b e5bd 0bdf aa3d 9228 dbbc ae4d 943d
000003c0: bba8 213d 0913 af3d 5804 ed3b b7c5 823d
000003d0: 14a5 e53d 6ea6 1dbe cac6 1bbe a821 a53d
000003e0: b4ed 2bbd 8c39 7d3d f64d 2bbd 4fc2 5abd
000003f0: 11dd 1bbd e6cf 1b3d f94c c9bc b521 bfbc

network.8.bias f4 [32]
-0.0506935 -0.07940167 0.119674586 -0.09922867 0.022426672 -0.07518422 -0.0628591 0.118381485
0.11224362 -0.06507838 0.060279675 -0.10054944 -0.05786088 0.023118421 0.071701325 0.060744822
0.015272109 -0.029612314 0.018394072 -0.06419242 -0.075625665 -0.093454115 0.08749876 0.027864618
0.08341189 -0.04681421 0.029976824 -0.11537539 -0.11601335 -0.07598136 -0.084588796 -0.04355394
00000000: fda3 4fbd 589d a2bd f317 f53d 6738 cbbd
00000010: 24b8 b73c 2ffa 99bd 46bc 80bd fe71 f23d
00000020: fcdf e53d d047 85bd d2e7 763d ddec cdbd
00000030: 88ff 6cbd d862 bd3c 25d8 923d 90cf 783d
00000040: de37 7a3c 8695 f2bc 2aaf 963c 5177 83bd
00000050: a1e1 9abd df64 bfbd 8d32 b33d 5744 e43c
00000060: dad3 aa3d 42c0 3fbd f591 f53c ef49 ecbd
00000070: 6898 edbd 1e9c 9bbd e43c adbd 9e65 32bd

network.9.weight f4 [32]
1.0605344 0.84130555 0.9484226 0.9506788 1.1609454 0.8822947 1.0784905 1.0250976
0.97109246 1.0075654 0.95839685 1.1089106 0.9707244 0.9745974 1.086999 1.0689751
1.1621538 0.9629571 0.9733134 1.0115317 0.978687 1.0186751 0.9547559 1.0286603
0.9718458 1.049838 0.9471693 1.059291 1.0311886 1.0288938 0.9603456 1.019838
00000000: 97bf 873f cd5f 573f d3cb 723f b05f 733f
00000010: dc99 943f 11de 613f fa0b 8a3f 6636 833f
00000020: 8499 783f e7f7 803f 7f59 753f c8f0 8d3f
00000030: 6581 783f 377f 793f c922 8b3f 2dd4 883f
00000040: 75c1 943f 5b84 763f 112b 793f df79 813f
00000050: 3b8b 7a3f f263 823f e26a 743f 24ab 833f
00000060: e3ca 783f 1761 863f b079 723f d996 873f
00000070: fdfd 833f cbb2 833f 36d9 753f 0d8a 823f

network.9.bias f4 [32]
0.05825082 -0.18154377 -0.16606034 -0.24577042 0.046823602 -0.22151633 0.07969464 0.057204437
-0.12316707 0.03967107 -0.17215584 0.13560615 -0.21447223 0.0045674425 0.024986856 0.10587198
0.019462654 -0.26628423 -0.15083772 0.10321661 -0.18383147 0.117038056 -0.18303047 0.02966368
-0.21001509 0.101949446 -0.08022193 0.06429683 0.06742883 0.066270374 -0.05511895 -0.0031726826
00000000: 6998 6e3d 9ce6 39be b90b 2abe 3eab 7bbe
00000010: 1bca 3f3d 2dd5 62be f236 a33d 334f 6a3d
00000020: 043f fcbd 227e 223d 9f49 30be 57dc 0a3e
00000030: 9c9e 5bbe 7caa 953b 3cb1 cc3c 69d3 d83d
00000040: 2570 9f3c 6856 88be 3475 1abe 3b63 d33d
00000050: 513e 3cbe a6b1 ef3d 576c 3bbe 3f01 f33c
00000060: 320e 57be dfca d03d 654b a4bd 0eae 833d
00000070: 2018 8a3d c3b8 873d 68c4 61bd c8ec 4fbb

network.9.running_mean f4 [32]
-0.48142985 -0.35983133 0.39265624 -0.72760254 0.18816361 -1.0146017 -0.49101752 -0.16282216
-0.433384 -0.45258126 -0.77198064 -0.41304606 -0.94584423 -0.04377695 0.37607238 -0.17370215
0.41699356 -0.6641571 -0.22041291 0.3422984 -0.018890843 -0.5749961 -0.3581983 -0.053138003
-0.021050936 -0.52798456 0.37523872 -0.53871304 -0.19169514 -0.4660101 -0.18794641 -0.34324342
00000000: f97d f6be d03b b8be 3d0a c93e 2944 3abf
00000010: f6ad 403e 78de 81bf a666 fbbe daba 26be
00000020: 82e4 ddbe bbb8 e7be 86a0 45bf c67a d3be
00000030: d922 72bf 764f 33bd 8f8c c03e fade 31be
00000040: 2e80 d53e 3306 2abf ecb3 61be bc41 af3e
00000050: f8c0 9abc f232 13bf c465 b7be 3ca7 59bd
00000060: 0373 acbc ff29 07bf 4a1f c03e 19e9 09bf
00000070: bb4b 44be e098 eebe 0675 40be 9abd afbe

network.9.running_var f4 [32]
0.48460805 0.73569477 1.0043188 0.8579503 0.33727464 0.77379376 0.6272279 0.6340555
0.85985994 0.9830506 0.962026 0.5289662 0.6585885 1.4729714 1.4061247 0.60898954
0.7769744 0.8636315 0.6244419 0.53434455 1.0273864 0.628084 0.62627554 0.60991144
0.5834116 0.78799653 1.2079751 0.8704059 0.6597175 0.7611202 0.33833382 0.48077446
00000000: 8c1e f83e 7e56 3c3f 858d 803f a2a2 5b3f
00000010: 43af ac3e 5917 463f 0292 203f 7651 223f
00000020: c81f 5c3f 34a9 7b3f 5647 763f 546a 073f
00000030: 4299 283f 548a bc3f e5fb b33f bde6 1b3f
00000040: cbe7 463f f416 5d3f 6ddb 1f3f ceca 083f
00000050: 6681 833f 1dca 203f 9853 203f 2823 1c3f
00000060: 765a 153f 24ba 493f ee9e 9a3f ecd2 5e3f
00000070: 3fe3 283f c6d8 423f 173a ad3e 1228 f63e
