ai-layer/model/results/50000_v3/dnn_eligibility_model.pth (torch, 68417 bytes, 25 tensors)

network.0.weight f4 [128, 16]
00000000: 6d02 1b3f 39b5 d73e 296f a33e f38d 693e
00000010: 6fce 66bd 66ee 8fbc 357a a2bd a0e3 e13d
00000020: fa61 023e 6035 61be 5644 6d3d d5b5 d83d
00000030: d093 793e 5200 ab3d da0c e63d 193a 6fbe
00000040: 0359 e93e d695 613d 12c1 633d c25c aa3d
00000050: fa0a c4bd ab4e cfbe 2ed6 e2be 248b 173e
00000060: f523 e7be a64c 08be 149e ab3c 2c23 a1bc
00000070: 16f2 1d3e a5a4 e5bd 3d95 853e f730 3dbc
00000080: 29c1 be3e 0cac 7b3e 077d f23d 1bcf 803e
00000090: 2652 0b3e 49ea eb3c 6906 18bd 9043 9ebd
000000a0: abfe 963e 1ca3 87bd dd82 eebd e19b b33e
000000b0: 7951 8b3e 033d 45be 29eb 503c 5155 87be
000000c0: 2661 883d 7a84 86be 0632 d5bd 01b7 89be
000000d0: 1b70 babe f644 ba3e 1e65 3d3e 7641 d73c
000000e0: ca58 cd3d 5a2b a7bd 978c bb3e 44e0 c8be
000000f0: 0abe 4bbe e0d4 d9bd d30b bfbc 938d 9e3d
00000100: ce1c 1a3e 105f 13be afbe 643d 7a39 193c
00000110: 3416 0a3c 2ec1 95be 4c6d b23d 9974 8e3e
00000120: d3fb 8f3e 45bd 3abc 233a cfbe 3377 51bf
00000130: 6572 4abf b8b2 4fbd c0c5 01be cf53 aa3d
00000140: 1e72 13be 7eb0 76be 4ba9 393a a5c6 cfbe
00000150: 09b5 1cbe 5bf4 3fbd 13f0 ed3e 6529 96be
00000160: 32a2 94be 85fe babc 3ec5 87bd aff6 82be
00000170: 7a40 30bd 86c6 663e a0ae 7dbe ae58 93bd
00000180: efe7 443e 8532 58be cda8 6fbe d02c cbbe
00000190: f09f 98be f2c5 833e ac70 19be 2a96 753d
000001a0: 8d59 ebbd 72b5 903d d751 40be 8a85 b5be
000001b0: 6610 dfbe 03ad 57bd 7375 8f3e bf3d 8a3e
000001c0: 1ea3 3d3e 1502 c4be bad0 71bd e312 afbd
000001d0: 06d3 163d a260 3fbe 22ab a2bb f366 04be
000001e0: 7322 9a3d 61cd 94bd 84a7 9fbd 0fbb 38bf
000001f0: a54a 39bf 9491 1abd d0c9 87bd 6e5f 2cbe
00000200: d807 623f b586 80bc baf3 3e3e fd00 6b3d
00000210: 51cb 6dbe 092a 60be 031a 01be 02dd a23d
00000220: c125 28be 7be2 95bd 2738 8ebd 4bd3 263e
00000230: 0f35 a13e 4df4 36be d0cf e53d a6cf 1fbd
00000240: 0498 f63e a6d1 c03e 58ae 4d3e 557e 673e
00000250: 8503 813e 74c3 96be 072b 0a3e ef65 00bd
00000260: baa2 103e f833 e3bd 8a3f 543e 43ba 69bd
00000270: b823 853e 5c60 dd3d 2dca 393e 9e2a 7abd
00000280: d8c3 e43e 1594 093e ebe9 fa3d 9386 babd
00000290: e1cd 6f3e b40a 97be 8695 debe d603 733e
000002a0: b965 5f3d c406 edbd 2aaf 443e 8662 bcbd
000002b0: 05e4 733d 08eb 8dbc dba0 2bbc e4d5 70bc
000002c0: ac32 8fbe da16 053e 18cf 293e 12c6 81be
000002d0: cfab 233d 8c1a 033e 0ff6 473e c2b3 91bc
000002e0: 3666 143e 747c 4f3e b06c d23e 2227 c5be
000002f0: 208e d0be 012b 463d d635 0ebe 57d1 9bbd
00000300: bd87 053f 9625 ba3e b0ff 70be 10c7 54bd
00000310: 8b7c fb3b f655 9c3e 5577 9fbe 230a b43d
00000320: 4050 653d 3363 98bd 5e7e a83d b2dd 433e
00000330: 50d1 a63d cee8 39be 2939 f9bd bb03 b4be
00000340: 2202 23be bdfa 13bd d84c fe3c 9aa6 a03e
00000350: 9e7a b9bc 78b0 cfbd f41c 7c3e 88ec 933e
00000360: b9f5 973d 16b5 90bc 3825 413e c90e e8be
00000370: d013 05bf aedd ae3c 2175 2abe 6eb1 90be
00000380: 9196 1cbe 9078 143d cc94 1f3e 3158 633e
00000390: 71d3 31bd 746d 73be 8bdc c4be 563b c339
000003a0: f94d 753c fe41 c73c ab0a c83e 2afb fb3e
000003b0: 0855 da3e 59dc a4be f300 dbbc 7992 48be
000003c0: c88c bf3e af91 99bd 14b3 af3d 8ba5 a4bd
000003d0: 84da 923c ef09 9abe c2d3 fabe e440 5c3d
000003e0: 245a 413d 302f 003e 4d24 0bbc 44ab 4ebe
000003f0: 6016 80bd 8a26 9dbe c269 7b3e e3b4 07be
0.60550576 0.4213045 0.31920746 0.22808056 -0.056349214 -0.017569732 -0.079334654 0.11029744
0.12732688 -0.21993017 0.0579265 0.10581557 0.24372792 0.083496705 0.1123292 -0.23362006
0.45575723 0.055074535 0.055604048 0.083184734 -0.09572406 -0.40489706 -0.4430403 0.14799172
-0.4514462 -0.13310489 0.020949401 -0.019670092 0.1542438 -0.11213044 0.26090422 -0.011547319
0.37256745 0.2457735 0.11840253 0.2515801 0.13605556 0.02879824 -0.03711549 -0.0772773
0.2949117 -0.066229075 -0.11646054 0.35079864 0.27210596 -0.19261555 0.012751379 -0.2643228
0.066591546 -0.26272947 -0.10409932 -0.26897433 -0.36413655 0.36380738 0.18495604 0.026276331
0.10026701 -0.081625655 0.366307 -0.392336 -0.19896713 -0.10636306 -0.023321068 0.07741847
0.1505005 -0.14391732 0.055845913 0.009352082 0.008428145 -0.29248947 0.08712253 0.27823332
0.28121814 -0.011397664 -0.40474042 -0.8182251 -0.790808 -0.05070755 -0.12673092 0.083167665
-0.14399001 -0.24090764 0.00070824166 -0.4058124 -0.15303434 -0.046863895 0.46472225 -0.29328457
-0.29029995 -0.022826442 -0.06629418 -0.2557883 -0.04303024 0.22536668 -0.24773645 -0.07194649
0.192291 -0.21113022 -0.23404236 -0.39682627 -0.29809523 0.25736958 -0.14984387 0.05995766
-0.1149169 0.07065858 -0.1878122 -0.35453445 -0.435672 -0.05265523 0.28019294 0.27000234
0.18519256 -0.38282838 -0.059036948 -0.08548524 0.03682234 -0.18689206 -0.0049642483 -0.12929897
0.07526102 -0.072657354 -0.07795623 -0.7216043 -0.72379524 -0.03773649 -0.066302896 -0.16833279
0.8829322 -0.015689233 0.18647662 0.05737399 -0.2322209 -0.21891035 -0.12607579 0.0795231
-0.16420652 -0.07318588 -0.06944304 0.1629154 0.31485793 -0.17866631 0.11221278 -0.03901639
0.48162854 0.3765995 0.20086038 0.22606786 0.25197998 -0.29445994 0.13492976 -0.03134721
0.14124575 -0.110938966 0.20727363 -0.0570624 0.26003814 0.10809395 0.1814353 -0.0610758
0.44680667 0.13435395 0.122516476 -0.09107699 0.2341838 -0.29500353 -0.43473452 0.23731932
0.05454037 -0.11573556 0.19207445 -0.09198479 0.05954363 -0.017323986 -0.010475363 -0.014699433
-0.27968347 0.12996998 0.16582906 -0.25346428 0.03995877 0.12803096 0.19527458 -0.01778591
0.14492115 0.20262319 0.41098547 -0.38506418 -0.40733433 0.048380855 -0.13887724 -0.07608288
0.52160245 0.363568 -0.23535037 -0.051947653 0.007674759 0.30534333 -0.3114573 0.08790996
0.055984735 -0.07440796 0.08227228 0.19127539 0.08145392 -0.18155214 -0.121691056 -0.35159096
-0.15918782 -0.036127795 0.031042501 0.31377107 -0.022641476 -0.101410806 0.2462042 0.28891397
0.07419915 -0.017664474 0.18861854 -0.4532378 -0.51983356 0.02134594 -0.16646244 -0.28260368
-0.15291812 0.03624779 0.15584105 0.22201611 -0.043414537 -0.23772222 -0.3844951 0.00037237507
0.014972203 0.02432346 0.3907064 0.4921506 0.42643 -0.32199362 -0.026733851 -0.19587125
0.37412095 -0.0749849 0.08579078 -0.08039387 0.017926462 -0.30085704 -0.48989683 0.053772822
0.047205105 0.12518 -0.0084925415 -0.2018252 -0.06254268 -0.30693465 0.24552062 -0.13252597

network.0.bias f4 [128]
00000000: ec6b fd3d c5ec 4d3d e405 3fbd 1171 d83d
00000010: 777e b93d 958c 65be f9fc 13be a614 233c
00000020: fbbe c53d 0460 f63d d0dc 18be 0ef5 7dbe
00000030: de89 80bb e13d 00bd e629 933d 9531 8dbd
00000040: f992 363e 9848 853c e6b1 363e 0396 33be
00000050: b984 ce3d 911e 0c3d 2e69 05be 105c 053e
00000060: 346a 6dbe a140 4c3e 43c2 863c ea47 073d
00000070: 75b4 e83d 3fd4 783c 2bd7 d73d 754c 163e
00000080: 03e7 3bbe a3b8 1f3e c79c ebbc ae09 7cbd
00000090: 9eaa 4f3d d9a7 463e 2759 0bbe 12f8 2ebe
000000a0: 322a 1c3e 89e3 f5bd 92b1 af3d 2d2a 1cbd
000000b0: 4826 883d 2bc2 423e 38f6 00be 702e ffbd
000000c0: d2e9 f93d d50e 963c 8a8f fcbc 71d5 68be
000000d0: a057 5a3e 73c3 59bc 857c 76bd 0046 cfbd
000000e0: 8740 84bd 37d5 f53d 2a0d 74bb 0dff 633e
000000f0: 1430 44bc 04ab 0fbd 5f75 083e 1a04 15bb
00000100: adcf e6bc dfbe be3d 8dfa 493e 04ca 7f3d
00000110: 3deb 3f3e 53d0 2b3e 2a65 8a3d d7cf b83d
00000120: 106b a43d 8b8e f23c 144e 5b3e 44ea 683e
00000130: 052c be3d 3834 38bc ae23 663e 224d 40be
00000140: 3884 2a3e 907d 253e fed3 273e dc69 8ebc
00000150: f60f 3ebe b1af 373e e6af e9bd 0960 833d
00000160: cb02 123e 4180 73be d656 083c 3469 b9bd
00000170: 16ef 3d3e be23 23be ca2f 183e 4606 213e
00000180: d4d5 0a3e 444d 7f3e f9e8 083d 56ba 6fbe
00000190: 7349 383e 12fb ee3c 1cd2 bb3b e0a0 75be
000001a0: d379 58bd bf73 fcbd e983 793e 73e3 313e
000001b0: d964 3c3e 61e5 2d3e 8e86 20be 6474 d7bd
000001c0: 0c5a cbbd 0064 c6bd 5e1d 4b3e 66c1 b63d
000001d0: 1e6f 4c3e c344 99bb f70b 62be d2db a0bd
000001e0: d559 353e 4abb 1f3e 08b0 a53d c369 8dbd
000001f0: 6f05 6ebe 5cdc 02be a530 fd3d 5bd9 d1bd
0.123741 0.05027463 -0.046636477 0.10568441 0.090573244 -0.22416909 -0.1445197 0.009953653
0.09655567 0.12030032 -0.14927983 -0.24800512 -0.003922685 -0.031309012 0.07185726 -0.06894223
0.17829503 0.016269967 0.178413 -0.17537694 0.100839086 0.034208838 -0.13028404 0.130234
-0.23185045 0.19946529 0.016450053 0.033027567 0.113625444 0.015187322 0.10539087 0.14677604
-0.18349843 0.15597777 -0.02876128 -0.06153267 0.050699823 0.19399966 -0.13608228 -0.17086819
0.15250471 -0.120062895 0.08578791 -0.03812616 0.066479266 0.19019382 -0.12593925 -0.12460029
0.12202801 0.01831762 -0.030830164 -0.22737671 0.21322489 -0.013291228 -0.060177345 -0.10120773
-0.0645762 0.12003558 -0.0037239292 0.22265263 -0.011974353 -0.035075203 0.13326024 -0.002273804
-0.0281752 0.093137495 0.19724484 0.062448516 0.1874208 0.16778688 0.06757577 0.09024017
0.08028233 0.029608985 0.21416503 0.22745615 0.0928574 -0.011242919 0.22474548 -0.18779424
0.16652 0.1616118 0.16389462 -0.017384462 -0.18560776 0.17938115 -0.11410503 0.064148016
0.14258878 -0.23779394 0.008321485 -0.09053269 0.18548235 -0.15931603 0.1486198 0.1572505
0.13558131 0.24931818 0.033425305 -0.23410925 0.17996769 0.029172454 0.005731834 -0.2398715
-0.052850556 -0.12326764 0.24366726 0.17371921 0.18397845 0.16982032 -0.15676329 -0.105202466
-0.099292845 -0.09687042 0.19835421 0.089236066 0.19964263 -0.0046773865 -0.22074877 -0.078544274
0.1771005 0.15598789 0.08090216 -0.06904938 -0.2324426 -0.12779373 0.12362794 -0.102465354

network.1.weight f4 [128]
00000000: 20fd 783f 3d11 853f 1d73 693f 57fc 813f
00000010: 3a5b 5f3f a88a 7d3f d18e 853f cd6e 863f
00000020: 3b56 863f ee9c 763f c24b 8d3f e598 8b3f
00000030: b088 833f f1a1 993f 6065 563f b744 863f
00000040: 3c9d 813f 5b09 6a3f a20c 823f c248 7f3f
00000050: 40f1 573f 38d8 7c3f 41f4 593f 37c5 863f
00000060: ce4f a23f e1fc 743f be85 723f d93f 6f3f
00000070: 4f83 043f 473e 703f 40d8 4d3f f408 943f
00000080: 0323 813f 90a1 773f f57f 763f 63c7 7e3f
00000090: 9bc2 503f e167 843f 7ef4 7c3f fd22 813f
000000a0: 53f7 723f 76ca 943f a74c 8f3f 4240 6d3f
000000b0: e781 5e3f 5b05 753f 1b8a 653f 74fe 773f
000000c0: 1062 873f ef6e 953f 5810 703f 8663 633f
000000d0: a23a 7e3f bb31 7f3f 0b2a 863f 70cd 5f3f
000000e0: 2de5 823f a1dd 953f 5120 723f 30bc 863f
000000f0: 4993 833f 419e 493f 065d 6d3f 842a 733f
00000100: cfb7 853f 5807 883f 9f5e 493f 51bd 763f
00000110: 5279 a13f 7f98 633f 0b69 5d3f 9779 703f
00000120: 5cd5 533f c3c8 743f 1915 803f e2aa 6b3f
00000130: 6c0b 6e3f 3ecb 5b3f f7c7 6a3f d767 803f
00000140: 6071 903f 5134 8d3f d9ee 653f 043b 403f
00000150: 135d 7a3f d0d2 863f e4af 853f 1c99 783f
00000160: 5f4a 6c3f b8b0 4d3f e93d 5f3f 53c7 6c3f
00000170: 7745 903f ef96 5c3f aa03 783f ef7f 723f
00000180: 8911 833f c83c 883f 2d7d 923f 0fec 853f
00000190: e179 7a3f a9d7 4a3f f300 703f 6264 723f
000001a0: 7fd7 873f 1bf7 413f 8f37 823f f925 893f
000001b0: 2e4a 483f a939 6a3f 9d64 933f 6ea3 4c3f
000001c0: 37b1 873f 7e9a 653f 07c2 633f d7d0 623f
000001d0: 261c 6d3f 7512 3b3f 6449 973f 2679 553f
000001e0: 167b 883f 0c56 773f 07bc 7a3f f617 703f
000001f0: 1aec 913f 6ba8 6f3f 72ef 603f 219b 823f
0.9726124 1.0395886 0.91191274 1.0155133 0.87248576 0.990397 1.0434209 1.0502564
1.0495065 0.96333206 1.1038744 1.0906035 1.0276089 1.2002546 0.83748436 1.048972
1.0126109 0.91420525 1.0160105 0.99720395 0.84352493 0.98767424 0.85138327 1.0528935
1.2680604 0.9569836 0.94735324 0.934568 0.5176286 0.9384503 0.80408096 1.1565232
1.008881 0.967309 0.96288997 0.9952299 0.81546944 1.0344201 0.98810565 1.0088803
0.94908637 1.1624286 1.1195267 0.92676175 0.86916965 0.95711297 0.8966386 0.9687264
1.0576801 1.1674479 0.9377494 0.88823736 0.99308217 0.9968526 1.048158 0.8742285
1.0226189 1.1708261 0.9458056 1.052618 1.0279323 0.787571 0.9272007 0.9498675
1.0446719 1.0627241 0.78660005 0.96382624 1.2615149 0.88904566 0.8648841 0.9393553
0.82747436 0.9561884 1.0006438 0.9205762 0.9298618 0.85857 0.9171137 1.003169
1.1284599 1.1031591 0.8981758 0.7509005 0.9779827 1.0533085 1.0444303 0.97108626
0.9230098 0.80347776 0.8720384 0.92491645 1.1271199 0.86167806 0.9688059 0.9472646
1.0239726 1.0643549 1.1444451 1.0462664 0.9784222 0.7923532 0.9375145 0.9468442
1.0612639 0.7576768 1.0173205 1.0714713 0.7823819 0.9149423 1.151508 0.79936874
1.0600957 0.8968886 0.8896794 0.88599914 0.92621076 0.7307504 1.1819272 0.8338798
1.0662563 0.9661567 0.97943157 0.9378656 1.1400177 0.9361636 0.87865365 1.0203592

network.1.bias f4 [128]
00000000: 3a66 b6be 2510 17bf 919f efbe 3c5b b33c
00000010: 7391 32bf ceb7 cdbe 4f9a eebe b44f 1ebf
00000020: b6e5 6bbe 2831 4ebe ca98 0cbf 69da 25be
00000030: 03c8 b2be 897a 3bbe c5a5 a8be 45df 0cbf
00000040: 0023 31be d813 cdbc eccb a9be f83c b2bd
00000050: 5f3d 21be 7e73 bfbe d119 033d 6f74 223d
00000060: 41d7 27be 9426 0fbf 7d86 febd 1bcd acbe
00000070: e028 a1be 32e1 fdbd ddeb 5cbe f673 0bbe
00000080: e436 abbe a504 bbbe 4ade 5dbd 01a3 1dbf
00000090: cbb4 2ebe d4f5 fcbe 13d2 8c3d a436 34bf
000000a0: 0728 0ebe f54e 0cbe 5e05 d4be 1de0 b7be
000000b0: 973b 0abf 7ca8 cbbe 45d9 8ebe 4cfb e2be
000000c0: 36c0 34be 0174 77be c765 febe d970 8fbe
000000d0: 99cc 00be 3154 b6be f89d 87be b570 f6bd
000000e0: a9df 0dbe 709a b63d 11c4 46bf 3328 bdbd
000000f0: e753 82be e83c 8c3d 0055 4abf 86bc b7be
00000100: d4f0 81be 5b75 a4be ab2b 9abe 86be f3be
00000110: 0323 2ebe c1b3 2bbe 3e7f 55bd feba 83be
00000120: 22f5 c7be db18 42be be4f ddbe 8566 a5be
00000130: af0b d03c 9a9a 17bf 1e9f 49be e573 2fbe
00000140: ebf3 86be aad9 78bd 84be febe c42b dfbe
00000150: 346e 3fbe fe60 aebe c9b8 91be cee5 08bf
00000160: be2e c6be 9cb1 bebd de21 95be 2148 b3be
00000170: 83fc ddbe fd48 0cbf cebc 76be 7469 90be
00000180: 20ca 0dbf 0159 0bbf 998f d0be 5afa cebe
00000190: 38a1 cebe ca9c 2bbe 38a7 73be 7c99 18bf
000001a0: e432 57be a222 c5be 3421 8cbe 0c84 04bf
000001b0: d1ed 28bc 31a1 063e 6527 04be bac7 1fbe
000001c0: c029 2bbe 48ed cdbe 2a1d 533c a7fc d1be
000001d0: 18f3 01bf 146f d9be eff0 e1bc f1ea f0be
000001e0: 37a8 f9be cd87 e93d 61d8 cc3c 4b6a 2dbe
000001f0: c149 b0be fbf8 98be 1bac 473b e311 57be
-0.35624868 -0.5900901 -0.46801427 0.02189409 -0.6975319 -0.40179294 -0.46602103 -0.6184037
-0.23036847 -0.20135939 -0.5492064 -0.16196598 -0.34918222 -0.18308462 -0.32938972 -0.5502818
-0.17298508 -0.025033876 -0.33163393 -0.08703035 -0.15746067 -0.373928 0.032007042 0.03966182
-0.16390707 -0.5591824 -0.12427995 -0.33750233 -0.31476498 -0.12396468 -0.2157435 -0.13618454
-0.33440316 -0.3652698 -0.05416707 -0.6157685 -0.17061155 -0.49406302 0.06876006 -0.70395875
-0.13882457 -0.13701995 -0.41410345 -0.35913172 -0.53997177 -0.3977698 -0.27900138 -0.4433235
-0.17651448 -0.24165346 -0.49687025 -0.28015783 -0.12578048 -0.35611108 -0.26487708 -0.12033216
-0.13854851 0.08916175 -0.77642924 -0.09236183 -0.25454637 0.068475544 -0.7903595 -0.3588602
-0.2537905 -0.32120785 -0.3011144 -0.47606295 -0.17005543 -0.1676779 -0.0521233 -0.257286
-0.3905421 -0.18954794 -0.432249 -0.3230478 0.025396196 -0.5922028 -0.19689605 -0.17134054
-0.2635797 -0.060754456 -0.49754727 -0.43588078 -0.18694383 -0.34058374 -0.28461292 -0.53475654
-0.38707536 -0.0931122 -0.291274 -0.35015967 -0.43356714 -0.5479887 -0.24095461 -0.28205454
-0.55386543 -0.54432684 -0.40734556 -0.40425378 -0.40357375 -0.16759029 -0.23794258 -0.596092
-0.21015507 -0.38502985 -0.27369082 -0.5176399 -0.010310606 0.13147427 -0.12905653 -0.15603533
-0.16715145 -0.40220094 0.012885371 -0.4101307 -0.50761557 -0.42467558 -0.027580706 -0.47054246
-0.4876115 0.11402855 0.025005521 -0.16935079 -0.3443127 -0.29877457 0.0030467573 -0.21002917

network.1.running_mean f4 [128]
00000000: 343d a93d d99a 08bc a0ae c0bd 2885 0c3e
00000010: 862c 113e 5ec1 21be 796d 0cbe cd04 8a3d
00000020: 28d1 f23c 5d87 d73d 49f0 4abe 54cc 4ebe
00000030: 8a23 42bd 16c6 093d b68f c6bb 8f7c 05be
00000040: 0fe8 143e 5570 393d e050 563e 8d12 05be
00000050: 2dbd 8f3d 356f 773d 3708 1dbe ec9d fb3d
00000060: a074 6abe c200 293e e021 533b 22b1 a23c
00000070: 62ae 083e bf77 323c fd9b af3d 2d06 213e
00000080: e2eb 75be e064 2c3e 8ed3 a5bd 593a b6bd
00000090: 646c 333d 0c89 6d3e efbd 41be caa5 ddbd
000000a0: b84b 053e 1ef5 12be c7ec 103e 62df a1bd
000000b0: a08d ee3a c40e 723e 7121 acbd 0395 f5bd
000000c0: 38fc eb3d 1da9 d43c af3e 70bd 9430 7fbe
000000d0: e0c7 683e 7954 59bd e89c 88bd 94ef f7bd
000000e0: 35da d8bc f7b0 933d 30de 923d fe4b 353e
000000f0: 9e3c 81bc 406d 65bd 651b 253e 6199 173d
00000100: b7f3 99bd 76ef a93d c905 5a3e 87a3 6e3d
00000110: 6229 763e 9ea6 2a3e 776a f33c 7587 773d
00000120: ec17 f33d cec5 b93d 7fc7 8d3e b8dd 923e
00000130: 663f 7e3d 2604 5ebc 36d5 893e 7397 56be
00000140: 51d8 403e bee0 193e 99b1 1d3e b0cf 023b
00000150: 5f36 14be 42ca 053e 3b77 2bbe 8eb8 a13d
00000160: ecd4 f53d 357e 83be 2f6e 923c 7a44 febd
00000170: 2dab 403e f18e 45be e81e f43d c23c f53d
00000180: b012 1c3e 1642 4b3e 7f3b 623d fe37 66be
00000190: 39e3 5d3e 241f 0e3c ce03 213d f587 79be
000001a0: 58ad cbbd 8e63 0fbe 9245 683e 4fad 753e
000001b0: a4ec 423e f9b0 fd3d 9f7f 1ebe 6059 29be
000001c0: 7b60 99bd 3c61 07be 0dad 263e 6801 9e3d
000001d0: c3f1 323e a152 a4bc 234c 82be 8c92 00be
000001e0: 8829 7e3e 3921 f33d 307c 1a3e a738 cfbd
000001f0: e0c9 34be ba64 e8bd 8a42 003e bb5c c9bd
0.08263627 -0.0083377 -0.09408307 0.1372267 0.1417714 -0.1579642 -0.13713636 0.06739197
0.02964075 0.10523865 -0.19818224 -0.20195132 -0.047397174 0.033636175 -0.006059612 -0.13035797
0.14541648 0.045273144 0.20929289 -0.12995358 0.07018504 0.06040879 -0.15335165 0.122859806
-0.22896051 0.16504195 0.0032216236 0.019859854 0.13347772 0.0108928075 0.08574674 0.15725012
-0.24015763 0.16835356 -0.080969915 -0.08897848 0.04380454 0.2319681 -0.1892011 -0.108226374
0.13017166 -0.14351317 0.14152823 -0.07903935 0.0018200167 0.23638445 -0.08404816 -0.11991312
0.11522716 0.025959546 -0.05865353 -0.24920875 0.22732496 -0.053059075 -0.066705525 -0.12106243
-0.026471237 0.07211488 0.07171285 0.1770477 -0.015775975 -0.056012392 0.16123731 0.037011508
-0.07517188 0.08297627 0.2129127 0.05826142 0.24039224 0.16665122 0.029713852 0.060431916
0.11869797 0.090709314 0.27691266 0.28684783 0.06207218 -0.013550794 0.2692048 -0.20956211
0.18832518 0.15027139 0.1539978 0.0019960217 -0.14473866 0.13065436 -0.16744702 0.07896529
0.12003502 -0.25682226 0.017874805 -0.124154046 0.18815298 -0.19292809 0.119199574 0.11974479
0.15241504 0.19849429 0.05523252 -0.22482297 0.2166871 0.008674417 0.03931027 -0.2436827
-0.09945172 -0.14002821 0.22682789 0.23991893 0.19035584 0.123872705 -0.15478371 -0.16538
-0.07489105 -0.13220686 0.16276951 0.07715112 0.17475037 -0.020058932 -0.25448713 -0.12555903
0.2482053 0.11871571 0.15086436 -0.101182275 -0.17655134 -0.11347337 0.12525383 -0.0983214

network.1.running_var f4 [128]
00000000: aaf0 8e3f 95b2 d03e b733 833f 4ea4 493f
00000010: 0183 7f40 12a7 ca3f 75f9 b03f 284b 5240
00000020: 5b19 4c3f d305 893f 59dc 8c3e 75ca cf3e
00000030: 618e b63e ba09 223f 5c06 de3f efba c93e
00000040: 0867 303f 5001 f13f d906 2f40 c78d 113f
00000050: dad4 c63f 49af 8d3f b7cc 553f b4b4 e33e
00000060: c8fc 953d 36ae 863f fd06 bd3f 661a 453f
00000070: 54a2 853f 2ef0 453f 0c7f c63f d734 d93d
00000080: 5ff9 d13e 08bf bf3e 80c8 653f 5217 d73f
00000090: b91d 933f 83da 1440 592b 423f 4073 9e40
000000a0: 6064 163f f559 0b3f fd61 9840 ef5e a33f
000000b0: 197b 813f ed17 cc3f 0c36 b03f 9dff 393f
000000c0: 7c17 ee3e d629 b23e a940 9e3f 6d21 333f
000000d0: f006 8e3f 8f31 043f c37d 483e d1ce 0040
000000e0: 7685 cd3e 086e 5c3f bd36 bf40 6225 133f
000000f0: 44ee 143f 9b66 9d3f e3eb 2040 64aa 8c3f
00000100: bd4d 093f 6b2f 9a3e e04e b63f e82d a03f
00000110: 9e12 8e3e 6b38 d83e 73c6 1b40 17c5 a73f
00000120: 6c86 373f 6104 a33f a3d0 f23f 645e d53e
00000130: 0bb3 af3f dc5d 3d3f 0e62 923f 29b9 943f
00000140: 95bb c73e 169c db3e 09a2 1a3f e5b3 813f
00000150: 7af0 203f e3d5 863f 45dc 5a3f 39d9 1b40
00000160: 1f13 6e3f f167 ed3e 389d 913f e229 ea3f
00000170: f512 813e 131d e63f 7c9e b93f b7c1 803f
00000180: 3015 bc3f d609 b33e f7c2 893f 3ce4 143e
00000190: 114d 0d3f 9756 503f c1fa 0f3f 10a4 673e
000001a0: 147c 6a3f 0102 213f 3aa1 493f dc32 f93f
000001b0: ce81 553f ec9a 6d3f f6f0 e63e dfb3 a23f
000001c0: 1464 413f f21b 8a3f cda7 c13f 7941 8f3f
000001d0: 6c8f d43f 3418 923f 525c 183f aab0 a03e
000001e0: 4581 5140 c099 4f3f 6395 363f 97ce 1c3f
000001f0: 38f4 2040 82f3 2940 42ce 173f a475 c33e
1.1167195 0.40761247 1.0250157 0.78766334 3.9923708 1.5832236 1.3826128 3.2858372
0.7972619 1.0704902 0.27511862 0.4058415 0.356555 0.6329609 1.7345691 0.39400432
0.68907213 1.8828526 2.734793 0.5685696 1.5533707 1.1069118 0.83515495 0.44473803
0.07323605 1.0521915 1.4767758 0.76993406 1.0440164 0.7731961 1.5507522 0.106057815
0.41010568 0.37450433 0.89759064 1.6803992 1.1493446 2.325837 0.75847393 4.9515686
0.5874691 0.5443414 4.7619615 1.2763346 1.0115691 1.5944802 1.3766494 0.7265566
0.46502292 0.34797543 1.2363483 0.6997288 1.1095867 0.5163812 0.19579224 2.012623
0.40140885 0.86105394 5.975432 0.57478917 0.58176064 1.2296938 2.5143974 1.0989499
0.53634244 0.30114302 1.4242821 1.251401 0.2774858 0.42230543 2.4339874 1.3107022
0.71689487 1.2735711 1.8969921 0.41673577 1.3726515 0.73971343 1.1436174 1.1619006
0.390103 0.42892522 0.60403496 1.0133024 0.6286694 1.0534023 0.85492355 2.4351332
0.92997926 0.46368363 1.1376104 1.8294032 0.25209776 1.7977623 1.450149 1.0059117
1.4693966 0.34968442 1.0762624 0.1454019 0.5519572 0.81382126 0.56241995 0.22621179
0.9159558 0.6289368 0.7876164 1.9468646 0.8340119 0.9281452 0.45105714 1.2711142
0.7554333 1.0789778 1.5129334 1.1191856 1.6606269 1.1413636 0.5951587 0.31384784
3.273515 0.8109398 0.71321696 0.6125273 2.514906 2.6554875 0.592991 0.3817569

network.4.weight f4 [64, 128]
00000000: 8b79 9b3d 23ad 5e3e 9ff0 ab3d a075 c73d
00000010: ca4d aabe 98dd a3bd 2d50 e4bd a2db 17be
00000020: 022e e23d 5348 5c3e f31f 28be 26d5 303e
00000030: afea 23bd 6a9b 37be 4335 0dbb 1433 99bc
00000040: c9ea 083e ea73 f7bc b93f 5cbb cbed ccbe
00000050: 68ba 143e 40cd cc3c da85 7fbd a905 a6be
00000060: 458b 26be 86a7 6cbd 3c01 e3bc 5f95 b8be
00000070: bd6c ebbd 8628 84bd 95fc 923b fe27 253d
00000080: dd8f d73c c849 95bd 70a1 0d3e e862 3b3d
00000090: 1ce7 b1bb d302 453d 8387 05be d8e6 5fbe
000000a0: b057 993d aa49 ebbe 0a09 cbbe 9e47 a43b
000000b0: 3e67 a03e 44db 493b d172 c63d 2afd 723d
000000c0: b385 fdbd 3840 a2bc 544e 8ebe 9bc6 e83d
000000d0: 3c58 763c e715 3cbe cee5 e03d 9acc 03bc
000000e0: b73a 85be ab74 f73b 9d60 dabe e629 e9bd
000000f0: a222 b9be ab82 3e3e 73b8 1dbe 6ab1 5f3d
00000100: d18e 793d 41d3 933d e89e 0abe 5aae 7fbd
00000110: d522 98be ae34 21be 6653 cebc 1908 c53c
00000120: 9594 b33d ceda c1bd f61c a9be bfe5 8f3c
00000130: 2aa8 8ebc 9bc6 c0bd fd14 13be 7d9c 133d
00000140: 38b9 c4be 1a40 90be 6360 b0bd f7df 4ebe
00000150: 156e 9ebe 2463 81be a66f 133e 4d84 70be
00000160: 38f8 73bd 525d eb3d 0fa7 1cbe d9dd ca3d
00000170: 764b 60bc 8d74 423d 6121 4b3e cc80 6a3e
00000180: 48f5 80be 24f6 d53c efc4 25be 9d4f 06bd
00000190: fa64 dabe d660 7f3d 2840 42be 5fa1 52be
000001a0: 1f20 fdbe 7436 2a3c 8d4e b0bd 6feb a7be
000001b0: d27f 553d 1743 66bd 66f9 c9be 1a5a 463e
000001c0: e581 30bd 5d1c a83e aec8 4e3e efc1 b7bd
000001d0: 19a4 ccbe ee8b 31bd 606f 12bc 88fb 933c
000001e0: fcc4 c8be e797 32bd 82ea 06be 75c1 50be
000001f0: d441 e6be 0cd5 aa3d 7f21 0c3d 1080 0cbf
00000200: 3fc5 89bd 53d6 1cbf d0ce 43be aed2 06bd
00000210: ed7b 623e 20a1 9a3e c3be 4f3e bd7e 8c3e
00000220: a615 dbbd e274 4b3e 2401 cabb af18 10be
00000230: 6de0 acbe a481 e93b a9a9 56bd 2cb3 d3bd
00000240: 8292 70be b3d6 03be be1f 0c3e f7b8 aa3e
00000250: 62b1 bdbd de35 ba3d d152 81be b3b3 293e
00000260: fbcf f0be a8c3 89be 94fb 70bd b4ea 81bd
00000270: d8db 493e 3a24 853e 1452 b13e 91c1 a7be
00000280: a684 91be 5d9f 38bd abc1 89be 00f7 ae3d
00000290: d32b 023d da53 093e 4252 79be b807 763d
000002a0: 89d5 b2bd fbf0 98bb ff39 383d cc51 89be
000002b0: 79df 07be 884c 973e 00f6 37be 10a1 84bd
000002c0: 2a19 f63d 4036 b03d 6430 2a3e 853d eabd
000002d0: 6732 223d 91eb 9abe 6a64 0bbd 02ca 9fbd
000002e0: 14f4 ea3d cfb9 e9bd ff42 173e 6814 58be
000002f0: daa2 193e d461 c83d 074d b03e 8220 a13e
00000300: bb17 c3be ea60 b8be 8914 1b3e b260 b2bd
00000310: 519f b13d bc8f dabd f0cb 5dbc f13c 38bd
00000320: 3bd0 6bbe 7444 163e fda5 36be 0029 713d
00000330: 47a9 9fbd 55ff 933d f19c 98bc a565 afbd
00000340: 00f8 7c3d 2e44 9c3c 7b20 273d a511 b0be
00000350: 50b5 a03e 965f 5bbd 8362 a8bd 331d b43d
00000360: ca10 4cbe 21b5 e03d 344f ba3d 0aa4 c43d
00000370: 461d a0be f268 46be 50b6 8abe 4a60 c5bd
00000380: 858d 65be afa8 6fbe 48da 973d 7bb4 e1be
00000390: f962 45be e252 31be f8ca 433e 6a7a 423e
000003a0: 66fb 29be 4a05 03bf acea 2dbd 9297 f53d
000003b0: 203c 1e3c 21d0 31be 0a9d 9c3d fbf4 2c3c
000003c0: 093c 933d 85aa 9b3c daec 12be 05a3 b2bc
000003d0: 3fbf dfba 65a3 70be 8deb c1bc 211b 5bbd
000003e0: 066a 843e b2bf b0bd c5d7 153d 46dd 07be
000003f0: eb7d d43d 0a52 a13d 472b 0d3d 3af5 68bd
0.07591542 0.21745734 0.08395504 0.09739232 -0.33262473 -0.0800125 -0.11148105 -0.14829877
0.110439315 0.21511964 -0.16418438 0.1726881 -0.040018734 -0.1793038 -0.002154664 -0.018701114
0.13370813 -0.03020664 -0.0033607318 -0.40025172 0.14524233 0.025000215 -0.06238351 -0.32426193
-0.16264065 -0.05777695 -0.02771055 -0.3605146 -0.114953496 -0.06453042 0.0044856765 0.040321343
0.026313717 -0.07289463 0.13831115 0.04574862 -0.0054291617 0.048098397 -0.13039975 -0.21865404
0.07487428 -0.4595464 -0.39655334 0.0050134202 0.31328768 0.0030800859 0.09689868 0.059323467
-0.12379017 -0.019806013 -0.27794135 0.11366006 0.015035685 -0.1836773 0.10981332 -0.008044386
-0.26021358 0.0075517497 -0.42651835 -0.113849446 -0.36159235 0.18604533 -0.15402393 0.054612555
0.060927216 0.07218028 -0.1353718 -0.062422134 -0.29714075 -0.15742752 -0.025186252 0.024051713
0.08768574 -0.09465562 -0.33029908 0.017565606 -0.017414171 -0.09412881 -0.14363475 0.03603791
-0.3842256 -0.28173906 -0.08612134 -0.20202623 -0.3094336 -0.2527095 0.14398059 -0.23487969
-0.05956289 0.11492409 -0.15298103 0.09905595 -0.013689866 0.047474433 0.19836952 0.22900695
-0.25187135 0.026118346 -0.16188405 -0.03279077 -0.42655164 0.06234821 -0.18969786 -0.2056937
-0.4943857 0.010388959 -0.08608732 -0.3279681 0.052123852 -0.056216326 -0.39448088 0.19370309
-0.043092627 0.3283414 0.2019374 -0.08972537 -0.39968947 -0.043346338 -0.008937687 0.018064275
-0.39212787 -0.043601897 -0.13175395 -0.20386298 -0.44972098 0.08341417 0.034211632 -0.5488291
-0.06727075 -0.6126453 -0.19121861 -0.032915764 0.22117586 0.30201054 0.20287614 0.27440444
-0.106974885 0.19868806 -0.0061646868 -0.14071916 -0.33764973 0.00712605 -0.052407894 -0.10336909
-0.23493388 -0.1287487 0.13683984 0.33344242 -0.09262349 0.090923056 -0.25258496 0.16572456
-0.47033677 -0.26907086 -0.058833674 -0.06343594 0.1971277 0.260042 0.34632933 -0.32764867
-0.28421515 -0.045073856 -0.2690557 0.08543205 0.031780075 0.13410893 -0.24347785 0.060065955
-0.08732135 -0.004667399 0.044977184 -0.2682022 -0.13268842 0.29550576 -0.17964935 -0.06476033
0.120165184 0.08604097 0.16620022 -0.11437515 0.03959885 -0.30257848 -0.03403131 -0.07802202
0.114723355 -0.11412393 0.1477165 -0.21101534 0.15003529 0.09784284 0.34433767 0.31470114
-0.38104042 -0.3601144 0.15144552 -0.087098494 0.08672965 -0.106719464 -0.013537392 -0.044979993
-0.23028652 0.1467455 -0.17836757 0.05887699 -0.07795959 0.07226435 -0.018629523 -0.08564309
0.06175995 0.01907548 0.04080246 -0.34388462 0.3138833 -0.053557955 -0.082219146 0.08794632
-0.1992828 0.109720476 0.09097138 0.096016005 -0.31272334 -0.19375971 -0.27092218 -0.09637506
-0.22417267 -0.23404191 0.07414681 -0.44083008 -0.19276036 -0.17316774 0.19120395 0.1899201
-0.16599807 -0.51179945 -0.04246013 0.119918 0.00965789 -0.17364551 0.0764714 0.010556455
0.07189185 0.019002208 -0.14348164 -0.02180625 -0.0017070546 -0.2349983 -0.02367189 -0.05349267
0.2586214 -0.08630313 0.036582727 -0.13268003 0.103755794 0.07876976 0.0344651 -0.05687449

network.4.bias f4 [64]
00000000: 11ba 9bbc 2416 ac3d 6f43 ad3d 236c a53d
00000010: 3235 53bd 8798 85bd 492d aabd bce1 8abc
00000020: e991 68bd 7384 303d 144c 0c3c 2b31 9b3d
00000030: 3221 a8bd 6f0f 91bd 0705 99bc e176 d63c
00000040: d386 913d 7ab2 31bc 67a5 8f3d d794 d7bc
00000050: f247 85bc e72b 08bd af2d 1ebd 2f5f 0fbd
00000060: 992c a0bd d31b eebb fffe d0bc 6261 58bd
00000070: ec2c 86bd b50f aabd 7c0d afbc e1f8 95bd
00000080: b446 a23d d5ec b2bc 4efd b63c 4aed 80bd
00000090: 1ad0 3e3c 3ba8 a8bd 9a33 313d 6573 203d
000000a0: d294 babd db87 123d 40ea 433c 5dec 56bd
000000b0: 307c 3cbd 4b28 c03d 0581 36bd 31e5 a63d
000000c0: 3414 a23c 9ab3 273d cddc 2cbd f901 083d
000000d0: b9fa b93c 8a04 873d 2eba babd 99fb 0ebd
000000e0: e09d f13a 44ce 8dbd 0791 853c dcf3 6d3d
000000f0: da1f 623d 26ec 54bd cbc5 073d 0b3e 84bd
-0.019009622 0.084026605 0.084601276 0.08077266 -0.051564403 -0.06523233 -0.08309419 -0.016953342
-0.056779776 0.043095063 0.00856306 0.075777374 -0.082094565 -0.07083022 -0.018679155 0.026179733
0.07105794 -0.010845775 0.0701397 -0.02631609 -0.016269658 -0.033244994 -0.038617786 -0.035002884
-0.07821006 -0.0072665005 -0.025512217 -0.052827246 -0.06551537 -0.08303777 -0.021368735 -0.073228605
0.07923642 -0.021841446 0.022337582 -0.06295259 0.011646295 -0.082352124 0.0432621 0.03917255
-0.091104165 0.035774093 0.011957705 -0.052471507 -0.046016872 0.09382685 -0.044556636 0.081491835
0.019785024 0.040942766 -0.04220276 0.033205006 0.022702562 0.06592663 -0.09117542 -0.03490791
0.0018433891 -0.06924108 0.016304506 0.05809389 0.055206157 -0.05198302 0.033147614 -0.06457146

network.5.weight f4 [64]
00000000: 4ad4 8f3f 34d9 7b3f fd25 643f 820f 4a3f
00000010: 83bf 8c3f 37bf 703f 409e 7e3f 3087 833f
00000020: f97c 863f 4f94 703f 3cc0 8f3f 3062 8b3f
00000030: a66b 753f d76a 843f 6660 7e3f 8820 7a3f
00000040: 32ab 853f 523d 853f 945a 8e3f 3756 723f
00000050: 115b 8c3f a4c4 6e3f 5b7e 5f3f 163c 823f
00000060: 0a63 7b3f a75d 5c3f 98b2 863f e4d4 7b3f
00000070: 66ab 6a3f 645c 843f e774 853f a5fa 773f
00000080: b518 7b3f ad36 7f3f fec5 783f 8582 7c3f
00000090: c1d3 813f 8300 863f 1c62 903f f86a 6a3f
000000a0: ebd2 7b3f 4f5e 733f ae60 903f e4de 853f
000000b0: e82d 7c3f 874a 893f 5963 8a3f c9ca 833f
000000c0: aa1f 813f a2be 9c3f 6ded 733f cf90 8c3f
000000d0: a384 7e3f 4624 6b3f 7bba 883f 1941 883f
000000e0: 1074 783f 689e 4f3f 7826 7b3f 1e2d 7a3f
000000f0: a038 6a3f ae53 8e3f 7af1 813f 1af0 843f
1.123666 0.983783 0.89120466 0.78929913 1.0995945 0.9404177 0.9946022 1.0275631
1.0506889 0.939763 1.123054 1.088934 0.95867383 1.0345105 0.9936584 0.9770589
1.044287 1.0409338 1.1121392 0.94662803 1.0965291 0.932688 0.8730218 1.0174587
0.98197997 0.860804 1.0523252 0.9837172 0.91667783 1.0340695 1.0426301 0.9686683
0.98084575 0.99692804 0.9717711 0.98636657 1.0142747 1.0468906 1.1279941 0.9156947
0.9836871 0.9506578 1.1279504 1.0458646 0.9850755 1.0725869 1.0811568 1.029626
1.0087788 1.2245677 0.9528416 1.0981692 0.9942114 0.91852224 1.0681909 1.0644866
0.970521 0.81101084 0.98105574 0.97725093 0.9149265 1.1119287 1.0151818 1.0385773

network.5.bias f4 [64]
00000000: cff3 42be 28b9 7d3d 56ae 23be a171 23bf
00000010: 8b03 a2bd 9f89 c6bd 3307 4ebe e59e 49be
00000020: c85d cebc 6dcd 6cbe d8c4 f1bc d6e1 e03d
00000030: 4b85 65be d0f4 59bd 7cea f4be 07ea d5bd
00000040: 5af7 20be 22bf 0dbf 7d6c a0bd d31c 31be
00000050: 5471 0fbe a99c c3be ca17 503e 7a55 6bbe
00000060: a90d 0bbe 64dd b1bd 2b86 aabe 82ee c9be
00000070: cab7 debd e66f 36bd c503 abbe 8832 ffbe
00000080: 55f9 c4be 1311 633d f90d ae3c 04a9 2dbf
00000090: 2303 59be f290 ecbe 959f 8f3d 3e0a a0be
000000a0: f45b 6fbd c9ed c7be 25fa 84bc 6d61 e4be
000000b0: af12 29be 57ee 70be 5882 b8bd 317e 19bf
000000c0: 4b57 cabd 199e 9f3c 5c89 94be a346 29be
000000d0: d2b1 cfbe c63b 843d 3e57 dcbe 7530 27be
000000e0: d3cd 453e a367 0dbf 9162 f6be ec7a 573e
000000f0: 01ad 96be f191 483e 91da f2be eae3 46be
-0.19038318 0.061944157 -0.15984473 -0.6384526 -0.07910832 -0.09694218 -0.20119934 -0.1968952
-0.025191203 -0.23125239 -0.029512808 0.10980575 -0.22414128 -0.053211987 -0.47835147 -0.10445028
-0.15719357 -0.5536977 -0.078331925 -0.17296152 -0.14008075 -0.3820546 0.20321575 -0.22981825
-0.1357943 -0.08684805 -0.33305487 -0.3943978 -0.10874899 -0.04454031 -0.33401313 -0.4984324
-0.38471475 0.055436205 0.021246897 -0.6783602 -0.21192603 -0.46204334 0.0701286 -0.31257814
-0.058437303 -0.39048603 -0.01623256 -0.4460558 -0.16511033 -0.2352842 -0.09009236 -0.5995818
-0.09879931 0.019484567 -0.29011047 -0.16530852 -0.40565354 0.064567134 -0.4303531 -0.16327079
0.19316797 -0.5523626 -0.48122075 0.21042985 -0.29428867 0.19586922 -0.47432378 -0.1942288

network.5.running_mean f4 [64]
00000000: c0fc 2ac0 355d a3bf 58a7 0ebf 6c93 2a40
00000010: b078 8fbf 1057 8dbf b5c8 0140 4a6f 143f
00000020: 973e debe 72eb 4f3f 0fb6 dabf a0df 1ac0
00000030: 9534 81bf 6e06 06c0 91e9 21c0 d0ac 01c0
00000040: 93df 02c0 b630 c3bf ea2e 3bbf 1502 cdbf
00000050: 066f 26c0 9fdf 363f ed3d 2dc0 72d9 10bf
00000060: de5c c9bf 2f4e 0fc0 15b0 fbbf eb94 8cbf
00000070: d4ba 7cbf 5385 88bf 5cdc bbbf 538d 0b40
00000080: 44b4 80bf 4623 90bf 0802 a0bf 66fd 1140
00000090: 63a8 2cbf 4299 2dbf 4e26 46bf d29c 7cbf
000000a0: cc01 2dbf 766f 80bf 9ee0 bbbf 96e1 06c0
000000b0: de36 13c0 f6ba c9bf cc83 64bf 6d3e 5fbf
000000c0: 3e4a c7bf d936 9fbf 4dbd 053f 1a5f 99be
000000d0: 3e11 1940 e1b5 d2bf ef0d 89bf eaa2 b5bf
000000e0: 01bd 6fbf a8b8 0d40 8e37 3f40 6fbd 29c0
000000f0: e451 813f cc45 dfbf 4644 07c0 768c edbf
-2.6716766 -1.276282 -0.55724096 2.665248 -1.1208706 -1.1042194 2.0278752 0.57982314
-0.43407127 0.81218636 -1.708681 -2.419899 -1.0094172 -2.0941424 -2.5298808 -2.0261726
-2.044896 -1.524924 -0.7311846 -1.601626 -2.6005263 0.7143497 -2.7069046 -0.56581795
-1.5731466 -2.239147 -1.9663111 -1.0982946 -0.9872258 -1.0665687 -1.4676623 2.1805007
-1.0055013 -1.1260765 -1.250062 2.2810912 -0.6744444 -0.6781198 -0.774022 -0.9867679
-0.67580867 -1.0034015 -1.4677923 -2.1075187 -2.3002238 -1.5760181 -0.89263606 -0.8720463
-1.5569532 -1.2438613 0.52241975 -0.2995537 2.3916774 -1.6461755 -1.0707377 -1.4190342
-0.9364777 2.2143955 2.9877658 -2.652187 1.0103116 -1.7443175 -2.113542 -1.855849

network.5.running_var f4 [64]
00000000: 2f00 2441 5d76 fa40 a96b 8941 28e5 9d40
00000010: c6ac f140 e794 4041 4807 9540 7e0e e440
00000020: 131b 8c41 a60c a640 0c31 4241 9961 2f41
00000030: 5638 7041 b672 a441 0bda 5d41 5275 7141
00000040: 3da5 5d41 8c23 b740 1f99 e040 0a11 6441
00000050: 0966 3c41 fa08 d740 d662 3c41 9a9a 1541
00000060: 106e 8b41 33b7 bb40 1007 f140 edd8 f140
00000070: 7f8f 0041 0cb3 2041 e727 2041 874e c340
00000080: 7ffe 1241 341c 1541 86f7 1641 7108 da40
00000090: bff9 f640 167c c640 0068 4b41 24bb 5241
000000a0: ec92 0c41 0569 fe40 3b40 8a41 62eb 0341
000000b0: de5f 9041 7d78 7141 d71e 2041 39e9 c140
000000c0: 28d1 6a41 2199 3a41 96cf 2441 14e3 7a41
000000d0: b59a a040 d6a6 f640 70b8 0141 bbee 8041
000000e0: 2e4c b440 b6a5 b740 bf13 b440 7d64 6441
000000f0: ecd7 1041 3d31 4941 ccd4 2d41 5ec3 6f41
10.250045 7.8269486 17.177568 4.934223 7.5523405 12.036353 4.657139 7.126769
17.51322 5.189044 12.136974 10.961328 15.013754 20.556011 13.865733 15.091143
13.852841 5.723089 7.0186915 14.25416 11.774911 6.719846 11.77413 9.3502445
17.428741 5.866113 7.532112 7.55773 8.035033 10.043713 10.009742 6.103336
9.187133 9.319386 9.435431 6.8135304 7.7179866 6.202647 12.712891 13.170689
8.78587 7.95032 17.281363 8.2449665 18.04681 15.091916 10.007529 6.0597196
14.676064 11.662385 10.30068 15.680439 5.018885 7.7078657 8.107529 16.116568
5.6342993 5.7389784 5.6274104 14.274533 9.052715 12.574521 10.864452 14.985197

network.8.weight f4 [32, 64]
00000000: 9a0d 18bd 60e7 4cbe 3298 703e acd4 06bd
00000010: 7e82 f3bd d4c8 ec3d 844c e8bd 6a11 933e
00000020: 7518 083e 94b0 bebe 9e09 41be 3589 70be
00000030: edfc 813d 750d d03d ee7d 2c3e cc1d 6ebd
00000040: b25b 64be e590 48bd ecac 4a3e ada6 3c3e
00000050: 5512 83bd be9e 053e 0cd3 053e d485 c1bd
00000060: eda2 193e 301b c4be 9449 2abe de08 b93e
00000070: 2e2a 0fbd 3942 cbbd a9f6 aa3e 9b3e fd3d
00000080: 00d9 ba3e 5f67 ce3d 703f c7be e087 6ebd
00000090: d57d 28be be42 da3e 5057 d0bd 0e37 c53d
000000a0: 930c a33c 09cf 163e 5acb f23d 0b1d 51be
000000b0: 452a 833e 855e ad3d 0624 043e d7f6 28bd
000000c0: 7d20 493c 7dc4 e6be e7bc 7d3e 46bc 113e
000000d0: f50b 2abe 4980 ddbd aeb9 eb3e 6f35 5cbc
000000e0: cdfd a23c d5ac 203c 27aa da3c 757e 76be
000000f0: 4c6b dc3c 017b 413e 1c4f 613d d276 98ba
00000100: 8632 20be 9856 0bbe ce78 263e 47db 3f3e
00000110: ff79 24be 6871 06bd 6e90 0c3e 8d4b 753e
00000120: ab4d a13d 0b06 bbbe fb27 ea3d 794c efbe
00000130: 6427 9d3e dee0 15be 8688 05be 7b04 45be
00000140: 7917 10be 6ac7 3fbe ff81 da3d 000e e43d
00000150: ee61 a1bd 5c8b a03d ae86 18be 6389 30be
00000160: 8a67 ab3d fd5f 9e3d 87f1 a9be d5cf e9bc
00000170: 0537 7c3e 6887 9fbb e72a b23e 384f 263d
00000180: c497 9a3e 841b a43d 3da0 9fbe c39c 4f3e
00000190: ca9e 2abe 8b93 883e 6545 72be cdf0 623e
000001a0: 77bf 453e 9a7e 2b3e 0d5c ca3d 2fb4 3ebe
000001b0: 85cd 00bd 3941 a83e 3380 253d 5a50 31be
000001c0: 0caa 463e 8b9e e1be 70e1 9c3e 149e 3bbd
000001d0: a0f6 5a3e a76d 42be fd43 593e 55a9 15be
000001e0: d51e efbd 70be f63d ebba 7c3d aa0f a9be
000001f0: 500c 4e3d fb37 81bd c00d 3d3e eb25 ec3c
00000200: 4d12 9b3e 515a c53c effc 063d 340c 91bd
00000210: d71f dd3d db7a 42be 9db7 88be 8b04 1cbe
00000220: 7fb0 eb3c f768 99bd 327b 5bbc 7016 86bc
00000230: eb88 7e3e 6981 823d 026a 963e bee1 edbb
00000240: da92 723e 2b95 a63e 67a1 82be 5e7f a2bc
00000250: cda1 56bd 2866 b3be 2501 83be 1a23 503e
00000260: 99bf 093e 691b 2abe 9bf3 b03e c97b 2f3e
00000270: 5993 a2bd 2531 313e dcd4 183c 4f1d b5be
00000280: c553 163c 0c0c a2be 8231 e53d e07f 75be
00000290: f4de 293e fdae 90be 82d6 323e cec7 74bd
000002a0: 0b77 64bd 1053 a23c c3ee 9d3d 5ce7 4d3e
000002b0: c83c 8fbd f824 41be 60c2 413e 35e7 b83e
000002c0: 47c7 403c b1a1 263d 0f55 55be 3dcd 06bd
000002d0: df6d a9be 5887 53be 4cc8 863d a86e ef3d
000002e0: 33be 87be 733a 05be 2aab 43be 8fec 6d3d
000002f0: b2c8 11be 033e 80be ed2c 8e3e ad6e a13d
00000300: 8c32 6cbe 9a6f 613e 9f13 233e a2b0 003d
00000310: 3e27 25be 8ba0 c33d 062a 373e e7b2 81bd
00000320: 5816 1a3e 0eae 49bc 2d98 373e a3d7 cebe
00000330: a2e5 5c3e 3bbb 8f3e 3dff 13be 0a8a ddbe
00000340: a798 25be 37b3 37bd 3b4c 1b3d 9b85 033e
00000350: 2abd febd d093 0e3e 0eed 8c3d cb17 90bc
00000360: d1a4 9e3e 0e0a b1bd c019 61be d998 84be
00000370: abb0 923d 7e7f 1fbe 1a81 283e ccf6 523e
00000380: 47e8 073e 4daf 713e b3f0 80be 60ed bf3d
00000390: f93b 75be 083c 37bd bc6d c1be 6ced b83d
000003a0: 394e f0bd d1dc 833c 955b 673e 4ee2 0dbe
000003b0: e2de 4e3d c629 963d d550 853d f01c 51be
000003c0: 0845 2b3e 2d96 49be 645b ff3d db1e a43e
000003d0: d44b b83e a77c d53d e42e f23d edf6 45be
000003e0: faaf 453d bece c63d 8b9c 633e 1695 98be
000003f0: 9db6 2f3e ecdf bb3e fff9 8bbe a95e 85be
-0.037122346 -0.20010138 0.23495558 -0.032917663 -0.11890124 0.115617424 -0.11342719 0.28724223
0.1329058 -0.37244093 -0.18851325 -0.2348984 0.0634707 0.10158817 0.16844913 -0.058133885
-0.22300604 -0.048966307 0.19792527 0.18422957 -0.06399981 0.13048837 0.13068789 -0.09449354
0.15003558 -0.38301992 -0.1662963 0.36139578 -0.034952335 -0.0992474 0.33391312 0.12365457
0.36493683 0.1007831 -0.38915586 -0.05823505 -0.16454251 0.42629045 -0.101729035 0.096296415
0.019903457 0.14727415 0.118551925 -0.20421235 0.25618187 0.08465294 0.12904367 -0.04125103
0.012275812 -0.45071784 0.24779092 0.14231977 -0.16606124 -0.10815484 0.460401 -0.013440474
0.019896412 0.009806831 0.026692463 -0.24071677 0.026906632 0.18894579 0.055007085 -0.0011632091
-0.15644273 -0.13607252 0.16257021 0.18735991 -0.16062163 -0.032822996 0.1372697 0.23954602
0.07876142 -0.36528048 0.11433407 -0.46738032 0.30694115 -0.14636561 -0.13040361 -0.1923999
-0.14071454 -0.18728414 0.10669326 0.11135483 -0.07880007 0.07839081 -0.14895126 -0.17239909
0.08369358 0.07733152 -0.33192083 -0.028541485 0.24630363 -0.0048684366 0.34798357 0.040602893
0.30193913 0.08013061 -0.3117694 0.20274644 -0.16662136 0.26675066 -0.23659284 0.2216217
0.1931132 0.16747513 0.098808385 -0.18623422 -0.031446 0.3286226 0.040405463 -0.17315808
0.19400805 -0.4406627 0.30640745 -0.045805052 0.21383142 -0.18987142 0.21217342 -0.14615376
-0.116758026 0.12048042 0.061701696 -0.33019763 0.05030471 -0.063095056 0.18462276 0.028826674
0.302874 0.024090918 0.03295606 -0.07082406 0.107970886 -0.18992178 -0.26702586 -0.15236108
0.028770683 -0.074907236 -0.013396071 -0.01636812 0.24856918 0.06372339 0.29377753 -0.0072595766
0.23688832 0.3253568 -0.25513765 -0.019836124 -0.0524004 -0.35038877 -0.2558681 0.2032589
0.13451995 -0.16612019 0.34560856 0.17137064 -0.079382606 0.17303903 0.009328093 -0.35373923
0.009175246 -0.31649816 0.111910835 -0.23974562 0.16588956 -0.28258505 0.1746464 -0.05976086
-0.05577759 0.019814998 0.07711556 0.20107788 -0.06994015 -0.18861759 0.18921804 0.36113897
0.011766261 0.040681545 -0.20833229 -0.032910574 -0.33091637 -0.20657098 0.06581172 0.11691028
-0.26512298 -0.13010578 -0.19108263 0.058086928 -0.14236715 -0.2504731 0.2776865 0.07882438
-0.23066157 0.22015229 0.15925454 0.03141845 -0.16128251 0.095521055 0.17887124 -0.06332951
0.15047586 -0.012309564 0.17929144 -0.40398893 0.21571973 0.28072533 -0.14452834 -0.43269378
-0.16171513 -0.044848647 0.037914496 0.12843935 -0.12438424 0.13923573 0.06881152 -0.01758947
0.3098512 -0.08644496 -0.21982479 -0.25897864 0.07162603 -0.15575978 0.16455498 0.20601958
0.132722 0.23602028 -0.2518364 0.093714476 -0.23948659 -0.044734985 -0.37779033 0.0902966
-0.1173367 0.016096504 0.2259353 -0.1385586 0.050505526 0.073321864 0.06509558 -0.20421195
0.16725552 -0.19686194 0.12468603 0.3205479 0.35995352 0.10424166 0.1182535 -0.19332476
0.048263527 0.09707402 0.22227685 -0.29801244 0.17159505 0.36694276 -0.2733917 -0.26048782

network.8.bias f4 [32]
00000000: 447e 08bc 7019 abbd dd71 47bd ec92 9b3c
00000010: f698 52bd 40bc 3d3d 27c5 953c 2c98 dabd
00000020: 6f71 a13d cd15 68bd bebf 3fbd a2d2 52bd
00000030: ef93 453d cddc 02be 2c06 babd 6893 3d3d
00000040: dae5 2fbd 5a3a dbbc af86 dfbd a523 373c
00000050: 7591 5d3d 766e 4dbd 252f 5d3c d430 a63b
00000060: 2f69 acbc 76dc ce3d fffe f93c 69cc 6b3c
00000070: 1b5d c2bb 9f7a 653a 19dc 813d 8d8e 073c
-0.008330885 -0.08354461 -0.048692573 0.018990956 -0.051415406 0.046322107 0.018282486 -0.10673556
0.07882964 -0.056661416 -0.04681372 -0.051470406 0.048236784 -0.12779541 -0.090832084 0.046283156
-0.042943813 -0.026761223 -0.10914361 0.011177932 0.054093797 -0.050154172 0.01350001 0.0050717387
-0.02104625 0.10100643 0.0305171 0.014391997 -0.005931509 0.00087539287 0.063408084 0.008273733

network.9.weight f4 [32]
00000000: e85f 753f 14bf 853f 7cb8 853f e398 8c3f
00000010: 4566 7b3f cd77 853f 8415 803f 1bc9 8b3f
00000020: 4adf 753f 2d91 6d3f faf3 833f 99b3 813f
00000030: 3a89 943f c800 893f 9cb4 8f3f 0b20 8d3f
00000040: 57d6 863f b0b6 893f 8c5e 833f 16ca 7f3f
00000050: 8076 863f 2f42 8c3f df91 883f 41e0 8b3f
00000060: 39b3 873f 385b 833f 3520 7b3f 7755 863f
00000070: c751 8b3f 751e 8b3f b0c8 853f 301e 8b3f
0.95849466 1.0448937 1.0446925 1.0984157 0.98202926 1.0427185 1.0006566 1.0920748
0.9604384 0.92799646 1.0308831 1.0132934 1.1604378 1.0703363 1.1226993 1.1025404
1.0534161 1.0758877 1.0263228 0.99917734 1.0504913 1.0957698 1.0669516 1.0927812
1.060157 1.0262213 0.9809602 1.0494832 1.0884331 1.086867 1.045187 1.0868587

network.9.bias f4 [32]
00000000: 5381 0dbe a444 bcbb 292f c3be be50 cc3d
00000010: cbb5 1fbe 3cae 4bbd 44be 06be 058c 8f3d
00000020: 3149 47be 3a01 6dbd cf7c 153e fffd 6d3e
00000030: 84c0 7e3e 8c6b a6bd 4623 413d bc84 c0bc
00000040: b115 6ebe 5d18 4bbc 7ba1 47bc 258b 82bd
00000050: da63 f53d 0cc8 77be 11e8 e83d 70bb 9fbe
00000060: 0013 61be e313 97be 01e3 f53d c0ee 50be
00000070: 10e1 943d 86ef 9e3e 64ac 11be 9cce 253e
-0.13818865 -0.0057454873 -0.38121918 0.09976338 -0.15596692 -0.04972671 -0.13158518 0.070091285
-0.19461514 -0.057862498 0.14598392 0.23241423 0.24878126 -0.08125982 0.04715278 -0.023500793
-0.23250462 -0.012395945 -0.012184496 -0.06374196 0.11981936 -0.24197406 0.11372388 -0.3119769
-0.21979904 -0.2950736 0.12006188 -0.20403576 0.0726949 0.31042117 -0.14225918 0.16192096

network.9.running_mean f4 [32]
00000000: f226 723d 4a68 0fbf 18f6 a4be 9c2e be3d
00000010: 5f3a 183f cd27 653e 178d c8bf 027a a6be
00000020: 9d61 88bf ba79 66bf f996 35bd 032f e63c
00000030: 3c0a 9ebf 3fa6 183e 54f4 b7be ba07 823e
00000040: cd55 16bf 1ab6 0abf f992 88be 98f8 4e3f
00000050: 78e3 143e edb6 8ebf 8074 51be 0a66 c1be
00000060: 3ab5 38bf a242 96bf dcd9 2d3c a6ca 0fbf
00000070: d65d 08bf df07 28c0 1a2a 9fbf 0ace 00bf
0.059119172 -0.5601851 -0.32219005 0.09286234 0.5946407 0.22378464 -1.5668057 -0.3251496
-1.0654789 -0.9002949 -0.044333432 0.028098589 -1.2346873 0.14907168 -0.35928595 0.2539652
-0.5872467 -0.54184115 -0.2667463 0.80848074 0.14539897 -1.1149575 -0.20454597 -0.37773162
-0.7215153 -1.1739085 0.010611024 -0.5616859 -0.5326818 -2.6254804 -1.2434723 -0.5031439

network.9.running_var f4 [32]
00000000: 9e30 f440 6011 2941 0e46 f940 b0aa 7341
00000010: 9c56 f340 317f 6941 9ba6 4941 3b3c 6b41
00000020: 0c9b 2a41 92e9 9540 50c9 1341 ccdb 7a41
00000030: 52c3 5941 0df1 1741 5cb4 6541 01d8 4941
00000040: eb3d f940 df68 7641 f805 1e41 185e 2941
00000050: 7493 4641 2b88 3941 1f0e 8841 7fad ac40
00000060: 5440 f740 2f9a 2041 1fb8 5741 3fdb 0e41
00000070: 4d2e 5041 6389 ef40 ad38 5b41 ddbd 8041
7.6309347 10.566742 7.7898016 15.229172 7.6043224 14.593553 12.603175 14.702205
10.662853 4.684762 9.236649 15.678661 13.610186 9.49635 14.356533 12.615235
7.7888083 15.400603 9.876457 10.585472 12.410999 11.595744 17.006895 5.3961787
7.7266026 10.0376425 13.482451 8.928527 13.011304 7.485521 13.701337 16.092707
